CAPSTONE/CAPMODELS/output/model_GADG3.pth (torch, 22256 bytes, 7 tensors)

net_stack.0.weight f4 [64, 23]
-0.048045702 0.019232113 0.0121629685 0.19452113 -0.0034450104 -0.047692273 -0.019778755 -0.11182655
0.048265204 0.19672067 0.24180578 -0.074322775 -0.06528069 -0.06346594 -0.025211865 0.058367766
-0.02529116 -0.06540252 -0.0648623 -0.12556262 -0.011534442 -0.18506545 0.067935355 0.072052605
0.045038685 0.13789737 0.034269564 0.0056746653 0.02110273 -0.09369254 -0.06571867 0.17725159
-0.043679297 -0.116379656 -0.031032998 -0.264445 0.07102439 0.0067477496 -0.12263622 0.05989894
-0.053126615 -0.06178179 -0.23038918 0.003732572 -0.21072252 -0.083497226 0.22378099 0.09612283
0.30894682 -0.06306173 -0.011539374 -0.023258898 -0.1081021 -0.2692996 0.0758107 0.12692912
0.04429863 0.08447436 -0.11690222 0.0008627861 0.009645698 0.047329832 -0.15843023 -0.09625888
-0.11799572 0.058849115 -0.0011846052 0.101531066 0.029006533 -0.079274766 0.14976515 0.14827318
-0.1427219 -0.021127127 -0.00874914 0.07121059 -0.12307019 0.19284299 -0.009363744 0.028584935
0.035061363 -0.11231663 -0.10447984 -0.049990766 0.074868806 -0.12902889 -0.05312142 0.059536707
-0.20525046 -0.05229313 0.05673469 0.0140210735 -0.15962331 0.08215061 0.065867856 0.11119611
-0.12543976 -0.11081009 0.07619851 -0.019492004 0.066777095 0.013194444 -0.14358667 0.05666267
0.106055535 -0.2457957 -0.08422956 0.018904328 -0.1384303 -0.036589254 -0.05434199 -0.24326868
-0.18956533 -0.1940673 -0.04020501 0.0026208153 0.11031881 0.14225815 0.04727517 0.042193048
-0.19724514 -0.16234428 -0.20919703 -0.0478971 -0.008122761 0.020149285 -0.058344334 -0.14260027
-0.055060487 -0.057693943 -0.11408973 -0.20625812 0.027841577 -0.11690686 0.17256787 -0.0074992157
0.055477113 -0.015004427 0.12637536 -0.074184604 0.037441395 0.08430568 -0.005771574 0.1384799
0.22733082 0.04768468 -0.0836811 0.023747832 -0.014082151 0.04663092 -0.09912236 0.044067193
0.04092081 -0.11685193 -0.07858247 -0.08730351 -0.15318313 0.03916268 -0.12582013 -0.030493604
-0.06364432 -0.0310434 0.14921333 0.042850677 -0.05308839 -0.11783723 0.042252388 -0.17074554
-0.26696992 0.03589079 0.030381361 0.055298656 -0.12981623 0.101128675 -0.11291336 0.09518837
-0.075586855 0.04725006 -0.10859825 -0.16723533 -0.23337284 0.14360191 0.13737583 0.062146474
-0.022813525 -0.1846323 0.045088872 -0.10628913 0.1961907 0.11928178 -0.1802853 0.07730617
0.0107853385 -0.08249248 0.082775146 -0.09298443 -0.03262616 0.05726005 -0.20800044 0.18690465
-0.06441523 0.054158922 0.19949625 -0.007931298 0.17901011 -0.22068694 -0.032766685 0.04315821
-0.2631361 -0.0677487 -0.17333175 0.052229036 0.19693808 -0.011149103 0.05159664 -0.0653053
-0.06513521 0.10222572 -0.05817449 0.11875235 -0.05643398 0.009536713 -0.08228528 -0.04261886
-0.17016044 -0.026249884 0.13228919 -0.0012017781 0.031740826 0.0855994 0.053121597 0.05610956
-0.00546341 0.04143417 -0.1124021 -0.09923229 -0.123010494 0.0036944612 -0.04166887 0.018765021
-0.044178415 0.07538998 -0.10743299 -0.036171112 0.017980397 -0.016499143 0.04270033 0.085661516
-0.141167 0.15151556 -0.07760774 -0.16766319 -0.030233128 -0.06478315 -0.20250358 0.08012907
00000000: 92cb 44bd aa8c 9d3c 3047 473c 8c30 473e
00000010: afc5 61bb f958 43bd 0e07 a2bc 5105 e5bd
00000020: bcb1 453d 2571 493e ef9b 773e 8a36 98bd
00000030: e2b1 85bd 6efa 81bd 1d89 cebc 0a13 6f3d
00000040: 682f cfbc c2f1 85bd 87d6 84bd 7d93 00be
00000050: f5fa 3cbc cc81 3dbe b121 8b3d 5190 933d
00000060: 7c7a 383d f834 0d3e 3e5e 0c3d 8bf2 b93b
00000070: a2df ac3c e0e1 bfbd 8397 86bd 7181 353e
00000080: 10e9 32bd 7558 eebd ea38 febc 5665 87be
00000090: 3c75 913d 3a1c dd3b b328 fbbd 9758 753d
000000a0: 4b9b 59bd e70e 7dbd 24eb 6bbe 2b9e 743b
000000b0: a5c7 57be 9800 abbd d826 653e 0cdc c43d
000000c0: 472e 9e3e 8226 81bd a40f 3dbc 7289 bebc
000000d0: a264 ddbd a3e1 89be a442 9b3d b5f9 013e
000000e0: 7b72 353d e500 ad3d 6e6a efbd 982c 623a
000000f0: fd08 1e3c eddc 413d 893b 22be 6023 c5bd
00000100: bda7 f1bd c50b 713d c144 9bba 85ef cf3d
00000110: 1c9f ed3c cf5a a2bd 095c 193e edd4 173e
00000120: b125 12be cc12 adbc 8e58 0fbc dcd6 913d
00000130: 390c fcbd a278 453e 646a 19bc f42a ea3c
00000140: 819c 0f3d 4306 e6bd 87f9 d5bd 1ec3 4cbd
00000150: d154 993d 2620 04be d995 59bd c3dc 733d
00000160: 2d2d 52be 5231 56bd a262 683d a5b8 653c
00000170: 4b74 23be 943e a83d bae5 863d c9ba e33d
00000180: 4873 00be 67f0 e2bd f70d 9c3d b2ad 9fbc
00000190: 6ec2 883d 822d 583c 6208 13be 1e17 683d
000001a0: a533 d93d deb1 7bbe 8c80 acbd 40dd 9a3c
000001b0: acc0 0dbe 9dde 15bd b595 5ebd 6d1b 79be
000001c0: 6a1d 42be 94b9 46be 02ae 24bd fcc1 2b3b
000001d0: d4ee e13d 1fac 113e 9ca3 413d 9ed2 2c3d
000001e0: a1fa 49be 943d 26be bf37 56be c02f 44bd
000001f0: 5415 05bc 1d10 a53c 78fa 6ebd ce05 12be
00000200: 1b87 61bd 7c50 6cbd e0a7 e9bd 5435 53be
00000210: 0514 e43c dd6c efbd a2b5 303e fbbb f5bb
00000220: f83b 633d 21d5 75bc 8b68 013e 19ee 97bd
00000230: 265c 193d 75a8 ac3d 791f bdbb adcd 0d3e
00000240: 69c9 683e 0351 433d ff60 abbd d08a c23c
00000250: d3b8 66bc 1000 3f3d aa00 cbbd cd7f 343d
00000260: 949c 273d 1150 efbd d9ef a0bd 2fcc b2bd
00000270: 0adc 1cbe 0c69 203d fed6 00be b9cd f9bc
00000280: f457 82bd ba4e febc 61cb 183e 3184 2f3d
00000290: 3673 59bd a554 f1bd d710 2d3d ebd7 2ebe
000002a0: 48b0 88be 3902 133d 55e2 f83c d880 623d
000002b0: 8cee 04be 8d1c cf3d 1f3f e7bd 1ff2 c23d
000002c0: 48cd 9abd 4789 413d c268 debd bd3f 2bbe
000002d0: 4af9 6ebe 610c 133e 40ac 0c3e 4d8d 7e3d
000002e0: 6ee3 babc 4010 3dbe 1caf 383d 1eae d9bd
000002f0: 37e6 483e 024a f43d b69c 38be b252 9e3d
00000300: fdb4 303c d1f1 a8bd 0486 a93d 9f6e bebd
00000310: 02a3 05bd 8489 6a3d 11fe 54be ef63 3f3e
00000320: 22ec 83bd bfd5 5d3d bf48 4c3e 46f2 01bc
00000330: 6d4e 373e c2fb 61be 5c36 06bd aac6 303d
00000340: c6b9 86be d5bf 8abd e17d 31be 1dee 553d
00000350: 23aa 493e baaa 36bc 0057 533d c9be 85bd
00000360: 9c65 85bd b85b d13d 6048 6ebd 6f34 f33d
00000370: 5127 67bd e03f 1c3c 2f85 a8bd 1d91 2ebd
00000380: 8a3e 2ebe ff09 d7bc d176 073e fb84 9dba
00000390: ab02 023d bd4e af3d 0896 593d 23d3 653d
000003a0: 6806 b3bb e0b6 293d 1233 e6bd 4d3a cbbd
000003b0: edec fbbd c61e 723b faac 2abd 1ab9 993c
000003c0: 6df4 34bd 1066 9a3d d405 dcbd 2928 14bd
000003d0: a04b 933c 3629 87bc 8be6 2e3d 4e6f af3d
000003e0: 158e 10be e526 1b3e cff0 9ebd e6af 2bbe
000003f0: 77ab f7bc 07ad 84bd 195d 4fbe b61a a43d

net_stack.0.bias f4 [64]
-0.01751052 -0.04221498 -0.059200697 -0.033659182 -0.02196894 -0.052449416 0.0542884 -0.072629385
0.01906315 0.03392431 -0.028289098 0.046932373 0.0068555865 -0.039941754 0.021196444 0.014303646
-0.017686756 0.008904087 -0.025109122 -0.027399547 -0.027381256 0.05834591 0.057360925 0.016846836
-0.055911165 0.02743089 -0.047254827 0.025123626 -0.006090378 -0.023612235 -0.045129597 -0.012045927
-0.032702435 -0.03965834 0.064876504 0.022253927 -0.044258352 -0.0031788987 -0.040190462 -0.04214392
-0.005043648 -0.045646172 -0.03590129 0.01589846 -0.057712108 0.0163679 -0.020786583 -0.040530875
0.021761516 -0.014615323 0.047102056 -0.03999143 0.01717031 0.036359895 -0.05995186 -0.026787618
0.0427996 0.042031296 -0.029825263 0.010317876 -0.0131576145 -0.004092714 0.06266432 -0.029152071
00000000: 3972 8fbc 9de9 2cbd 6e7c 72bd 36de 09bd
00000010: 35f8 b3bc 33d5 56bd 835d 5e3d b7be 94bd
00000020: 532a 9c3c 38f4 0a3d 8abe e7bc 293c 403d
00000030: d4a4 e03b f799 23bd 2aa4 ad3c d759 6a3c
00000040: d1e3 90bc 73e2 113c a5b1 cdbc 0475 e0bc
00000050: a84e e0bc 1ffc 6e3d 4af3 6a3d 6002 8a3c
00000060: 1b03 65bd bfb6 e03c 478e 41bd 10d0 cd3c
00000070: cb91 c7bb 726e c1bc d0d9 38bd 485c 45bc
00000080: fdf2 05bd c970 22bd f9dd 843d de4d b63c
00000090: 3f48 35bd 1255 50bb c19e 24bd 1a9f 2cbd
000000a0: 3045 a5bb 7bf7 3abd 3b0d 13bd 7d3d 823c
000000b0: 8863 6cbd f915 863c a048 aabc b403 26bd
000000c0: 3545 b23c 1c75 6fbc 16ee 403d 0ece 23bd
000000d0: c0a8 8c3c 1dee 143d 1590 75bd b571 dbbc
000000e0: a24e 2f3d 0229 2c3d 1c54 f4bc 4f0c 293c
000000f0: 0993 57bc 2c1c 86bb 2756 803d 53d0 eebc

net_stack.2.weight f4 [32, 64]
0.021888306 0.036718618 -0.006300516 0.10102286 0.005834481 0.045564912 0.003961343 0.059686087
0.019395864 -0.04395086 0.10351788 0.12228984 -0.032318335 0.0476643 -0.012031553 -0.008650348
0.035883356 -0.16248253 0.17665538 -0.032805912 -0.03349007 0.029053384 0.069272 0.0062721465
-0.06031445 0.0834626 0.14220922 0.05756062 -0.0920376 -0.086227 0.04721464 0.18211475
-0.082102224 -0.07043001 -0.025657477 0.050137248 -0.06668955 0.109602354 0.047836006 0.056523923
-0.07249655 -0.13479303 -0.0029541035 -0.14702134 0.024469187 -0.18142547 -0.042924922 0.057762038
-0.0769828 -0.075000174 -0.045920175 0.12450199 0.14264332 -0.08037578 -0.040136766 0.09291162
0.07465551 -0.027670097 0.06475389 0.044187613 0.061478917 -0.07977802 -0.11473085 0.033727773
-0.09073865 0.043023106 0.13333091 0.030168736 -0.00045911543 -0.02207908 0.1459004 -0.044549067
-0.05866184 0.16583404 0.032269225 -0.051446393 0.036161583 0.044473775 0.1305188 0.1550905
-0.06611512 -0.049973942 -0.034845594 -0.015247415 -0.057666313 -0.06741554 -0.006746093 0.011387021
-0.03579802 -0.013614909 -0.041842815 -0.14644279 0.05974704 -0.0045125755 0.12301731 -0.07172777
-0.039916404 -0.19582002 0.070004694 0.09925209 -0.060576532 -0.007485052 -0.17408809 0.07354298
0.16005474 0.01872432 -0.0058560153 -0.047271933 0.010285729 0.08943444 -0.051901158 0.044587504
0.1781026 -0.06275214 -0.12708902 -0.070961356 0.09103025 0.09903533 -0.0035105327 0.10784243
-0.07390648 0.07418039 -0.009079668 -0.066423185 0.11559335 -0.009727668 0.078458875 -0.16142023
0.10785905 0.035797622 0.16358246 0.09442365 0.1804605 0.03696445 0.12021492 -0.10457304
0.08211918 -0.0623133 -0.085392855 -0.079603575 -0.10537916 0.111531615 -0.11724387 -0.14741978
-0.052767478 0.0999855 0.24299839 0.0018139413 -0.022204695 -0.09408763 -0.099279314 0.09845974
-0.007962869 -0.23877916 -0.0004032834 0.077641286 -0.053383216 -0.058664665 -0.13891898 -0.1073061
0.1332308 0.18980268 -0.02226344 0.064307824 0.03209616 -0.06354921 -0.20567958 -0.0108853765
-0.029886508 -0.07881658 0.05138258 -0.10676656 0.20201571 -8.490706e-05 0.119692616 0.020341653
-0.13672085 -0.04547478 -0.07730672 -0.0024130454 -0.049182177 0.17220554 0.07644004 0.063748136
-0.0033644743 -0.05524351 -0.107497185 -0.04991524 -0.020173637 -0.05732023 -0.18846425 0.11070635
-0.19601007 0.013729661 -0.07413179 -0.12172248 -0.07940255 0.046195198 -0.056027085 0.021604845
-0.021191197 0.15731941 -0.1459335 -0.049407054 -0.019457687 0.11776499 -0.053920176 -0.033116464
-0.1343993 0.038416415 -0.006920294 -0.023252292 -0.08126427 0.027867602 -0.021510815 -0.23861124
-0.17369348 0.063142695 0.17913927 -0.039871998 -0.08269521 -0.038380813 0.052061982 -0.044635966
-0.007952873 -0.15469527 -0.054228324 0.16760007 -0.07552273 -0.040825408 -0.048200805 0.04930241
-0.0039143823 -0.108254485 0.13241623 0.11360137 -0.018506741 0.0435304 -0.11150548 -0.07769005
0.108853735 -0.057643007 0.017981691 -0.1453626 -0.004922011 -0.115840524 0.033180337 0.0802541
-0.13054252 -0.04733237 0.0024874385 0.063271694 0.054886796 0.042289745 0.2214743 0.011699349
00000000: 1b4f b33c 4366 163d 8f74 cebb 13e5 ce3d
00000010: 2d2f bf3b 46a2 3a3d 27ce 813b 6679 743d
00000020: 13e4 9e3c d105 34bd 2f01 d43d 1873 fa3d
00000030: 3b60 04bd a43b 433d fe1f 45bc 30ba 0dbc
00000040: 6dfa 123d d261 26be 26e5 343e 7e5f 06bd
00000050: e22c 09bd 5d01 ee3c 7ade 8d3d 9486 cd3b
00000060: 490c 77bd 71ee aa3d 4b9f 113e afc4 6b3d
00000070: 367e bcbd c897 b0bd 2364 413d 4a7c 3a3e
00000080: 3625 a8bd 9c3d 90bd a12f d2bc b75c 4d3d
00000090: 8894 88bd 3377 e03d b0ef 433d a185 673d
000000a0: 1279 94bd 2f07 0abe a299 41bb c38c 16be
000000b0: 9b73 c83c 99c7 39be 0bd2 2fbd e397 6c3d
000000c0: 29a9 9dbd b199 99bd cb16 3cbd e6fa fe3d
000000d0: 1711 123e 0f9c a4bd 7366 24bd 7348 be3d
000000e0: fde4 983d 66ac e2bc b09d 843d 12fe 343d
000000f0: 51d1 7b3d a962 a3bd 02f8 eabd 2226 0a3d
00000100: 2fd5 b9bd ff38 303d e687 083e 6d24 f73c
00000110: 6eb5 f0b9 30df b4bc ea66 153e 1579 36bd
00000120: 6647 70bd 66d0 293e bc2c 043d 74b9 52bd
00000130: 2b1e 143d 222a 363d b8a6 053e 0bd0 1e3e
00000140: 5d67 87bd 7ab1 4cbd 41ba 0ebd 4bd0 79bc
00000150: 8333 6cbd 2911 8abd 540e ddbb a190 3a3c
00000160: f2a0 12bd 1111 5fbc 5f63 2bbd 19f5 15be
00000170: 50b9 743d 3ade 93bb 80f0 fb3d 02e6 92bd
00000180: 627f 23bd 0b85 48be 9f5e 8f3d ae44 cb3d
00000190: 191f 78bd 2b45 f5bb 2644 32be b49d 963d
000001a0: 64e5 233e bf63 993c d1e3 bfbb 37a0 41bd
000001b0: 7985 283c 6729 b73d 4f96 54bd 63a1 363d
000001c0: 8760 363e 3284 80bd a023 02be 3054 91bd
000001d0: 116e ba3d 09d3 ca3d f710 66bb 7edc dc3d
000001e0: 485c 97bd e3eb 973d e3c2 14bc e108 88bd
000001f0: 35bc ec3d cc60 1fbc 0caf a03d 584b 25be
00000200: 35e5 dc3d 87a0 123d 2982 273e 3061 c13d
00000210: a3ca 383e 0968 173d 3d33 f63d 642a d6bd
00000220: 1a2e a83d 3b3c 7fbd 73e2 aebd 3307 a3bd
00000230: 07d1 d7bd b06a e43d 8e1d f0bd 36f5 16be
00000240: b622 58bd 33c5 cc3d 92d4 783e c5c1 ed3a
00000250: 9fe6 b5bc 04b1 c0bd f452 cbbd 43a5 c93d
00000260: b176 02bc 8682 74be c86f d3b9 6502 9f3d
00000270: 5ca8 5abd 5c4a 70bd c740 0ebe 4dc3 dbbd
00000280: a86d 083e a25b 423e d161 b6bc d2b3 833d
00000290: 4377 033d 1726 82bd ab9d 52be 9458 32bc
000002a0: 8dd4 f4bc 966a a1bd 8a76 523d 6da8 dabd
000002b0: 35dd 4e3e 2110 b2b8 6721 f53d 8aa3 a63c
000002c0: 8d00 0cbe c343 3abd fc52 9ebd 2f24 1ebb
000002d0: 4073 49bd a656 303e 988c 9c3d 628e 823d
000002e0: 837e 5cbb 0547 62bd 7c27 dcbd ec73 4cbd
000002f0: 2f43 a5bc 9ec8 6abd c6fc 40be 03ba e23d
00000300: ddb6 48be 5ff2 603c 68d2 97bd a349 f9bd
00000310: ce9d a2bd 2d37 3d3d a87c 65bd a5fc b03c
00000320: 2999 adbc 5718 213e 976f 15be 0d5f 4abd
00000330: ba65 9fbc c52e f13d 67db 5cbd 21a5 07bd
00000340: f89f 09be 885a 1d3d a2c3 e2bb 977b bebc
00000350: e26d a6bd 994a e43c 7337 b0bc 8156 74be
00000360: b4dc 31be f550 813d 4970 373e d250 23bd
00000370: 1b5c a9bd 3335 1dbd f23e 553d 34d4 36bd
00000380: c44c 02bc 7068 1ebe 851e 5ebd 5a9f 2b3e
00000390: a9ab 9abd 8b38 27bd 356e 45bd 53f1 493d
000003a0: 3844 80bb 87b4 ddbd 1f98 073e d6a7 e83d
000003b0: 739b 97bc ef4c 323d fc5c e4bd f61b 9fbd
000003c0: b5ee de3d 131b 6cbd 574e 933c efd9 14be
000003d0: d248 a1bb cc3d edbd 1be8 073d 435c a43d
000003e0: f0ac 05be 96df 41bd 4b04 233b 9794 813d
000003f0: fad0 603d 0338 2d3d 29ca 623e a0ae 3f3c

net_stack.2.bias f4 [32]
0.012313963 -0.0018877296 -0.0067611467 0.0001228438 0.013697951 0.044493735 0.05569552 0.020108331
-0.04273172 -0.0024220557 0.06566756 -0.021314314 0.0011761782 0.022779139 0.01769575 0.05710084
0.014204718 0.030916393 0.060895972 0.07788981 0.05167881 -0.0039480175 0.00094908767 0.057636518
0.042458206 -0.020776425 0.03927283 -0.02018765 -0.03162926 0.030428344 -0.021199035 -0.005478159
00000000: 81c0 493c b26d f7ba 9c8c ddbb a2cf 0039
00000010: 5f6d 603c 103f 363d fc20 643d 3aba a43c
00000020: 7507 2fbd 5abb 1ebb b77c 863d 5b9b aebc
00000030: fe29 9a3a 519b ba3c adf6 903c 92e2 693d
00000040: e8ba 683c 6044 fd3c 0e6e 793d b184 9f3d
00000050: 29ad 533d 5f5e 81bb 32cc 783a 4514 6c3d
00000060: a8e8 2d3d 5233 aabc 8cdc 203d 9260 a5bc
00000070: af8d 01bd dd44 f93c 99a9 adbc 2182 b3bb

net_stack.4.weight f4 [32, 32]
0.048373766 -0.12641095 0.01733467 0.14407669 0.050379053 -0.29963744 -0.1275137 -0.08687711
0.1387745 -0.0623916 -0.25016135 0.0684058 -0.10406575 0.037608925 -0.37634432 0.021318084
0.0036122894 -0.034718424 -0.015078894 -0.07896785 -0.03650559 0.09597307 0.1254727 -0.26007894
0.08131638 0.058030616 -0.07884256 0.036221683 -0.076241225 -0.04978093 -0.02422242 0.10896599
-0.017456202 0.031410247 0.08584026 0.00057272497 -0.08977884 -0.017359342 -0.14486413 0.010575283
0.057228442 -0.037732307 -0.07315505 -0.048824295 0.08921219 -0.10455919 -0.055033278 -0.0552334
-0.0115933055 -0.2142123 -0.083367735 -0.04102057 -0.09422112 0.025373876 0.057559162 0.13004899
-0.1948533 0.022356994 0.12628725 0.07057662 -0.08477303 -0.021249676 -0.055740565 0.11740537
0.111415744 0.07300677 0.1492023 -0.1217072 -0.09638572 -0.26322004 -0.04972829 -0.16760962
-0.049885135 0.049287114 -0.08713408 -0.06594911 -0.06507663 0.038074072 -0.045967914 -0.16392815
0.055173624 -0.010605444 -0.15554783 -0.2981051 0.031689435 -0.10190949 -0.0035913489 -0.13605992
-0.106862545 -0.014016214 0.11950209 0.035616715 -0.14129233 -0.018469693 -0.070237264 0.0044199796
0.030267756 0.1085338 -0.034425445 0.020849954 -0.023170741 0.11817763 -0.01315689 0.05280595
-0.07123786 -0.027285645 -0.012992713 -0.08928949 0.085613705 -0.03789683 0.0835564 0.053446017
-0.13316055 -0.02746826 0.04610684 0.1493639 0.11799521 -0.021323035 0.10524615 0.20124543
0.08008159 0.093104996 0.034406744 0.036674585 0.010991604 -0.007627517 -0.06691777 -0.09167325
-0.048888024 0.1457742 -0.005303589 -0.060123872 -0.197626 0.0036484108 -0.20231228 0.119556375
-0.00036464864 0.08000404 0.04333522 -0.07400649 0.0740793 -0.13332559 -0.015296455 -0.019235706
-0.08256195 -0.058486268 -0.004952438 -0.044121914 -0.0064449357 -0.0075484356 -0.08182094 -0.23428315
0.032144163 0.14094009 -0.16392432 0.029542085 0.12314474 -0.17718288 0.0011671152 -0.024086365
-0.0625848 0.044872265 -0.06378779 -0.017110977 -0.07960334 0.14578824 0.17238452 -0.12186168
0.04809772 -0.013440935 0.09365154 0.019228963 -0.10460733 -0.14704093 0.13559744 0.06869003
-0.0060754404 0.12879382 0.022439262 0.14819458 0.041547794 0.06051925 0.1117832 -0.03790261
0.13781051 0.121894516 0.22724538 0.14206587 0.027626405 0.08487598 -0.057121437 -0.10661925
0.057351228 0.119982354 -0.004107914 0.11588138 -0.1507643 -0.1006284 -0.107276104 -0.037633084
-0.01397116 0.044582434 -0.24246754 0.026463639 0.061055418 0.022571009 0.08553948 -0.17717928
0.024325902 -0.13924736 -0.07410371 -0.049479894 -0.06634963 -0.11660082 0.07005806 -0.0831417
-0.051297966 -0.015492463 -0.20047173 0.22736631 -0.03564221 0.08086379 0.0602697 -0.08306179
0.13197914 0.07120627 0.043580174 0.089777306 0.1929922 0.20685495 0.06697577 -0.08464282
0.008691243 -0.035903607 0.115770586 0.06296419 -0.106937245 0.010549394 0.072328486 -0.0013454821
0.18706302 0.08228738 -0.0592648 -0.18928352 0.08793401 -0.1532397 0.04338267 0.15961647
0.09805952 0.041643795 -0.033459727 0.10528836 0.03490243 -0.025670636 0.042456802 0.08964831
00000000: 9223 463d df71 01be 7001 8e3c d788 133e
00000010: 445a 4e3d 146a 99be f492 02be a0ec b1bd
00000020: e71a 0e3e 568e 7fbd 2615 80be 5718 8c3d
00000030: 6d20 d5bd d10b 1a3d 34b0 c0be 43a3 ae3c
00000040: 29bc 6c3b e834 0ebd 770d 77bc e5b9 a1bd
00000050: e386 15bd 878d c43d ea7b 003e 1129 85be
00000060: 3489 a63d 83b1 6d3d 3578 a1bd 305d 143d
00000070: 5c24 9cbd 17e7 4bbd 196e c6bc 9029 df3d
00000080: 4f00 8fbc 08a8 003d 05cd af3d ec22 163a
00000090: f8dd b7bd 2e35 8ebc 4357 14be f443 2d3c
000000a0: 5f68 6a3d 318d 1abd 51d2 95bd fcfb 47bd
000000b0: e1b4 b63d 2123 d6bd 936a 61bd 6b3c 62bd
000000c0: d9f1 3dbc 785a 5bbe b4bc aabd 2f05 28bd
000000d0: 01f7 c0bd e0dc cf3c 28c3 6b3d 902b 053e
000000e0: a087 47be 0426 b73c 7251 013e 7a8a 903d
000000f0: 7b9d adbd cd13 aebc 3850 64bd 3a72 f03d
00000100: f02d e43d 9384 953d 7dc8 183e a041 f9bd
00000110: e065 c5bd c7c4 86be e4af 4bbd dba1 2bbe
00000120: 5b54 4cbd 49e1 493d 5a73 b2bd 5410 87bd
00000130: e546 85bd 8ff3 1b3d da48 3cbd c8dc 27be
00000140: bdfd 613d 75c2 2dbc ee47 1fbe 3ba1 98be
00000150: c8cc 013d ecb5 d0bd d65c 6bbb 4b53 0bbe
00000160: c0da dabd 43a4 65bc 83bd f43d d5e2 113d
00000170: f0ae 10be c14d 97bc 8ed8 8fbd 7ad5 903b
00000180: 16f4 f73c f846 de3d b201 0dbd 86cd aa3c
00000190: 91d0 bdbc 1d07 f23d ff8f 57bc 0d4b 583d
000001a0: 28e5 91bd 2586 dfbc 63df 54bc 68dd b6bd
000001b0: 3d56 af3d b539 1bbd 9e1f ab3d 36ea 5a3d
000001c0: 3d5b 08be 1e05 e1bc 87da 3c3d daf2 183e
000001d0: 79a7 f13d a5ad aebc 4b8b d73d 4813 4e3e
000001e0: d101 a43d d5ad be3d 16ee 0c3d 1738 163d
000001f0: 2116 343c 40f0 f9bb 2f0c 89bd 2fbf bbbd
00000200: cf3e 48bd d545 153e bbc9 adbb 7344 76bd
00000210: 785e 4abe 2d1a 6f3b f32a 4fbe f9d9 f43d
00000220: 502e bfb9 28d9 a33d 4680 313d b790 97bd
00000230: e3b6 973d 8186 08be fb9d 7abc 3394 9dbc
00000240: 3d16 a9bd 4c8f 6fbd 1048 a2bb 2eb9 34bd
00000250: 0a30 d3bb de58 f7bb bd91 a7bd ece7 6fbe
00000260: 99a9 033d 9952 103e c7db 27be 3e02 f23c
00000270: 4f33 fc3d 6e6f 35be e3f9 983a c550 c5bc
00000280: 762c 80bd fbcb 373d 2ca3 82bd 522c 8cbc
00000290: 1307 a3bd 8349 153e 9185 303e 9e92 f9bd
000002a0: 1d02 453d 5e37 5cbc 61cc bf3d 0f86 9d3c
000002b0: 5e3c d6bd e691 16be 0eda 0a3e 5cad 8c3d
000002c0: 7d14 c7bb 87e2 033e 8bd2 b73c 52c0 173e
000002d0: 052e 2a3d 08e3 773d 97ee e43d c43f 1bbd
000002e0: 331e 0d3e d5a3 f93d 03b3 683e b779 113e
000002f0: c550 e23c 75d3 ad3d 2bf8 69bd 315b dabd
00000300: 1fe9 6a3d 4fb9 f53d ae9b 86bb 3853 ed3d
00000310: f561 1abe 4316 cebd 93b3 dbbd 2625 1abd
00000320: 4be7 64bc 129c 363d 6949 78be 46ca d83c
00000330: 3f15 7a3d d6e6 b83c 532f af3d 7c6e 35be
00000340: 1d47 c73c dc96 0ebe b0c3 97bd 6eab 4abd
00000350: 51e2 87bd 69cc eebd 9a7a 8f3d 3246 aabd
00000360: d11d 52bd 19d4 7dbc 7648 4dbe b7d2 683e
00000370: 91fd 11bd ea9b a53d 5cdd 763d 4d1c aabd
00000380: 8a25 073e 98d4 913d 2081 323d 2add b73d
00000390: bf9f 453e c9d1 533e 982a 893d 3759 adbd
000003a0: b765 0e3c a90f 13bd 2119 ed3d 5ff3 803d
000003b0: ea01 dbbd 5ed7 2c3c f520 943d e35a b0ba
000003c0: 738d 3f3e 4986 a83d a6bf 72bd 8ad3 41be
000003d0: bf16 b43d deea 1cbe 07b2 313d 8072 233e
000003e0: 6ed3 c83d af92 2a3d 110d 09bd 6ca1 d73d
000003f0: daf5 0e3d 3a4b d2bc 2fe7 2d3d 8899 b73d

net_stack.4.bias f4 [32]
-0.0008193943 -0.026558643 -0.007445328 0.00095376873 -0.013513612 0.038421124 -0.0037257997 0.010736336
0.023093905 0.011587968 -0.008606659 -0.013178943 -0.0067159613 0.010226762 -0.013896894 -0.009733414
-0.012097752 -0.011781176 -0.015056831 -0.0090067005 0.026786983 0.008580337 -0.028785294 -0.002110978
0.006948885 0.0032194823 0.010088951 0.004704196 0.004039453 -0.0048231212 0.019960502 -0.00910506
00000000: 9fcc 56ba 8391 d9bc f0f7 f3bb 5606 7a3a
00000010: 3268 5dbc 785f 1d3d 8c2c 74bb 75e7 2f3c
00000020: 6e2f bd3c 76db 3d3c f202 0dbc 7eec 57bc
00000030: 9111 dcbb 268e 273c ccaf 63bc e678 1fbc
00000040: a635 46bc d505 41bc edb0 76bc d790 13bc
00000050: 6070 db3c 8b94 0c3c 23cf ebbc 5558 0abb
00000060: 79b3 e33b f3fd 523b 214c 253c a825 9a3b
00000070: 635d 843b 460b 9ebb 3584 a33c 642d 15bc

net_stack.6.weight f4 [1, 32]
-0.08057286 -0.17064248 -0.17547278 0.09179607 -0.10324773 0.09120504 -0.25118998 0.12709004
0.1572823 0.09774857 -0.12757078 -0.2505189 -0.15204328 0.10981867 -0.10650818 -0.055536047
-0.040002223 -0.13459928 -0.122552946 -0.14660579 0.18115228 -0.118844196 -0.094985776 -0.05835001
0.13181762 -0.18541306 0.10012795 0.1585064 -0.099585034 -0.11905045 0.06661499 0.13537312
00000000: 6203 a5bd e7bc 2ebe 23af 33be 94ff bb3d
00000010: 8c73 d3bd b5c9 ba3d f99b 80be e423 023e
00000020: 9c0e 213e 6730 c83d eaa1 02be 0344 80be
00000030: 3cb1 1bbe 9ce8 e03d f620 dabd c479 63bd
00000040: 5fd9 23bd 65d4 09be 0afd fabd d41f 16be
00000050: fc7f 393e 9664 f3bd e787 c2bd 6c00 6fbd
00000060: 33fb 063e ecdc 3dbe e20f cd3d 804f 223e
00000070: 3df3 cbbd b9d0 f3bd 716d 883d 409f 0a3e
