CAPSTONE/CAPMODELS/output/model_SUD5.pth (torch, 39394 bytes, 9 tensors)

net_stack.0.weight f4 [64, 23]
0	0x3e1c75b9	0.15279283
1	0xbdc62faa	-0.0967706
2	0xbe00b31d	-0.12568326
3	0xbcf15d8f	-0.029463558
4	0x3e48dd39	0.1961564
5	0x3d74d23f	0.05977082
6	0x3d965506	0.07340436
7	0x3d9277e5	0.07151774
8	0xbcf4dfa6	-0.0298918
9	0xbe0bc6ba	-0.13650027
10	0x3dc3ea00	0.09566116
11	0xbd8286b7	-0.06373351
12	0x3caa66a3	0.020800894
13	0x3cd29759	0.025706934
14	0xb9d4fb76	-0.00040623144
15	0x3dcd6e09	0.10030753
16	0x3d5b375b	0.053519588
17	0xbd94cdc2	-0.07265808
18	0xbdbd1fd9	-0.0923459
19	0x3e3b166c	0.18270272
20	0xbdcf2c72	-0.10115899
21	0x3e05060e	0.12990591
22	0x3d8bb450	0.06821501
23	0xbda05e2f	-0.07830464
24	0xbbef65e0	-0.0073058456
25	0xbdca82cc	-0.09888229
26	0xbd901dcf	-0.070369355
27	0x3d47f890	0.048821032
28	0x3d41241f	0.04715359
29	0x3de8d4cf	0.11368715
30	0x3e00fe3e	0.12596986
31	0xbdce43e0	-0.1007154
32	0xbe476679	-0.19472684
33	0x3dc7dcfb	0.097589456
34	0xbe052892	-0.13003758
35	0xbe4ecf54	-0.20196277
36	0xbde96985	-0.113970794
37	0xbcb15759	-0.021648096
38	0xbd99396d	-0.07481656
39	0xbc4aa812	-0.012369173
40	0xbdeec673	-0.11658945
41	0x3e26d95b	0.16293852
42	0xbd77d5b8	-0.060506552
43	0x3dc55a65	0.09636382
44	0x3d84393f	0.06456231
45	0x3dbfa3d5	0.0935742
46	0x3d4144c2	0.047184713
47	0x3becd20a	0.007227187
48	0xbd75703c	-0.05992149
49	0x3e118daa	0.14214197
50	0x3c0197e4	0.007909749
51	0x3d94790d	0.07249651
52	0xbc56e422	-0.013115915
53	0x3d51612a	0.051118053
54	0x3c08a266	0.0083395
55	0xbdf7fd5d	-0.12108872
56	0xbe14c805	-0.14529426
57	0x3d2f78e8	0.042839915
58	0xbd971ab1	-0.07378138
59	0x3e18f49f	0.14937066
60	0x3dc84822	0.09779383
61	0x3d4fba89	0.050715003
62	0x3d69d8ef	0.05709165
63	0x3d00fc4f	0.03149062
64	0x3d59e1ce	0.05319386
65	0x3d02b0ae	0.031906776
66	0xbdee9e36	-0.1165127
67	0xbc289839	-0.010290199
68	0xbe2d9299	-0.16950454
69	0xbc26e387	-0.010186083
70	0xbc486a8a	-0.012232432
71	0x3e188518	0.14894521
72	0xbdd22dfb	-0.10262676
73	0xbcb5703f	-0.02214825
74	0x3e1cd42f	0.15315317
75	0x3debd629	0.11515457
76	0xbcc0d632	-0.023539636
77	0x3d657f28	0.05602947
78	0x3ca1b031	0.019737335
79	0x3da10077	0.07861417
80	0x3b4f4398	0.0031625982
81	0x3c674e8c	0.014117848
82	0x3b033aea	0.002002413
83	0xbd803272	-0.06259622
84	0xbdb22938	-0.08699268
85	0x3b8199a8	0.003955085
86	0xbb63f620	-0.0034784153
87	0xbd8e4fa5	-0.06948785
88	0x3cac4fb6	0.021034103
89	0x3e42ccad	0.1902339
90	0x3d28fbbd	0.0412557
91	0x3b0e2701	0.0021690729
92	0xbe18400d	-0.14868183
93	0x3dd34677	0.103161745
94	0x3a30d500	0.00067456067
95	0xbe3fe5ed	-0.18740053
96	0x3c875ccd	0.016523743
97	0x3d250f49	0.04029778
98	0xbc87e620	-0.016589224
99	0x3dac3481	0.08408452
100	0xbbd9f949	-0.0066520316
101	0xbd07dba7	-0.03316846
102	0x3ca9f9dd	0.020749027
103	0xbe245a82	-0.16050151
104	0x3e1bd792	0.15218952
105	0xbc1dce4e	-0.009631706
106	0x3cbb8f8d	0.022895599
107	0x3da951dc	0.082675666
108	0x3d9ce2bb	0.07660433
109	0x3dbfeaec	0.0937098
110	0x3d6ef5b6	0.058339797
111	0xbd826eca	-0.063687876
112	0xbe0aed8a	-0.13567176
113	0xbd2be0b6	-0.041962348
114	0x3c956ff5	0.018241862
115	0x3d03c3e1	0.032169227
116	0x3e328cb6	0.1743649
117	0xbbcdc06f	-0.0062790434
118	0xbb6a18cf	-0.0035720353
119	0xbe1fea47	-0.15616713
120	0x3dfe90e4	0.124299794
121	0xbe9e2c13	-0.30893
122	0x3d381f1a	0.044951536
123	0x3d43652b	0.047703903
124	0xbc7e4425	-0.015519177
125	0x3dd754c1	0.105142124
126	0x3cb3c1a5	0.021942923
127	0xbdb5a2f9	-0.08868975
128	0xbe2a3b51	-0.1662419
129	0x3e0d9121	0.13824894
130	0xbde755b5	-0.11295644
131	0x3c581592	0.0131887365
132	0x3c96da21	0.018414559
133	0x3d0f3101	0.034958843
134	0x3d4ccd35	0.05000039
135	0x3bfa3ccc	0.007636642
136	0x3e989a39	0.29805163
137	0x3dd0e5f1	0.10200108
138	0x3cd4d582	0.025980715
139	0x3c61f4f9	0.013791316
140	0xbd669f00	-0.056303978
141	0xbd51c559	-0.051213596
142	0xbe10323e	-0.14081666
143	0xbdea5099	-0.11441154
144	0xbe4cf192	-0.20014027
145	0xbde7e3bf	-0.11322736
146	0x3cb8a669	0.022540288
147	0x3da6ab8c	0.08138189
148	0x3e022dd9	0.12712802
149	0xbb7185fb	-0.003685354
150	0x3da04eea	0.07827552
151	0x3d4b8f7a	0.049697377
152	0xbce8c078	-0.028412089
153	0x3d83101f	0.06399559
154	0xbc3ee719	-0.011651778
155	0xbceff124	-0.02928979
156	0xbc6ee006	-0.014579779
157	0x3df7cfa7	0.121001534
158	0xbcfe248b	-0.031023284
159	0x3dcb29c3	0.09920075
160	0x3d83aaef	0.06429087
161	0xbc9b7d5b	-0.018980673
162	0xbde24dfc	-0.110500306
163	0x3e2656af	0.16244005
164	0x3d85ff87	0.065428786
165	0xbdacb926	-0.08433752
166	0x3d3e5a74	0.04647298
167	0xbcf4ac60	-0.029867351
168	0x3d65cefe	0.056105606
169	0x3cdd7607	0.027033819
170	0x3d664bf0	0.056224763
171	0x3ae58543	0.0017511029
172	0x3d140c76	0.036144696
173	0x3e02b574	0.12764531
174	0xbdbe85ee	-0.09302889
175	0xbd7f4166	-0.06231823
176	0xbd86d06f	-0.06582724
177	0xbd4cff51	-0.050048176
178	0x3d9bd89f	0.076096766
179	0xbdd85a2c	-0.10564074
180	0xbc3f092d	-0.0116599025
181	0xbe061d43	-0.130971
182	0xbe024137	-0.1272019
183	0xbdee1c72	-0.11626519
184	0xbd03b6a5	-0.032156605
185	0x3d9d8880	0.07692051
186	0xbd566d6f	-0.052350458
187	0xbd0610da	-0.032730915
188	0xbe59d87b	-0.21273987
189	0xbe35c2a1	-0.17750026
190	0xbe076ba8	-0.13224661
191	0x3db69d5d	0.089167334
192	0x3dd014b1	0.101601966
193	0x3dd2063c	0.10255095
194	0x3b2ff3db	0.002684823
195	0xbe89065b	-0.2676266
196	0x3dcf4265	0.101200856
197	0xbd1bb852	-0.03801758
198	0x3e228504	0.15871054
199	0x3db5228c	0.0884448
200	0x3dff4afc	0.12465474
201	0x3d12e565	0.0358633
202	0x3db9be8d	0.09069548
203	0x3e260c5b	0.1621565
204	0x3d085135	0.03328057
205	0x3ccc7339	0.024957286
206	0xbc001f71	-0.007819996
207	0xbe6c3bb1	-0.23069645
208	0x3d7c3e40	0.061582804
209	0xbd589238	-0.05287382
210	0x3c970911	0.01843694
211	0xbdf9f4bc	-0.122048825
212	0xbcdcf678	-0.026972994
213	0xbd941b36	-0.072317526
214	0xbd7d9e8d	-0.061918784
215	0x3db27fc7	0.08715778
216	0xbb6c4314	-0.0036050724
217	0x3d6eac90	0.058270037
218	0x3d1a0476	0.03760191
219	0x3e361204	0.1778031
220	0xbdbb9b44	-0.09160474
221	0x3d977332	0.07395019
222	0xbda8f454	-0.08249727
223	0xbd7939e1	-0.060846213
224	0xbbeefe19	-0.0072934744
225	0x3e2fc789	0.1716596
226	0x3d1bc868	0.03803292
227	0x3b8a5677	0.004221733
228	0xbe1a5107	-0.15069972
229	0x3dd9a8f8	0.10627931
230	0x3e423ae5	0.18967779
231	0xbd916409	-0.07099158
232	0x3e0186f6	0.1264914
233	0xbd55bc18	-0.052181333
234	0xbe00f89f	-0.12594841
235	0xbd3dc183	-0.046327125
236	0x3e3e114d	0.18561287
237	0x3e09e876	0.13467583
238	0x3d9bbadd	0.07604001
239	0x3d325c40	0.043545008
240	0x3c8f078c	0.017459653
241	0xbe2a74fc	-0.16646188
242	0xbe168535	-0.14699252
243	0xbdca6416	-0.09882371
244	0xbcc5c7c4	-0.024143107
245	0x3da9a0cc	0.08282623
246	0xbe3cdf2a	-0.18444505
247	0xbcc6c708	-0.024264827
248	0x3e7a2293	0.24427252
249	0x3d8bf252	0.06833328
250	0x3e04b8d4	0.12961131
251	0xbda2aa38	-0.07942623
252	0xbddb2872	-0.10701074
253	0x3dbf7a8e	0.09349547
254	0xbd0e2305	-0.034701366
255	0x3e0bac63	0.13639979

net_stack.0.bias f4 [64]
0	0x3b1c148d	0.002381596
1	0xbc40d13f	-0.011768638
2	0x3bb86be6	0.005628097
3	0x3c32732d	0.010891718
4	0xbc2125e1	-0.009835691
5	0x3b71cd03	0.0036895878
6	0x3ba644d3	0.0050741225
7	0xb9ce98aa	-0.00039405125
8	0xbc7f8498	-0.015595578
9	0x3c63f1f9	0.013912671
10	0x3c512397	0.012764833
11	0xbc32b0f7	-0.0109064495
12	0x3c23fd4d	0.010009122
13	0x3be0a8b7	0.00685605
14	0xb9643fb8	-0.00021767511
15	0x3c96fa2e	0.018429842
16	0xbb0be78d	-0.0021347732
17	0x3be11fa9	0.0068702293
18	0x3c151f78	0.009101741
19	0xbb8f6e59	-0.004377168
20	0x3c2033bc	0.009777959
21	0x3bfd750f	0.0077349017
22	0xbb3e1392	-0.0029003364
23	0x3a75ce56	0.0009376755
24	0xbbef5add	-0.007304533
25	0x3a5b33a1	0.00083618803
26	0x3cc176a0	0.023616135
27	0x3c133086	0.008983737
28	0xbb504f18	-0.0031785425
29	0x3be8d878	0.007105883
30	0x3a742e21	0.0009314735
31	0xbb891db1	-0.0041844477
32	0x3be7893e	0.007065921
33	0x3b0e7f55	0.0021743376
34	0xbc7e4261	-0.015518756
35	0xbc356241	-0.011070789
36	0x3bb31a16	0.005465756
37	0xbbb2a93f	-0.0054523046
38	0xbb2c5816	-0.002629762
39	0x3b73883b	0.0037160057
40	0x3c0a9cf9	0.008460277
41	0x3b59303f	0.003314033
42	0x39d343b8	0.0004029551
43	0x3bbd6423	0.0057797595
44	0xbbbc72a5	-0.0057509714
45	0x3cc164cb	0.023607632
46	0xbbddcfea	-0.00676917
47	0x3b72dde1	0.003705852
48	0x3a938721	0.0011255482
49	0xbc7f36ef	-0.015577062
50	0xbb8e9dea	-0.004352321
51	0xb9d85d92	-0.00041268446
52	0x3c81f467	0.01586361
53	0xbc705523	-0.014668736
54	0xbc460322	-0.012085708
55	0x3c8107cd	0.01575079
56	0x3a510604	0.00079736137
57	0x3c316f48	0.010829754
58	0x3c7fbc58	0.0156088695
59	0xbbf22a40	-0.0073902905
60	0x3c3018f0	0.010748133
61	0x3aa6766c	0.0012700087
62	0x3ba8bb08	0.005149249
63	0xbb63c996	-0.0034757606

net_stack.2.weight f4 [64, 64]
0	0x3db76ca9	0.08956272
1	0x3d958574	0.07300845
2	0xbc377b3a	-0.011198813
3	0x3dbc8fdf	0.09207129
4	0x3d1116ef	0.03542226
5	0xbc32f8a3	-0.010923537
6	0xbc39dc57	-0.011344037
7	0xbe42e0b1	-0.19031025
8	0xbc60db08	-0.013724096
9	0x3da1fed8	0.07909936
10	0x3d638252	0.055544205
11	0xbd768d81	-0.060193542
12	0x3e6a50d3	0.22882394
13	0x3e08e7d4	0.13369685
14	0xbcb61d74	-0.022230841
15	0x3d9110cc	0.07083282
16	0x3d227df6	0.039670907
17	0xbe6b6689	-0.22988333
18	0x3d710902	0.05884648
19	0x3e3cac50	0.18425107
20	0xbcaae73a	-0.02086221
21	0x3e040206	0.12891397
22	0x3dac3e47	0.08410316
23	0xbd3191f8	-0.043352097
24	0x3c800ef4	0.01563213
25	0x3d8ca253	0.068668984
26	0xbcbe158b	-0.023203632
27	0x3d555e97	0.05209216
28	0x3da68531	0.08130873
29	0xbe15de8e	-0.14635679
30	0x3d31bcb9	0.04339287
31	0x3cfc2ab6	0.030782085
32	0xbd47531d	-0.048663247
33	0xbdc51481	-0.096230514
34	0xbdb6e035	-0.08929483
35	0xbc8a4476	-0.016878348
36	0xbd8eee69	-0.06979067
37	0x3d806b1b	0.06270429
38	0x3d406dc2	0.046979673
39	0x3c3d205f	0.011543362
40	0xbdb7c3cf	-0.089728944
41	0xbd99c935	-0.0750908
42	0x3e0f2cb9	0.13981904
43	0xbd961eb4	-0.07330075
44	0x3e1ff532	0.15620878
45	0x3da23b2e	0.07921444
46	0xbdc6af8d	-0.097014524
47	0xbde0dc47	-0.109795146
48	0x3e36b24a	0.1784145
49	0xbdb945d9	-0.090465255
50	0xbe7a6d1e	-0.24455687
51	0xbd697fc9	-0.05700663
52	0x3d95fb92	0.07323374
53	0x3e68a12d	0.22717734
54	0xbdd21dde	-0.10259603
55	0x3d94b872	0.07261743
56	0x3cf1a6d1	0.02949849
57	0x3e1ff212	0.15619686
58	0xbd5a8c76	-0.05335661
59	0x3e2e2179	0.17004956
60	0xbe06819c	-0.1313538
61	0xbe0c5a8b	-0.13706414
62	0x3de39e84	0.11114219
63	0x3af4a9d1	0.0018666332
64	0xbd94d99f	-0.072680704
65	0x3dcc1ab9	0.099660344
66	0x3cc9d442	0.024637345
67	0xbbff7ea2	-0.007797078
68	0xbb633d23	-0.0034673891
69	0xbc8e69bd	-0.017384404
70	0x3e898336	0.26857919
71	0xbd9c9d5e	-0.07647203
72	0xbd40e595	-0.047093946
73	0xbcd09489	-0.025461452
74	0x3e21c867	0.15799104
75	0x3dc5c0a7	0.09655886
76	0xbc111a6e	-0.008856399
77	0x3de273ff	0.11057281
78	0x3d1b531f	0.037921067
79	0xbd9850f6	-0.07437317
80	0xbe3cf92f	-0.18454431
81	0x3e75d053	0.2400525
82	0xbcfa7676	-0.030574065
83	0xba164c30	-0.0005733399
84	0x3d4cba89	0.04998258
85	0x3d07fcdb	0.033200126
86	0x3c9d821f	0.019227086
87	0xbc050ba5	-0.008120452
88	0x3c57bca0	0.01316753
89	0xbda15190	-0.07876885
90	0x3cb72fc3	0.022361642
91	0xbd7233d5	-0.059131462
92	0xbe130d0f	-0.1436045
93	0xbcd2b663	-0.025721734
94	0xbd6ae663	-0.05734862
95	0x3cd8aee8	0.02645059
96	0x3d247c0d	0.040157367
97	0x3d150dee	0.036390238
98	0xbdefe0a1	-0.117127664
99	0xbdc001d1	-0.093753465
100	0x3e1bdc54	0.15220767
101	0xbe5ff0b1	-0.2186916
102	0x3cad0cb1	0.021124216
103	0x3dc29715	0.09501473
104	0xbc9ae36b	-0.01890727
105	0x3dcea05f	0.10089182
106	0x3da5c1a0	0.08093572
107	0xbd69cbee	-0.057079248
108	0xbbcddeac	-0.006282648
109	0x3d802c98	0.062585056
110	0xbbcd104b	-0.006258046
111	0xbc34333a	-0.0109985415
112	0xbda17c43	-0.07885029
113	0x3dfc6ac1	0.12325049
114	0xbcce796d	-0.025204385
115	0x3e09645b	0.13417189
116	0x3c316819	0.0108280415
117	0xbd59fe3c	-0.053220972
118	0x3d83afa4	0.06429985
119	0x3e430201	0.19043733
120	0xbd0928fb	-0.033486348
121	0xba96f1d1	-0.0011516159
122	0xbd4334e8	-0.047657877
123	0xbc36bf10	-0.011153951
124	0x3e0ac9fb	0.13553612
125	0xbc9e1e08	-0.01930143
126	0x3ce79d89	0.02827336
127	0x3cc17001	0.023612978
128	0xbdba4bd6	-0.09096496
129	0xbb1614b5	-0.0022900526
130	0xbe2265e1	-0.15859176
131	0xbdebbd18	-0.11510676
132	0x3da8c576	0.08240788
133	0x3d4469de	0.047952525
134	0xbda649ae	-0.08119522
135	0xbc6740be	-0.014114557
136	0x3e22a136	0.1588181
137	0x3d937c64	0.0720146
138	0x3a1167dd	0.0005546788
139	0xbe0ed306	-0.13947687
140	0x3d6600cd	0.056153107
141	0x3d69d35d	0.057086337
142	0x3d59cd86	0.053174518
143	0xbd373edc	-0.04473768
144	0xbe02ac71	-0.12761094
145	0x3de1906f	0.11013877
146	0xbda9172c	-0.08256373
147	0x3ca17bb8	0.019712314
148	0xbdb2115e	-0.08694719
149	0x3df7cbcb	0.12099417
150	0xbe0f8ec5	-0.14019306
151	0x3a0c67d7	0.00053560495
152	0xbd298651	-0.04138786
153	0xbccd1b89	-0.025037544
154	0xbd261b4f	-0.040553387
155	0x3e2b4775	0.16726477
156	0x3dc2490f	0.09486591
157	0x3d2e639b	0.04257546
158	0x3df4b323	0.1194823
159	0x3cda5a12	0.026654277
160	0x3c969ab4	0.018384315
161	0x3e2693b6	0.16267285
162	0x3cc3df7d	0.023910278
163	0x3e135733	0.14388733
164	0x3d32c778	0.04364726
165	0xbd8d8679	-0.06910414
166	0x3e6d8f86	0.23199281
167	0x3dcddd91	0.10052026
168	0x3937d69e	0.00017532191
169	0x3dee35f0	0.116313815
170	0x3c1e1a92	0.00964989
171	0xbe37c92a	-0.17947832
172	0x3d198261	0.037477855
173	0xbc490851	-0.012270049
174	0x3e1cadfd	0.15300746
175	0x3d804b44	0.06264356
176	0xbc9a090c	-0.018803142
177	0x3cb5ae0c	0.022177719
178	0x3d7b5f65	0.061370272
179	0x3d9abe1d	0.075557925
180	0x3c5448f4	0.0129568465
181	0x3e48fc86	0.1962758
182	0xbd0b0323	-0.03393854
183	0xba8c347a	-0.0010696792
184	0x3b32db9e	0.0027291547
185	0xbdff7518	-0.12473506
186	0xbdff696c	-0.124712795
187	0x3dea6b23	0.11446216
188	0xbe271eab	-0.16320293
189	0xbea9bcd2	-0.3315187
190	0x3e879c16	0.26486272
191	0xbbd7da26	-0.0065872846
192	0x3cbf735c	0.023370437
193	0x3c8690f0	0.016426533
194	0x3c590863	0.013246628
195	0x3de34931	0.110979445
196	0x3d2b73b6	0.041858397
197	0xbd3769da	-0.044778682
198	0xbc5d4c5e	-0.013506977
199	0xbcc622aa	-0.024186451
200	0xbd7a4315	-0.06109913
201	0x3b929b94	0.0044741128
202	0x3d370dcc	0.044690892
203	0xbc2eead1	-0.010676102
204	0xbde52a57	-0.11189716
205	0x3d195ee0	0.037443995
206	0x3bef9fa6	0.0073127327
207	0xbe189be1	-0.14903213
208	0xbdd593ea	-0.10428603
209	0x3ddaef33	0.10690155
210	0x3e47f3c8	0.19526589
211	0xbd94593b	-0.07243582
212	0x3e112186	0.14172944
213	0xbd563be2	-0.052303202
214	0x3db8dd1f	0.090265505
215	0xbd26a860	-0.04068792
216	0xbe4e85fb	-0.20168297
217	0x3dc2dc0d	0.095146276
218	0xbcdb84b5	-0.026796678
219	0xbe12a09b	-0.14319079
220	0x3da0da03	0.078540824
221	0xbca2a09f	-0.01985198
222	0x3a56b9f8	0.00081911637
223	0x3ca40499	0.020021724
224	0x3dbe4652	0.09290756
225	0xbe1ca267	-0.15296327
226	0x3e7ca355	0.24671681
227	0x3d9c9fd4	0.07647672
228	0xbe15801c	-0.14599651
229	0x3e860e2c	0.26182687
230	0xbe0eb198	-0.13934934
231	0xbe09b7f0	-0.13449073
232	0x3d3ab63b	0.045583945
233	0xbd8f468c	-0.069958776
234	0x3c0162ba	0.007897073
235	0x3da51069	0.080597706
236	0x3c34d284	0.011036519
237	0x3e16897a	0.1470088
238	0x3d05b2c4	0.032641187
239	0xbc28b0f2	-0.010296093
240	0xbd34d607	-0.044149425
241	0xbd128bf0	-0.035777986
242	0x3d7ce020	0.06173718
243	0x3c9b62cb	0.018968007
244	0xbe11388a	-0.14181724
245	0xbc48cadf	-0.0122553995
246	0xbd03fe46	-0.032224916
247	0xbc628033	-0.01382451
248	0xbddf2031	-0.10894812
249	0xbc12baa8	-0.008955635
250	0x3dc464d7	0.09589546
251	0xbe0366cf	-0.12832187
252	0x3daafeae	0.083493575
253	0x3d701665	0.058615107
254	0xbde03882	-0.10948278
255	0x3ce065ce	0.027392294

net_stack.2.bias f4 [64]
0	0x3c4111af	0.011784001
1	0x3b80c172	0.0039293105
2	0x3a664e94	0.0008785513
3	0x3c5d2076	0.013496509
4	0xbc7324ba	-0.014840299
5	0x3c4d6b2f	0.012537762
6	0xbbf06256	-0.0073359413
7	0xbad3f030	-0.0016169604
8	0xbc301f6d	-0.01074968
9	0xbc59b7d9	-0.013288462
10	0x3b31c264	0.0027123922
11	0x3bc29712	0.005938419
12	0x392b7190	0.00016350136
13	0xbb599db1	-0.0033205564
14	0x3b6ac65b	0.0035823795
15	0x3c23ae63	0.0099903075
16	0xbc6ef293	-0.014584201
17	0xbbb97e54	-0.0056608114
18	0xbac861dd	-0.0015287955
19	0xbc83096a	-0.0159957
20	0xbc09799a	-0.0083908085
21	0x3c66147b	0.014042969
22	0x3be78563	0.0070654615
23	0xbbd40505	-0.006470325
24	0x3bf1e424	0.007381933
25	0xbc4e1165	-0.012577389
26	0xbca9570f	-0.020671396
27	0x3c31194f	0.010809257
28	0x3c65d452	0.014027672
29	0x3b9f2643	0.004856856
30	0x3c32bdc6	0.010909503
31	0xbbef856c	-0.0073096063
32	0x3c46fb85	0.012144928
33	0xbc9da885	-0.019245395
34	0xbb3d6f31	-0.0028905387
35	0x3b29f862	0.0025935401
36	0x3b657ea1	0.0035018104
37	0x3bb9a92d	0.0056659193
38	0x3ccca543	0.024981147
39	0x3a1a6635	0.0005889864
40	0xbbc1466b	-0.005898287
41	0x3c2f3710	0.01069428
42	0x3b803dc7	0.0039136144
43	0x3a3210d1	0.0006792667
44	0x3980a446	0.00024536456
45	0x3c8f1978	0.0174682
46	0x3bb3144d	0.0054650665
47	0x3c660ad9	0.014040672
48	0x3bd499d6	0.0064880652
49	0xbc3e6e4f	-0.011622979
50	0xbca865f5	-0.02055643
51	0xbc4a6a37	-0.012354425
52	0xba7373e8	-0.0009286986
53	0x3b675b03	0.003530205
54	0x3c0734e5	0.008252357
55	0xbc126002	-0.008934023
56	0x3bb687f8	0.005570408
57	0x3be54e87	0.0069978866
58	0x3aecd8a9	0.0018069941
59	0x3c75bf90	0.014999285
60	0x3bb07daa	0.005386074
61	0xbc9490d8	-0.018135473
62	0xbb558b41	-0.0032584222
63	0x3c20664b	0.009790014

net_stack.4.weight f4 [32, 64]
0	0xbe75837a	-0.23975936
1	0xbc1c22b9	-0.009529763
2	0xbe03e62b	-0.12880771
3	0xbd208657	-0.039190616
4	0x3d87dad7	0.06633537
5	0x3ce90779	0.028445946
6	0xbd2f4631	-0.04279155
7	0x3d2bf5f9	0.041982625
8	0xbe4cdb26	-0.20005473
9	0xbe1fa146	-0.15588865
10	0x3dc9364c	0.098248094
11	0x3bafd317	0.00536574
12	0xbde9876c	-0.11402783
13	0x3e0c9405	0.1372834
14	0x3da885f0	0.082286716
15	0x3d5f7ba2	0.054561265
16	0x3db33b8c	0.08751592
17	0xbd1eeca2	-0.03879989
18	0xbd0f02f2	-0.03491492
19	0x3e14741d	0.14497419
20	0xbc83ef57	-0.016105337
21	0x3def5d31	0.11687697
22	0x3d335b77	0.0437884
23	0xbd5c16ac	-0.05373256
24	0xbe2a577b	-0.16634934
25	0x3e1f5e21	0.15563251
26	0x3db45e38	0.08807033
27	0x3d370c01	0.044689182
28	0xbcf18bf8	-0.029485688
29	0xbb1ec00f	-0.0024223363
30	0xbe085ca2	-0.13316587
31	0x3db4dfa7	0.08831721
32	0xbaa9e846	-0.00129629
33	0x3db10c85	0.08644966
34	0x3d12c2a5	0.03583016
35	0x3bd47e3f	0.0064847763
36	0xbda039a9	-0.07823498
37	0x3da6f8ec	0.08152947
38	0x3b8fcc12	0.0043883407
39	0xbd729e08	-0.05923274
40	0xbdd0ec1f	-0.102012865
41	0xbdaf4ac4	-0.08559182
42	0xbc879986	-0.016552698
43	0xbcce8d37	-0.02521382
44	0xbc009931	-0.007849024
45	0x3d82e8fa	0.06392093
46	0x3e08dddd	0.13365884
47	0x3db6c426	0.08924131
48	0x3dab35cc	0.0835987
49	0x3e0b73e8	0.13618433
50	0xbe1d1445	-0.15339763
51	0x3deed00c	0.116607755
52	0xbde75b40	-0.112967014
53	0xbd87e826	-0.06636076
54	0xbcaf689d	-0.021412188
55	0x3e683397	0.2267593
56	0x3c584f9c	0.013202574
57	0xbddc3650	-0.10752547
58	0x3e17ee7e	0.14837071
59	0xbd2f44ea	-0.04279033
60	0x3e6d7c8f	0.23192047
61	0x3d9cbe30	0.07653463
62	0x3e0616df	0.13094662
63	0xbe182af0	-0.1486013
64	0xbdb703d4	-0.08936277
65	0xbd0d2c51	-0.03446609
66	0xbd9cd80a	-0.07658394
67	0x3d3bb99e	0.045831315
68	0x3e0e57c2	0.13900664
69	0xbe428082	-0.18994334
70	0xbdeb0bca	-0.11476858
71	0x3cec5781	0.028850319
72	0x3ca13396	0.019677918
73	0xbe1035f0	-0.14083076
74	0xbcb234db	-0.02175372
75	0x3d264789	0.040595565
76	0x3d65d969	0.05611554
77	0x3d28bf53	0.041198086
78	0x3e0417e8	0.12899745
79	0x3ccadcf4	0.024763562
80	0x3d6ff7e6	0.058586024
81	0xbcd0b333	-0.025476074
82	0xbe21e260	-0.15809011
83	0xbdac7f59	-0.08422727
84	0xbcb6cbfe	-0.022314068
85	0x3db3988f	0.087693326
86	0x3ccc5f9d	0.024947936
87	0x3d9e4921	0.07728792
88	0x3d000e21	0.031263474
89	0x3d9e5327	0.07730704
90	0x3d4363fc	0.047702774
91	0xbe430037	-0.1904305
92	0x3d9f3980	0.07774639
93	0xbcb22617	-0.021746678
94	0xbe3f5cab	-0.18687694
95	0x3e31b15c	0.17352813
96	0x3eaeb48f	0.3412213
97	0x3d76f3f0	0.06029123
98	0x3dcaecc1	0.099084385
99	0x3cde34f6	0.027124863
100	0x3c44c4bd	0.012009797
101	0x3cb30231	0.02185163
102	0x3d9d7e40	0.07690096
103	0xbe221d65	-0.15831526
104	0x3ca6384e	0.02029052
105	0x3d654a77	0.05597922
106	0x3cba2289	0.022721546
107	0xbe21bbbc	-0.15794271
108	0x3cd4a228	0.025956228
109	0x3cef976f	0.029247014
110	0x3dac7bc3	0.08422043
111	0xbdf4b716	-0.11948983
112	0xbda7a546	-0.0818582
113	0x3e09f21b	0.13471262
114	0xbe24c47c	-0.16090578
115	0xbd94b04d	-0.07260189
116	0x3d7c29d1	0.061563317
117	0x3dc19ec8	0.09454113
118	0x3da4b652	0.08042587
119	0x3dbb8238	0.09155697
120	0xbcfd2c32	-0.030904863
121	0x3da4c269	0.08044893
122	0x3e6facc1	0.23405744
123	0x3d98bc7b	0.07457825
124	0xbdf1310f	-0.11776935
125	0x3e236c79	0.15959348
126	0x3d3c87ca	0.046027936
127	0xbd900d11	-0.07033742
128	0x3d534bcc	0.051585957
129	0xbddd2010	-0.10797131
130	0x3e7cfeb0	0.2470653
131	0xbe508672	-0.20363787
132	0xbcb16b39	-0.021657573
133	0x3d156c07	0.036479976
134	0xbd52270b	-0.051306766
135	0xbc8b1dea	-0.016982038
136	0x3d4c7714	0.04991825
137	0xbd5fa1eb	-0.054597776
138	0xbd9f19c9	-0.0776859
139	0x3e66ac4c	0.22526664
140	0xbd817217	-0.06320589
141	0x3de69406	0.11258702
142	0xbc0cbcf2	-0.00858997
143	0xba0c733e	-0.00053577486
144	0x3e0e5d48	0.13902771
145	0x3b833780	0.004004419
146	0x3b55184f	0.003251571
147	0x3d5f2bb4	0.054485038
148	0x3da0e6d6	0.078565285
149	0xbd7e8b5e	-0.06214463
150	0xbcd16beb	-0.025564155
151	0x3b6a52ce	0.0035754922
152	0xbd4c3304	-0.04985334
153	0xbd959e6c	-0.07305607
154	0x3e51b1bf	0.20477961
155	0x3e790c6e	0.24321148
156	0xbd422b05	-0.047404308
157	0xbdf0a686	-0.11750512
158	0x3dabe558	0.08393353
159	0xbe2fe968	-0.17178881
160	0x3c17ae30	0.009257838
161	0xbe07508e	-0.13214323
162	0xbe25b152	-0.16180924
163	0x3d14e7ac	0.036353752
164	0x3e2ec005	0.17065437
165	0x3daa3105	0.08310131
166	0x3d874948	0.06605774
167	0xbd281069	-0.041031275
168	0xbcbd73b5	-0.023126462
169	0xbd2c377f	-0.042045113
170	0xbde79255	-0.113072075
171	0xbcf8b83c	-0.030361287
172	0xbd9a0be5	-0.075218
173	0x3e25dbec	0.16197175
174	0xbd9d6fa2	-0.07687308
175	0x3c07c452	0.0082865525
176	0x3d2efa5e	0.042719238
177	0xbe03323d	-0.12812133
178	0x3d0b732d	0.034045387
179	0x3de5f051	0.11227477
180	0xbd2b6d1e	-0.04185211
181	0xbdde3ad9	-0.10851068
182	0x3e408488	0.18800557
183	0x3d3141be	0.043275587
184	0xbe2f2966	-0.17105636
185	0x3dc1056c	0.09424862
186	0xbd53a734	-0.05167313
187	0xbca33b04	-0.019925602
188	0xbd479074	-0.048721746
189	0x3ce2f9a3	0.027706927
190	0x3c4ecc3a	0.012621934
191	0x3e2362e5	0.15955694
192	0x3cc23118	0.02370505
193	0xbdf1c7a1	-0.11805654
194	0x3e77f30e	0.24213812
195	0x3e717046	0.23577985
196	0x3d734894	0.059395388
197	0xbdb28521	-0.087167986
198	0xbde5f54f	-0.112284295
199	0x3d545c8a	0.051846065
200	0xbe387a57	-0.18015419
201	0xba171eea	-0.00057647994
202	0x3e8ac9a9	0.2710698
203	0x3df61010	0.120147824
204	0xbd551780	-0.052024364
205	0xbca08a41	-0.019597175
206	0xbe24b3d1	-0.1608422
207	0x3dd23e20	0.10265756
208	0xbe37f3cb	-0.17964093
209	0x3db043dd	0.08606694
210	0x3e347632	0.17623213
211	0x3df18713	0.117933415
212	0x3e177308	0.14789975
213	0x3cf228bb	0.029560437
214	0xbe225b69	-0.15855183
215	0xbb9581fc	-0.0045626145
216	0xbc9922dc	-0.01869338
217	0xbdc02a76	-0.09383099
218	0xbd25b55d	-0.040456165
219	0xbd3ddaf1	-0.046351377
220	0x3c4be4ec	0.012444716
221	0x3d5362c4	0.051607862
222	0x3d9361fc	0.071964234
223	0x3b7ae80a	0.0038285279
224	0xbcf1e8d0	-0.029529959
225	0x3d976954	0.073931366
226	0x3df17598	0.11790007
227	0x3e167ab0	0.14695239
228	0xbc3baeaf	-0.011455222
229	0x3e02045e	0.12696978
230	0x3c64c9b0	0.013964102
231	0x3e62d82c	0.22152776
232	0x3c86ae73	0.016440606
233	0x3e69704d	0.22796746
234	0x3d0af0aa	0.03392092
235	0xbe13b440	-0.14424229
236	0xbdc109e5	-0.09425715
237	0xbd80f7ab	-0.06297239
238	0x3d91b341	0.07114268
239	0x3e5c387c	0.21505922
240	0xbdc66b6c	-0.09688458
241	0x3e34ac78	0.17643917
242	0xbd56af4b	-0.052413266
243	0x3d7cb9ce	0.061700635
244	0xbdd8e1e0	-0.10589957
245	0xbc941f50	-0.018081337
246	0xbcd3076e	-0.025760379
247	0xbd44159d	-0.047872175
248	0xbcba0323	-0.022706574
249	0xbc055de0	-0.008140057
250	0x3d9f328e	0.077733144
251	0xbdee442c	-0.116340965
252	0x3d9f6996	0.07783811
253	0xbe890302	-0.26760107
254	0x3dacf217	0.084446125
255	0x3d85bd1f	0.065302126

net_stack.4.bias f4 [32]
0	0xbc8ecb4a	-0.01743092
1	0xbc1e3125	-0.009655272
2	0x3a1cdd19	0.0005983874
3	0x3ca26614	0.019824065
4	0x3c135ba8	0.0089940205
5	0x3c9acf2d	0.018897617
6	0xbab5abfc	-0.001386046
7	0xbc5a3c69	-0.013320067
8	0x3cceff3e	0.025268193
9	0xbc91c891	-0.017795833
10	0xbbd1ad89	-0.006398861
11	0xbc582602	-0.0131926555
12	0x3ca3f787	0.020015491
13	0x3c29fb0d	0.010374797
14	0xbc89b3bb	-0.016809335
15	0xbc44fca6	-0.012023127
16	0xbb8f776d	-0.0043782503
17	0xbcc21b2a	-0.023694593
18	0xbc80aab3	-0.015706396
19	0xba8ad2ea	-0.0010591422
20	0x3cbb76d1	0.022883805
21	0x3cb8ae19	0.022543954
22	0x3cebf51c	0.0288034
23	0xbc7c028f	-0.015381469
24	0x3ca277c6	0.019832503
25	0xbc943d8f	-0.01809576
26	0xb79436f4	-1.7668564e-05
27	0x3c6d7bf8	0.0144948885
28	0x3c2308af	0.009950801
29	0xbca7309a	-0.020408917
30	0x3be89638	0.0070979856
31	0xbb5ab9da	-0.0033374936

net_stack.6.weight f4 [32, 32]
0	0x3d222de9	0.039594565
1	0xbd13caf5	-0.036082227
2	0x3ddffd5e	0.10936998
3	0xbd896114	-0.06707969
4	0x3d2824e6	0.041050814
5	0xbe69c68a	-0.22829643
6	0x3d641104	0.05568029
7	0xba905de3	-0.0011014309
8	0x3d5b7a0f	0.0535832
9	0x3df1e7c7	0.11811786
10	0xbd35392b	-0.044243973
11	0x3e035456	0.1282514
12	0xbe047168	-0.12933886
13	0x3dee66dd	0.11640713
14	0xbd7ac9e2	-0.061227687
15	0x3d0b993a	0.034081675
16	0xbe7b9f22	-0.24572423
17	0x3d429f15	0.047514994
18	0x3d108f3a	0.03529284
19	0x3d86ffc0	0.06591749
20	0xbc95ec7d	-0.018301243
21	0x3db11790	0.08647072
22	0xbdb3c88d	-0.087784864
23	0x3d8e4c26	0.06948118
24	0xbd045aed	-0.032313276
25	0x3d5b36ad	0.05351894
26	0x3c3a4ff2	0.0113715995
27	0x3e03dc83	0.12877087
28	0x3de76ba5	0.112998284
29	0x3e1de29f	0.1541848
30	0xbc9bc2fe	-0.019013878
31	0x3d48ca27	0.049020912
32	0x3e783288	0.24238026
33	0xbd0878ab	-0.033318203
34	0xbe04d3d6	-0.12971434
35	0x3d22235a	0.039584495
36	0x3e0ace7a	0.13555327
37	0xbca0f289	-0.0196469
38	0x3d62a9ef	0.055337843
39	0x3d96c3ef	0.0736159
40	0xbe26015e	-0.16211459
41	0x3d6b754c	0.05748491
42	0x3e1095b6	0.1411961
43	0xbd598148	-0.053101808
44	0x3dc00c59	0.09377355
45	0xbd8f3c7c	-0.06993958
46	0xbc5dd6a6	-0.013539946
47	0xbe0fe67e	-0.1405277
48	0xbd9cb98c	-0.07652578
49	0x3e093a07	0.13401042
50	0x3de53307	0.11191373
51	0x3ca72df5	0.020407656
52	0xbdba99e1	-0.09111381
53	0x3dafc078	0.085816324
54	0x3e515861	0.2044387
55	0x3df6928c	0.1203967
56	0x3d7f1598	0.062276453
57	0xbe41a1f5	-0.18909438
58	0x3dae110d	0.08499346
59	0x3de984f8	0.11402315
60	0xbe553dec	-0.20824403
61	0x3db34945	0.087542094
62	0x39842c35	0.0002520994
63	0xbdf7307e	-0.12069796
64	0xbd63ebee	-0.055644922
65	0x3e06558e	0.13118574
66	0x3d51a1fb	0.051179867
67	0xbd088544	-0.033330217
68	0x3dd8df3f	0.10589456
69	0xbdcd83c5	-0.10034899
70	0xbc12a5ec	-0.008950692
71	0x3c6fa69c	0.014627125
72	0xbe0de68f	-0.13857482
73	0xbd51a275	-0.05118032
74	0xbd670238	-0.0563986
75	0x3e24c210	0.16089654
76	0x3e6b45d1	0.22975852
77	0x3dda338a	0.106543615
78	0xbd9acd28	-0.07558662
79	0xbe96592c	-0.29364908
80	0x3cfa52af	0.030557005
81	0xbd33eb35	-0.043925483
82	0xbd7ea56f	-0.06216949
83	0x3d87fc53	0.06639924
84	0x3ce0dbf0	0.027448624
85	0x3da5e01d	0.08099387
86	0xbdcd6471	-0.10028923
87	0x3df4c80e	0.1195222
88	0xbd8a549e	-0.06754421
89	0xbe36c04f	-0.17846797
90	0xbdcaa0cb	-0.0989395
91	0xbc8ef5e5	-0.017451236
92	0x3e0d743c	0.13813871
93	0xbd350751	-0.04419643
94	0xbdcab877	-0.09898465
95	0xbd927294	-0.0715076
96	0x3d02e26e	0.03195422
97	0xbd83c346	-0.0643373
98	0xbe45aaa0	-0.1930337
99	0x3d5c3d26	0.053769253
100	0x3dbd9c99	0.09258384
101	0xbde23230	-0.11044729
102	0x3c2eab54	0.010660965
103	0xbd03a740	-0.032141924
104	0xbcb4f601	-0.02208996
105	0xbe33f77c	-0.17574877
106	0x3d408d15	0.047009546
107	0xbb43a396	-0.0029852143
108	0xbdbddfbf	-0.09271192
109	0xbda726f6	-0.08161728
110	0x3dd7d694	0.105389744
111	0x3d6a51ca	0.057206906
112	0xbdb65a58	-0.089039505
113	0x3dff33d0	0.12461054
114	0xb913f65a	-0.00014110786
115	0xbbf6c46f	-0.007530741
116	0x3d2c8805	0.042121906
117	0x3bc0bd1b	0.005881918
118	0x3d889aba	0.06670137
119	0x3c5ecb88	0.01359833
120	0x3d1e2fa4	0.038619652
121	0xbdfaeff4	-0.12252799
122	0xbdce7bd9	-0.10082216
123	0xbc983d85	-0.018584022
124	0xb9cca41d	-0.00039032186
125	0xbd907c90	-0.070550084
126	0xbe389f4c	-0.18029517
127	0xbc81d778	-0.015849814
128	0xbd1bcf0f	-0.038039263
129	0xbd0b516c	-0.034013197
130	0xbbee82a9	-0.0072787595
131	0xbdb9be55	-0.09069506
132	0x3def85a0	0.11695409
133	0x3e29977d	0.16561694
134	0xbdc56e4a	-0.096401766
135	0xbd9c88c2	-0.07643272
136	0x3bdc37bb	0.006720511
137	0x3cf21584	0.029551275
138	0x3b9ab4cf	0.004721261
139	0xbd62a799	-0.055335615
140	0xbd695fa4	-0.056975976
141	0x3d82c2d8	0.0638482
142	0xbe06fc8b	-0.13182275
143	0xbe526e9b	-0.20550005
144	0xbd3fc37f	-0.0468173
145	0xbe443559	-0.19160976
146	0x3d02cfe5	0.031936545
147	0xbd3bb486	-0.045826457
148	0xbc3b2f7e	-0.011424897
149	0x3e1adfdd	0.1512446
150	0xbd74eec7	-0.05979803
151	0x3da7bfb0	0.08190858
152	0x3b1ceeee	0.0023946124
153	0x3dccad2c	0.099939674
154	0xbcdf8583	-0.027285343
155	0x3e2a6aa3	0.16642241
156	0xbdccab77	-0.09993642
157	0xbdc91131	-0.09817732
158	0x3d132b12	0.035929747
159	0xbcc149d9	-0.023594784
160	0xbd9fac29	-0.07796509
161	0x3c45ed75	0.01208054
162	0x3e05ac5a	0.13054028
163	0x3ceafba2	0.028684441
164	0xbe1bbbe5	-0.15208395
165	0xbc88576a	-0.016643245
166	0x3dd27cc7	0.10277706
167	0x3c0bfd6c	0.008544307
168	0x3e205075	0.15655692
169	0x3cff622a	0.031174738
170	0xbb9c9be7	-0.004779327
171	0xbc784766	-0.015153741
172	0xbca65c36	-0.020307641
173	0xbc881a6c	-0.016614161
174	0x3db843f0	0.08997333
175	0xbddff844	-0.10936025
176	0x3ca9a675	0.020709256
177	0x3d44be15	0.04803284
178	0xbcb31ae7	-0.021863414
179	0x3d7b05eb	0.06128494
180	0xbdd27202	-0.102756515
181	0x3c63c7ac	0.013902586
182	0x3c7658f9	0.015035861
183	0xbc29df6c	-0.010368209
184	0xbd5d05c2	-0.05396057
185	0x3bb6eec6	0.005582663
186	0xbe19735e	-0.14985415
187	0xbe0747b5	-0.13210948
188	0xbce2a2ec	-0.027665578
189	0x3d0a3efb	0.03375147
190	0xbe172134	-0.1475876
191	0x3db35261	0.08755947
192	0xbe58bbd7	-0.21165405
193	0xbdea81c2	-0.114505306
194	0xbdc0e363	-0.094183706
195	0xbcfce821	-0.030872406
196	0x3c008250	0.007843569
197	0x3dd0139a	0.10159989
198	0x3d84fbc2	0.064933315
199	0xbd9dd521	-0.07706667
200	0x3e33bfc9	0.17553629
201	0x3c171895	0.009222169
202	0x3a1ad6ea	0.00059066585
203	0xbd155047	-0.03645351
204	0x3d444462	0.047916777
205	0xbd95c1b7	-0.07312339
206	0xbc4d692a	-0.01253728
207	0x3d008f45	0.031386632
208	0xbde46788	-0.111525595
209	0xbd42a6fd	-0.047522534
210	0xbc312e4c	-0.010814261
211	0xbe0894d0	-0.13338017
212	0x3cbce503	0.02305842
213	0xbda820f6	-0.08209412
214	0xbd7bedf2	-0.06150622
215	0x3d07c18a	0.033143558
216	0xbda084b3	-0.0783781
217	0xbe1b85ee	-0.15187809
218	0x3e150d70	0.14555907
219	0x3e500d98	0.20317686
220	0x3e4bc0f1	0.1989782
221	0xbe622eb9	-0.22088136
222	0xbc6d5532	-0.014485644
223	0xbdd06fc3	-0.10177567
224	0xbdd3bb09	-0.103384085
225	0x3cb93c8f	0.022611884
226	0x3e18f891	0.1493857
227	0xbb9fefe7	-0.0048808935
228	0xbdd8304d	-0.10556088
229	0x3e2f3a6d	0.17112131
230	0xbe5ca88a	-0.21548668
231	0xbdcc79e1	-0.09984184
232	0x3d17ec18	0.03709039
233	0x3cc33cb7	0.023832662
234	0x3db21a64	0.0869644
235	0x3d3983bf	0.04529166
236	0x3dc12cac	0.094323486
237	0x3ca39e94	0.019973077
238	0x3d6e97f9	0.0582504
239	0x3defe579	0.1171369
240	0xbd65fe9c	-0.056151018
241	0xbdf61961	-0.120165594
242	0xbaf4f5d2	-0.0018688983
243	0x3da16a4c	0.07881603
244	0x3d93a6b1	0.07209528
245	0x3d5821de	0.052766673
246	0x3d15416f	0.036439355
247	0xbd22b6fe	-0.039725296
248	0xbdecdd2b	-0.11565622
249	0x3e055695	0.1302131
250	0xbe2c560e	-0.16829702
251	0x3dd0b654	0.10191026
252	0x3d61d2fd	0.055132855
253	0xbd48ec98	-0.04905376
254	0x3dfe6ad8	0.124227226
255	0x3dce93cd	0.100867845

net_stack.6.bias f4 [32]
0	0xbd052bda	-0.032512523
1	0xbccaff50	-0.024779946
2	0xbd01a04c	-0.03164701
3	0xbd2b7d32	-0.041867442
4	0x3d245796	0.04012259
5	0x3cd3ccfb	0.025854578
6	0x3cf1111c	0.029427104
7	0x3d1ad760	0.037803054
8	0xbd4a1eee	-0.049345903
9	0xbd2764c2	-0.040867575
10	0xbd1f0f9a	-0.03883324
11	0xbcdc4e6a	-0.02689286
12	0x3d0237e6	0.03179159
13	0xbd3b3d5a	-0.045712806
14	0x3cec3363	0.028833097
15	0x3cfbba53	0.030728495
16	0x3d76b63e	0.060232393
17	0x3d19e70a	0.03757385
18	0x3cea1092	0.028572354
19	0xbc9cda02	-0.019146923
20	0xbd049cb4	-0.032376006
21	0x3d16596b	0.03670637
22	0xbcdce137	-0.02696286
23	0x3cbf0d5a	0.023321796
24	0x3d133caa	0.035946526
25	0xbd197fba	-0.037475325
26	0x3ccc6ad2	0.02495328
27	0x394e54a8	0.00019677228
28	0x3cb437f6	0.02199934
29	0xbce6a4c4	-0.028154738
30	0xbcbe0630	-0.02319631
31	0x3cf8e027	0.030380322

net_stack.8.weight f4 [1, 32]
0	0x3e3f4329	0.18677963
1	0x3dcbd345	0.09952406
2	0x3cc51cd3	0.024061596
3	0x3dd61d79	0.1045484
4	0xbe02a83a	-0.12759486
5	0x3c6dc074	0.014511216
6	0xbe080497	-0.13283001
7	0xbd4d94fa	-0.050190903
8	0x3d7e1dda	0.062040187
9	0x3d48b706	0.04900267
10	0x3d3167d8	0.043311924
11	0x3e15245f	0.14564656
12	0xbe46e504	-0.194233
13	0x3d96f861	0.07371593
14	0xbcf82b29	-0.030294018
15	0xbdd155a4	-0.10221413
16	0xbd256c7e	-0.04038667
17	0xbe41860a	-0.18898788
18	0xbe166005	-0.14685066
19	0x3e83da6c	0.2575258
20	0x3d8cba77	0.06871503
21	0xbd6f8c0a	-0.05848316
22	0x3d96ecfc	0.0736942
23	0xbdcb6afa	-0.099325135
24	0xbcea5d2f	-0.028608887
25	0x3db6679f	0.08906483
26	0x3bcbf72e	0.0062245345
27	0x3ce0d406	0.02744485
28	0xbe53aebb	-0.20672123
29	0x3d6f4db0	0.058423698
30	0x3c83dc5a	0.016096283
31	0xbda9b537	-0.08286517
