CAPSTONE/CAPMODELS/output/model_ADHD5.pth (torch, 39408 bytes, 9 tensors)

net_stack.0.weight f4 [64, 23]
0.3266013 0.10551314 -0.06394144 -0.14157604 0.15693629 -0.017627507 0.048659034 -0.12789175
-0.0571958 0.112456925 0.31559822 0.06494698 -0.08305566 -0.05470693 -0.0632682 0.057668466
-0.08897168 -0.07547801 0.11529476 -0.00054286246 -0.07539657 0.10518745 0.022857817 -0.08115881
-0.045851808 0.12638937 0.13262516 0.021335851 -0.08410894 -0.06881878 0.13916865 0.07947994
-0.051078964 -0.13609909 0.034376442 -0.061876263 0.0044031637 -0.15408562 -0.07756825 -0.055938758
0.0063880836 0.01304272 -0.28775004 -0.079066 -0.11809799 0.05874381 0.13784562 -0.040134147
0.09461885 -0.029241629 0.07774072 -0.139952 -0.0028313592 0.076760866 0.09179969 -0.18208143
-0.054717317 -0.23035501 -0.011408273 0.019151852 0.013391992 -0.042066414 0.005570692 -0.023613885
0.021596132 0.13206148 -0.049890943 0.08837167 0.08116564 0.021266056 -0.10327 -0.07767256
-0.047312472 -0.16800635 0.08958909 0.016441274 0.021791264 -0.14450969 -0.16931856 0.16258012
0.047273073 -0.09045354 0.045643542 0.09789691 -0.016427942 -0.054789674 -0.038729038 0.036366235
-0.08718277 0.07799455 0.19384697 0.04375037 -0.15447971 -0.10228103 0.016166147 -0.04579003
-0.0084206 -0.0920241 0.008915799 0.110402144 -0.05922495 -0.0642509 -0.24331763 -0.0037353807
0.17795984 -0.14297363 -0.09095684 -0.051920827 0.1074774 0.16184296 -0.023002299 0.09410556
-0.034424856 -0.022249158 0.023057556 0.069659494 0.12660353 0.058199015 0.07263498 0.15097067
-0.023219856 -0.007195244 0.14665419 -0.03990088 -0.03247515 -0.03278094 0.014075068 -0.040686123
-0.004508857 -0.034986388 -0.09364428 0.22361751 0.1650599 -0.008912768 0.05047029 -0.019042157
-0.03634997 -0.061974023 0.010006002 0.11193114 0.020415576 -0.002275186 -0.02847867 -0.052481268
0.04611163 0.25532976 0.079953015 0.07652235 -0.0118671665 0.013818968 0.04425677 -0.10649853
0.08353551 0.10181553 -0.015687661 0.17268513 0.026979627 0.068704344 0.11771967 -0.022267496
-0.07457772 -0.031003194 -0.05676494 -0.021865966 0.16858542 -0.04185122 0.25876164 -0.1313992
0.064692 0.16660844 -0.15637997 -0.32480404 -0.14461958 -0.032273967 0.112212665 -0.12921962
0.025118146 -0.08018836 0.099763535 0.03662927 -0.046848472 0.11059364 0.13647194 0.06098188
0.010919033 0.05345936 -0.15188758 0.1675028 0.0055794227 0.11628446 -0.02392782 0.06546155
0.028656812 -0.11973224 -0.017174115 -0.13263078 -0.05378951 -0.099282876 -0.111079834 0.007356875
0.046939395 -0.00224198 0.1970613 0.007890505 0.07160399 0.049783554 -0.15910129 -0.005273894
0.0959882 0.15197912 0.010375619 -0.06738762 0.095186524 0.20918757 0.071975455 -0.0682422
0.094106376 0.12798338 0.057873927 0.034661096 0.1794213 -0.104774125 -0.113203675 0.012923025
-0.054668248 0.0029283958 0.12692551 -0.107232384 -0.01638905 -0.07125022 0.057311915 -0.1220366
0.23857152 0.012695233 -0.0056611258 -0.11641126 0.13562867 -0.010526234 0.14031619 -0.22735627
0.009437008 0.09504126 0.0001906273 0.09987262 -0.043675788 -0.073456794 0.1466166 0.08601318
0.0103168385 -0.030083885 0.052602246 0.017717017 0.19572504 0.0827204 -0.033513192 0.17240755
00000000: 4938 a73e 4617 d83d bbf3 82bd 4ff9 10be
00000010: e8b3 203e 9067 90bc b24e 473d 0ef6 02be
00000020: 2546 6abd d14f e63d 1796 a13e ec02 853d
00000030: 1619 aabd 6014 60bd c292 81bd c535 6c3d
00000040: c936 b6bd 3794 9abd a91f ec3d e24e 0eba
00000050: 8469 9abd 856c d73d 5140 bb3c 9736 a6bd
00000060: 1bcf 3bbd 376c 013e e4ce 073e 86c8 ae3c
00000070: 4f41 acbd dcf0 8cbd 3a82 0e3e 61c6 a23d
00000080: 2d38 51bd 8f5d 0bbe 50ce 0c3d f771 7dbd
00000090: 6a48 903b 9fc8 1dbe 1adc 9ebd 0a20 65bd
000000a0: 2153 d13b 22b1 553c f953 93be 5bed a1bd
000000b0: 5cdd f1bd 599d 703d 6727 0d3e b463 24bd
000000c0: 87c7 c13d 248c efbc 8736 9f3d 944f 0fbe
000000d0: 538e 39bb cd34 9d3d 7a01 bc3d 8e73 3abe
000000e0: 441f 60bd 2fe2 6bbe c4e9 3abc 58e4 9c3c
000000f0: 166a 5b3c d54d 2cbd 5a8a b63b e871 c1bc
00000100: 5fea b03c 203b 073e 725a 4cbd 35fc b43d
00000110: 2c3a a63d 2736 ae3c 397f d3bd cb12 9fbd
00000120: b9ca 41bd db09 2cbe 7c7a b73d daaf 863c
00000130: 9883 b23c 59fa 13be d861 2dbe 677b 263e
00000140: 69a1 413d b53f b9bd b9f4 3a3d 2d7e c83d
00000150: e493 86bc 236b 60bd 57a2 1ebd c3f4 143d
00000160: e18c b2bd 9bbb 9f3d d27f 463e 9733 333d
00000170: ee2f 1ebe b778 d1bd de6e 843c 548e 3bbd
00000180: 8ef6 09bc 2277 bcbd 9213 123c 851a e23d
00000190: dc95 72bd fa95 83bd 4228 79be 4acd 74bb
000001a0: 1b3b 363e ae67 12be 9447 babd efaa 54bd
000001b0: 1c1d dc3d 29ba 253e 516f bcbc 6aba c03d
000001c0: 1401 0dbd de43 b6bc 33e3 bc3c a3a9 8e3d
000001d0: 5ba4 013e 1762 6e3d a6c1 943d 0e98 1a3e
000001e0: 9137 bebc 15c6 ebbb 842c 163e 1b6f 23bd
000001f0: aa04 05bd 4f45 06bd 1d9b 663c 7ea6 26bd
00000200: 09bf 93bb e34d 0fbd 93c8 bfbd fdfb 643e
00000210: 7605 293e dc06 12bc efb9 4e3d 4cfe 9bbc
00000220: b5e3 14bd 79d8 7dbd 37f0 233c 273c e53d
00000230: 913e a73c 491b 15bb 1a4c e9bc 99f6 56bd
00000240: 8cdf 3c3d 95ba 823e 68be a33d c0b7 9c3d
00000250: 816e 42bc f468 623c 9646 353d e71b dabd
00000260: aa14 ab3d a984 d03d 6983 80bc 5fd4 303e
00000270: 6104 dd3c ddb4 8c3d 0317 f13d 536a b6bc
00000280: 34bc 98bd 69fa fdbc 5b82 68bd 4120 b3bc
00000290: a8a1 2c3e 2f6c 2bbd 687c 843e 838d 06be
000002a0: 3d7d 843d 679b 2a3e 1222 20be b74c a6be
000002b0: 2817 14be b531 04bd c1cf e53d 2652 04be
000002c0: 92c4 cd3c cb39 a4bd d350 cc3d 9308 163d
000002d0: 2fe4 3fbd eb7e e23d 4dbf 0b3e 23c8 793d
000002e0: bee5 323c 34f8 5a3d 6b88 1bbe db85 2b3e
000002f0: 97d3 b63b 8c26 ee3d 4704 c4bc b510 863d
00000300: b1c1 ea3c 2d36 f5bd bbb0 8cbc 5dd0 07be
00000310: 6452 5cbd d254 cbbd d37d e3bd f111 f13b
00000320: 8643 403d 2fee 12bb 70ca 493e 2d47 013c
00000330: 1da5 923d d7e9 4b3d 73eb 22be a1d0 acbb
00000340: 7695 c43d 6aa0 1b3e 80fe 293c 8502 8abd
00000350: 27f1 c23d 4435 563e de67 933d 91c2 8bbd
00000360: d8ba c03d 130e 033e 360d 6d3d cbf8 0d3d
00000370: 38ba 373e d193 d6bd 54d7 e7bd 18bb 533c
00000380: d0eb 5fbd 54ea 3f3b c3f8 013e a79c dbbd
00000390: 5442 86bc a3eb 91bd e6bf 6a3d 53ee f9bd
000003a0: 184c 743e abff 4f3c f780 b9bb 0769 eebd
000003b0: 3ee2 0a3e 3a76 2cbc 0caf 0f3e 15d0 68be
000003c0: ae9d 1a3c fea4 c23d 20e3 4739 048a cc3d
000003d0: 62e5 32bd 8470 96bd a922 163e ae27 b03d
000003e0: f507 293c 7b72 f6bc 7475 573d 4723 913c
000003f0: 256c 483e 5069 a93d 2145 09bd 9b8b 303e

net_stack.0.bias f4 [64]
-0.050588977 0.022698237 0.02433194 -0.0063139363 0.03500516 -0.004217665 0.056895003 0.08805642
0.06077391 -0.021290189 -0.005656311 -0.04824553 -0.07483261 0.042859696 -0.042890795 -0.030997673
0.0068073254 -0.0018624206 0.0015184055 0.03788746 -0.061706968 0.044449493 -0.0226479 0.006619997
0.026390426 0.036594056 0.049246654 0.014541214 -0.0378206 0.05505936 -0.060387366 0.031451043
-0.027694428 -0.012165178 -0.07988465 -0.049484305 0.011016575 -0.04834703 -0.0054005347 0.039747708
-0.030654935 0.038613006 -0.024357462 -0.029534075 -0.04513341 0.032844014 0.017994633 0.029148266
0.0017544947 0.035118446 -0.027925355 -0.043305244 0.00696085 -0.06853014 0.038368937 0.023791488
-0.044694766 -0.04799073 0.0014605287 -0.00012064227 0.050962083 -0.03851944 0.011051921 -0.040369153
00000000: 6336 4fbd a7f1 b93c c753 c73c 23e5 cebb
00000010: 9261 0f3d 5734 8abb bc0a 693d ed56 b43d
00000020: 10ee 783d c368 aebc 9358 b9bb 1b9d 45bd
00000030: d741 99bd a68d 2f3d 42ae 2fbd d5ee fdbc
00000040: fc0f df3b 771c f4ba 3c05 c73a e22f 1b3d
00000050: 72c0 7cbd ac10 363d 1788 b9bc 8fec d83b
00000060: bc30 d83c a6e3 153d dcb6 493d 463e 6e3c
00000070: c6e9 1abd ec85 613d be58 77bd cfd2 003d
00000080: 6ddf e2bc 7450 47bc 909a a3bd 0eb0 4abd
00000090: dd7e 343c 8907 46bd f8f6 b0bb 7ece 223d
000000a0: 0f20 fbbc ac28 1e3d 4d89 c7bc 72f1 f1bc
000000b0: cfdd 38bd 7287 063d 7b69 933c 58c8 ee3c
000000c0: 13f7 e53a 5cd8 0f3d b7c3 e4bc d760 31bd
000000d0: d817 e43b 8859 8cbd bf28 1d3d 5ee6 c23c
000000e0: dc11 37bd ed91 44bd 366f bf3a 5301 fdb8
000000f0: 9ebd 503d 8fc6 1dbd 1e13 353c 205a 25bd

net_stack.2.weight f4 [64, 64]
0.09246221 -0.05988644 0.05583171 0.11392619 -0.09425605 -0.07838283 0.051752813 -0.0854162
-0.074845076 -0.14473552 0.048473828 0.026972549 0.011552355 -0.001599635 0.25812328 -0.01361358
0.007667694 0.16386494 0.07871361 0.10159828 -0.1155188 0.024492383 0.11257908 -0.03100039
0.20168078 0.00663989 0.20062503 -0.14907074 0.038818505 0.008610591 0.024867551 0.01374399
0.0023465126 -0.05790898 0.13675424 -0.025451422 -0.009830484 -0.19639288 0.10092895 -0.13019274
-0.030551761 -0.058999024 0.12922806 -0.052675743 -0.11674942 -0.1586116 0.14301704 -0.16539581
-0.027121762 0.024532078 0.033285744 -0.16347644 0.12871584 -0.09315637 -0.052879144 -0.085176595
-0.0037894722 -0.13151363 0.1014081 -0.13152939 -0.1695753 0.09148293 0.019802239 0.13188785
-0.088270955 -0.13895886 -0.1912763 -0.11196203 0.23037207 -0.005171941 -0.04174857 -0.064328216
-0.030738292 -0.045447007 0.04358237 0.18340744 0.01681483 -0.019533994 0.05591584 -0.056423664
-0.10903216 0.20795658 -0.10856031 -0.12556317 -0.09457032 -0.0945941 0.10705422 0.044926204
0.097096555 0.1373585 0.09790117 0.14635259 0.024737716 0.004339806 0.11315309 -0.16031525
0.11764745 0.14999413 0.15617791 -0.12176029 -0.06904405 0.18755297 -0.1387201 -0.1349157
0.015337751 -0.075138636 -0.044366587 -0.05404749 -0.048343718 -0.12791498 -0.04432421 0.056229558
-0.11948864 -0.042512286 -0.03785949 -0.051554963 0.0712843 0.093778014 0.10338669 0.17258069
-0.1906822 0.17548929 -0.04248915 0.103984766 -0.148143 0.04037048 0.09356511 0.0076038134
0.17831117 -0.13367894 -0.010778686 0.20890376 0.036821276 0.065757684 -0.011787911 0.02118688
-0.07298687 0.16260645 -0.16231671 0.16091037 0.05305474 0.1496939 0.021125652 -0.11665949
0.011586399 -0.17783618 -0.08955168 -0.27840123 -0.21267587 0.05617801 -0.051790163 -0.048059087
-0.06954973 0.01896 -0.014434131 -0.03550729 -0.06009964 -0.041511063 -0.0006496592 -0.27033475
0.03418041 0.073361054 -0.117643885 -0.010607964 -0.0346776 0.07579753 -0.008352579 0.047770757
-0.030000132 -0.036478173 0.04767551 0.04315473 -0.19311875 -0.050949916 -0.029062124 0.1040563
0.13740797 -0.020126076 0.10896989 0.031134075 0.090663895 -0.017059965 0.019415038 0.14774913
0.03694087 0.20035736 -0.041731346 0.015921518 0.090499714 0.09758943 -0.056795415 -0.17340454
0.13393494 -0.05463165 0.035852198 -0.0025191929 0.03716924 0.15835121 0.14042039 -0.18685697
0.15568814 0.118295535 -0.026960758 0.106412366 0.0069149807 -0.024568163 0.14113441 -0.1222407
-0.0003169737 0.15627833 -0.042183395 -0.074305326 -0.010627516 0.06202505 0.010052526 -0.1314554
0.17377082 0.09441754 0.014216239 0.0037571322 -0.038278427 -0.056792848 -0.027279092 0.06994608
0.26752424 -0.0022591227 0.12516662 0.06490509 -0.006153892 0.054853413 0.0016985753 -0.029995304
0.03601874 -0.10693158 0.13864844 -0.10938614 0.10134132 -0.037480447 0.080609106 -0.067173705
0.007019898 0.07034732 0.022140136 0.045364838 -0.10869439 0.074907795 0.13774982 -0.008744093
0.03553542 0.13782391 -0.12105114 -0.16688241 0.030731922 -0.08005647 -0.012993078 0.05306127
00000000: d45c bd3d 7c4b 75bd cbaf 643d 2252 e93d
00000010: 5109 c1bd 2d87 a0bd c2fa 533d b0ee aebd
00000020: 6048 99bd 8c35 14be 7e8c 463d 89f5 dc3c
00000030: 1746 3d3c d8aa d1ba bc28 843e 7e0b 5fbc
00000040: 4741 fb3b 36cc 273e 9a34 a13d c212 d03d
00000050: 1f95 ecbd 40a4 c83c dc8f e63d 88f4 fdbc
00000060: 6885 4e3e 6f93 d93b a670 4d3e 00a6 18be
00000070: 2700 1f3d 7013 0d3c 09b7 cb3c 792e 613c
00000080: f3c7 193b f731 6dbd 4e09 0c3e 807f d0bc
00000090: 0a10 21bc 371b 49be d6b3 ce3d 3f51 05be
000000a0: b047 fabc f6a8 71bd 5c54 043e 85c2 57bd
000000b0: 521a efbd 146b 22be 0f73 123e 855d 29be
000000c0: 752e debc 7ff7 c83c a256 083d 5e66 27be
000000d0: 16ce 033e c4c8 bebd cd97 58bd 1171 aebd
000000e0: cb58 78bb 82ab 06be 0daf cf3d a4af 06be
000000f0: 26a5 2dbe 675b bb3d 4e38 a23c 9c0d 073e
00000100: 67c7 b4bd 3b4b 0ebe efdd 43be 594c e5bd
00000110: a8e6 6b3e 6379 a9bb 8c00 2bbd 83be 83bd
00000120: dfce fbbc a426 3abd 6d83 323d 29cf 3b3e
00000130: 41bf 893c c105 a0bc 0208 653d 801c 67bd
00000140: 414c dfbd 92f2 543e de54 debd a293 00be
00000150: 15ae c1bd 8dba c1bd 3e3f db3d 8a04 383d
00000160: 8fda c63d b5a7 0c3e 6980 c83d 74dd 153e
00000170: c0a6 ca3c ee34 8e3b cfbc e73d ae29 24be
00000180: 25f1 f03d 1098 193e 1aed 1f3e 755d f9bd
00000190: f866 8dbd e30d 403e a40c 0ebe 5727 0abe
000001a0: 314b 7b3c 49e2 99bd bdb9 35bd e760 5dbd
000001b0: 1004 46bd 25fc 02be 4e8d 35bd f750 663d
000001c0: 76b6 f4bd 5d21 2ebd 8d12 1bbd 4c2b 53bd
000001d0: 81fd 913d b00e c03d 67bc d33d feb8 303e
000001e0: 3242 43be 77b3 333e 1a09 2ebd f7f5 d43d
000001f0: ccb2 17be 845b 253d 109f bf3d 6929 f93b
00000200: 3497 363e 22e3 08be 1699 30bc deea 553e
00000210: e8d1 163d f7ab 863d 1522 41bc 1c90 ad3c
00000220: 247a 95bd 4e82 263e 5a36 26be b0c5 243e
00000230: ed4f 593d 5c49 193e b40f ad3c 2ceb eebd
00000240: e1d4 3d3c b01a 36be df66 b7bd 9b8a 8ebe
00000250: b4c7 59be ea1a 663d ec21 54bd 9bd9 44bd
00000260: 1770 8ebd 0052 9b3c 227d 6cbc 1870 11bd
00000270: 0a2b 76bd 8107 2abd e44d 2aba 5169 8abe
00000280: c200 0c3d 523e 963d 47ef f0bd 07cd 2dbc
00000290: 190a 0ebd bc3b 9b3d 41d9 08bc 45ab 433d
000002a0: d6c2 f5bc 236a 15bd 6547 433d 04c3 303d
000002b0: ecc0 45be dcb0 50bd b113 eebc 781b d53d
000002c0: adb4 0c3e 71df a4bc 9b2b df3d e30c ff3c
000002d0: fead b93d 57c1 8bbc 490c 9f3c 8c4b 173e
000002e0: 4f4f 173d 7b2a 4d3e 7dee 2abd d86d 823c
000002f0: ea57 b93d f8dc c73d 4fa2 68bd f690 31be
00000300: 3e26 093e 70c5 5fbd c1d9 123d 0b19 25bb
00000310: c63e 183d d226 223e 5dca 0f3e 6f57 3fbe
00000320: b66c 1f3e ee44 f23d cfdc dcbc baee d93d
00000330: 1097 e23b 2c43 c9bc 8a85 103e 5559 fabd
00000340: 7d2f a6b9 6d07 203e 7fc8 2cbd 642d 98bd
00000350: 081f 2ebc fb0d 7e3d 5ab3 243c 3f9c 06be
00000360: faf0 313e fc5d c13d 3aeb 683c 383a 763b
00000370: d7c9 1cbd 9e9f 68bd 6778 dfbc e43f 8f3d
00000380: f0f8 883e ca0d 14bb ae2b 003e f6ec 843d
00000390: 96a6 c9bb f9ad 603d bba2 de3a b6b8 f5bc
000003a0: 6388 133d f2fe dabd dbf9 0d3e d705 e0bd
000003b0: 0a8c cf3d 1985 19bd 6316 a53d 5e92 89bd
000003c0: 2c07 e63b 4112 903d 3b5f b53c 7bd0 393d
000003d0: 2a9b debd 4269 993d 4a0e 0d3e 6243 0fbc
000003e0: 978d 113d b621 0d3e a9e9 f7bd 39e3 2abe
000003f0: 83c1 fb3c a6f4 a3bd ebe0 54bc c656 593d

net_stack.2.bias f4 [64]
-0.031377204 -0.05460484 0.0125833135 -0.043210138 -0.03570903 -0.033916898 0.052737337 -0.034774087
0.016934358 -0.03104605 0.016833512 0.01739925 -0.0148850195 -0.024689471 0.03741517 -0.011026157
0.05445633 0.023352755 0.022662055 -0.032979243 0.055801757 0.042008027 -0.024894562 0.019524103
-0.042002127 0.030553738 0.009299833 0.05846584 0.034227706 -0.04438878 -0.00095116755 0.024666999
0.015401568 -0.04951887 0.04880413 -0.03758322 -0.027841682 0.05435344 0.02437821 -0.0048826733
-0.019394131 0.056230888 -0.033026714 0.043293558 -0.042127784 -0.052883793 -0.0073481705 -0.04977726
0.023941917 0.067958914 -0.042966433 0.050278474 0.02096543 -0.015151365 0.023991307 0.063077584
0.028271176 -0.04003607 0.002897186 0.042369496 -0.014620471 -0.03258503 -0.050243616 -0.060785543
00000000: 6285 00bd 53a9 5fbd 3e2a 4e3c 1dfd 30bd
00000010: a243 12bd 72ec 0abd 1b03 583d 466f 0ebd
00000020: ecb9 8a3c 4954 febc 6fe6 893c df88 8e3c
00000030: 4ce0 73bc 9341 cabc a640 193d 0ea7 34bc
00000040: 9a0d 5f3d 474e bf3c c6a5 b93c 3e15 07bd
00000050: 6290 643d 9c10 2c3d aeef cbbc 03f1 9f3c
00000060: 6c0a 2cbd d54b fa3c 545e 183c e079 6f3d
00000070: 5a32 0c3d 02d1 35bd c657 79ba 7212 ca3c
00000080: dc56 7c3c 4cd4 4abd d7e6 473d ddf0 19bd
00000090: 3d14 e4bc b6a1 5e3d d0b4 c73c d5fe 9fbb
000000a0: 71e0 9ebc 5c52 663d 0547 07bd 9654 313d
000000b0: 2f8e 2cbd ad9c 58bd ecc8 f0bb 3de3 4bbd
000000c0: d721 c43c 0b2e 8b3d 92fd 2fbd cdf0 4d3d
000000d0: b2bf ab3c 6e3d 78bc 6b89 c43c d22e 813d
000000e0: f498 e73c ddfc 23bd b7de 3d3b a38b 2d3d
000000f0: b38a 6fbc e177 05bd 40cc 4dbd 43fa 78bd

net_stack.4.weight f4 [32, 64]
-0.12390703 -0.07881652 0.06095848 0.005597079 0.09578792 -0.051851086 0.0177366 0.019099649
0.1566525 0.09466975 -0.058351338 0.107746445 0.026886798 -0.019488603 -0.007587718 0.0946279
-0.11135934 0.11618045 -0.10433113 0.07805786 0.124155134 0.032391347 -0.1528262 -0.074273504
-0.060409933 0.12615252 0.060500648 0.082633615 0.042899884 -0.0016983949 -0.18850827 -0.02227022
-0.15469424 0.028883556 -0.12987845 -0.08019345 -0.10931835 0.01842271 -0.18773921 0.12976137
0.17947665 -0.015906537 0.015669376 -0.06590052 -0.0015332833 -0.13192707 0.006574263 0.10772886
0.03171786 -0.0535795 0.14188784 -0.10708096 -0.07967716 0.08490847 -0.0072327675 -0.05572697
0.044852447 0.02523073 0.05243238 0.036346197 0.04134432 -0.15354875 0.094012305 -0.03703019
-0.16843456 0.07556291 0.10520999 0.0230363 0.04830479 -0.0077694 0.05869695 -0.11360225
0.065460205 -0.005849642 0.025674183 -0.024382757 0.15810244 0.058846377 0.06826517 0.08858795
0.15091754 -0.027879762 -0.106300965 -0.13509965 -0.26065102 0.043530505 0.0014576502 -0.12063834
0.068854764 0.1463974 0.012198338 -0.002895214 0.0006220433 -0.057005115 0.0678923 -0.035329286
0.09826536 -0.04901066 0.07847693 -0.054702904 -0.11449048 -0.122347035 -0.0077427756 -0.011212367
-0.06917181 -0.119338274 -0.028636616 0.05145087 -0.076259665 -0.008897301 -0.07070633 -0.105425976
-0.12877554 -0.01552509 -0.12268269 -0.14690247 -0.07580902 0.049715307 -0.07177082 0.04161918
0.010368557 0.16128308 -0.0069380067 -0.19299935 0.074410595 -0.08285728 0.10501222 -0.037798975
-0.0079335 -0.0035838077 0.011622684 -0.10586901 -0.15586288 0.06334452 -0.004739964 -0.054157984
0.17930305 0.14887461 0.103390366 -0.05944959 0.023732 0.08387135 -0.11519805 -0.1112174
0.043533947 0.048826195 0.012644488 -0.07256812 -0.11402773 0.055961963 -0.20013906 0.09202683
-0.050911132 0.18839172 -0.21429709 0.1267828 -0.07381199 -0.07761857 -0.1267584 0.12587506
0.0027863632 -0.043072626 -0.029291146 -0.13865837 0.12805109 0.060623888 -0.05219606 0.0009760934
-0.0575847 0.012460492 -0.10868469 0.08028472 0.11315124 -0.22556263 -0.073964216 0.2129857
0.00592512 0.07665506 -0.29436508 -0.09184369 -0.04951541 0.05038789 -0.033999268 -0.04208437
-0.110584974 0.022555498 -0.18354903 0.08103218 -0.00532508 0.099002995 0.04001719 -0.004095035
-0.025048278 0.04339539 0.012081834 -0.042381126 0.059335668 -0.025919681 -0.041347414 0.054363888
0.13308568 0.04647112 0.09204349 0.025789255 0.04329401 0.053948954 -0.09308286 -0.13855706
0.18503603 -0.100049905 0.0042530242 0.025159966 -0.061118823 -0.023595124 0.18104301 0.0068885605
-0.26011264 0.032658003 -0.09534401 0.11841247 -0.017998911 -0.10398303 -0.11348583 0.10996239
0.007991429 -0.10200884 -0.1048626 -0.050506826 -0.0044609136 -0.009433701 0.004091286 0.10461263
0.025004823 -0.026411774 0.06382675 0.06546074 0.002422456 -0.029796079 0.16330397 0.014056196
-0.076779 0.21306387 0.021571493 0.007383112 -0.13953201 0.008962295 0.16685686 0.015898144
0.17439903 -0.13634038 -0.11521577 0.18362196 -0.12256608 -0.12568863 -0.19327347 -0.15061925
00000000: f8c2 fdbd 8e6a a1bd 99af 793d b467 b73b
00000010: 752c c43d ce61 54bd 594c 913c de76 9c3c
00000020: 8369 203e 37e2 c13d d001 6fbd 2baa dc3d
00000030: b441 dc3c 90a6 9fbc 64a2 f8bb 46cc c13d
00000040: 5e10 e4bd 04f0 ed3d 8fab d5bd cddc 9f3d
00000050: 0c45 fe3d caac 043d 797e 1cbe b51c 98bd
00000060: 6870 77bd 202e 013e 87cf 773d d03b a93d
00000070: cab7 2f3d ad9c deba 5008 41be 0970 b6bc
00000080: 2b68 1ebe 359d ec3c dbfe 04be 773c a4bd
00000090: 4de2 dfbd 39eb 963c b53e 40be 2ae0 043e
000000a0: bac8 373e 6d4e 82bc 105d 803c daf6 86bd
000000b0: 73f8 c8ba e417 07be ea6c d73b f3a0 dc3d
000000c0: 96ea 013d 2e76 5bbd 0c4b 113e 434d dbbd
000000d0: c72d a3bd 7ee4 ad3d da00 edbb f741 64bd
000000e0: 33b7 373d adb0 ce3c 56c3 563d c0df 143d
000000f0: a958 293d e23b 1dbe 8689 c03d f8ac 17bd
00000100: 1c7a 2cbe bac0 9a3d 5678 d73d 9fb6 bc3c
00000110: 3edb 453d 7396 febb 376c 703d 4ca8 e8bd
00000120: 0010 863d 5bae bfbb aa52 d23c 59be c7bc
00000130: 9be5 213e e608 713d 9cce 8b3d 996d b53d
00000140: 218a 1a3e 1964 e4bc 52b4 d9bd 9057 0abe
00000150: 0d74 85be 0b4d 323d a00e bf3a 3c11 f7bd
00000160: ba03 8d3d 33e9 153e 8adb 473c a1bd 3dbb
00000170: 9f10 233a 327e 69bd 1e0b 8b3d 71b5 10bd
00000180: 593f c93d 67bf 48bd 83b8 a03d 2710 60bd
00000190: fc79 eabd 1591 fabd 1cb7 fdbb 13b4 37bc
000001a0: f3a9 8dbd a067 f4bd 5697 eabc 26be 523d
000001b0: 072e 9cbd fcc5 11bc 7bce 90bd 93e9 d7bd
000001c0: bcdd 03be f25c 7ebc 1041 fbbd 9a6d 16be
000001d0: c241 9bbd 47a2 4b3d 94fc 92bd e078 2a3d
000001e0: e1e0 293c 6427 253e 3858 e3bb 9fa1 45be
000001f0: 9564 983d 14b1 a9bd a610 d73d 19d3 1abd
00000200: 83fb 01bc 51de 6abb 126d 3e3c dad1 d8bd
00000210: 859a 1fbe c6ba 813d b351 9bbb c3d4 5dbd
00000220: 389b 373e 9672 183e 54be d33d 6a81 73bd
00000230: 9c69 c23c bec4 ab3d f5ec ebbd f3c5 e3bd
00000240: a750 323d fafd 473d d42a 4f3c 989e 94bd
00000250: 5f87 e9bd 5f38 653d 41f1 4cbe 9078 bc3d
00000260: 3188 50bd c2e9 403e b270 5bbe 5ad3 013e
00000270: be2a 97bd 7cf6 9ebd f4cc 01be 64e5 003e
00000280: 6b9b 363b ec6c 30bd fcf3 efbc 76fc 0dbe
00000290: d31f 033e c150 783d 89cb 55bd 85e0 7f3a
000002a0: efdd 6bbd 1727 4c3c 1496 debd 516c a43d
000002b0: d6bb e73d e4f9 66be 8d7a 97bd ec18 5a3e
000002c0: 8227 c23b 54fd 9c3d 05b7 96be 8b18 bcbd
000002d0: acd0 4abd 8863 4e3d d142 0bbd a960 2cbd
000002e0: 607a e2bd 4fc6 b83c 47f4 3bbe 33f4 a53d
000002f0: 027e aebb 15c2 ca3d 11e9 233d a52f 86bb
00000300: 0c32 cdbc 5dbf 313d e2f2 453c d597 2dbd
00000310: f509 733d 8355 d4bc e85b 29bd abac 5e3d
00000320: 9d47 083e 8058 3e3d 4c81 bc3d fd43 d33c
00000330: 0f55 313d 94f9 5c3d 3aa2 bebd e7e1 0dbe
00000340: 167a 3d3e f7e6 ccbd f45c 8b3b 461c ce3c
00000350: bb57 7abd 904a c1bc 5763 393e 6fb9 e13b
00000360: 7c2d 85be 66c4 053d b843 c3bd 3d82 f23d
00000370: 7472 93bc 0ef5 d4bd 426b e8bd f633 e13d
00000380: 7cee 023c 03ea d0bd 34c2 d6bd 3fe0 4ebd
00000390: db2c 92bb cf8f 1abc 3210 863b 263f d63d
000003a0: ead6 cc3c 815d d8bc 99b7 823d 4810 863d
000003b0: 11c2 1e3b e816 f4bc 2839 273e f64b 663c
000003c0: 4f3e 9dbd 6a2d 5a3e b3b6 b03c 08ee f13b
000003d0: 7be1 0ebe 97d6 123c 86dc 2a3e d33c 823c
000003e0: a995 323e d09c 0bbe 3ff6 ebbd 6507 3c3e
000003f0: ed03 fbbd 85b4 00be 7be9 45be ef3b 1abe

net_stack.4.bias f4 [32]
-0.008642755 -0.01950682 -0.005611143 0.038247414 0.033874266 -0.03937797 0.017118221 0.048936315
0.056627333 0.048697557 0.053418845 -0.043756083 -0.019694945 -0.021011876 0.05922074 0.06452906
-0.024265548 0.03942208 -0.029904755 -0.05716666 -0.04108082 0.040706683 -0.019589629 -0.02914088
0.04680348 0.0316723 0.055920027 -0.011988882 -0.006118616 0.046997875 -0.049846537 -0.053117704
00000000: 589a 0dbc c4cc 9fbc aedd b7bb 52a9 1c3d
00000010: bebf 0a3d cb4a 21bd 833b 8c3c 7271 483d
00000020: 10f2 673d 1777 473d b8cd 5a3d 9439 33bd
00000030: 4b57 a1bc 1921 acbc 7291 723d d027 843d
00000040: 8bc8 c6bc 0c79 213d d1fa f4bc 9627 6abd
00000050: 5d44 28bd 0dbc 263d 6e7a a0bc dbb8 eebc
00000060: 01b5 3f3d d0ba 013d 660c 653d 046d 44bc
00000070: ac7e c8bb d880 403d e22b 4cbd f391 59bd

net_stack.6.weight f4 [32, 32]
-0.20693852 -0.11438701 0.08457992 0.076728225 0.27135786 -0.1484361 0.09293887 0.099343754
0.049441658 0.1262238 0.07806734 0.04955705 0.028528085 -0.026768025 0.08806269 0.027233414
0.02123445 0.08346705 -0.06266517 -0.08703016 0.06655383 0.031548917 -0.03834389 0.043286562
0.13680457 -0.048036713 0.018697772 -0.12818658 0.044793416 0.038782883 -0.17838535 -0.21647666
-0.24433123 0.038075227 0.07007155 -0.027834516 -0.039747693 -0.11213608 -0.13595417 -0.1313069
-0.015983721 -0.058547903 0.037177242 -0.089063935 -0.024174133 -0.2324582 0.098096654 -0.042106614
0.04864028 -0.0040978417 -0.23825851 -0.070140414 0.014856587 0.25051484 -0.12569393 0.13877809
-0.03281873 -0.10126733 -0.06642323 0.0107483715 -0.015914226 0.2204764 -0.020443639 -0.09259666
-0.039285652 -0.022648422 0.14486048 -0.026199792 0.0092586335 -0.011146798 0.114018984 0.08266271
-0.0038950718 0.052756414 -0.0020323775 0.080738395 -0.01786497 -0.057753745 -0.10302853 -0.0157198
-0.026248539 0.0752893 -0.09761012 -0.11369842 -0.23840402 0.005826597 -0.12459038 -0.023641856
0.056119964 0.14703432 -0.07721555 0.12205818 -0.08979923 0.003021769 -0.109145254 -0.14833012
0.061411455 -0.049678966 0.026060995 0.07069676 0.18092924 0.04596962 -0.04282612 0.0823797
0.021681495 0.019362232 0.09850643 -0.059931006 0.031871375 -0.16077164 0.15053552 0.17125691
-0.24006672 0.130856 0.039485108 -0.057325013 -0.06694417 0.0009297751 -0.15433832 0.05344852
0.06336108 0.18366571 0.12779446 0.091599844 -0.010717466 0.054002423 0.22899526 -0.10312452
-0.020373482 0.12647939 0.013995071 -0.10635612 0.035871096 0.10939865 -0.048627134 -0.015446469
0.015661817 0.0020420756 -0.026282605 -0.0108906245 0.06869015 0.04324203 -0.076429576 0.0010154869
-0.041940868 -0.0548587 0.12422969 0.2454417 -0.14146344 -0.14919767 0.09281117 -0.04115037
-0.075477816 -0.048052046 0.016120221 0.23255464 -0.06706074 -0.15151966 0.2825434 0.104191385
0.058017258 0.01977311 -0.10786702 -0.18873022 0.033884946 -0.03817885 -0.012884198 0.22385073
0.076715395 0.2529368 -0.0140123265 -0.015447647 -0.08104581 -0.17186214 0.16763195 0.21414311
-0.07266394 0.099513166 -0.0349239 -0.051426984 -0.19178806 0.076611035 -0.07506942 0.0071738213
0.12371908 -0.034323595 0.12628573 0.024605744 0.16706695 0.0816923 -0.10549217 0.06814812
-0.054119166 0.039165594 0.1511734 -0.07172734 0.15807027 -0.1929172 0.068976834 0.073522255
0.14691645 -0.20648144 0.13998295 0.09137863 -0.06702164 0.0038091743 0.012242174 0.1151554
-0.040690687 -0.12327727 -0.2125529 -0.22863767 0.04784592 0.1128693 -0.024355799 0.026362047
-0.14219251 -0.111239545 0.23137407 -0.12790163 0.14626366 -0.070892 0.011574721 0.06579268
0.03827044 0.1671676 0.08729354 -0.05984484 0.00069297536 0.07404683 -0.036587447 -0.11650162
-0.025484508 -0.15543619 0.06718208 -0.030148558 0.20343694 0.06925904 -0.0104375165 -0.06014869
-0.09521815 -0.090772845 0.012314681 0.057147328 -0.020597547 -0.08549418 -0.15491231 -0.26723388
-0.053899013 -0.03782111 -0.009718312 0.33798477 0.02961468 0.036557138 0.058026366 0.038043935
00000000: b1e7 53be bd43 eabd 3d38 ad3d b023 9d3d
00000010: 6bef 8a3e a2ff 17be bc56 be3d bd74 cb3d
00000020: 5683 4a3d d040 013e c5e1 9f3d 55fc 4a3d
00000030: bbb3 e93c 9e48 dbbc 365a b43d 9c18 df3c
00000040: dff3 ad3c c6f0 aa3d 9956 80bd de3c b2bd
00000050: 604d 883d 7039 013d 7c0e 1dbd 404d 313d
00000060: 7f16 0c3e 25c2 44bd 122c 993c 5843 03be
00000070: 4d79 373d cdda 1e3d a6aa 36be 0fac 5dbe
00000080: f731 7abe c5f4 1b3d ac81 8f3d 3605 e4bc
00000090: 7ace 22bd 9aa7 e5bd 9237 0bbe 5175 06be
000000a0: 4bf0 82bc edcf 6fbd 2a47 183d 2767 b6bd
000000b0: d508 c6bc 8609 6ebe e6e6 c83d fc77 2cbd
000000c0: 083b 473d 3047 86bb 0afa 73be c7a5 8fbd
000000d0: 0b69 733c 7b43 803e e9b5 00be d81b 0e3e
000000e0: ef6c 06bd 3f65 cfbd e708 88bd f019 303c
000000f0: 8d5e 82bc 91c4 613e 6b79 a7bc 51a3 bdbd
00000100: fee9 20bd 2f89 b9bc 4e56 143e f2a0 d6bc
00000110: 86b1 173c 0fa1 36bc c982 e93d 114b a93d
00000120: 7644 7fbb 1c17 583d a331 05bb 2c5a a53d
00000130: 8f59 92bc 318f 6cbd 9f00 d3bd cfc6 80bc
00000140: 2d07 d7bc 4731 9a3d d1e7 c7bd b8da e8bd
00000150: 2f20 74be 0aed be3b 3e29 ffbd 91ac c1bc
00000160: 0cde 653d 2a90 163e 3023 9ebd a4f9 f93d
00000170: a9e8 b7bd df08 463b 8c87 dfbd dae3 17be
00000180: 948a 7b3d 2c7c 4bbd de7d d53c 77c9 903d
00000190: 8445 393e a44a 3c3d 716a 2fbd b0b6 a83d
000001a0: 649d b13c 8b9d 9e3c bdbd c93d 377a 75bd
000001b0: 8f8b 023d 52a1 24be fc25 1a3e f95d 2f3e
000001c0: 0dd4 75be 1eff 053e 23bb 213d a2cd 6abd
000001d0: 061a 89bd 27bc 733a dd0a 1ebe d6ec 5a3d
000001e0: 74c3 813d dd12 3c3e 8ddc 023e b398 bb3d
000001f0: 4f98 2fbc a531 5d3d bc7d 6a3e f332 d3bd
00000200: 4ae6 a6bc d083 013e 954b 653c 3dd1 d9bd
00000210: 92ed 123d 660c e03d 3f2d 47bd 3013 7dbc
00000220: 364d 803c 58d4 053b 9e4e d7bc 976e 32bc
00000230: 6cad 8c3d 8e1e 313d 1c87 9cbd 161a 853a
00000240: 30ca 2bbd 84b3 60bd 236c fe3d 1255 7b3e
00000250: cbdb 10be 46c7 18be c813 be3d 4a8d 28bd
00000260: 1d94 9abd 39d2 44bd 8e0e 843c ce22 6e3e
00000270: 2457 89bd f827 1bbe 87a9 903e 4b62 d53d
00000280: 81a3 6d3d 38fb a13c 62e9 dcbd 7f42 41be
00000290: f1ca 0a3d 6d61 1cbd 3e18 53bc 2039 653e
000002a0: f61c 9d3d ef80 813e f593 65bc 2118 7dbc
000002b0: 58fb a5bd a1fc 2fbe b6a7 2b3e 5548 5b3e
000002c0: d5d0 94bd 8fcd cb3d 5d0c 0fbd 1aa5 52bd
000002d0: 1764 44be 3fe6 9c3d ffbd 99bd 6012 eb3b
000002e0: 6e60 fd3d e696 0cbd 0c51 013e fc91 c93c
000002f0: 9913 2b3e 4b4e a73d 470c d8bd 3e91 8b3d
00000300: 0fac 5dbd 1a6c 203d 33cd 1a3e c9e5 92bd
00000310: 2cdd 213e 168c 45be ba43 8d3d d692 963d
00000320: 4471 163e df6f 53be b157 0f3e b824 bb3d
00000330: a442 89bd 57a3 793b 6693 483c 98d6 eb3d
00000340: 47ab 26bd cb78 fcbd 78a7 59be fe1f 6abe
00000350: 15fa 433d 0528 e73d d085 c7bc 38f5 d73c
00000360: ea9a 11be 8fd1 e3bd 53ed 6c3e a5f8 02be
00000370: 24c6 153e d32f 91bd e6a3 3d3c 50be 863d
00000380: 77c1 1c3d fc2d 2b3e f5c6 b23d dd1f 75bd
00000390: caa8 353a dda5 973d b8dc 15bd 6798 eebd
000003a0: e3c4 d0bc aa2a 1fbe c296 893d 1cfa f6bc
000003b0: c651 503e afd7 8d3d 1e02 2bbc 795e 76bd
000003c0: bc01 c3bd 1de7 b9bd 84c3 493c 5113 6a3d
000003d0: 30bc a8bc 9317 afbd 55a1 1ebe e1d2 88be
000003e0: 36c5 5cbd 4fea 1abd 8e39 1fbc 570c ad3e
000003f0: 7c9a f23c f0bc 153d 0ead 6d3d f5d3 1b3d

net_stack.6.bias f4 [32]
0.05334312 0.052182883 0.047955617 0.06186404 -0.055178113 0.042660594 0.054052487 -0.03707382
0.04484936 -0.04610363 0.055331234 -0.054362904 -0.0500611 0.04493253 -0.05303205 0.04651789
0.06115285 0.0483072 -0.049192432 -0.04969208 0.046541948 0.059736498 0.052563544 -0.050303105
0.04644703 -0.060951978 -0.055170566 0.049082868 0.051700376 0.048318394 0.05656988 -0.054282043
00000000: 517e 5a3d b8bd 553d 1c6d 443d 2665 7d3d
00000010: 7202 62bd e0bc 2e3d 2466 5d3d b8da 17bd
00000020: f6b3 373d 29d7 3cbd 01a3 623d a3ab 5ebd
00000030: de0c 4dbd 2c0b 383d 2338 59bd 8b89 3e3d
00000040: 697b 7a3d c5dd 453d 017e 49bd ec89 4bbd
00000050: c5a2 3e3d 42ae 743d df4c 573d a10a 4ebd
00000060: 3e3f 3e3d c8a8 79bd 88fa 61bd 1e0b 493d
00000070: c6c3 533d 82e9 453d d2b5 673d d956 5ebd

net_stack.8.weight f4 [1, 32]
-0.14565597 -0.16060689 -0.18027113 -0.07173902 0.12316121 -0.18921517 -0.05723278 0.030396473
-0.06580034 0.08746337 -0.119333945 0.05522707 0.12410687 -0.11907463 0.07995208 -0.08688947
-0.048730325 -0.028129868 0.23642837 0.14943078 -0.102001466 -0.111728236 -0.05445813 0.11257154
-0.12334825 0.0897216 0.11511154 -0.18770109 -0.04083808 -0.23310041 -0.055527523 0.22130412
00000000: d726 15be 2276 24be ff98 38be e8eb 92bd
00000010: f23b fc3d 9fc1 41be eb6c 6abd 0602 f93c
00000020: 54c2 86bd ff1f b33d 5b65 f4bd c835 623d
00000030: be2b fe3d 66dd f3bd ebbd a33d 1bf3 b1bd
00000040: 7399 47bd 9c70 e6bc 471a 723e 6204 193e
00000050: 25e6 d0bd c6d1 e4bd 7d0f 5fbd e88b e63d
00000060: 029e fcbd f5bf b73d 99bf eb3d b734 40be
00000070: d545 27bd e0b1 6ebe d470 63bd 8c9d 623e
