CAPSTONE/CAPMODELS/output/model_MDD5.pth (torch, 38626 bytes, 9 tensors)

net_stack.0.weight f4 [64, 20]
00000000: 4f55 913d da19 29bb 5547 0ebe 92d0 8e3d
00000010: 26de 6fbd 1ae7 ab3d 4644 14be 1007 b6bd
00000020: fdfe f0bd 0432 4e3c 012e 183d 2c91 433d
00000030: 46ca e03c 6f95 4abb 2f65 833c 4641 0ebe
00000040: 92e9 a63c a41e b13c b561 f6bd 30a4 ef3d
00000050: bf0d dabd 89e3 a4bc 238c cabd d627 f5bc
00000060: b2a1 17bd e981 a83d dd1f 05be 33aa 18bc
00000070: b98f fa3c 9e4c 8abc d6b1 11bd fbcb 21bd
00000080: 2cf7 5d3e 8f43 c7bd fa23 033d 5447 08be
00000090: 52ff b43b 48bc e13d 5003 bdbd 59a7 2d3d
000000a0: a036 9cbc 53f8 583e b196 18be 8e39 12bb
000000b0: 0b82 84bd 2331 d9bd 84fc 4dbc 8432 0a3d
000000c0: 4be5 a6bd 7d14 e9bd 2994 213d cc69 0b3e
000000d0: 3016 0e3e fded 5bbe cfd1 473d 5f9d fd3d
000000e0: 7331 bd3c 32be 1bbe 638d 33be dd00 e73d
000000f0: d61c adbd 1f7c 013e bfc8 09be f368 e23a
00000100: 097a d7bd 1e72 293e 8e4b f7bc 62bd c7bd
00000110: 4f6a 133e ec4f 1ebc ece6 05bd fcae ea3d
00000120: b589 f33c 3432 0e3d b189 103c d638 90bd
00000130: 7b21 a13c 7e16 99bc 0f3c 03be 0dec f6bd
00000140: cdd5 94bb a68b 273e 8e07 38be 3dec 73bd
00000150: a511 ccbd 9329 093e 9f86 4c3c 2ea7 873d
00000160: 65e9 273d cb56 bebd cdaa d73c ad9c 123d
00000170: 705f 0c3d be94 263e 4d55 2d3d 1273 9e3d
00000180: 8fb7 b2bc 0318 a33c 7dd0 b1bd d030 3e3b
00000190: ea0e d53d 0e02 9e3d 5362 b13d 7700 be3c
000001a0: 2b4c 1f3e b4dd 85bd b79c 1bbe 2236 cf3c
000001b0: b3b7 e2bd f694 8a3d b3d7 943d a067 163e
000001c0: 9378 01be 45e4 a03c 7078 51bc 11b2 9b3b
000001d0: 5b39 a2bd dee5 7b3d 9fe8 adbd 2dbb d3bd
000001e0: cdf4 0d3e 4992 093d 91a8 8abd 9999 fe3c
000001f0: f7c8 84be d819 a1bd 2d5d b43c e543 6b3d
00000200: c00b 64be 2f00 9c3c 7147 d3bb 5253 10be
00000210: b3f1 f33d e5db 48bd 7e01 d53c a632 ea3b
00000220: 17ef ddbd 0c1b 9e3d 7b66 633d 2e5a b23d
00000230: b108 533d e090 85bc 2790 ec3d 5726 a03d
00000240: f42d dabd 4f2b 5abd d08e a43d 81a5 f1bd
00000250: 35b0 0f3e a241 49be 4fc3 0fbe 850f 03be
00000260: 3b84 9bbd 6910 ba3d e1fd 993d b63b fe3d
00000270: 9b0d 9cbe 6154 a8bd 2038 01be ee4b 04be
00000280: 4325 dcbc 9029 353e 5d36 99be 6f80 6e3b
00000290: b14f be3d aed8 9ebd e7ea 01bd ad9e 803b
000002a0: 5789 54bd e2cf 583e 6b1a 1d3c 5e0e 87bd
000002b0: a889 44be 6d69 e23d 1739 d3bd 7e18 c03d
000002c0: 56e7 753d 4147 09be f90f c1bd c55c 193d
000002d0: 7b17 9cbd 8a5e 3c3d dc8b 11bd dc2e 8b3d
000002e0: 76b6 c7bb efb8 50bd 4ba3 d2bd 9441 593d
000002f0: cd63 9a3d 1743 043d fc8c 9b3d 6c62 d43d
00000300: 983b fb3d 044d 143d b861 1fbd 1cb8 21be
00000310: 91b4 e63a 2433 0fbd fc52 a23d 9d52 b63d
00000320: 9948 49be b2a8 123e aeba c33d 102c b0bc
00000330: 764e 64be f880 b23d 94af 723d 656d 173e
00000340: 5ea3 c6bc 3ea2 393d 5a95 32bd 52cb 583e
00000350: 6e9a 14bc a07f c43d 5cdf 273d bdb6 0dbd
00000360: d612 19bc 557b 7fbd 9f32 a7bd b154 163e
00000370: 71d4 babb 723f 28bc 276c 363e dcda c33d
00000380: 83ae 17bd 6aac a1bc 8df5 bdbd f1d8 d33d
00000390: 0fd3 5b3c 0554 833d 650f f6bd 6be4 933d
000003a0: 98bc 89bd 4e0d 46be 244d 8d3c 4d1f c83b
000003b0: abf4 cb3d fce0 833d 9577 c83b a286 94bd
000003c0: 518a babc c246 29be 4dca 203d 031f 513d
000003d0: 57fb 253c 2998 3ebd dc5b 7e3d a2be 1c3e
000003e0: bbae d5bd 4dd4 00be 9ebd 2bbe 15e2 5fbd
000003f0: e4fc bebc 7265 67bc bffd 2e3d e68d 16bd
0.070963494 -0.0025802762 -0.13894399 0.069733754 -0.058561467 0.083936885 -0.14479169 -0.08888066
-0.11767385 0.012585167 0.037153248 0.04774587 0.027440201 -0.0030911823 0.016039459 -0.13892087
0.020375047 0.021621056 -0.12030355 0.11701238 -0.10647153 -0.020128028 -0.0989001 -0.029926222
-0.03701944 0.082279034 -0.13000436 -0.009317922 0.03058611 -0.016882237 -0.03556999 -0.03950117
0.2167632 -0.09729683 0.03201673 -0.1330846 0.0055236006 0.1102224 -0.092291474 0.042395923
-0.019069016 0.21188478 -0.14901234 -0.0022312137 -0.06470116 -0.10605075 -0.012572411 0.03373958
-0.08149203 -0.11380861 0.039447937 0.13614577 0.13875651 -0.21477504 0.048784073 0.12383532
0.023094868 -0.15209273 -0.17534404 0.112794615 -0.08452766 0.12645005 -0.13455485 0.0017273709
-0.10521323 0.16547439 -0.030187394 -0.09752919 0.14396022 -0.00966261 -0.032690927 0.11459157
0.02972875 0.034715846 0.008821891 -0.070420906 0.019669285 -0.018687483 -0.1281588 -0.12056742
-0.0045420886 0.16361865 -0.17971632 -0.059551466 -0.09964303 0.13394766 0.012483268 0.06623684
0.040994067 -0.09293898 0.026326561 0.03579395 0.034270704 0.16267678 0.042317677 0.07736792
-0.021816043 0.01990891 -0.08682344 0.0029020794 0.10403235 0.07715236 0.08661332 0.023193581
0.155564 -0.06536427 -0.151965 0.025294367 -0.11070194 0.06766693 0.07267704 0.14687967
-0.12643652 0.019640097 -0.012785062 0.004751452 -0.07921096 0.061498515 -0.084916346 -0.10338435
0.13862915 0.033586774 -0.06770433 0.0310791 -0.25934574 -0.078662574 0.022017086 0.057437796
-0.22270107 0.019043056 -0.0064477255 -0.14094284 0.11911335 -0.049037833 0.026001688 0.007147151
-0.108366184 0.077200025 0.055517655 0.08708607 0.05152196 -0.016304433 0.115509324 0.07819813
-0.10653296 -0.05326396 0.08035052 -0.117991455 0.14032061 -0.19653943 -0.14039348 -0.12798889
-0.0759358 0.09085161 0.07519127 0.12413733 -0.3047913 -0.08219219 -0.12619066 -0.1291959
-0.026873237 0.17691636 -0.29924288 0.003639247 0.09292544 -0.07756172 -0.03171816 0.0039251656
-0.05188879 0.21173051 0.009588818 -0.06594537 -0.19193137 0.110552646 -0.103136234 0.093796715
0.060035072 -0.13406087 -0.09426875 0.037441988 -0.07621666 0.045988597 -0.03553377 0.06796047
-0.006094749 -0.050957616 -0.10285052 0.053041056 0.07538567 0.032290544 0.0759525 0.10370335
0.12267226 0.03620626 -0.03891155 -0.15792888 0.001760142 -0.03496088 0.07925984 0.08902476
-0.196566 0.14322165 0.09557091 -0.021505386 -0.22295555 0.08716005 0.059249476 0.14787824
-0.024247821 0.04532074 -0.043599464 0.2117131 -0.009070022 0.09594655 0.040984496 -0.0345981
-0.00934287 -0.062373478 -0.08163952 0.14680745 -0.0057015945 -0.010269033 0.17814694 0.095632285
-0.03703166 -0.019735534 -0.09275351 0.10344113 0.0134170195 0.0641251 -0.12014655 0.07221302
-0.067254245 -0.19341013 0.017248698 0.006107247 0.09958776 0.06439397 0.006117771 -0.07252242
-0.022771033 -0.16530898 0.03925543 0.051054966 0.010130725 -0.04653183 0.062099323 0.15307096
-0.10433718 -0.12580986 -0.16771552 -0.054658968 -0.023313947 -0.014123308 0.04272246 -0.03675642

net_stack.0.bias f4 [64]
00000000: cab3 bfba a4c6 a4ba 3285 1fbd 6e32 62bc
00000010: c0ed f2bc e4f5 e53c 9b0a 5fbc fc01 56bc
00000020: 869e 5dbc 1eb9 2bbc b4a4 1b3b 752e 413c
00000030: 7425 ccbc 0045 a13b 4534 813c afda 03bc
00000040: 6cd2 c338 db40 e83b 0d14 3bbc e909 7e3c
00000050: c319 c23a 0012 9f3c bf54 213c 0576 78bc
00000060: 047a e93c f336 d23c 683e 9b3c e78c 25ba
00000070: cae7 4fba 7179 dabb fbc5 aabc d476 cf3c
00000080: 9ac4 a5bc aa25 b23c 770d abbc 212a 2bbc
00000090: 2c53 bbbc 4367 0dbc aed8 a5bc 0255 cabc
000000a0: 7d20 90bb bddc 983c c219 ec3c eb1b af3c
000000b0: 2211 383c 91b6 4e3c 6af3 cabc a029 923c
000000c0: 2a1c ad3c 4850 373c fbf8 37bc 4ac4 36bc
000000d0: a004 9f3c 3ada a93c b0f8 98bc a964 65bc
000000e0: 9972 74bc d8ad 263c 502a 3e3c 3fe0 9a3c
000000f0: 6597 9dbb 1758 be3c d901 3f3b 6999 9a3c
-0.0014625725 -0.0012571407 -0.038945384 -0.013805969 -0.029654384 0.028071351 -0.013613368 -0.013061997
-0.013526564 -0.010481147 0.0023749294 0.011790861 -0.024920203 0.0049215555 0.015771994 -0.008047744
9.337519e-05 0.0070878095 -0.011418355 0.015505292 0.0014808703 0.019417763 0.009846865 -0.015164857
0.028500564 0.025660967 0.018950656 -0.00063152466 -0.00079309626 -0.006667309 -0.020846358 0.025325216
-0.020235348 0.021746475 -0.020880444 -0.010447056 -0.022866808 -0.008630577 -0.020244922 -0.024698738
-0.004398404 0.018659944 0.028820876 0.021375617 0.0112345535 0.012616769 -0.024774272 0.017842114
0.021131594 0.011188574 -0.011228795 -0.011155197 0.019411385 0.020733941 -0.018673271 -0.01400105
-0.0149199 0.0101732835 0.011606768 0.018905757 -0.0048093074 0.023235364 0.0029145388 0.01887198

net_stack.2.weight f4 [64, 64]
00000000: f693 a5bc ea4c 1bbd 3105 b23c a960 31bd
00000010: 790c e6bd fd45 1a3d 0eb6 dcbd fe99 7d3d
00000020: 06bc a2bd dbc7 8abd a72e 5bbd 78ac bdbd
00000030: 84a2 52bd 80fc d0bd f79c fa3c aac6 c43c
00000040: ff8d 9bbb 5ff4 b2bd 39e2 8f3d 2916 8b3d
00000050: 59e9 d33d 8e91 f63c 25ec d53d 6128 9ebd
00000060: dda1 113d e4ba a53d 5445 453d 2724 a4bc
00000070: aa99 c63d 5cf3 28be 1af0 923b 888c 583d
00000080: 17dd a9bc 0e07 2cbd 7e03 c4bc 97d5 b6bc
00000090: 5218 a0bd 1455 8bbd 9bde b03c aabe 233d
000000a0: 7eba cc3c 1d16 743d 4c34 bb3d 45e0 b83d
000000b0: d384 963d cfbb 903d 9094 49bc 023e be3d
000000c0: f58d d83d 03ba 57bd c8be d3bc 7848 593d
000000d0: 157d 5f3d 68c7 253d 7144 25bd 051a c63b
000000e0: 11dd 3cbe bad8 01be 0393 dc3d c3d6 ba3c
000000f0: cdd4 24bc b139 f83d e228 9f3d bc92 9b3c
00000100: 4207 d7bd bfdd 2fbd dbe0 13bd 02ac de3c
00000110: 9d32 f83c 1762 eb3d 54e5 b9bd 6bf3 253e
00000120: 85aa 0f3e 614f b73d 6eda 143c 1264 0bbd
00000130: 772f 993d a8d2 dfbd 39a4 b73d 3eeb 14bc
00000140: 3fd6 00bd 92e8 e1bd 063a cebd f1e8 5b3c
00000150: d1c2 0bbe d3f0 533e 6507 10be 7e4b 4abe
00000160: e101 acbc 618f e73d 45df 6e3b b114 583b
00000170: af8c 05bd a4ef 0cbc d6cb 8abd c3cb b6bd
00000180: 777d 053e 8d46 a43d 418e fabc acf4 c23b
00000190: b12a b0bc 457d 3e3d 78e1 4d3d 08d0 6dba
000001a0: 9ea3 1e3e e58b 61bc 9c37 c53c 979f 023d
000001b0: afd3 12be 2df0 153e 1892 0abe 8309 533e
000001c0: 0177 d7bc a575 a3bd 0994 a5bd aa04 10be
000001d0: e47e 6a3d 053d de3c d251 32bd 7695 b5bc
000001e0: e57f 933c 7128 07bb 5ca8 bf3d c790 97bb
000001f0: 853f ad3d 1608 543d 81eb e6bc 208f 15bd
00000200: eae5 5a3b b2b1 1d3e 8fad 10bd b580 f43d
00000210: f48a bf3d 0d16 6fbc 88a6 eb3d e5aa 8cbd
00000220: dbd7 a2bd 6f04 c33d b0f5 c0bc cbf0 29be
00000230: 7e51 493d 8534 653d b3f4 40bd a1f2 1a3d
00000240: 9426 b7bd e037 ac3d f77c b6bd 8d77 113e
00000250: 6d40 dd3c c92e bdbd 5b33 a6bd cd5b fbbc
00000260: a994 f9bc 7fb6 bcbc 36fe 44be 3a46 efbc
00000270: f731 b63d 0f7b 3ebe c0f7 39bd 6449 973c
00000280: da26 f9bc 1783 2cbe 2cb1 933d fe74 d03d
00000290: 4f0c 1b3e c62c 973c 276a 163e 5ead 1b3e
000002a0: e191 373e f7f2 023e 3243 bf3c 6c9a c6bd
000002b0: 5c90 0a3e 9398 f13d 2807 88bc 4649 edbb
000002c0: bbb1 1e3e 84f6 08bd a962 333c 33e5 9cbd
000002d0: 1008 85ba 7305 97bc b548 5338 01a8 fa3c
000002e0: 4a94 8fbd 02b8 dc3d a711 043e 77e0 983d
000002f0: 9a89 c33d 8f93 81bc 4a66 87bc 768f 45bd
00000300: 03d3 8f3d a7ba 0fbc 0db1 953d 638c a9bc
00000310: 0fa0 1bbc c23b 14bd b997 d6bc 0a17 0ebe
00000320: dd3e f3bc 10aa ffbd c1fe abbd c588 3abd
00000330: efc2 10be 99cf 4f3e 3e27 10be 07e5 f23c
00000340: 31b1 5bbd f308 813d c715 0ebd 2a8c 043e
00000350: 811f 9fbb 2f37 8e3d 5bdc 8bbc c3f8 8d3c
00000360: e82a 8e3d 870b a33d e58e 383b cd99 093e
00000370: 3d6f f4bd 91a7 a9bd b9b5 5cbd 1a7f 093e
00000380: 711e 92bd 272d ef3c d7b0 8cbd 85e0 b73c
00000390: fd71 31bd b884 593c f7e3 1ebd e7a7 92bd
000003a0: 9dc1 92bd 19d1 a63d 9226 dd3d 51ff 733d
000003b0: 4475 22bc bfab 14be c7a3 c3bd efd5 743c
000003c0: 6f90 863d 8685 463d c5f0 c73c 9294 12bb
000003d0: ce44 ca3d 90df 00bb 13b3 f53d 2493 7f3d
000003e0: f3c9 bb3c f197 113e 3e7c 4b3d 645e 3cbd
000003f0: a634 843c 8dcf 413d 264b 083d b433 cdbd
-0.020212155 -0.037915148 0.021730991 -0.043305073 -0.11232848 0.037664402 -0.10776912 0.061914437
-0.07946019 -0.06776401 -0.053511288 -0.092614114 -0.05142452 -0.102044106 0.030592425 0.024020512
-0.004747152 -0.08738016 0.070255704 0.06791336 0.10347242 0.030098703 0.104454316 -0.077225454
0.035554755 0.08092287 0.04816182 -0.02003677 0.09697278 -0.16499084 0.0044841887 0.052868396
-0.020735307 -0.041998915 -0.023927446 -0.022318644 -0.07817139 -0.06803337 0.021590522 0.039976753
0.02499127 0.0595914 0.09140834 0.09027151 0.07349553 0.07067072 -0.0123034865 0.09289171
0.10573951 -0.05266763 -0.025847808 0.053047627 0.054562647 0.04047337 -0.040348474 0.0060455822
-0.18443705 -0.12680331 0.10770228 0.022807484 -0.010060501 0.12120379 0.0777147 0.018990867
-0.10499431 -0.042936083 -0.03610311 0.02718163 0.030297572 0.114933185 -0.09076944 0.16206138
0.14029892 0.08950687 0.009085281 -0.03403098 0.07479756 -0.10928851 0.0896687 -0.009089289
-0.03145432 -0.110306874 -0.10069661 0.013422237 -0.13648535 0.20697336 -0.14065321 -0.1975536
-0.02099699 0.11306644 0.0036448997 0.0032971317 -0.03260487 -0.008602057 -0.0677716 -0.08925583
0.13036142 0.08021269 -0.03058541 0.0059495773 -0.021504732 0.046506185 0.050263852 -0.00090718316
0.15492103 -0.013766264 0.024074368 0.031890478 -0.14338563 0.14642401 -0.13532293 0.20609097
-0.026301863 -0.07981423 -0.08084876 -0.14064279 0.05724992 0.027128706 -0.04353506 -0.022165995
0.01800532 -0.002062347 0.09358284 -0.004625413 0.08459381 0.051765524 -0.028188469 -0.036513448
0.00334012 0.15399817 -0.03532177 0.119386114 0.09352675 -0.01459266 0.11506373 -0.06868533
-0.079513274 0.0952233 -0.023554653 -0.16595761 0.049149983 0.05595829 -0.047108363 0.037829045
-0.08942905 0.08409095 -0.08910554 0.14205761 0.02700826 -0.09237439 -0.08115264 -0.030683422
-0.030466394 -0.02303624 -0.19237599 -0.029208291 0.08896249 -0.1860163 -0.04540229 0.018467613
-0.030414034 -0.16846882 0.07211527 0.101785645 0.15141414 0.018453967 0.14688931 0.15202853
0.17926742 0.12787996 0.02334747 -0.096974224 0.13531631 0.11796679 -0.016604975 -0.007241401
0.15497486 -0.03343822 0.010948815 -0.07660904 -0.0010149498 -0.018435216 5.0374034e-05 0.030597689
-0.07010706 0.10777284 0.12897359 0.07464688 0.0954773 -0.015817432 -0.016528267 -0.048232518
0.07022669 -0.008772529 0.073091604 -0.020696824 -0.00949861 -0.036189802 -0.026195394 -0.13875976
-0.029693061 -0.12483609 -0.083982 -0.04554059 -0.14136861 0.20294036 -0.1407747 0.029650224
-0.05363578 0.06300535 -0.034688737 0.12944093 -0.0048560505 0.06944119 -0.017072847 0.017330533
0.069417775 0.07961183 0.0028161344 0.13437577 -0.119352795 -0.08283914 -0.05388424 0.13427392
-0.071347125 0.029196335 -0.06869667 0.022445926 -0.0433216 0.0132762715 -0.038791623 -0.07160931
-0.07165835 0.08145351 0.10798372 0.05956966 -0.009915654 -0.14518641 -0.095527224 0.014943584
0.06570517 0.04846718 0.0244068 -0.0022366387 0.09876405 -0.0019664504 0.11997046 0.062396184
0.022923445 0.14218117 0.049679033 -0.045988455 0.016138386 0.047317076 0.033274792 -0.10019627

net_stack.2.bias f4 [64]
00000000: 9191 153d e1b3 fb3c 38b2 fcbc 2123 063d
00000010: 1068 b2bc 6022 bd3c f347 143d 2215 2cbd
00000020: 4106 cb3c c54a d0bc 3b17 19bd b473 b5bc
00000030: 4b47 6abc 8c6d 12bd a122 913c 8465 24bd
00000040: ad08 913c cbf8 d9bc 40d1 ef3c f303 05bd
00000050: e254 aa3a 8988 f13c 424f 00bd 2a88 d23c
00000060: d3c5 0d3c dc56 19bd 2c14 b63c aab8 e53c
00000070: b3f5 bd3c 1db0 9dbc b394 f1bc 5763 21bd
00000080: 91a9 9d3c 6bd9 f8bc ecbd 103d 8a24 0f3d
00000090: f320 543c 481b c63c 8feb c13c 0008 9fbc
000000a0: 3f30 a93b ea6e 063d de81 10bd ca3c fdbc
000000b0: f1f8 203d 3872 c6bc d610 0a3c 679d f7bc
000000c0: 214f dfbc cf6b 88bc f75c 113d 3c5e 073d
000000d0: 393d 25bd 08d7 a3bc 546b 473b fc65 213d
000000e0: 1dbd 1cbd 77f9 143d 6bd4 333c d697 223c
000000f0: 47be c8bc 8504 183d 99af 9b3c 8fe9 cabc
0.036515776 0.030725421 -0.0308467 0.032748345 -0.021778136 0.02308768 0.03620143 -0.04201234
0.024783256 -0.025426278 -0.03737567 -0.022149898 -0.014299224 -0.035749003 0.017716708 -0.040135875
0.017704332 -0.026607892 0.029274583 -0.03247447 0.0012995268 0.02948405 -0.031325586 0.025699694
0.008653122 -0.03743635 0.022226416 0.028042156 0.023188448 -0.019249016 -0.02948985 -0.03940138
0.019245895 -0.03037711 0.035337374 0.034946956 0.012947309 0.02418293 0.023671893 -0.019412994
0.005163222 0.03282062 -0.0352801 -0.030912776 0.03929991 -0.024224386 0.008426866 -0.030226422
-0.027259411 -0.01665297 0.03548905 0.033048853 -0.04034159 -0.019999996 0.0030428963 0.0394039
-0.03826629 0.03637072 0.010975937 0.009923896 -0.024504794 0.037113685 0.01900463 -0.024769573

net_stack.4.weight f4 [32, 64]
00000000: 08a8 21be 3cb2 1fbd 1a3b 76bb 6d0d 543d
00000010: 4269 66bd 2ee6 f33c 3c08 733d 5700 6e3d
00000020: 6e53 75bc 2fc6 833c 89ea 1bbb d87b ea3c
00000030: 928d c93d 3c46 4e3e 809c 60bd 0fdf 9d3c
00000040: 0d28 1b3e 84ce 1e3e bd9f 18bd cfe0 743d
00000050: 7d98 42bd e80b 903d 9ef9 69bd 93e6 bdbc
00000060: 9ed8 dabd cbf0 283d 36d4 443d 3b1f aa3d
00000070: e336 2abc 19b9 c3bc 35e5 cebd 1a5d c8bd
00000080: 2f33 a73d cc04 dcbd dd05 b5bd d0a8 2d3b
00000090: 7dd3 163e 7d85 a03d a462 4d3d 0235 c0bb
000000a0: a665 df3c 62ac d73c 3133 963d eb3a 1b3e
000000b0: 6b5b 363b d911 efbc 56c7 f9bd 6afb f33d
000000c0: a4d4 23bd ad67 0c3d 3ea2 8d3b ddd7 f4bb
000000d0: aaa4 973d e77e bbbd 6e26 eabd 4cac debc
000000e0: ff70 013e 5ec5 63bd a1a7 103d ec64 d8bd
000000f0: ea72 043c 8404 ebbd ba43 03bd 08a0 2ebd
00000100: 9e36 433c f75c 81bd 8415 33bd 12fb bbbd
00000110: 8f12 f4bd 9cca 003b fc08 f4bd b636 bfbd
00000120: 492d bcbc 7f13 1f3d 5b59 f73d f44b 2b3e
00000130: 3c7d ccbd e6e6 cd39 8d6b ddbd a4c3 193d
00000140: b5ec b43d 4503 95bd f6ff 063c 1a34 dcbd
00000150: c32a f6bb 0a4b 453d d870 723d 6c22 a93d
00000160: eea8 0c3c 8d97 9f3d 90df 68be ba0d 063d
00000170: 4086 6c3d c43d f8bc 9013 cabc 8f21 033e
00000180: 07f4 a9bc 2d69 44bc 4bc7 06be 2aa8 eabd
00000190: 2ae5 ffbc ed6d 42bd 86c5 0d3d 9a81 a7bc
000001a0: 8092 b43b a278 55bd 37b5 57bd 322f f83d
000001b0: 3594 ae3d f59a 853d d11f b43d 55ac fe3d
000001c0: 14a8 9bbc 2d19 dd3c 5d8a 09be cebe 20be
000001d0: 2c2b 98bd 2f7e 1b3d 0f1c c13d 9ada 8a3d
000001e0: 13a9 f63d df20 0c3c 2d95 fb3c 6080 b4bd
000001f0: 6037 303c 433d 1cbe cd39 fdbc 7cf6 37bd
00000200: 135b ccbd 831a aebd 227f b83d f25b 1bbe
00000210: e92f b73d c6fb 293c b305 d43c c8f2 dbbb
00000220: a7ea 7cbe 376e 493e 90a6 3f3e 4a92 1e3e
00000230: d50c d23d ccd0 21bd d484 2d3e 903c 903d
00000240: d6e7 cb3d 5d0c 70bd 3bc2 7cbd 7277 233e
00000250: 63cb 10be 5da3 a7bd 0592 c33d ef67 ac3d
00000260: ed1a 853d 6965 7c3c 6a96 ecbd b844 f9bc
00000270: ed30 a7bd d36a e1bc dbe0 883d 54f1 643d
00000280: 4666 00be de82 25ba f1d8 5bbd 189c 22be
00000290: ae6a fcbc ec4f c33c 2413 7f3d dd25 6639
000002a0: de55 7b3d d3a8 2ebc 650f 71bc 9fc9 27be
000002b0: b37c 9e3d f271 553e 31f5 68bd d718 d63d
000002c0: 7e19 b33b f9f2 d2bd d9d8 b43c 670b 8fbd
000002d0: be9d a5bd e7a9 3ebe bfec 193e 1018 ddbd
000002e0: 070e acbd c128 443c 455b 033d 2da9 48bd
000002f0: 70f0 0f3d bcba 0e3d 478e cbbd f543 97bd
00000300: ac10 c73d c79b 5c3e b953 10be 83fc 9dbd
00000310: 8fb1 b53c 2c77 0e3e 91e3 953d 60f7 e0bd
00000320: 7efe d43c 0111 c6bd ef25 5d3d acff e2bd
00000330: 28a9 44bd 4380 8dbd a96e 03bd cfbf 57bc
00000340: 756b e2bd f8f8 083d 8638 713d 9ba1 80bd
00000350: ffdc 30bd 8462 dc3b 60d2 b8bc c9af b13d
00000360: 7b10 bf3c c025 be3c c491 c53d 4148 ab3d
00000370: 821a d83d 4264 e43b ebd1 0d3d fd50 1e3d
00000380: 6717 cbbd 47e0 18be 655d 103e 51e4 82bd
00000390: e3dd 19be 51f1 1d3e 9824 d23d 5e23 3b3e
000003a0: 02f5 dc3d a2e5 933d 2778 eabc 874e 2ebd
000003b0: b16c 923d e6bc 5ebd e2b0 17bc 548d babd
000003c0: 6e7b a1bd a68e 0abe e0c5 543d 3cea 5a3d
000003d0: 0691 07bd cb0a b4bb e07f 7fbd 9fef 0abd
000003e0: d58b 8bba e6d7 1d3d 08ea 0c3e a95b 83bd
000003f0: aacd a5bd 1ca2 abbd c4dc 103e 56d1 ddbd
-0.15786755 -0.038988337 -0.0037571848 0.051770616 -0.056252725 0.029772844 0.059334025 0.058105793
-0.0149735045 0.016085712 -0.0023790917 0.028623506 0.098414555 0.2014398 -0.05483675 0.019271402
0.15151997 0.15508467 -0.037261713 0.059784707 -0.047508705 0.07033521 -0.05712282 -0.023181235
-0.10685848 0.041245263 0.048053943 0.08306738 -0.010389063 -0.023891972 -0.101023115 -0.09783383
0.08164059 -0.107431024 -0.08839009 0.0026498325 0.14729114 0.07837961 0.0501429 -0.005865694
0.02727015 0.026327316 0.07333983 0.15159194 0.0027825485 -0.029183315 -0.121962234 0.11913188
-0.03999771 0.03427856 0.0043223193 -0.007472022 0.07404454 -0.09155064 -0.11433111 -0.027181767
0.12640761 -0.055608146 0.035316113 -0.10566124 0.008084038 -0.11475471 -0.03204701 -0.042633086
0.011914877 -0.0631656 -0.04372169 -0.09178747 -0.11917602 0.0019652015 -0.11915776 -0.09336607
-0.022970812 0.038836952 0.1207759 0.16728193 -0.09984824 0.0003927268 -0.10811529 0.037540093
0.08834211 -0.07276014 0.008239737 -0.10752125 -0.007512422 0.048167266 0.059189647 0.082585186
0.008585198 0.07792578 -0.22741532 0.032727934 0.05774522 -0.03030289 -0.024667531 0.1280577
-0.020746244 -0.0119879665 -0.13161962 -0.11457856 -0.031237204 -0.047468115 0.0346122 -0.020447541
0.005510628 -0.052116998 -0.052663054 0.12118377 0.08524362 0.06523696 0.08795131 0.124352135
-0.019001044 0.026989544 -0.13431688 -0.15697786 -0.074301094 0.037962135 0.0942918 0.06779976
0.12043967 0.008552759 0.030710781 -0.08813548 0.01075539 -0.15257744 -0.03091135 -0.0449128
-0.099783085 -0.085011505 0.09008624 -0.15171793 0.08944685 0.010374969 0.025881624 -0.0067122914
-0.24698888 0.1967095 0.18715882 0.15485492 0.10256354 -0.039505765 0.16945201 0.070428014
0.099563286 -0.05860554 -0.06170867 0.15963534 -0.14140086 -0.08185456 0.095493354 0.08418261
0.06499276 0.015405037 -0.11552127 -0.030428275 -0.08163629 -0.027516758 0.06683513 0.05589421
-0.12539014 -0.0006313751 -0.05367369 -0.15879858 -0.030812588 0.02384182 0.062274113 0.00021948614
0.061361186 -0.010660368 -0.014713143 -0.16385506 0.07738628 0.20844248 -0.056874458 0.104539566
0.0054656854 -0.103002496 0.022076057 -0.06984597 -0.080867276 -0.186195 0.15031718 -0.10795605
-0.08401113 0.011972607 0.032069463 -0.048989464 0.03514141 0.034846053 -0.099392466 -0.07386009
0.09719977 0.215438 -0.14094438 -0.077141784 0.022179393 0.13912648 0.073187955 -0.10984683
0.026000258 -0.09671212 0.053991254 -0.11083922 -0.048012882 -0.069092296 -0.032087956 -0.013168289
-0.11055652 0.03344056 0.058891796 -0.06280824 -0.04317951 0.006725611 -0.022561252 0.086761065
0.023323288 0.02321136 0.09646943 0.08363391 0.10551931 0.0069699595 0.03462402 0.038651455
-0.09916573 -0.14929305 0.14098127 -0.06391204 -0.1502605 0.15424086 0.10260886 0.1827521
0.10788919 0.07221533 -0.028621746 -0.04255536 0.071496375 -0.054379366 -0.009258481 -0.091089875
-0.078848705 -0.13530979 0.05194652 0.05344604 -0.03309729 -0.0054944507 -0.06237781 -0.033919927
-0.0010646532 0.038535975 0.13761151 -0.06413967 -0.08095868 -0.08380529 0.14146715 -0.10830943

net_stack.4.bias f4 [32]
00000000: 45a9 a8bc a4c3 37bd 07c7 febc 9343 f33c
00000010: 681f 413c e52c 553d 0837 993c 6fbd 56bd
00000020: 2788 f23c abfa 1e3d d024 17bd 60b9 b93c
00000030: bb05 1fbd 7f67 8abc 1a00 8dbd 896b 063d
00000040: 7d3d 323d 347e 533d 23ac 323d 2804 093d
00000050: 6bb8 03bd 1b80 f3bc a70c 4a3d 43f4 1c3d
00000060: b623 1fbd bc77 b43c 6dda 0d3d 05f6 f73c
00000070: f920 793d caa9 51bd 51b0 1ebd 56a8 05bd
-0.020588527 -0.04486431 -0.031100763 0.029695308 0.011787273 0.052044768 0.018702999 -0.05242675
0.029605938 0.038813274 -0.03690034 0.022671402 -0.038823824 -0.016895054 -0.06884785 0.032817397
0.04351567 0.05163403 0.043621194 0.03345123 -0.032158297 -0.029724171 0.049328472 0.038318884
-0.038852416 0.02202975 0.034632135 0.030268678 0.06082246 -0.051187314 -0.038742367 -0.03263124

net_stack.6.weight f4 [32, 32]
00000000: 65a1 103d 82fa 92bd a564 04be ef8d 49bd
00000010: a342 1c3e 7e6c cabd 13df 2ebe d576 e8bd
00000020: 875c c43d 263a c8bc 51c3 a43d dadb cfbd
00000030: 3b5a 29be 9ecc dc3d e410 59be d865 13be
00000040: a370 a83d 2690 f83c 2956 0f3d 9124 703d
00000050: 2801 34bc 1a04 fcbb 5f8e fb3d 0cd0 1f3d
00000060: 3f54 78bd aee7 013e a859 523c 07be 08be
00000070: c609 c23d 3eb8 51be ca35 84bd 03cd 0e3d
00000080: 88a0 b3bd 8c5a 133d 1808 7ebb 272c 08bd
00000090: 4c7c 54bd 04e9 f83c 6093 8abd d338 fcbd
000000a0: 71ad 073e 445a 2dbb 0b58 043d 46fe 6e3d
000000b0: 439b 9bbd 15ae 60bd 6864 e43d f816 bd3d
000000c0: f7b7 3a3d 22bd 3c3d 7520 1d3c 7350 5abd
000000d0: 7d69 16be 437e a53d 9520 253d fecd d73c
000000e0: 6498 143d 5151 81bc b314 98bd 35bf 153e
000000f0: a6d9 113d 2fce 09be d1d0 2ebe 792b b33d
00000100: 5452 0f3d 5130 4f3e cd4d 0abe 35e2 43bd
00000110: 4d6f 14be b86e d1bd 864f 023d e79c eabc
00000120: fad2 05bd 6346 9d3c 8e3c 5dbd 00e7 393d
00000130: 75bf 1abb 930d aabc 8666 2e3e f6ac 27be
00000140: a298 efbb 4be3 07be 29fb 98bd 1eab 83be
00000150: 7cb4 2a3e 29f6 a93c 0502 94bd 0e19 4a3d
00000160: 850c c8bd 30bd 70bd 8054 01bd 21df 333e
00000170: 5c8f 06be 5887 953b 6605 01bd 07ca a03c
00000180: 8c89 06be 4eab 4ebd 8f10 883d 767b f13d
00000190: 9267 723d 1fc0 6b3e fcc7 b23d d90b 1dbd
000001a0: f670 9f3d 3e7d b73c 2811 983d 6a6b 6d3c
000001b0: c649 883b 895f 8e3b 26ff f0bd 857d 523d
000001c0: c524 d93d c9e9 a23c 5c9d 143e 80d9 10bd
000001d0: 078f 87bc 2c84 cabd c596 ddbc 8e07 34bd
000001e0: 27fe 25be d11f 983d c5db 2f3e f618 6e3d
000001f0: 2440 bd3c b79d 20bc 4ed2 803c 5235 65bd
00000200: f108 06be 70e9 88bc cfaa 11be 7cf2 2d3d
00000210: f535 683c 83c3 ca3d 66b8 ad3d 975f 22bd
00000220: 0c05 263c 7430 fdbd 6096 553e 985c f33b
00000230: bafd 253d 695e a23d a639 c3bd 8c87 c5bd
00000240: d520 a5bc 9914 463e 54fe 373d 8cab b53d
00000250: cb06 3c3d c330 973c 2705 cebc 444e 223e
00000260: 93d8 bfbc ba05 ed3b 25fd 4ebd c7ce 053e
00000270: 892d 623b 69ad 1cbd 6066 f3bd bc48 e1bd
00000280: ddb5 903c 905f 1c3c 5b73 08be 3467 43bc
00000290: 9162 653d 9f93 cbbd c6c5 2dbd 0a4e 4b3e
000002a0: 1305 09bb f92d 9abd 6f55 61be 52a7 f43d
000002b0: 08ff d4b6 fdab ce3c d424 153d c8a4 403d
000002c0: b75f f53b 50e9 9d3d 658c d33c f03e 5c3e
000002d0: 4ef6 d2bd 572f 81bd 17c4 aa3d f012 94bd
000002e0: 9403 ebbd 4ebe 3e3d 0de9 78bd 5427 2a3e
000002f0: 47fe d5bc 4e0d 913c 7297 8dbc 93fd 9b3c
00000300: b288 493d 65af d53d 976f ad3d 1f18 2cbc
00000310: e8b2 a6bd 2517 25bb 6876 aa3c 6f80 d93d
00000320: a87c c13d 9025 4a3c 0708 103e 7cd0 f83d
00000330: c2d7 223e 6c87 e9bd 0c09 163d 76f3 cbbd
00000340: 9607 5d3c 0795 3c3d 074f febd d0c8 a73c
00000350: 5dee 273e 4713 ff3d 8143 cbbd 1875 243c
00000360: 37fa cd3d fe76 623d e78c 43be b7cb b33b
00000370: 4aa5 5ebd 5758 de3d 1a45 1cbe 2dcd 0a3d
00000380: 3c87 e0bc 5402 c03c 1212 69bc d4a6 2f3d
00000390: 2ccc 89bd 932f 743d cd11 cab9 ca6a 4bbb
000003a0: f7c3 9bbd 8977 cb3c 69f0 23bd c226 1c3d
000003b0: 1b32 69bd 9e23 faba b3a4 acbd 1c86 b83c
000003c0: 469e 723d 8bd2 26bc e757 28bd 75f0 283c
000003d0: 927c 6bbc b92f 38bd 8e94 e13d 244f a43d
000003e0: 5a94 6fbc ddd7 8e3c 1fb4 a43c 139e 6d3d
000003f0: 688f e23c 3a31 7dbd fa87 d93d 54d2 61bd
0.035310168 -0.07176687 -0.12929018 -0.049207624 0.15259795 -0.098839745 -0.17077284 -0.113507904
0.09587961 -0.02444179 0.08045066 -0.10149355 -0.16538326 0.10781215 -0.2119785 -0.14394319
0.08224609 0.030342173 0.034994278 0.058628622 -0.010986604 -0.0076909186 0.122830145 0.03901677
-0.06062722 0.12686035 0.0128387585 -0.1335374 0.094745204 -0.20480439 -0.06455572 0.034863483
-0.08770853 0.035975024 -0.0038762148 -0.033245232 -0.05187635 0.030384548 -0.06766391 -0.12315526
0.13249756 -0.0026451508 0.032310527 0.058347963 -0.07597973 -0.054853518 0.111519635 0.092328966
0.0455856 0.04607881 0.009590258 -0.05329938 -0.14688678 0.08080723 0.040314276 0.026343342
0.036278144 -0.015785845 -0.07425823 0.14623721 0.035607956 -0.13457559 -0.17071845 0.08748526
0.034990624 0.20233275 -0.13506241 -0.04782315 -0.14495583 -0.10226196 0.03181412 -0.02863927
-0.032671906 0.019198602 -0.054012828 0.045386314 -0.0023612652 -0.020758426 0.17031297 -0.16374573
-0.0073118964 -0.13270299 -0.0746978 -0.2571649 0.16670412 0.020747261 -0.07226948 0.0493403
-0.09768013 -0.058774173 -0.031574726 0.17565586 -0.13140625 0.0045632534 -0.03149929 0.019627584
-0.13138407 -0.050456338 0.06643783 0.117911264 0.059180804 0.23022507 0.0872955 -0.038341377
0.077852175 0.022398587 0.07425147 0.014490942 0.004159185 0.004344885 -0.11767416 0.051389236
0.10602716 0.019886868 0.14513153 -0.035363674 -0.016547693 -0.09888491 -0.027049432 -0.043952517
-0.16210233 0.074279435 0.17173679 0.058129273 0.023101874 -0.009803227 0.015725281 -0.055959053
-0.13089348 -0.016712874 -0.14225315 0.04246758 0.014173021 0.09900572 0.08482437 -0.039641943
0.010133039 -0.12362757 0.20858145 0.0074268095 0.040525176 0.079281636 -0.0953248 -0.09644994
-0.020157257 0.19343795 0.04492028 0.088706106 0.045904916 0.018455869 -0.025148941 0.15850168
-0.0234187 0.0072333487 -0.050534386 0.1306716 0.0034512004 -0.038251314 -0.11884761 -0.11000201
0.017664844 0.009544268 -0.13325255 -0.011926461 0.056002203 -0.09940266 -0.04242494 0.19853988
-0.0020907565 -0.075283 -0.22005247 0.11945976 -6.347782e-06 0.025228495 0.036412075 0.047032148
0.0074882167 0.077105165 0.025823781 0.21508384 -0.10300885 -0.063078575 0.083381824 -0.072301745
-0.11475292 0.046568207 -0.06076913 0.16616565 -0.026122225 0.01770654 -0.017284129 0.019041812
0.04920263 0.104338445 0.0846855 -0.010503798 -0.081395924 -0.0025190797 0.020808414 0.106202
0.094476044 0.012338057 0.14065562 0.1214914 0.15902618 -0.11402783 0.03662972 -0.09958546
0.013490578 0.04604056 -0.12417417 0.020481497 0.16399522 0.12454849 -0.09924985 0.010037683
0.1005749 0.05528926 -0.19096719 0.005486931 -0.05435685 0.10856693 -0.15260735 0.033887077
-0.027408235 0.02343861 -0.0142255 0.04288371 -0.06728396 0.059615683 -0.00038541705 -0.0031038993
-0.07605737 0.024837272 -0.040024195 0.0381229 -0.05693255 -0.0019084101 -0.084298514 0.022524886
0.059232973 -0.010182033 -0.041099455 0.010311236 -0.014372962 -0.044967387 0.11014663 0.080229074
-0.014622772 0.017436916 0.02010542 0.05801208 0.027656272 -0.061814524 0.106216386 -0.055132225

net_stack.6.bias f4 [32]
00000000: 6060 263d 8b5b 5c3d 2c4f a6bd edc6 303d
00000010: 0fd7 1d3d a8d6 183d 9737 83bd b0c1 4e3d
00000020: ba0f 1abd 5098 673d 08a5 303d 01bc 253d
00000030: a9c2 2b3d 6329 0b3d 7ecd 233d e60c d3bc
00000040: 8235 623d 5028 1a3d 652e 15bd 516e 163d
00000050: 7896 1d3d 43cf 5ebd 6de3 113d 2b43 7bbd
00000060: 4f4d 7ebd 1fa4 183d a3e7 2e3d d929 2dbd
00000070: 724f 2cbd bb95 f83c 9153 203d 0b19 393d
0.040619254 0.05379824 -0.081205696 0.04315846 0.038535174 0.037314087 -0.06407087 0.050477684
-0.037612654 0.05654174 0.043126136 0.040462498 0.04193369 0.033975016 0.039990894 -0.025762986
0.05522681 0.0376361 -0.0364212 0.0367263 0.038473576 -0.05439688 0.03561728 -0.061343353
-0.062085446 0.037265893 0.042701375 -0.042276237 -0.042067952 0.030344835 0.039142195 0.0451899

net_stack.8.weight f4 [1, 32]
00000000: de83 f2bd 2a9d 6fbd f487 493d 1cfc a3bd
00000010: 4f38 22be 96dd 2ebe a6a0 143d 90bb abbc
00000020: 9fae c53d 04b8 dfbc a824 d1bd 95ad 32bd
00000030: dda7 b6bd f2be 5ebe d80d 0bbe eca8 d63c
00000040: 26ec 94bd 5d02 61bd 1b66 3e3e 4482 1cbe
00000050: 0b78 ddbd 3d81 723d 9ac1 10bd 6fb4 413d
00000060: 9be5 413d 02cf cebd f1be b5bd b167 9a3d
00000070: ea08 bb3d 4ae1 32be 9ffb eabd 2fca 81bd
-0.11841558 -0.058499493 0.04920192 -0.080070704 -0.15841793 -0.17076716 0.03628602 -0.02096346
0.09652447 -0.027309425 -0.1021207 -0.043622572 -0.08918736 -0.21752527 -0.135795 0.026203595
-0.07271604 -0.054933894 0.18593638 -0.15284067 -0.10813912 0.059205282 -0.035340883 0.047291216
0.04733811 -0.10098077 -0.0887431 0.07539309 0.091325596 -0.17468753 -0.11473774 -0.063373916
