CAPSTONE/CAPMODELS/output/model_DEPG3.pth (torch, 22256 bytes, 7 tensors)

net_stack.0.weight f4 [64, 23]
00000000: f074 773d 64da 6c3d 93cc 06b9 ded0 24be
00000010: 4c0b 11be c515 5dbc 886a e03b 2e4f 81bd
00000020: 2d0e 68bd 4306 743d 58b0 8d3e 2dd2 203d
00000030: ba3f 593d 3f23 ad3d 70ac 16be f90c 0a3e
00000040: 7770 b13c 8b91 a5bd 3a93 cb3d 7a2b b9bd
00000050: 7ad3 4ebc 1aec bf3b c44b 473c c636 253d
00000060: 9622 113e 4daf c2bc b2fe 8ebd 68bc 40be
00000070: 0adc a8bd 5b96 7e3e 2222 7f3e 2122 273e
00000080: 0608 b13d 87bf 603e 19a5 903d 99c1 f6bd
00000090: 0c15 ac3c ea26 d63d d09a 083e ae26 1fbe
000000a0: 9914 6ebd 3322 8b3d 73a8 a6bd ffc7 1cbe
000000b0: 65d1 80bc be6d 95bc 062e 78bd 335f 0d3e
000000c0: 52db 1dbd 6a80 613c 262b e8bd 50df 1cbe
000000d0: 8ba9 91bb e889 b23d 7543 983d ebf7 063d
000000e0: 7ba3 bebc f8f6 98ba 0a1b 683c c83f 09bb
000000f0: 0a55 933d c76b eabd f431 38be 1ce8 ed3d
00000100: 3ed8 29be 1094 f13d e5ee 0bbe d333 6dbd
00000110: 0294 ed3d e98e 843c 7d21 0cbe 92f9 d4bd
00000120: 81ff f8bd a15b ffbd 7072 a3bd f893 063e
00000130: 58f2 ab3d e242 6bbd bd9d 02be 1bae 15be
00000140: 13d7 1a3c 52b9 eabd 8f55 c23d bd34 d63d
00000150: d43b a5bc 99f9 f1bd 0a4e b2bb eb0f ab3d
00000160: 8d60 d7bd 3fd8 e83d c592 653c da6e a9bd
00000170: 3d8f 323d 518f 9e3d fdb8 ce3d 3c46 3abd
00000180: a283 92be ebd6 413d 6f9a ebbc 25ff a5bc
00000190: 9db9 fe3c 36f5 c03d b654 e93d 68f3 2abd
000001a0: 922b 83bd 354f 3fbe e547 223d bd38 993d
000001b0: b53e 6dbc 1470 35bd 7b8b c6bc 63a1 19bc
000001c0: ae26 e43d 884a a1bd 0891 23bd 6a12 e83c
000001d0: 2b04 87bd cbf2 253d 894b 743e 74ea 8cbd
000001e0: ab71 e53d 4551 243d 3800 4c3e 6cca efbd
000001f0: 48f6 2ebd 28b1 e23c c1b2 27bd ab84 b93d
00000200: e68c da3c 7d50 cc3b 160a bcbc 67a9 9cbd
00000210: 08bd 173d 23dc e6bd 032d 9d3d 3856 783b
00000220: 461b 67bd 873b db3d daf0 23bc d0ed 8e3e
00000230: 8eae 6d3d 86a9 b8bd ee4b 29be fdd0 763e
00000240: 8066 7cbc c61a 70bd 0d47 c4bd 5397 143d
00000250: 18bf 3f3d 7887 ca3d 7766 cd3c db78 413d
00000260: cbf3 793d bad0 adbd 3120 fdbc 6155 3fbe
00000270: 0225 0a3e a7d4 c0bd e412 193d 4aa9 a43d
00000280: a1b4 a4bd 1883 f7bb 7e1a 2fbd 7bd4 f4bc
00000290: a294 63be cb50 23be 945c 263e 04a2 7f3b
000002a0: c0aa 0ebe 47c0 debc 410b 9e3d 298c 803d
000002b0: 147d 113e d390 3c3e 64ed 9a3c 461c 883b
000002c0: 49f4 f53d 89e8 06be be80 dbbd 57e0 a8bd
000002d0: 3b49 f2bb e8b2 063d eb90 603d 00f1 523e
000002e0: 09ec 243e f121 8a3e 9412 0dbe 46d7 85bd
000002f0: 9e73 cabd 1d6a a6bd c19c cdbb 02e3 aebc
00000300: 3cae 053e 725a 083e dcea ff3c 8d32 bc3d
00000310: 213e b93d 79c2 803e ae47 a13d 07e7 103d
00000320: 69b8 92be 4ea9 fabd f37a 6b3d 4cbf 2bbd
00000330: 3088 653c 26d7 083e a44c bd3d 9a17 8b3d
00000340: 8e63 653d 4101 853d 5d9a c7bd ba60 edbd
00000350: b1b7 1e3d 06b8 963d e69f ac3d 2114 2bbd
00000360: 9792 b2bd ef14 3d3e 19dd 873d de10 df3c
00000370: 7443 a8bc c179 1a3d 8d22 213e 53c8 c33d
00000380: 66fe ae3c 9535 95bc 47c9 adbd d985 f63d
00000390: 20f4 cebd 4c6a 6f3c 0906 f23d 63d3 363e
000003a0: cd9c 6b3d 5529 363c 670f 6cbd c6b5 1cbe
000003b0: 07ad 923c da60 22bd b98d cd3d 0c3e 79bd
000003c0: c60b 65be d982 b53c 7562 823d ccf4 a13d
000003d0: 1897 c0bb bcd3 193e ddec 8cbc fc29 2fbe
000003e0: 3fb2 9b3d d50f c8bd b638 ed3d e10b 1d3d
000003f0: c16d 06bd 5228 29be 0c37 b33d 7bbb 9ebe
0.060414255 0.05782546 -0.00012855446 -0.16095302 -0.14164466 -0.01349396 0.006848637 -0.063139305
-0.056654144 0.059576284 0.27673602 0.03926294 0.05303929 0.08453988 -0.14714217 0.13481511
0.021660073 -0.08084401 0.099401906 -0.090414956 -0.012623662 0.005857003 0.01216406 0.04033544
0.1417335 -0.02376523 -0.06982173 -0.18821871 -0.08245094 0.24862044 0.24915364 0.16321613
0.086441085 0.21948062 0.0706274 -0.120486446 0.02100613 0.10456641 0.13340306 -0.15542099
-0.058125112 0.06793632 -0.08137598 -0.15310667 -0.015724847 -0.018240806 -0.060590766 0.13805847
-0.03853924 0.013763526 -0.11336355 -0.15319562 -0.00444526 0.0871771 0.074347414 0.032951277
-0.023271313 -0.0011670282 0.014166603 -0.0020942558 0.07193954 -0.11446338 -0.17987806 0.11616537
-0.16586396 0.11795819 -0.1366535 -0.05791075 0.11600496 0.016181426 -0.1368465 -0.10399164
-0.121581085 -0.12468649 -0.079808116 0.13142383 0.08395833 -0.05743683 -0.12755485 -0.14617197
0.009450692 -0.11461128 0.09488975 0.10459278 -0.02017013 -0.11815185 -0.005441432 0.083526455
-0.105164625 0.11369371 0.014012043 -0.082730964 0.043593634 0.07742179 0.100938775 -0.045477137
-0.28616053 0.047324102 -0.028760163 -0.020263264 0.031094367 0.0942177 0.113931105 -0.041736037
-0.06404795 -0.18682559 0.039619345 0.07481525 -0.014480283 -0.04429634 -0.024236431 -0.0093768565
0.1114019 -0.07875544 -0.039933234 0.028329093 -0.06592592 0.04051475 0.2385694 -0.06880656
0.11203321 0.040116567 0.19921958 -0.11708531 -0.04271534 0.027672365 -0.040941957 0.090585075
0.026678514 0.006235181 -0.022954028 -0.076494984 0.03704551 -0.112724565 0.07674601 0.0037893187
-0.056422494 0.10704713 -0.010006154 0.27915812 0.058027796 -0.09016709 -0.16532871 0.2410316
-0.015405297 -0.058619283 -0.09583864 0.036277127 0.0468131 0.0988912 0.025073273 0.047234397
0.061023515 -0.08487077 -0.03089914 -0.18684913 0.1349068 -0.0941556 0.03737153 0.08040102
-0.08042265 -0.0075534694 -0.042749874 -0.029886475 -0.22224668 -0.15948789 0.16246253 0.003900648
-0.13932323 -0.027191294 0.0771699 0.062767334 0.1420787 0.18414621 0.018912025 0.004153761
0.12009484 -0.13174643 -0.10717915 -0.082459144 -0.0073939837 0.032885462 0.054825705 0.20599747
0.16105665 0.2697902 -0.13776618 -0.06535201 -0.098853335 -0.08125708 -0.00627479 -0.02134848
0.13054746 0.13315752 0.03123992 0.09189329 0.09045053 0.2514837 0.07875 0.035376575
-0.2865632 -0.122393236 0.0574903 -0.04193048 0.01400952 0.13363323 0.09243134 0.06791611
0.056003146 0.0649438 -0.09746239 -0.11590715 0.0387494 0.073593184 0.08428936 -0.041767243
-0.08719366 0.18465017 0.06633968 0.027229723 -0.020539977 0.03771377 0.15735836 0.09559693
0.021361541 -0.018214026 -0.08485656 0.12037248 -0.10105157 0.0146127455 0.11817557 0.17854075
0.057522584 0.011118253 -0.057631876 -0.15303716 0.017904771 -0.039643146 0.10036797 -0.060850188
-0.22367772 0.02215712 0.063664354 0.079080194 -0.005877387 0.15022177 -0.017202789 -0.1710586
0.07602357 -0.09768645 0.115830824 0.038341407 -0.032819513 -0.16519287 0.08750734 -0.3100241

net_stack.0.bias f4 [64]
00000000: dd74 1abd 6e17 f6bb ed86 233d 1f9d 0d3b
00000010: 61d9 aa3c a742 1f3c ae20 d83b 9740 9a3b
00000020: 9f95 263a ce41 763b 6c11 ac3c baf2 9a3c
00000030: 1fb5 41bb 51ee 123d 2697 07bd ebdf 2a3b
00000040: 4f67 263c 5092 5c3c 3315 813c 0e87 2a3c
00000050: 0321 afbc 65ed f4bc 6d1c 813c 850e b63c
00000060: bc51 403c 95be b0bc dcfe b13b 79ae b63c
00000070: d7a9 b8bb 4eab b43b 24ab 28bc bbc8 fd3b
00000080: b17c c3bc 5353 35bc 0233 91bc 91c2 b139
00000090: d247 dcbc 9e38 ab3b 8f65 1d3c 3a4a 173c
000000a0: e22e 033c 5e89 81bc efe2 bdbc 7561 dc3c
000000b0: 8842 5bbb 0715 583c dc1f da3c 8e1d 40bd
000000c0: 47ca a4bc 2445 eebc d8fa 9bbb feec bcbc
000000d0: 7cc9 dabb 5948 9b3c ac86 c13c 8a93 5d3b
000000e0: 2db0 d73b 0754 c23a 4dcc 323c 06ed 903c
000000f0: 29d4 983b fd5c b83c a31e adbb 34fb c43c
-0.037709106 -0.0075101173 0.039923597 0.0021608544 0.020855607 0.009720481 0.0065956926 0.0047074067
0.0006354693 0.0037575844 0.021004401 0.01891457 -0.002955742 0.035871807 -0.03310313 0.0026073407
0.010156467 0.013462618 0.015757179 0.010408176 -0.021378046 -0.029898355 0.015760625 0.02222372
0.011738237 -0.021575252 0.005431993 0.022299992 -0.005635481 0.005513585 -0.010294709 0.007744876
-0.023863168 -0.011067229 -0.017724518 0.00033905034 -0.026889715 0.005225255 0.009606733 0.009234006
0.008006783 -0.015812572 -0.0231795 0.02690194 -0.0033456404 0.013188607 0.02662652 -0.046903186
-0.020115985 -0.029085703 -0.0047601275 -0.023062225 -0.006676851 0.018955396 0.023623787 0.0033809864
0.006582281 0.0014826067 0.010912967 0.017691147 0.0046639633 0.022505278 -0.005283193 0.024045564

net_stack.2.weight f4 [32, 64]
00000000: 5dfa c03d 4a0f a4bb 558d 2bbe 3f0e 283d
00000010: 8813 e8bd 3eb5 663c 348b 933b 9591 95bd
00000020: 092b d6ba dc97 2ebd b653 e23c 5ec5 bebd
00000030: b0eb 8ebd 2676 f8bd 9fda adbd cefe a23c
00000040: e2e6 4ebd ca12 03be a0df f33d 9bdd 0abe
00000050: de34 0bbd 5e58 24bd cea1 953d cca3 98bc
00000060: 465a 18bd f72e 873d e363 49be 66dd 0e3e
00000070: 39db 16be abe2 f5bd f744 483d 8826 d7ba
00000080: db87 f3ba c3cd 8f3d f69f 97bc 0d8b e6bc
00000090: 21f2 ff3d 8337 6e3e e954 a3bd 0524 d7bd
000000a0: 73ee 2ebd 543d cebd d31e 6a3c 4d9c 5bbd
000000b0: 5a79 7a3d ce06 56bd de32 dabc 478b 96bc
000000c0: 9756 2f3d 6ff4 873b 65c6 b13d 3ddb 6c3a
000000d0: e5d3 ee3d cd02 2cbd 1d88 ebbd 7c79 8e3d
000000e0: 17d0 98bc 3bee 863d 1444 453d 3b48 b3bd
000000f0: cf4e dd39 a065 ccbb fd78 db3d 9b76 9ebd
00000100: 6e16 4ebc 1dcc 663e d8a1 a23d 3d40 b6bc
00000110: 3eeb fc3d 17d8 ab3b addf 023e cd0c 413d
00000120: d941 733d f8ed 93bd c0c5 633d 6809 06be
00000130: 9d91 18be 776b d53d da56 4bbd e542 013e
00000140: 75b4 3cbd b22d a33d 0eec 7ebd a6f9 e53d
00000150: b35b 1abe a888 6bbd d062 8f3a 5b92 3f3e
00000160: 5b75 b0b9 3838 05be 4f79 583d df46 4d3e
00000170: 4f03 a03d f059 d7bd 7457 f93d 937c 3abe
00000180: 416b 41be 84a6 2fbb c8cc fd3d b368 7f3e
00000190: 4e4c 9b3d 0daf 363d 9e92 82bd 3aff 79bd
000001a0: 27f4 2abd bbdc 983d c387 a13c 70ba 253c
000001b0: dd32 b0bc e73a 5e3c c6ac 5ebd 4ea0 b8bd
000001c0: ed8c 823d fcba edbc a20f bdbd c87e 8a3b
000001d0: 1381 7b3e c079 ccbd 8992 debd 29eb 863d
000001e0: f145 b5bc 6b2e a1bc 16d1 2a3d ae22 923d
000001f0: c247 a3bb 89bb 8e3b 1c1b 3fbe 3294 cdbc
00000200: 096e ef3a d312 403d 4fa7 f3bd c42b 55bd
00000210: 027b ea3d 17f6 9a3d 1315 cf3c 1349 10bd
00000220: f4d4 ef3d e786 a43d e0ff 9abd 9a0c 143e
00000230: 9539 31bb d122 cc3c 37c1 2b3c 4bdd 9b3d
00000240: 1bb2 303d c069 a8bd cf75 7c3d 554f 4dbd
00000250: aae3 b5bd 855b 52be 58d7 98bd 8a69 9abd
00000260: 9cb8 a03d c67a 72bd 6799 423d c8dc ab3b
00000270: b444 983c d085 4ebe f1a5 4a3c daf2 08be
00000280: 3ac7 abbe 728c 7abd 386d a1bd e879 283e
00000290: 01a0 273c de00 babd f829 98bd f7fb ac3a
000002a0: f6ee e33d 757f b2bd d0a5 3bbe f08e 7ebd
000002b0: 369f 03be a8d5 223d eeb3 07be 2fd2 1a3e
000002c0: 1411 8b3d 6c81 08bd 7f9c c03d be81 a8bd
000002d0: 5f29 1dbd a1c7 34be 16e9 a0bc 87b0 eabb
000002e0: b1b1 2a3e fc68 14be 3c53 483e 470d 1ebd
000002f0: a1ca 703e a664 543d 33d7 51bd 659a fabc
00000300: 3872 8bbc e0e4 24be 1299 5dbd bc61 ad3d
00000310: 36ce c4bb 1d82 a3bd d01e 2d3e 09c0 153d
00000320: 628e 853c 3d31 873d ff34 693d 68a5 733d
00000330: 3b69 8dbd 137b 45bd e432 c53c 1e18 533e
00000340: 9e3b 02bd 4f78 29be 0d10 02be a946 66bd
00000350: 64b3 ce3d 35e7 a4bd bd16 a13b de7e 9c3d
00000360: 62c5 90bd a871 59bd 4e62 f63d 37b1 d8bd
00000370: 3513 713d beed afbd 322f 843d fcec 403d
00000380: d751 bb3c 2462 debd 1b19 43bd 2153 ea3c
00000390: 319b 04bd 903c 1abb d153 3b3e 4100 f03b
000003a0: afc8 e4bd e925 94bc cd9c 023e 30e1 f0bd
000003b0: 4260 e9bd 6260 50bd 65ef 2a3e 9441 073d
000003c0: 8cdd 863c f8e8 3cbe ca84 11ba ce9b 283e
000003d0: dd0f 573c 2604 bebd 919f a73d a9c6 ab3d
000003e0: 13ed 99bc 3fbb a43d a392 b1bd 312f 663c
000003f0: afba 05bd 8d8c e13d 754f e9bc ce52 143d
0.09422753 -0.0050067054 -0.16753133 0.04102921 -0.1133185 0.014081297 0.0045026783 -0.07303158
-0.001633973 -0.042625293 0.027627807 -0.093149886 -0.069785476 -0.1213191 -0.08488964 0.019896891
-0.050513156 -0.12800136 0.119078875 -0.13561098 -0.033985965 -0.040123336 0.073062524 -0.018632792
-0.037195466 0.06600755 -0.1966701 0.13951644 -0.14732064 -0.12006124 0.048893895 -0.0016414681
-0.0018579917 0.07021668 -0.018508893 -0.028142476 0.12497354 0.23263364 -0.0797518 -0.10504917
-0.04270787 -0.10070291 0.014289576 -0.053615857 0.061150886 -0.052252583 -0.026635583 -0.01837696
0.042807188 0.004149012 0.08680419 0.00090353546 0.116615094 -0.04199486 -0.11500571 0.06956765
-0.018653912 0.065884076 0.048160627 -0.08754011 0.00042211122 -0.0062377006 0.10716436 -0.07737466
-0.01257859 0.225388 0.079410255 -0.022247428 0.123495564 0.005244266 0.12780638 0.04713135
0.05938897 -0.07223123 0.05560851 -0.13089526 -0.14899297 0.10420888 -0.049643375 0.12623174
-0.046070535 0.079677 -0.062236838 0.11229257 -0.15074043 -0.057503372 0.0010939483 0.18708174
-0.00033656773 -0.13009727 0.052850064 0.20046566 0.07813131 -0.10515201 0.121748835 -0.18211584
-0.1888857 -0.0026802132 0.123925745 0.24942283 0.07582913 0.044600535 -0.06375621 -0.06103442
-0.041736748 0.07463976 0.019718057 0.010115251 -0.021508629 0.013563848 -0.05436399 -0.09014951
0.06374536 -0.029019825 -0.09231497 0.0042265393 0.24560957 -0.099841595 -0.10867793 0.06587822
-0.022128077 -0.019675454 0.041703306 0.07135521 -0.0049829194 0.004355852 -0.18662685 -0.02509508
0.0018267046 0.046892952 -0.11897146 -0.05204369 0.11449243 0.07566469 0.025278604 -0.03522594
0.117105395 0.08033543 -0.075683355 0.14457932 -0.0027042378 0.024918946 0.010483078 0.07610568
0.043138605 -0.08223295 0.06163579 -0.050124485 -0.08881314 -0.20542724 -0.074629486 -0.07539661
0.078477114 -0.059199117 0.047509577 0.005244825 0.018587448 -0.20168233 0.012368665 -0.1337389
-0.33550435 -0.061169095 -0.0788216 0.16452754 0.010231019 -0.09082197 -0.0742988 0.001319765
0.111295626 -0.08715717 -0.18324971 -0.062148035 -0.12853703 0.03975454 -0.13252231 0.15119241
0.06790367 -0.03332655 0.09404849 -0.08227871 -0.038369533 -0.17654277 -0.019642394 -0.007162157
0.16669346 -0.14493173 0.19563001 -0.03858688 0.23514797 0.0518538 -0.05123062 -0.0305912
-0.017022237 -0.16102934 -0.054101057 0.08465907 -0.0060060276 -0.079838015 0.16906285 0.036560092
0.016303245 0.06601188 0.056935307 0.059483916 -0.06904837 -0.048213076 0.024072118 0.20614669
-0.031795137 -0.165498 -0.12701435 -0.05621973 0.1009281 -0.08051912 0.0049160407 0.076413855
-0.07068898 -0.053086907 0.12030469 -0.10580676 0.058856208 -0.085902676 0.06454314 0.047101006
0.022866173 -0.108585626 -0.047631364 0.028604092 -0.032374565 -0.0023534633 0.18293692 0.007324249
-0.1117109 -0.018084483 0.12755127 -0.11761701 -0.11395313 -0.050873168 0.16692884 0.033021525
0.016463064 -0.18448246 -0.0005551098 0.16465685 0.013126341 -0.09278135 0.08184732 0.08387501
-0.018789804 0.08043527 -0.08670547 0.014049337 -0.03264874 0.11013136 -0.02848027 0.03621178

net_stack.2.bias f4 [32]
00000000: fd77 06bd e561 2ebc f271 123b 1ebe 7fbc
00000010: 8933 703c 5486 153d f234 aaba 0b8f db3c
00000020: 1585 2ebd 8f91 0b3c 6f5b 813c 2fb0 19bd
00000030: 3057 0fbd a6d0 4b3d d9a9 64bb 1b12 203c
00000040: 8b65 303c 7a4c 883d c22c 253c 124d 0dbd
00000050: 4e95 ac3b f416 013d 17c0 983c 4c58 303c
00000060: 6add a63c 964f 0ebc d05e fbba f3b7 b6bb
00000070: 0d93 8abb 003d 183d b75a 0a3c 505f 1e3d
-0.032829273 -0.010643457 0.0022345749 -0.015609292 0.014660724 0.03650506 -0.001298575 0.026801607
-0.042607386 0.008518591 0.01579067 -0.037521537 -0.034995258 0.04975953 -0.0034891276 0.009769942
0.010766397 0.06655212 0.010081472 -0.034497328 0.005266822 0.03151603 0.018646283 0.010763239
0.02036925 -0.008685967 -0.0019178037 -0.0055761277 -0.0042289556 0.03716755 0.00844448 0.038665116

net_stack.4.weight f4 [32, 32]
00000000: eec5 a43d f41f e93c c516 b63d 81c0 01bd
00000010: 666e 2dbd 2911 343e aaab 08bd 7cc2 003d
00000020: fbe3 e1bd 3a4f 133e 37ff 0abd cb65 d8bd
00000030: eb2e ce3d 6cd9 92bc 58c3 853d 3585 cfbd
00000040: 5dad 833d 1886 283d ec22 d33d 0719 5cbd
00000050: d169 72bd 3679 39bd 452a 4cbd 10f4 89bd
00000060: 5afe 6e3e fd16 da3b 573a 16be b9a5 523d
00000070: 1c8e 49bd 1398 19be 8b2f b5bd 639e 903d
00000080: 27d9 083e 6622 3fbd 606c 733d 85ee ba3c
00000090: 165e 633d 6e8e a0bd 7276 a63d 4b60 9e3d
000000a0: 1dd7 29bc 0e45 46bd 50d3 f03d 1647 93bd
000000b0: e145 003e 375d a4bd 4cfb d13d e706 593e
000000c0: 67d3 c8bd a6b6 433e a750 6d3d 5e44 2c3e
000000d0: e2bf a83d 1319 ca3d 1271 dd3c 4677 583c
000000e0: 1639 90bd f8f4 16be 1faf c33d 4a7c 863e
000000f0: 8f76 63be e5ed f83b aa0a 59be 7f60 05bd
00000100: 6cd0 70bc c945 c53d 437d 25bd 5b34 eb3d
00000110: 274e 9f3d 94fe febd 37b9 223d a991 983d
00000120: 30ae bf3d e185 903d ce6a 01be e90d 093d
00000130: ecd3 5abd 6c50 04bd 8ebf fbbc c983 4b3d
00000140: dd48 db3c ebfe 753d 32c6 cd3d 742e b43c
00000150: e395 5cbe c967 293d cc6b 32bd ffb3 c63c
00000160: 6065 94bd bb72 b33c 11fe 813d 043b 083e
00000170: 448a c63c 65dc 0e3e 56c8 e13d b105 77be
00000180: 4446 c13c 1444 1b3d 300e 07be 1ae1 b23b
00000190: b5b7 6b3d 8da2 963c c573 e63d b544 ecbd
000001a0: ef96 4d3e 755d ab3d 5c71 7d3e ecd4 253e
000001b0: 6fc3 26bd 3600 74bd 4115 b4bc fa4e 8d3d
000001c0: a9e4 12bd 59c0 8fbe 8371 18be 019f 2b3e
000001d0: f979 063e 7e22 0abe 15ba 123e bcfe 5c3d
000001e0: 20d2 3b3d a80d 213d 882a bb3d 3982 00bd
000001f0: cb6b d73d 7aac 4abe c600 f63c 7d4e 5d3e
00000200: 6410 1ebe 6642 da3d afa0 253d 9a0a 94bd
00000210: f8c9 0c3e 608e 62bd a2b7 31bd e147 3b3b
00000220: 9461 2dbd f5e2 d9bc 96b7 24bd ac24 e43c
00000230: e1fb 10be 70fa e8bc f98d 6bbd 7737 f83d
00000240: f621 d7bd 67ec 73bd 667e 34bd d6ef 56bc
00000250: 957c c3bd 9e36 1cbe 492e 563c cb76 97bc
00000260: dd70 ac3c ae79 ce3d a967 043e aef4 433e
00000270: 90c5 283e cbf6 983c 4548 48bd 9252 d43d
00000280: 4876 dabd 48fc c2bd 4069 1dbe 5ce5 6d3d
00000290: 0eb6 33bb 1be3 edbc 2b85 223e e33d 27bd
000002a0: 2ba1 f1bd 6587 393e 9baa 59ba 78b8 333e
000002b0: ea3d b4bd 8bdd 793e e548 e7bd 9e9a b2bc
000002c0: 7d89 873d 84de 9d3c 9d3b c33c d33e 323e
000002d0: 5ab8 5cbe a0e4 c33c a751 133c 194e 143d
000002e0: 5396 c7bd 20a6 843d 60ef dd3c 278b 003e
000002f0: 0bee b5bd 1361 86bd c884 cb3d 0390 84be
00000300: cc25 59bd e390 e3bd cce7 863d cbe8 0d3c
00000310: a78f 77bd 4f73 653e 601d f03d 72f2 a9bc
00000320: ccf5 23be 9d14 423e 2338 4b3d 7035 e2bc
00000330: 913e 4dbd 8e9c a3bd 2ccc 163e a9f7 3bbd
00000340: 64c8 143e 44d8 d2bd 512e 81bd 5089 15be
00000350: 8b42 a43d 3c33 41bd 44c0 6abc be7c 663c
00000360: 4221 763c 48e4 f03d 4221 5ebc 3199 01bd
00000370: f0f5 86bd 2b5f 9fbd db71 253e 749f c13d
00000380: 5f53 4c3e 15e7 b5bd 919a 44be c931 573d
00000390: 0f60 97bd 4379 e7bc 86e8 ca3d eae2 cf3d
000003a0: b3d8 d93d de38 ad3d de6f a83d 98f4 68bd
000003b0: 6e0b 103e 5af2 c23c 9048 c73d eac9 9fbd
000003c0: a4ee 68bd 054d 823d 59da 8e3c af22 573d
000003d0: 4c46 8b3d 2762 7a3d 8309 c43a 68ca 3b3d
000003e0: 1ae4 f1bd ffc8 d7bd a267 d5bd 03df 52bd
000003f0: 2d46 113e 8da6 683c 5d65 9a3d cbe2 01bd
0.080455646 0.02845762 0.08891062 -0.031677727 -0.042341612 0.17584671 -0.033366837 0.031435475
-0.11029812 0.14385691 -0.033934798 -0.105662905 0.10067543 -0.01792594 0.065313995 -0.10132829
0.06429551 0.041143507 0.10309395 -0.053734805 -0.059182946 -0.04528161 -0.049845 -0.06736004
0.23339215 0.0066555724 -0.14670692 0.051427577 -0.04920779 -0.14999418 -0.08846959 0.0706146
0.13364087 -0.046663664 0.059429526 0.022818813 0.05550965 -0.07839666 0.081280604 0.0773321
-0.010366228 -0.0484057 0.11759055 -0.07191293 0.12526657 -0.08025592 0.10253009 0.2119404
-0.09805947 0.19112644 0.057938244 0.16822955 0.08239724 0.09868064 0.027031455 0.013212031
-0.07042138 -0.14741886 0.09554886 0.262667 -0.22213195 0.0075967186 -0.21195474 -0.03256273
-0.014698129 0.09632451 -0.040402662 0.114845954 0.07778578 -0.12450901 0.039727416 0.074496575
0.093593955 0.070567854 -0.12638399 0.03346053 -0.05342476 -0.03230326 -0.030730989 0.049686227
0.026768142 0.06005756 0.100475684 0.021994807 -0.21541552 0.041358743 -0.043559834 0.02425575
-0.07245898 0.021905294 0.063472874 0.13303763 0.024235852 0.13951261 0.11024539 -0.24123265
0.023593076 0.03790672 -0.13189006 0.005458963 0.057548244 0.018388057 0.1125255 -0.11536542
0.20077108 0.08367435 0.24750274 0.16194504 -0.040713724 -0.059570514 -0.02198279 0.06899829
-0.0358626 -0.28076437 -0.14887051 0.16759874 0.13132466 -0.1348972 0.14328797 0.05395387
0.045854688 0.039319664 0.091389716 -0.03137419 0.10518607 -0.19792357 0.030029666 0.21611972
-0.1543594 0.10657196 0.040436443 -0.072285846 0.1374892 -0.05531156 -0.043388017 0.0028576779
-0.042329386 -0.02659748 -0.040214144 0.027849518 -0.14158584 -0.02843973 -0.057508443 0.12119954
-0.105045244 -0.059551623 -0.044065855 -0.013118705 -0.095452465 -0.1525521 0.013072559 -0.018489262
0.021049911 0.10081802 0.12930168 0.19136307 0.16481614 0.018672368 -0.048897047 0.103673115
-0.106670916 -0.09520775 -0.15372181 0.058080062 -0.0027421745 -0.029038956 0.15871112 -0.040830504
-0.117983185 0.18118055 -0.0008303315 0.17550838 -0.08800872 0.24400918 -0.112932004 -0.021802243
0.06618021 0.019271143 0.023832137 0.17406778 -0.215547 0.023912728 0.008991635 0.036207292
-0.09745469 0.06476998 0.027091682 0.12553082 -0.08883294 -0.06561484 0.099374354 -0.25891122
-0.05301456 -0.11111619 0.065871805 0.008661459 -0.060439732 0.22407268 0.11724353 -0.02074549
-0.16011733 0.18953176 0.049614083 -0.027613372 -0.050108496 -0.07988845 0.14726323 -0.045890484
0.14529568 -0.10295156 -0.06307662 -0.14603162 0.080205046 -0.047168 -0.014328066 0.014067827
0.015022578 0.11762291 -0.013557734 -0.031640235 -0.065898776 -0.07781824 0.16156714 0.094542414
0.19953679 -0.08881966 -0.19199587 0.052537713 -0.073913686 -0.028256064 0.099076316 0.10150702
0.10637035 0.08458112 0.08224462 -0.056873888 0.1406686 0.023797203 0.09730637 -0.07802184
-0.05686821 0.063623466 0.0174381 0.05252331 0.068005174 0.06112876 0.0014956448 0.045847327
-0.11811085 -0.10536384 -0.10420157 -0.05148221 0.14186926 0.014199865 0.07538865 -0.031710427

net_stack.4.bias f4 [32]
00000000: c54a 1a3c 10d8 cebc 0645 c3bb c71b f1bc
00000010: ee70 1bbc 37e0 a93b 25c9 81bc 1373 28bc
00000020: 6cc5 d83b 18cf 2cbc a2fb a5ba 0bc4 f1ba
00000030: 73d2 113b 648c bebb 6d96 46bc b4dd dfba
00000040: 3590 083c 3e1b a03b 6693 b0bc 809b dcba
00000050: 60b5 82bc 2dc8 a6bb ada0 eb3c bfed 543c
00000060: aab0 693c 5db1 813b 0b62 bf3c ae2e 4bbc
00000070: a731 65bb 357f 4bbc e30a 20bc 314f 8fbb
0.0094172405 -0.025249511 -0.005959156 -0.02943219 -0.009487374 0.005184199 -0.015842983 -0.010281342
0.0066153314 -0.010547422 -0.0012663493 -0.0018445266 0.0022250682 -0.0058150757 -0.012120825 -0.0017079622
0.008335163 0.00488606 -0.02155466 -0.001683101 -0.015955627 -0.005089781 0.02876314 0.012996136
0.014263311 0.003957911 0.02336218 -0.012401266 -0.0034972222 -0.012420465 -0.009768221 -0.004373454

net_stack.6.weight f4 [1, 32]
00000000: 73c5 5a3d df3f 39be 0e4e e8bd 7848 233e
00000010: 260d 633d 4023 febd 8120 d23d 6b8c 57ba
00000020: 5679 5cbe d1eb 373d 40b1 3a3e 5c42 fbbd
00000030: 5ef2 773d 00e0 9bbd 4907 e03d 0def 90bb
00000040: 3323 513e f7fb 5bbe 1e98 45be ac1f 2a3d
00000050: 3b1d 833d 1c40 babc d307 a0be a08e bdbc
00000060: bcf6 493e c99b dabd 617d 53be 7d1e c13d
00000070: c040 afbd 7776 e4bc 8f11 05be f352 df3d
0.05341096 -0.18090771 -0.11343013 0.15945613 0.05543246 -0.12409067 0.10260106 -0.0008222523
-0.21530661 0.044902626 0.18231678 -0.122685164 0.060533874 -0.07611084 0.109388895 -0.0044230283
0.20423584 -0.21482836 -0.1929631 0.04153411 0.0640206 -0.022735648 -0.3125597 -0.023139298
0.19723028 -0.10674245 -0.20653297 0.09429643 -0.08557272 -0.02788852 -0.1299498 0.10904493
