CAPSTONE/CAPMODELS/output/model_DEPG2.pth (torch, 17392 bytes, 5 tensors)

net_stack.0.weight f4 [64, 23]
0	0xbd17b7d9	-0.037040565
1	0x3d74c170	0.05975479
2	0x3db51731	0.08842314
3	0x3d19ed4f	0.03757983
4	0x3e08a0c3	0.13342576
5	0x3e0b4c88	0.13603413
6	0x3de889b6	0.11354391
7	0x3d1fb3eb	0.038989943
8	0xbd6fd1ab	-0.058549564
9	0xbceebced	-0.029142821
10	0x3da18b58	0.07887906
11	0x3e862828	0.26202512
12	0xbdd946fe	-0.10609244
13	0x3b656261	0.0035001265
14	0x3dd7a25b	0.10529014
15	0xbd2f083b	-0.04273246
16	0xbe5ea578	-0.21742809
17	0xbd5468f4	-0.051857904
18	0x3cdb5aad	0.026776636
19	0xbb8a479c	-0.0042199623
20	0xbdcff0e3	-0.10153367
21	0x3d0b9091	0.034073416
22	0x3d3b0670	0.045660436
23	0x3b403cf1	0.00293332
24	0xbd8f534d	-0.0699831
25	0x3d9c2760	0.07624698
26	0x3e365d1e	0.17808959
27	0xbeb870b1	-0.36023477
28	0x3e269480	0.16267586
29	0x3e1f4ca3	0.15556578
30	0x3d0300ed	0.031983305
31	0x3d926384	0.07147887
32	0x3b0824b2	0.0020773825
33	0x3e07f678	0.13277614
34	0xbe0e0b1b	-0.13871424
35	0xbadef693	-0.0017010741
36	0x3d50dfa1	0.05099452
37	0x3c852864	0.016254611
38	0xbc4efb86	-0.01263321
39	0xbdaf4483	-0.085579894
40	0xbdbd784c	-0.092514604
41	0x3c8c6869	0.01713963
42	0xbc8e543b	-0.017374149
43	0x3ba5a644	0.005055221
44	0x3e13b48f	0.14424346
45	0xbd823407	-0.0635758
46	0x3d9e840b	0.07740029
47	0x3d9d63d9	0.0768506
48	0xbdeab41a	-0.11460133
49	0xbe3770f2	-0.17914179
50	0x3e4445c2	0.19167235
51	0x3bff111f	0.0077840234
52	0x3d2a5470	0.041584432
53	0x3e8d180f	0.27557418
54	0xbd4bac14	-0.049724653
55	0x3de223f9	0.110420175
56	0xbdb93459	-0.09043188
57	0x3d5c42f6	0.053774796
58	0x3e887cd6	0.26657742
59	0xbc4455d1	-0.011983351
60	0x3a18c66c	0.0005827907
61	0xbdc4da7e	-0.096119866
62	0xbd8511ab	-0.064975105
63	0xbdfd530e	-0.12369357
64	0xbdafd54a	-0.085856035
65	0x3db8fc7c	0.090325326
66	0x3d2a7bba	0.0416219
67	0xbd06d223	-0.032915246
68	0xbcf3051a	-0.029665519
69	0xbdbf93d9	-0.093543716
70	0x3b6a4ea6	0.0035752445
71	0xbd287efe	-0.041136734
72	0xbe1d8056	-0.15380988
73	0x3db30ace	0.08742295
74	0xbdfe0c93	-0.12404742
75	0xbdc5fc03	-0.09667208
76	0xbdb4b65b	-0.08823844
77	0xbd871002	-0.0659485
78	0x3ddc0efe	0.10745047
79	0xbda7f316	-0.08200662
80	0x3bd5c235	0.0065233954
81	0x3d83224b	0.06403025
82	0x3dcb3c29	0.09923584
83	0xbda7cebc	-0.08193728
84	0x3d84fc37	0.06493419
85	0xbd97390b	-0.07383927
86	0x3de19ab2	0.11015834
87	0xbe3d58ab	-0.18490855
88	0x3d920675	0.07130138
89	0xbdfe52ff	-0.12418174
90	0xbdfe3a31	-0.12413443
91	0x3d862f1e	0.06551956
92	0x3e0d11c1	0.13776304
93	0xbc879099	-0.016548442
94	0x3c568481	0.013093115
95	0xbe096cdc	-0.13420433
96	0xbd33a1e7	-0.043855574
97	0x3d073245	0.033006925
98	0xbcecbaad	-0.028897608
99	0x3d9f62ee	0.07782541
100	0x3e2c5a86	0.16831407
101	0x3e1b8266	0.15186462
102	0x3dbf2371	0.09332932
103	0x3deed48e	0.11661635
104	0x3dd9075a	0.10597105
105	0x3c6a9cdb	0.014319624
106	0xbe4af129	-0.19818558
107	0xbe21fb05	-0.15818413
108	0x3d85ab1e	0.06526779
109	0x3dd41b55	0.10356776
110	0x3ce952f8	0.028481945
111	0x3ddd5722	0.10807635
112	0xbb4b2320	-0.0030996278
113	0x39b2151a	0.00033966528
114	0xbcdcbd51	-0.026945742
115	0xbdf977ac	-0.12181029
116	0x3d736933	0.059426498
117	0xbd814085	-0.06311134
118	0xbda37ffc	-0.079833955
119	0x3d5b1b6e	0.053492956
120	0xbd5c5c9c	-0.053799257
121	0x3d629940	0.05532193
122	0x3b816efd	0.0039499984
123	0xbcfda5a3	-0.03096277
124	0x3d83224f	0.06403028
125	0x3cd5332f	0.026025383
126	0x3d234a18	0.039865583
127	0x3daa46f4	0.083143145
128	0x3c9b7d89	0.018980758
129	0xbd76bf45	-0.060241003
130	0x3c8f034b	0.017457625
131	0xbdb60686	-0.08887963
132	0xbcb5d6bd	-0.022197122
133	0xbaaaf266	-0.0013042211
134	0x3e5a2be9	0.21305813
135	0x3e00d122	0.12579778
136	0xbdf701c2	-0.12060882
137	0x3d585f73	0.052825402
138	0x3d643405	0.055713672
139	0x3e4e2571	0.2013147
140	0xbc8a9bc8	-0.016919985
141	0xbe25cfba	-0.16192523
142	0x3e485c2e	0.19566414
143	0xbd90ff6c	-0.07079968
144	0xbd433231	-0.047655288
145	0x3b3f41da	0.0029183538
146	0xbdc9e75a	-0.0985858
147	0x3ca482dd	0.020081932
148	0x3da2c604	0.07947925
149	0x3de0c9ad	0.109759666
150	0xbd991e90	-0.074765325
151	0x3d8c2ebd	0.06844852
152	0xbd1a0341	-0.03760076
153	0xbd398645	-0.045294065
154	0x3dfb78af	0.12278878
155	0x3d0b0dea	0.033948816
156	0x3e058c3d	0.13041778
157	0x3e0d2933	0.13785248
158	0xbe132154	-0.14368182
159	0x3d4285a5	0.047490735
160	0x3dca0f66	0.09866218
161	0x3d184d87	0.03718331
162	0x3cfc46eb	0.030795535
163	0xbda5c580	-0.08094311
164	0x3e2fc96c	0.1716668
165	0x3e52554f	0.20540355
166	0x3e86d1ec	0.26332033
167	0xbdaf3dee	-0.08556734
168	0x3d019059	0.0316318
169	0xbd5a4dc9	-0.053296838
170	0x3db0cdc3	0.08632996
171	0x3e05e180	0.13074303
172	0x3e12a470	0.1432054
173	0xbde8e85c	-0.11372444
174	0xbde44afd	-0.111471154
175	0x3cac2b6e	0.021016803
176	0xbb683d95	-0.0035437096
177	0x3e52843d	0.20558257
178	0x3d083288	0.033251315
179	0xbd97799a	-0.073962405
180	0xbe3a6f79	-0.18206586
181	0x3d9c2e18	0.07625979
182	0x3c279885	0.010229235
183	0xbe075724	-0.13216835
184	0x3e0758c2	0.13217452
185	0xbe7ea008	-0.24865735
186	0xbe0f53cf	-0.13996814
187	0x3e1dbb04	0.15403372
188	0xbdff1136	-0.124544546
189	0x3d8e0df4	0.06936255
190	0xbd3170ba	-0.043320395
191	0xbdf0a2d5	-0.11749808
192	0xbb9d358c	-0.004797643
193	0x3d4ec73c	0.050482973
194	0x3e24c8de	0.1609225
195	0xbd2bb54c	-0.041920945
196	0xbd13d2dd	-0.036089767
197	0xbd346aaf	-0.044047054
198	0x3d65b9fd	0.056085575
199	0x3e10f98d	0.14157696
200	0x3dced848	0.10099846
201	0x3e132a7a	0.14371672
202	0x3cd8be5b	0.026457956
203	0xbe25228f	-0.16126464
204	0xbdadfc60	-0.08495402
205	0x3d8e43d1	0.06946529
206	0xbc8d4a13	-0.017247235
207	0xbe1ed3f5	-0.15510543
208	0xbd7e8cdf	-0.062146064
209	0x3eae2703	0.3401414
210	0x3e18e190	0.14929795
211	0x3cfdfa7c	0.03100323
212	0x3d2ca342	0.042147882
213	0xbd727ca5	-0.0592009
214	0xbde59950	-0.11210883
215	0x3e0d6793	0.13809042
216	0xbcf12ad2	-0.029439364
217	0xbe15a312	-0.14612988
218	0x3d80e34c	0.062933534
219	0xbd98e5bf	-0.074656956
220	0xbc069328	-0.008213796
221	0x3a1f670e	0.0006080725
222	0x3e199912	0.14999798
223	0x3db41a9b	0.08794137
224	0x3dac2fe4	0.08407572
225	0x3e34cb6a	0.17655721
226	0x3d6fef18	0.058577627
227	0x3d92eb87	0.071738295
228	0xbaece06d	-0.0018072255
229	0xbe87b5c2	-0.26505858
230	0x3cf2d2fe	0.029641625
231	0x3c53d9f1	0.012930379
232	0x3deacb21	0.11464525
233	0xbe03b45a	-0.12861767
234	0x3dd9d96b	0.10637172
235	0x39adb50b	0.0003313202
236	0xbe1e1727	-0.1543852
237	0xbe2694a4	-0.1626764
238	0xbd343a26	-0.044000767
239	0x3b9c477b	0.0047692633
240	0x3e0fd3f6	0.140457
241	0xbcc6ca5e	-0.024266418
242	0x3d00d902	0.031456955
243	0xbcd4080c	-0.025882743
244	0x3da6facb	0.08153304
245	0xbdda6ffe	-0.10665892
246	0x3c2a340d	0.010388386
247	0x3cc2953b	0.0237528
248	0xbd85775e	-0.06516908
249	0x3e713be4	0.23558003
250	0xbdc5420b	-0.09631737
251	0xbd1383e4	-0.036014453
252	0xbc13abc8	-0.009013124
253	0xbc0fd595	-0.008778949
254	0xbe96a441	-0.2942219
255	0x3e04f7e8	0.12985194

net_stack.0.bias f4 [64]
0	0x3a22714e	0.0006196693
1	0xbcaca28d	-0.021073604
2	0x3be00e19	0.006837618
3	0xbc7cf34a	-0.015438864
4	0x3b3f5107	0.0029192583
5	0x3c2f00d8	0.0106813535
6	0x3c64d20d	0.013966096
7	0xbc70536f	-0.01466833
8	0xbc0425a8	-0.008065619
9	0x3b38ed90	0.002821777
10	0xbb1b5906	-0.0023704185
11	0x3caf58fe	0.02140474
12	0x3aa322fb	0.0012446338
13	0x3c4da71c	0.012552049
14	0xbbe204d4	-0.006897548
15	0xbc7e7be3	-0.015532467
16	0x3c232fad	0.009960097
17	0x3cb0a12a	0.021561224
18	0xbca0fc34	-0.01965151
19	0x3b9a4c35	0.0047087916
20	0xbcf0391e	-0.02932411
21	0xba038bb2	-0.00050180696
22	0xbc12cf6d	-0.008960587
23	0xbb00a415	-0.001962905
24	0xbb156db0	-0.0022800975
25	0x3c0e34b0	0.008679554
26	0x3a6a8227	0.0008945786
27	0xbc5d952b	-0.013524334
28	0xbc79e9be	-0.015253482
29	0x3b5ab7ea	0.0033373781
30	0x3c04d26c	0.008106809
31	0x3c5fb37d	0.013653633
32	0x3c4083e9	0.0117502
33	0x3c2be6b5	0.010492017
34	0xbc013e2f	-0.007888361
35	0xbc8336e3	-0.016017383
36	0xbc09016f	-0.008362158
37	0xbba4de50	-0.0050313845
38	0x3a890866	0.0010454773
39	0xbb557793	-0.0032572492
40	0xbb747b8e	-0.003730509
41	0x3ad9e995	0.0016625399
42	0xbbb306f4	-0.0054634754
43	0xbbc67830	-0.006056808
44	0x3cbe62c7	0.02324046
45	0xbc84950e	-0.016184356
46	0x3b5f0965	0.00340327
47	0xbc7e302f	-0.015514418
48	0xba9e26eb	-0.0012066042
49	0x3c0ffe87	0.008788711
50	0x3c2f201a	0.010688806
51	0xbc2976cf	-0.010343268
52	0xbc3f09cf	-0.011660053
53	0x397f1be9	0.00024329092
54	0x3cac8019	0.021057175
55	0x3a566c3f	0.0008179582
56	0x3b383a91	0.002811108
57	0xbaa51c81	-0.0012596996
58	0xb90d7a50	-0.00013492373
59	0xbc14dcac	-0.009085815
60	0xbc0cbf63	-0.008590552
61	0xbcd22844	-0.025653966
62	0xbc586e4f	-0.013209893
63	0x3c6746fe	0.014116047

net_stack.2.weight f4 [32, 64]
0	0x3cee4374	0.029084899
1	0x3dae5877	0.08512967
2	0xbcfc1547	-0.030771865
3	0x3e0d9c56	0.13829169
4	0xbe29faf4	-0.16599637
5	0x3dfbe8e2	0.12300278
6	0xbc24a168	-0.010048248
7	0x3d42f7f8	0.047599763
8	0xbdc6be12	-0.09704222
9	0x3e0da419	0.1383213
10	0x3df4eb94	0.119589955
11	0xbc0560d1	-0.008140759
12	0x3d49bb1a	0.0492507
13	0xbcda9da1	-0.026686491
14	0xbd3a7c59	-0.045528743
15	0xbcaa3ef8	-0.020781979
16	0xbe20bd87	-0.15697299
17	0x3e661aff	0.22471236
18	0x3de8fee3	0.11376741
19	0xbd69e3ca	-0.057102002
20	0x3c0dc604	0.008653168
21	0xbe3c8c8e	-0.18412992
22	0x3dffaa85	0.12483696
23	0x3e0141df	0.12622784
24	0x3cd4a0d4	0.025955595
25	0xbd9a4f7b	-0.07534691
26	0x3dcab14a	0.098970965
27	0xbe4a5f32	-0.19762877
28	0xbe80ab05	-0.25130478
29	0xbcd1cfdb	-0.025611809
30	0xbe3e7f9b	-0.18603365
31	0xbe7d64b4	-0.24745446
32	0x3d4c6b55	0.049907047
33	0xbdf35ebf	-0.11883306
34	0xb722edc0	-9.711308e-06
35	0x3a0c3c7b	0.00053495885
36	0xbcabf11d	-0.020988995
37	0x3ca2944e	0.019846108
38	0x3d396ddc	0.045270786
39	0xbdbe4445	-0.09290365
40	0xbd9c8eb8	-0.07644409
41	0xbc8148ce	-0.015781786
42	0x3e3aa4a6	0.18226871
43	0x3ca19138	0.019722566
44	0x3e0b1e9b	0.13585894
45	0xbda82aea	-0.0821131
46	0x3d364492	0.044498987
47	0xbddc9469	-0.107704945
48	0x3e082bc4	0.13297945
49	0xbd8637e1	-0.06553627
50	0x3d248519	0.040165994
51	0xbdde48eb	-0.10853752
52	0x3d3e16a2	0.046408303
53	0x3bd7c7fe	0.00658512
54	0x3de2bde2	0.110713735
55	0xbdfddb9a	-0.12395401
56	0xbdb8457b	-0.08997627
57	0xbd187ffe	-0.037231438
58	0x3b2b2768	0.0026116017
59	0x3d2187b3	0.039436053
60	0x3dd46526	0.10370855
61	0x3db047a9	0.08607418
62	0xbdfad494	-0.12247577
63	0xbcba4bae	-0.022741165
64	0xbcc2bad7	-0.023770733
65	0xbd51ae17	-0.051191416
66	0x3cf06f9c	0.029350094
67	0x3dbe15fa	0.092815354
68	0x3da71836	0.08158915
69	0x3d2ed21a	0.042680837
70	0xbceb2567	-0.028704358
71	0xbce6a787	-0.028156055
72	0xbd9c0073	-0.07617273
73	0xbe0ba79a	-0.13638154
74	0xbe05d7a1	-0.13070537
75	0xbd45c98c	-0.048287913
76	0x3d04159d	0.032247175
77	0xbdda9a7f	-0.10673999
78	0x3d032710	0.032019675
79	0x3d8b7839	0.0681004
80	0xbc1036ff	-0.008802175
81	0x3d2d00a1	0.042236928
82	0xbc54a81e	-0.012979535
83	0x3e1cb042	0.15301612
84	0x3d5763fe	0.052585594
85	0xbde7d458	-0.11319798
86	0x3e2e95eb	0.17049377
87	0xbd7cc3ec	-0.061710283
88	0xbcf3405f	-0.02969378
89	0x3c4c2f63	0.01246247
90	0x3d9c973d	0.07646034
91	0x3c286042	0.010276856
92	0xbdc8dced	-0.09807763
93	0xbdb9608d	-0.09051619
94	0xbdac4052	-0.084107056
95	0xbd5265af	-0.051366504
96	0x3d53873d	0.051642645
97	0xbc73aad4	-0.014872272
98	0xbd327378	-0.04356715
99	0xbd79aa44	-0.060953394
100	0x3dd4c0e2	0.10388352
101	0x3db17b71	0.08666123
102	0xbd5a5e2f	-0.053312477
103	0x3c7a8a7f	0.015291809
104	0x3e409e84	0.18810469
105	0xbd1cd23d	-0.038286436
106	0xbdd68667	-0.10474854
107	0xbdd56dfb	-0.10421368
108	0xbe38c52b	-0.18043964
109	0xbe08b1ca	-0.13349071
110	0xbdd04c8b	-0.101708494
111	0xbb245a47	-0.0025078224
112	0x3de67a0b	0.112537466
113	0x3e329108	0.17438138
114	0xbd063f86	-0.032775424
115	0xbd052e0c	-0.032514617
116	0xbd344484	-0.044010654
117	0xbd4c8b99	-0.04993782
118	0xbdc78c29	-0.0974353
119	0x3d880652	0.066418305
120	0xbd539482	-0.0516553
121	0x3d969a41	0.0735364
122	0x3cebf083	0.028801208
123	0xbcc56a70	-0.024098605
124	0xbbb1a03d	-0.005420713
125	0xbd491751	-0.049094502
126	0xbdf10210	-0.117679715
127	0xbe0a7251	-0.13520171
128	0xbd656685	-0.056005973
129	0xbe0d0164	-0.13770062
130	0x3dbab5cd	0.09116707
131	0x3d7e4a8c	0.062082812
132	0xbc44fb29	-0.012022772
133	0x3ca34001	0.01992798
134	0x3e2b824c	0.16748923
135	0x3e288712	0.16457775
136	0xbcecf8a6	-0.028927159
137	0xbdb9f727	-0.09080344
138	0x3e10e2a4	0.14148957
139	0xbd0149f1	-0.031564657
140	0x3d4f3b35	0.050593574
141	0xbd06470f	-0.03278261
142	0x3e4a01dd	0.19727273
143	0x3e29bf80	0.16576958
144	0xbd865dd7	-0.06560867
145	0x3d8fe054	0.07025209
146	0xbce17229	-0.027520256
147	0x3d45251f	0.048131105
148	0xbe014440	-0.12623692
149	0x3c869b5c	0.016431503
150	0x3de2ebda	0.11080141
151	0x3d2cb789	0.04216722
152	0x3b6bc492	0.003597532
153	0xbd8b29e2	-0.06795098
154	0xbdb75495	-0.089516796
155	0xbdde2971	-0.10847748
156	0xbdeebb10	-0.11656773
157	0x3d34ad3c	0.04411052
158	0xbd17e3c3	-0.037082445
159	0xbddce13f	-0.1078515
160	0x3ddcb158	0.10776013
161	0xbe44acad	-0.19206496
162	0x3e22284a	0.15835682
163	0xbe0054f8	-0.12532413
164	0xbdacc4c7	-0.0843597
165	0x3d9f936b	0.077917896
166	0x3c567f6a	0.013091901
167	0xbd3c0230	-0.045900524
168	0xbdee778f	-0.11643898
169	0x3b88da3c	0.004176406
170	0xbe24ba00	-0.16086578
171	0xbcaba8f8	-0.020954594
172	0xbdc03a18	-0.093860805
173	0xbe32137c	-0.17390245
174	0xbca76bec	-0.020437203
175	0x3e086f6b	0.13323753
176	0x3e81f6e1	0.25383666
177	0xbdaa5b10	-0.0831815
178	0xbdd1cfbd	-0.10244701
179	0xbd0811e8	-0.0332202
180	0xbdbb866c	-0.09156498
181	0x3c77ad38	0.015116982
182	0x3a9a32d5	0.0011764417
183	0x3c8a6418	0.016893432
184	0xbd93f85b	-0.072251044
185	0x3d94f48a	0.072732046
186	0xbb0dec16	-0.002165561
187	0xbd0f02d8	-0.03491482
188	0xbddb93d7	-0.107215576
189	0xbd9c8b05	-0.07643703
190	0xbc0674b8	-0.008206539
191	0x3e274419	0.16334571
192	0x3db43e68	0.088009655
193	0xbd56a310	-0.052401602
194	0x3cab771e	0.020930823
195	0x3d0ba3f2	0.034091897
196	0x3d255663	0.040365588
197	0x3e2333a6	0.15937671
198	0xbca15de2	-0.019698087
199	0xbd39a50a	-0.04532341
200	0x3df87b17	0.121328525
201	0x3da5ca57	0.08095234
202	0x3d95af83	0.07308867
203	0x3d806175	0.062685885
204	0xbe0e80af	-0.13916276
205	0x3e32df13	0.17467909
206	0xbd96ce8e	-0.07363616
207	0x3d7fbd14	0.06243618
208	0xbc969e2c	-0.01838597
209	0xbca1f79f	-0.019771395
210	0x3e0ab50f	0.13545631
211	0xbdf877d5	-0.12132231
212	0x3d2a625e	0.041597717
213	0x3d0d2414	0.034458235
214	0xbe8da8b4	-0.27667773
215	0x3e1825ae	0.14858124
216	0xbbe2cacd	-0.0069211484
217	0xbd826c31	-0.06368292
218	0xbd323b76	-0.043513738
219	0x3c2ce015	0.010551472
220	0x3e368383	0.17823605
221	0xbb1426e4	-0.0022606188
222	0xbd941d99	-0.07232208
223	0x3d5b0820	0.053474545
224	0x3d3afc89	0.045650993
225	0xbd8f0a4b	-0.06984385
226	0xbd69d50a	-0.057087936
227	0xbdb15385	-0.08658508
228	0x3e200084	0.15625197
229	0xbe3be4e1	-0.18349029
230	0x3cb83f78	0.022491202
231	0x3d8c5273	0.068516634
232	0x3d866db3	0.06563892
233	0xbd9ff137	-0.0780968
234	0x3e768568	0.24074328
235	0x3e12096f	0.14261411
236	0xbd96442e	-0.07337223
237	0xbb30f247	-0.0026999877
238	0xbe203e7e	-0.15648839
239	0x3da6ab26	0.08138113
240	0xbe329385	-0.17439087
241	0xbb3fc108	-0.0029259343
242	0xbccec9d4	-0.025242724
243	0xbd3bf919	-0.045891855
244	0xbdb1e31d	-0.086858965
245	0x3d02f097	0.031967726
246	0x3db20256	0.08691852
247	0xbcc5a2a1	-0.024125399
248	0xbdf9dee5	-0.12200717
249	0xbe1db09a	-0.153994
250	0x3ddcb359	0.10776395
251	0xbd8c03d7	-0.0683667
252	0xbdd7fddf	-0.10546469
253	0x3e23a285	0.15979965
254	0xbe178593	-0.14797048
255	0x3d2dda2d	0.042444397

net_stack.2.bias f4 [32]
0	0xbc6ba194	-0.014381785
1	0xbbbba706	-0.005726698
2	0xbb08be10	-0.002086524
3	0xbb8437f4	-0.0040349904
4	0xbc6d44af	-0.0144817075
5	0x3c191d9d	0.009345439
6	0x3c28551a	0.010274196
7	0xbb7f3ed1	-0.0038947354
8	0x3b908650	0.0044105425
9	0x3b6e3926	0.003634998
10	0xbc877a46	-0.016537797
11	0x3c5cb1a5	0.013470088
12	0xba3b422e	-0.00071433454
13	0xbbbb323c	-0.0057127755
14	0x3c141d20	0.009040147
15	0x3b65b0b0	0.003504794
16	0x3c5578b0	0.013029262
17	0xbb5efeaf	-0.0034026315
18	0x3b8f0956	0.0043651266
19	0x3b8476dc	0.0040424895
20	0x3a321826	0.00067937595
21	0xbc6e636f	-0.014550074
22	0xbaf5fdfc	-0.001876771
23	0xbbd12522	-0.0063826004
24	0xbbe77af1	-0.0070642163
25	0xbc0d95e6	-0.008641696
26	0xbc4e130a	-0.012577781
27	0x37a68f70	1.9855535e-05
28	0x3c122f0c	0.00892235
29	0xbba71a51	-0.0050995727
30	0x3bcc5af4	0.0062364284
31	0xbb39daa5	-0.0028359082

net_stack.4.weight f4 [1, 32]
0	0xbd3aab3f	-0.04557347
1	0xbd06cb88	-0.032908946
2	0xbeb1ba1e	-0.3471231
3	0x3df1b216	0.11801545
4	0x3d8c9cee	0.068658695
5	0xbdfd94f0	-0.12381923
6	0xbe54faa3	-0.20798735
7	0xbd71ef10	-0.05906588
8	0xbdd13910	-0.10215962
9	0xbddded73	-0.108363055
10	0x3dd1ee60	0.102505445
11	0xbdaa42f7	-0.08313554
12	0x3df1e53c	0.11811301
13	0x3c5f9f56	0.0136488285
14	0xbe924d26	-0.28574485
15	0xbe6bea0c	-0.230385
16	0xbdf2e3ca	-0.118598536
17	0xbd50edba	-0.051007964
18	0x3d41f0e4	0.04734887
19	0xbd3a9f45	-0.045562048
20	0x3e425841	0.18978979
21	0x3e574993	0.2102416
22	0x3dce5d6f	0.10076415
23	0x3d5399f1	0.05166048
24	0xbe049dcb	-0.12950818
25	0xbdc7a8b3	-0.09748974
26	0x3df13232	0.11777152
27	0x3dfb553c	0.122721165
28	0x3df08b0b	0.1174527
29	0x3e177c80	0.14793587
30	0x3c12a599	0.008950614
31	0x3db79974	0.08964816
