CAPSTONE/CAPMODELS/output/model_DEPG4.pth (torch, 17392 bytes, 5 tensors)

net_stack.0.weight f4 [64, 23]
000000 f0 28 63 bd 76 46 fe 3d 2a ba 14 bc 11 5e ab be
       -0.055458963 0.12415783 -0.009077588 -0.33470204
000010 5b b1 33 3e 58 d8 80 bd 73 cc 05 3e 3a ec 8c 3d
       0.17548124 -0.06291264 0.13066272 0.06880994
000020 b0 f1 36 3b 5e ab 2e 3e f8 64 97 3c 93 68 36 3d
       0.0027915053 0.17057559 0.018480763 0.044533323
000030 cd ce 10 3e f1 ab f3 3a 0b f0 a3 bd f2 bc 80 be
       0.14141388 0.0018590671 -0.08004769 -0.25144154
000040 22 0d 39 bd dc 90 82 bd b5 e0 aa bc ae 1b fa 3d
       -0.04517854 -0.06375286 -0.020859102 0.12212311
000050 d8 b3 fb 3d 59 93 b3 3d 43 c2 84 3d c3 0f 15 bd
       0.12290162 0.08768339 0.06482365 -0.036391985
000060 1f 58 b1 3b 0b 12 9a 3c 95 26 30 3d 55 93 c0 bc
       0.005412116 0.018807432 0.043005545 -0.023507753
000070 9b 6a e4 bd 32 9f 6f 3c c7 31 fc bc fa e3 ba bb
       -0.11153146 0.014625357 -0.030785454 -0.0057034465
000080 aa 1f 4a 3d 3c 41 6f 3d 0c 72 2a be 68 9d af be
       0.049346603 0.05841182 -0.16645068 -0.3429978
000090 61 ae 0c 3d f4 aa 82 bd 04 e3 b5 3d 36 25 cc bd
       0.03434599 -0.06380263 0.088811904 -0.09968035
0000a0 99 6c d9 3b fd 05 64 3d c6 7e 04 be 48 5a fe 3d
       0.0066352603 0.055669773 -0.12938985 0.124195635
0000b0 4d 99 ce bd 49 e0 e1 3d 03 32 39 3e 00 89 e0 3d
       -0.100878336 0.11029107 0.18085484 0.10963631
0000c0 68 6c 02 be b9 80 2b be d0 f5 4a 3c 5d 92 00 3e
       -0.12736666 -0.16748323 0.012387708 0.12555833
0000d0 6c a8 09 3d c2 a8 39 3e 9e 13 a9 bd 60 d6 5e 3d
       0.033607885 0.18130782 -0.08255695 0.054403663
0000e0 d4 06 89 3c 0b 95 ab 3d 62 a2 df ba 4e fa 39 3e
       0.016726889 0.08378037 -0.0017061944 0.1816189
0000f0 25 d0 e3 bd b8 52 d6 bd 1c a3 35 3e 1d f1 ce 3c
       -0.11123685 -0.10464996 0.17738003 0.025261456
000100 e3 99 04 be ce bb 1e 3e 28 16 33 be 5b 46 14 be
       -0.12949328 0.1550133 -0.1748892 -0.14479963
000110 7c 1c b5 3d 72 50 c0 3d ea e0 de 38 af e7 4e 3d
       0.088433236 0.09390344 0.000106276784 0.05051392
000120 75 12 0f 3e 89 b8 06 be e0 6d c0 bd 7f cd 14 bd
       0.13971885 -0.13156332 -0.09395957 -0.03632879
000130 54 8f 4a 3d 30 48 f7 bd fe 2f 0e be 9b 0b c7 3d
       0.049453095 -0.120743155 -0.13885495 0.097190104
000140 2a 87 23 be dc 50 e4 bc ed 04 3c 3d b2 98 36 3e
       -0.1596953 -0.027870588 0.045903135 0.17831686
000150 6b 0a 3c 3e 1e a1 8e 3d ef 23 92 bc 0f 8e ec 3d
       0.18363349 0.069643244 -0.0178394 0.11550533
000160 76 47 f3 3c 86 40 20 bd 46 7a fb bd e0 74 93 3c
       0.029697161 -0.039124034 -0.12279181 0.018000066
000170 04 9b c3 bd e2 7f b3 3d 24 90 2e bd 3d b5 a6 bd
       -0.09551051 0.08764626 -0.042617932 -0.08140037
000180 b7 f3 5a 3e 72 ae 91 bd 12 d8 86 bd 88 33 4d 3d
       0.21382032 -0.07113351 -0.06584181 0.050097972
000190 df e5 45 3e f1 c9 39 3d 4a cf 8f bd 1f 9d 9a 3d
       0.1932597 0.045358602 -0.07021959 0.075495
0001a0 85 44 0f bc 52 3f 65 bc 49 e3 b0 bd 79 43 c9 3d
       -0.008744364 -0.0139921475 -0.08637101 0.098273225
0001b0 67 9c ef bd 55 ea d3 bc b6 14 50 bc 1d ab 87 3d
       -0.11699753 -0.025868574 -0.01270025 0.06624434
0001c0 6d a6 9d bd bb 1a f1 3c 42 bc 00 3e 6f b4 fc 3d
       -0.07697759 0.029431691 0.12571815 0.123391025
0001d0 0f 67 e7 bd 94 45 a8 3c 37 18 3d 3e ae 62 03 3d
       -0.11298954 0.02054099 0.18466268 0.03207653
0001e0 84 d5 51 3d a1 4f ee 3d b2 ef 70 bd 85 a3 3a 3d
       0.051229015 0.11636282 -0.05882234 0.0455661
0001f0 f0 8d fc 3c 31 eb d1 3d 7e 30 82 be a6 72 76 3d
       0.0308294 0.10249937 -0.25427622 0.06016793
000200 e4 ad 10 3e bc 5b 0f 3e 3f d9 56 3c 92 04 5e 3d
       0.14128834 0.13999838 0.013113319 0.054203577
000210 fd 9b 71 3d 9b 7e 18 3d 48 fe 4c be 7d ed 77 3e
       0.058986653 0.037230115 -0.20018876 0.24211688
000220 69 23 b6 3d 68 b4 5d bd 4b a6 5b 3e a0 20 c5 bd
       0.08893473 -0.054127127 0.21450154 -0.09625363
000230 d4 4c 0b 3d 7f 8d 04 3e 69 2b 9c bd 1e dd e5 bd
       0.034008816 0.12944601 -0.07625467 -0.112238154
000240 20 0b c7 3d 84 2f 9f bc 1e 65 5c 3d 96 b0 1e 3d
       0.09718919 -0.019431837 0.05380737 0.038742624
000250 e2 b5 93 bc 5b da bd bd 18 ef bf bd ac 3c 37 be
       -0.018031064 -0.092701636 -0.093717754 -0.17894238
000260 cf c3 7b 3b 8f d4 e6 3d 08 80 38 3d 5e b0 28 3e
       0.0038416272 0.11271011 0.045043975 0.16473529
000270 64 a1 ee bc eb 99 ab 3c dd 0f 47 3d ec 9f 16 bd
       -0.029129691 0.020947417 0.048599113 -0.036773607
000280 df 64 a2 bd ce 9b 56 3d 61 dc d6 3d 8d 00 29 3d
       -0.07929396 0.05239468 0.10491253 0.04126029
000290 8a 3f ae be c8 67 9b 3d 4e 4e 60 3b c3 9d c8 3d
       -0.3403285 0.07588154 0.003422636 0.09795716
0002a0 85 d3 af bd 18 35 09 3c 6e 65 bc 3d fe 1e 9f 3c
       -0.08585266 0.008374475 0.09199034 0.019423958
0002b0 c6 a9 58 3e 16 87 b9 bd 84 2b d1 bd f1 fd 9b bc
       0.21158513 -0.09058969 -0.10213378 -0.019041987
0002c0 dc 13 4d 3c 83 2c 3c 3d 4b 5a fc bd d8 a7 0a bd
       0.012516942 0.045940887 -0.123219095 -0.033851475
0002d0 3d 99 0b 3e 1b e0 12 bd 49 5e b0 bc 12 e4 2f 3c
       0.13632675 -0.035858255 -0.021529334 0.010735529
0002e0 05 c5 02 bd 7e 2f 5d be c0 d7 dd 3d 66 40 e2 3d
       -0.031926174 -0.21600148 0.10832167 0.11047439
0002f0 a9 e1 c5 bd 10 8d 85 3d 8b 45 5d bd 0c 44 e6 3c
       -0.09662182 0.06521046 -0.0540214 0.02810862
000300 97 e7 32 3e 92 e4 be bc 54 56 2e 3e 08 df 45 3c
       0.17471157 -0.02330235 0.17025119 0.012077101
000310 b9 d2 96 3d 83 7f fd 3d cd fe 8c 3d dc 7c 01 bc
       0.07364411 0.123778366 0.06884537 -0.007903304
000320 bd d7 f9 ba 40 b5 a7 3d c2 8c d2 3d 43 0e 29 bd
       -0.0019061487 0.081888676 0.10280754 -0.041273367
000330 fa 9f 06 3e 88 f0 ef 3b a7 2a 38 3c c5 0d 00 be
       0.13146964 0.0073223747 0.011240638 -0.12505253
000340 0a b3 3e bd 0b b4 aa bb 01 83 bd bb ce a1 be bd
       -0.046557464 -0.005209451 -0.005783439 -0.093082055
000350 b9 c2 eb bc 82 f4 51 3e 64 31 e0 bd 95 d3 b8 bc
       -0.028779374 0.20503429 -0.109469205 -0.022561828
000360 ea 11 ca bd 66 88 05 3e 3b cb 82 bc 3c 29 a3 3d
       -0.09866698 0.13040313 -0.015966048 0.07966849
000370 33 56 1f 3e e4 93 aa bd 49 07 81 bd 0f 59 e7 3d
       0.15560226 -0.08328989 -0.06300218 0.112962835
000380 94 3e 55 bd 51 12 9f bd ff bc 89 3d 34 ce e5 bd
       -0.052061632 -0.077671655 0.06725501 -0.11220971
000390 02 c0 de 3d 81 ba 88 3c 28 2a 36 be d4 74 d3 3d
       0.10876466 0.016690494 -0.17789519 0.103250176
0003a0 ca 18 f1 bd 9b a3 26 3d 7d 8d 8d bd 1e 20 88 bd
       -0.11772306 0.04068337 -0.069117524 -0.06646751
0003b0 22 42 a4 bc 0e e8 26 be 3a 31 48 be 5d b6 15 bd
       -0.020051066 -0.1629946 -0.19550028 -0.03655087
0003c0 1c 22 21 bd 7b 4c 54 be 6f a6 c0 bd 66 d9 62 bd
       -0.03933917 -0.207323 -0.09406745 -0.05538311
0003d0 6b 43 9a bb 3c 6f d8 3d 48 b7 fc bb 58 a0 48 3e
       -0.004707744 0.10568091 -0.0077122785 0.19592416
0003e0 bb 2e 0a 3d 41 1e 87 3c 8b d8 94 bd 10 38 99 bc
       0.033735972 0.016493918 -0.07267865 -0.01870349
0003f0 51 bb 28 3d fe e8 83 bd cb eb e0 3d 4b 9c 24 be
       0.041194264 -0.06440924 0.10982474 -0.16075246

net_stack.0.bias f4 [64]
000000 d0 93 be 3c a0 da 91 bb 17 ff 00 3c 30 e4 7c 3c
       0.023263842 -0.004451111 0.007873318 0.0154352635
000010 bf 2b 18 3c a6 06 3d bc 97 a6 c7 bc cf 19 f5 3b
       0.009287774 -0.01153723 -0.024371428 0.0074798833
000020 fe 00 24 ba 5c b5 9a bc 9c 20 80 b9 69 a8 55 bc
       -0.00062562514 -0.018885307 -0.00024438358 -0.01304064
000030 29 d4 5b bc df 87 fb 3b 78 a6 cf bb 76 e1 8c 3c
       -0.013417282 0.007676109 -0.0063369833 0.017197352
000040 ad 36 79 bc 69 4a 81 3c 86 e0 50 3c 18 74 98 3b
       -0.01521079 0.015782552 0.012748843 0.0046525113
000050 60 1d a4 3c 22 ef ea 3b ca 9e b4 bb c8 22 9e 3b
       0.020033538 0.00716962 -0.005512093 0.0048259236
000060 dc a9 16 3c b6 77 89 3c fe 9f 0c bd 3b 20 76 3b
       0.009195771 0.016780715 -0.034332268 0.0037555832
000070 84 b4 01 bb 5c c3 1a 3c 2d 92 ca bb 9d 64 b0 bc
       -0.0019791434 0.009445991 -0.0061819763 -0.021532351
000080 12 2c af bc 47 fa dc bc 10 1a da 3b f7 5f 31 bc
       -0.021383319 -0.02697481 0.006655939 -0.010826102
000090 4b 5e db 3c 56 ac 59 bc 5b 92 84 bb 40 ed a4 bb
       0.02677836 -0.013285717 -0.0040457672 -0.005033165
0000a0 72 bd 39 bc 58 8a d6 bc 83 42 f6 3c df 17 73 bc
       -0.011336671 -0.026189014 0.030061012 -0.014837234
0000b0 ed a7 38 3c b2 e1 22 3c bc 88 87 bb 60 ed 3f bc
       0.011270505 0.009941505 -0.004136173 -0.011714309
0000c0 57 ef a1 ba 42 d2 74 bc 56 e3 3b ba 6c 73 cd 3a
       -0.0012354654 -0.0149427075 -0.00071673596 0.0015674657
0000d0 ef 16 5f 3b 59 bb 95 bc f5 6c 60 bb df b1 93 3c
       0.003404077 -0.01827781 -0.003424463 0.018029151
0000e0 af 8c 53 3c a1 e3 3c 3a 57 8e c1 bc c1 48 d4 3b
       0.01291196 0.000720555 -0.023627443 0.0064783995
0000f0 30 32 99 3a 32 18 94 bc 47 83 e0 3b bc 1a f7 bb
       0.0011687931 -0.018077943 0.006851587 -0.007541029

net_stack.2.weight f4 [32, 64]
000000 23 d8 2c bd 34 3a 57 bd e4 aa 0a be ec d8 2d bc
       -0.04219831 -0.05254574 -0.13541752 -0.0106108
000010 de 28 20 be 33 ef f0 bc b2 6b eb bc 0a fe d9 bd
       -0.1564059 -0.029410934 -0.028737877 -0.10644157
000020 73 ad df bd 12 f8 5a bd 88 99 cd bd eb 76 cb 3d
       -0.10921755 -0.053459235 -0.100390494 0.09934791
000030 6a af 0b bc 26 0c 04 3d b0 51 1e 3e 58 19 46 bc
       -0.008525709 0.03223815 0.15460849 -0.012091003
000040 98 3d f2 bd 59 48 02 3e 36 47 82 3d e8 0a ff bc
       -0.11828154 0.12722911 0.06361239 -0.03113313
000050 6b ac 9b 3a 73 7b 7b 3d 9b 45 ad 3d 10 c9 b8 3d
       0.0011876946 0.061397027 0.08460542 0.09022725
000060 51 fa 5b bd f1 94 93 bd 49 72 9d bd 92 f0 ba 3d
       -0.053705517 -0.07206143 -0.07687814 0.091279164
000070 c1 6e a2 bd 12 f0 c5 3d f9 9f 39 3d 6f bd e2 3b
       -0.07931281 0.096649304 0.045318577 0.006919555
000080 3b 44 a0 bc 2b 52 c4 bd 70 c3 6b 3d b8 38 78 bc
       -0.019563785 -0.09585985 0.05755943 -0.015150242
000090 28 81 4e 3e ea 00 27 bd 73 ac e5 3d 2d 49 75 3e
       0.20166457 -0.040772356 0.11214533 0.23953696
0000a0 03 57 54 3d 89 b5 67 3d 6c 5b 65 3d 4b 77 fe bd
       0.051840793 0.05656961 0.05599539 -0.12425097
0000b0 b2 cc fa 3b c6 ce fc bd f5 5a 77 3e 91 ca 2c bd
       0.007653796 -0.123441264 0.24155791 -0.04218537
0000c0 71 1f 7d bd 23 87 ac bd 91 af 9c 3c d3 23 b8 3d
       -0.061797563 -0.08424213 0.019126685 0.08991208
0000d0 49 28 28 3c 31 9c c7 bd 71 9c 3e 3c 38 c6 bd 3d
       0.010263511 -0.09746588 0.011633978 0.09266323
0000e0 99 1b cb 3d 0a ed 4b be 76 51 b3 3c 5c 69 b2 3d
       0.09917373 -0.19914642 0.02188943 0.08711502
0000f0 98 47 35 3d fa 47 b9 3c 5d ce e0 bd 44 20 0d be
       0.04425773 0.022617329 -0.10976861 -0.1378184
000100 94 2c a3 bc c0 5b a9 bd ff f3 42 bc 0a b9 34 3e
       -0.019918717 -0.08269453 -0.0118989935 0.17648712
000110 31 43 97 bd 8b 1a 89 3e d0 d6 d1 3c d8 bc 00 3e
       -0.073858626 0.26778063 0.025615126 0.12572038
000120 34 9a 13 3d 80 72 9e bd 26 d7 08 3e 30 14 3e bd
       0.03603573 -0.07736683 0.13363323 -0.04640597
000130 18 84 84 3d 28 c4 05 be 0b 74 ae bd 44 09 d0 3d
       0.064705074 -0.13063109 -0.08518227 0.10158017
000140 75 07 6e 3d 85 6b 52 be a1 f9 a2 3c 52 7b 92 bc
       0.05811258 -0.20548828 0.019894423 -0.01788107
000150 bd a3 ab 3d 26 3a b0 3d e3 ee a2 bb 21 2d cf bd
       0.0838084 0.08604841 -0.004972325 -0.101160295
000160 40 ce 34 3e 48 3e 3f 3d 5c 0c 93 bd b8 79 2e 3d
       0.17656803 0.046690255 -0.07180092 0.04259655
000170 1e a7 e0 3d c3 fb b5 bd 4a 8e e6 bd 32 4b a8 bd
       0.10969375 -0.0888591 -0.11257608 -0.08217467
000180 36 6e fd 3d 73 ea 1d 3d 92 a5 08 be d8 f5 22 ba
       0.12374537 0.038553666 -0.1334441 -0.0006216443
000190 96 17 3b be cd c7 ff bc ea c9 54 bd 8e 95 43 be
       -0.18270716 -0.031223202 -0.051950373 -0.1910002
0001a0 4a 58 9d 3c cc 34 fd 3c 07 b0 f4 3b 82 7a 5a 3e
       0.019207139 0.030908965 0.007467273 0.21335796
0001b0 48 17 9e 3e 39 0a 16 3e 7a 8e bc bd 4a 2f bf bc
       0.30877137 0.14652337 -0.09206863 -0.023337979
0001c0 dd f9 db bd 71 50 d2 3c 41 cc 44 be 97 a4 a7 bd
       -0.10741017 0.025673123 -0.19218542 -0.0818569
0001d0 30 c5 cc bd 49 92 62 bd 60 97 8f 3b 66 4c 7a bd
       -0.09998548 -0.05531529 0.004382059 -0.061108015
0001e0 c6 1e cb bd 17 e6 8c 3d 7a f6 dd bd 99 eb 40 bd
       -0.09917979 0.06879824 -0.10838027 -0.047099683
0001f0 43 58 1d 3c 59 38 04 3e 8f e8 99 3c d5 83 99 bd
       0.009603563 0.1291212 0.01878765 -0.07495848
000200 86 7f 78 be db 83 cc bc 13 f9 04 be ef 02 89 3d
       -0.24267396 -0.024965217 -0.1298564 0.06690013
000210 96 f6 a7 bd 64 d4 ec 3c 07 b4 06 3e f5 3b f8 3c
       -0.082013294 0.02890987 0.13154612 0.030302027
000220 ca cd 1f be e4 78 3a be cf 2a 96 bd 26 09 8a be
       -0.15605846 -0.18210179 -0.07332384 -0.26960105
000230 e2 06 64 3d 04 d7 28 3e 01 97 76 bb 1a 27 77 3e
       0.055670626 0.16488272 -0.0037626626 0.2413601
000240 b0 8f b2 3d d4 c5 46 be 52 bd 81 be d3 74 07 bd
       0.087188125 -0.19411403 -0.25339752 -0.033070397
000250 94 fc 23 be 98 d6 2f 3d 2d 85 b1 3c 3b b2 41 be
       -0.1601432 0.042929262 0.021669948 -0.18915646
000260 ae d9 a2 3c 4d 91 e1 3c 80 7a 14 3d d2 76 3a bd
       0.019879188 0.027535105 0.036249638 -0.045523472
000270 9c ec 2f bd 2f b8 19 3e 2d e9 c8 bd ab 2b 3d 3d
       -0.042950258 0.15011667 -0.098101 0.046184223
000280 bb c8 c7 3c 29 72 94 ba 4b 09 0c 3e c0 b4 c0 3d
       0.024387708 -0.0011325526 0.1367542 0.09409475
000290 43 35 59 be c5 e9 98 3d f8 2f 70 be 5b 7a 89 3d
       -0.21211724 0.07466463 -0.23455799 0.067127906
0002a0 d1 f0 f0 bc c2 1e 8c 3d 7a 5b 64 3b 16 45 9f 3d
       -0.029411705 0.06841804 0.0034844563 0.07776849
0002b0 ce 59 5f 3d 8c 93 3d bd c1 2f aa bc ae 13 95 3b
       0.054529004 -0.04628329 -0.020774724 0.004549465
0002c0 d6 4e 6c bc e3 82 3d be 0a 27 95 bd 4b 04 6b 3e
       -0.014423093 -0.1850696 -0.07282837 0.22950856
0002d0 0b eb b5 bd 6f 84 22 bd bc 03 67 3d 6d f3 8d bd
       -0.088827215 -0.03967708 0.056400046 -0.069311954
0002e0 7f bc eb bd 26 df fc 3d 7e 0a 43 3e 14 62 95 bd
       -0.11510562 0.1234725 0.19046971 -0.072940975
0002f0 f3 dc 01 3d fe 38 77 3e 0e cd 49 bd 16 e6 61 3e
       0.031704854 0.24142835 -0.04926782 0.22060427
000300 d2 77 36 3e ce 72 57 bd 29 2a 61 3d 4c 1a b6 bd
       0.17819145 -0.05259972 0.054971848 -0.088917345
000310 6a d1 51 3e b3 9c 02 be 34 b2 2d 3d b9 2b 31 3e
       0.20490041 -0.12755089 0.042406276 0.17301835
000320 3a 27 42 3d 54 58 66 3d df fd f8 3c 1f 54 54 3d
       0.04740069 0.05623658 0.030394493 0.051838037
000330 a2 30 8a bd 7f 39 f1 3c 99 6d 90 3d 38 78 ea 3c
       -0.06747557 0.029446362 0.07052154 0.028621778
000340 20 5b 5e bc 5f bf 83 bd f7 c6 4d 3e 9d a1 a1 3d
       -0.013571531 -0.064329855 0.2009543 0.078921534
000350 31 55 57 3d d5 89 e4 3d fc af 6a 3d a0 97 d7 bc
       0.05257148 0.11159102 0.057296738 -0.026317418
000360 35 b9 09 bd 29 0a b5 bd 38 9d 18 bb b0 02 ca bd
       -0.033623893 -0.088398285 -0.002328707 -0.09863794
000370 e9 0e a6 3d d1 91 a7 3c 8f e1 45 bb 00 a9 03 3e
       0.08108313 0.020455273 -0.0030194258 0.12857437
000380 b8 88 81 be 73 18 fc bc ee 28 3b bd f4 11 47 3e
       -0.2529962 -0.030773377 -0.04569333 0.19440442
000390 cb 50 41 3e 48 41 da bd 2d 2d 17 3e 5c 8d 23 3e
       0.18878476 -0.10656983 0.14763327 0.15971893
0003a0 bd 78 32 3e c9 7d 90 3b b5 b1 47 3d 91 ff b2 bd
       0.1742887 0.004409526 0.04875346 -0.08740152
0003b0 39 37 df 3c dc ea 86 bb 9e f3 de 3d 45 de 19 3e
       0.027248012 -0.004117353 0.1088631 0.15026195
0003c0 76 71 82 3b ea 87 da 3d d8 b2 2b bd 1a 48 8b bd
       0.0039808108 0.10670455 -0.041918606 -0.06800862
0003d0 d4 0e 4c 3d 6d ba b4 bb 1c 74 83 be c5 4f 15 3d
       0.04981883 -0.0055153877 -0.25674522 0.036453027
0003e0 93 ce e2 3c 3f 64 5a 3d 85 0b b0 3d 16 6c 1f 3d
       0.027686393 0.05331826 0.08595947 0.03892144
0003f0 db 5a 46 be df 30 06 be a2 f6 8e ba 81 2e 85 39
       -0.19370596 -0.1310458 -0.0010907243 0.00025402385

net_stack.2.bias f4 [32]
000000 a5 b8 53 3c 0d 0a 3f 3c aa 48 9d bc 8f a1 24 3c
       0.012922441 0.011660111 -0.019199688 0.010048284
000010 a7 54 37 bc 47 27 02 bc d8 73 cb bb 33 44 26 bb
       -0.011189616 -0.007943935 -0.006208878 -0.002537024
000020 c5 92 f6 bb 0d 27 c4 3c bc 20 19 bc 6e b0 02 3b
       -0.0075248205 0.023944402 -0.009346183 0.0019941586
000030 3f 0f c9 3c f0 db f0 3c 1e 2a 88 bc 0f a5 0c bc
       0.024543403 0.02940175 -0.016621646 -0.008584275
000040 eb 5b d9 3b 57 37 8a 3c fd f2 25 3c 52 b5 dc 3c
       0.006633272 0.016872091 0.010128734 0.026941929
000050 dd 38 44 3c 4e a7 06 3c 64 7c ce 3a 5e 46 12 bc
       0.011976448 0.0082185995 0.0015753624 -0.00892791
000060 d6 1b 32 3c 42 df c3 bb fc 37 3f bc 13 d5 9e ba
       0.010870894 -0.005977542 -0.011671063 -0.0012117944
000070 37 c9 6d bb 9e 66 05 bc c1 12 cc bc 9e e3 48 3c
       -0.0036283263 -0.008142142 -0.024911286 0.012261299

net_stack.4.weight f4 [1, 32]
000000 5a 2a 67 be 4b 1b 4e 3e 64 4a 28 3e b0 9a 32 be
       -0.2257475 0.20127599 0.16434628 -0.17441821
000010 a7 b1 28 3d 02 93 f3 3d 04 ba dd 3d c2 71 87 bd
       0.041185047 0.11893274 0.10826495 -0.066134945
000020 f2 f7 6d 3e 86 03 47 be 26 e1 93 3d 00 08 fc bd
       0.23239115 -0.19434938 0.07220678 -0.123062134
000030 f1 ac 00 be 6b 14 14 be 5a 1e 35 3e c9 80 44 3e
       -0.12565972 -0.14460914 0.1768736 0.19189753
000040 8f 72 da 3d 98 d1 9e bc d8 2c 20 be bd 24 60 bd
       0.106663816 -0.019387051 -0.15642107 -0.054722536
000050 4c 46 25 bd f7 c6 f3 bd 16 26 43 3e 8d 59 f7 3d
       -0.040350243 -0.11903184 0.19057497 0.12077627
000060 b9 d1 86 be dc d5 ae bd 6d c5 11 3e 8b 30 10 3e
       -0.2633188 -0.08536884 0.14235468 0.14081018
000070 12 e0 09 bd eb b9 f6 bd f6 bc af 3d f1 2a 2c be
       -0.033660956 -0.1204718 0.08580963 -0.16813256
