CAPSTONE/CAPMODELS/output/model_DEPG1.pth (torch, 17392 bytes, 5 tensors)

net_stack.0.weight f4 [64, 23]
0.09033509 0.022811845 0.039955564 -0.021869853 0.011302029 -0.01200171 -0.24475555 -0.21026732
-0.038788345 0.16759655 -0.021999938 0.013865017 -0.04177376 -0.022569641 0.018718852 -0.17915069
0.11400562 0.063038714 -0.024425253 0.18791007 -0.043031357 -0.0966997 -0.049238753 0.05317895
-0.08114948 -0.010452858 -0.07218652 0.1005157 -0.06647047 -0.1363127 -0.028272806 -0.016808668
0.040201444 -0.08712907 0.31503305 0.0017213972 -0.09593037 -0.022817353 0.04317441 0.0040403665
-0.009094544 -0.19338366 -0.00431186 0.14607938 -0.027177038 0.03009445 -0.057104353 3.2202806e-05
-0.17349792 -0.19597685 0.09592013 -0.118484 -0.052324455 0.0049886946 -0.0383003 0.028567096
0.036988758 0.014407032 0.039737705 0.16339293 0.05861684 0.18107848 -0.12566522 -0.033438604
-0.0050404435 0.055370476 -0.045448344 -0.050797626 0.15192145 -0.016296368 -0.23017296 0.01435543
0.0794864 0.019803291 0.048974205 -0.2119601 -0.032821544 -0.053796615 0.030111302 -0.043696124
0.09953939 -0.08801669 -0.10040004 0.17252913 -0.10772306 -0.014073859 0.036781516 -0.11333707
-0.070865646 -0.08246118 -0.050654516 0.110386044 -0.0881193 0.15755849 0.20716052 0.08914376
-0.1218823 0.20841457 -0.13083553 0.06481357 -0.020238591 0.2273614 0.09725904 -0.103063546
0.09380569 0.055841155 -0.057781912 0.17217149 -0.064347155 0.06558805 -0.12603371 0.104694925
0.0974059 0.039365344 -0.007706654 0.029458093 0.0498214 0.28511763 -0.07270805 -0.026711928
-0.12205733 -0.11920717 0.07878558 0.17194659 0.17068687 -0.1964462 -0.068639114 0.06774497
-0.03193303 -0.11129584 -0.06420946 0.055844124 0.10839572 -0.13881728 0.058154855 0.025950333
-0.12172399 0.057032827 -0.021173362 0.32727984 0.11379492 -0.22506022 0.0054864227 -0.10564314
-0.069312274 0.06258293 0.094982855 0.26128387 0.032619942 -0.057610378 -0.0059516607 0.043617256
-0.031156516 0.089033164 0.0046651936 0.16850667 -0.045519214 0.014708652 -0.09355549 -0.16875446
-0.037105285 0.1375663 -0.2723058 0.030797772 0.083906665 -0.042411506 -0.06934615 -0.030453658
-0.144071 -0.17515378 0.01826597 -0.056128327 0.0032689804 0.06525095 -0.045302104 -0.057639454
0.10991312 0.07289871 -0.076870464 0.07493157 -0.03264378 0.054042898 -0.020242428 0.0656186
-0.016249087 0.25411737 -0.085798554 -0.008573036 0.04596481 -0.018713528 -0.018285492 0.013751695
0.014044793 0.0941887 -0.056386914 -0.00072621414 0.010145248 0.028410234 -0.049062185 0.0864387
-0.18429457 -0.0022771333 0.065089785 0.04233356 -0.0107100895 -0.16254437 0.041241236 0.0038608103
0.04073766 -0.030023599 0.25752896 -0.106566705 0.12510395 -0.15602012 0.08942603 -0.069252335
0.13715789 0.094206005 -0.09935106 0.03621878 -0.102400675 0.0850367 0.03560764 -0.07206497
0.043969218 -0.23494063 0.037307024 0.026657023 -0.13755584 0.099348426 0.083062336 0.07437067
0.11373169 -0.051791735 0.026879884 -0.02214624 0.07644859 0.13786618 -0.069499835 0.019863965
0.0564196 -0.15414159 -0.071638085 -0.057762448 0.10857306 0.09696359 -0.03604197 0.0015823501
0.090558425 -0.007004706 -0.04971583 -0.15721773 -0.09970379 0.115055785 0.011446297 -0.026360149
00000000: 9b01 b93d e8df ba3c 72a8 233d 6828 b3bc
00000010: 252c 393c d2a2 44bc 33a1 7abe 5150 57be
00000020: 87e0 1ebd 6e9e 2b3e 3739 b4bc 192a 633c
00000030: f61a 2bbd f8e3 b8bc 4758 993c 4773 37be
00000040: c77b e93d 711a 813d 7817 c8bc 7f6b 403e
00000050: a641 30bd 7e0a c6bd 93ae 49bd 2cd2 593d
00000060: b331 a6bd 7742 2bbc 87d6 93bd 2ddb cd3d
00000070: ab21 88bd 8e95 0bbe 5f9c e7bc 55b2 89bc
00000080: 45aa 243d ba70 b2bd 034c a13e 81a0 e13a
00000090: 2477 c4bd 75eb babc a6d7 303d 0d65 843b
000000a0: 4801 15bc 5e06 46be 814a 8dbb d595 153e
000000b0: 61a2 debc a388 f63c 41e6 69bd 8011 0738
000000c0: 70a9 31be 28ae 48be c671 c43d bda7 f2bd
000000d0: 2b52 56bd 3478 a33b c6e0 1cbd 8b05 ea3c
000000e0: 8681 173d 790b 6c3c 01c4 223d 7a50 273e
000000f0: 3618 703d a36c 393e 62ae 00be ebf6 08bd
00000100: 4e2a a5bb 27cc 623d 0b28 3abd 2c11 50bd
00000110: 4c91 1b3e f67f 85bc 76b2 6bbe 0a33 6b3c
00000120: c4c9 a23d 833a a23c 2d99 483d 120c 59be
00000130: e26f 06bd d759 5cbd faab f63c b5fa 32bd
00000140: 4fdb cb3d 1842 b4bd 899e cdbd 7aab 303e
00000150: e89d dcbd 0b96 66bc 37a8 163d 441d e8bd
00000160: 0222 91bd 68e1 a8bd 1c7b 4fbd 1412 e23d
00000170: e477 b4bd 0357 213e e321 543e 0191 b63d
00000180: 6d9d f9bd a16a 553e c0f9 05be fabc 843d
00000190: 67cb a5bc 6dd1 683e bf2f c73d fb12 d3bd
000001a0: 331d c03d b2b9 643d baac 6cbd b94d 303e
000001b0: 71c8 83bd 0753 863d fb0e 01be 4b6a d63d
000001c0: bf7c c73d 8e3d 213d 1988 fcbb 1952 f13c
000001d0: 8611 4c3d f0fa 913e f5e7 94bd f9d2 dabc
000001e0: 32f9 f9bd e422 f4bd 565a a13d c412 303e
000001f0: 8ac8 2e3e 3129 49be aa92 8cbd e0bd 8a3d
00000200: 35cc 02bd 13ef e3bd 4080 83bd cfbc 643d
00000210: 93fe dd3d 1e26 0ebe c933 6e3d cb95 d43c
00000220: 6d4a f9bd 419b 693d c273 adbc 3991 a73e
00000230: 500d e93d 3076 66be 73c7 b33b 6e5b d8bd
00000240: 98f3 8dbd 7b2b 803d 5f86 c23d 00c7 853e
00000250: 7d9c 053d dcf8 6bbd 2606 c3bb 02a8 323d
00000260: f33b ffbc 0557 b63d 7bde 983b 038d 2c3e
00000270: 5b72 3abd 8ffc 703c 059a bfbd f8cd 2cbe
00000280: b6fb 17bd 2ede 0c3e aa6b 8bbe 9c4b fc3c
00000290: 42d7 ab3d b0b7 2dbd 5b05 8ebd f379 f9bc
000002a0: 5987 13be 835b 33be 84a2 953c d1e6 65bd
000002b0: 643c 563b 4aa2 853d b38e 39bd 5917 6cbd
000002c0: 211a e13d eb4b 953d 436e 9dbd b975 993d
000002d0: 7cb5 05bd 165c 5d3d 73d3 a5bc 0b63 863d
000002e0: ce1c 85bc ac1b 823e 27b7 afbd eb75 0cbc
000002f0: 9945 3c3d 1d4d 99bc 75cb 95bc ca4e 613c
00000300: 221c 663c 01e6 c03d f7f5 66bd 685f 3eba
00000310: 4138 263c 94bc e83c 6ef5 48bd c606 b13d
00000320: b7b7 3cbe f53b 15bb cb4d 853d f465 2d3d
00000330: 5f79 2fbc 0872 26be 92ec 283d a605 7d3b
00000340: 88dc 263d 0df4 f5bc d6da 833e a53f dabd
00000350: 401b 003e bdc3 1fbe ff24 b73d 2bd4 8dbd
00000360: 1e73 0c3e 14ef c03d 9278 cbbd 255a 143d
00000370: 72b7 d1bd b927 ae3d 51d9 113d cd96 93bd
00000380: 1119 343d 4794 70be 40cf 183d d45f da3c
00000390: 70db 0cbe 3077 cb3d 961c aa3d a64f 983d
000003a0: 29ec e83d 9223 54bd 3433 dc3c 086c b5bc
000003b0: 1491 9c3d cb2c 0d3e ee55 8ebd c1b9 a23c
000003c0: 3d18 673d 4bd7 1dbe fdb6 92bd 5198 6cbd
000003d0: 8d5b de3d d994 c63d bfa0 13bd dc66 cf3a
000003e0: b276 b93d bc87 e5bb d3a2 4bbd affd 20be
000003f0: 8031 ccbd 5ea2 eb3d 4089 3b3c 3df1 d7bc

net_stack.0.bias f4 [64]
0.019760594 -0.016085213 0.0104194945 0.014915129 0.015293741 0.0119707035 -0.009747106 0.0073061925
6.45048e-05 0.018921178 -0.0054255375 -0.008480724 -0.0043361443 0.0027219127 0.0069228616 0.0053723943
0.0044911094 0.006281423 -0.0036661273 0.0023031114 0.011184854 0.014905682 -0.002044637 0.015044585
0.006356119 -0.0057790363 0.0065818876 -0.0012289996 0.0016468564 0.0025856504 -0.010950633 -0.017047709
-0.004089465 -0.025049314 -0.0030556798 -0.0061431495 -0.007424048 -0.011982266 0.00497491 -0.008387462
0.013998121 0.010535513 0.010134768 -0.0065176804 -0.008095886 0.018578123 0.01371431 -0.0049062786
-0.00074758567 -0.0069351774 -0.006540599 -0.0061334907 0.00010481823 -0.005923485 -0.0016515783 0.005243583
-0.0050812224 -0.0009848947 -0.0052134907 0.014915945 -0.0015741184 0.0062919403 -0.008459503 0.001463502
00000000: f8e0 a13c 23c5 83bc 87b6 2a3c 965e 743c
00000010: 9992 7a3c c520 443c 53b2 1fbc c968 ef3b
00000020: c046 8738 9600 9b3c b5c8 b1bb bcf2 0abc
00000030: 3716 8ebb 1e62 323b 2cd9 e23b e90a b03b
00000040: 282a 933b 65d4 cd3b 6943 70bb ccef 163b
00000050: ae40 373c f636 743c 51ff 05bb 907d 763c
00000060: fe46 d03b 125e bdbb e0ac d73b 6216 a1ba
00000070: 55db d73a 0474 293b 496a 33bc a3a7 8bbc
00000080: eb00 86bb 3834 cdbc cd41 48bb 794c c9bb
00000090: 6e45 f3bb 4451 44bc 9204 a33b 916b 09bc
000000a0: 6058 653c 259d 2c3c 4c0c 263c 4492 d5bb
000000b0: 9ba4 04bc 2631 983c fcb1 603c d9c4 a0bb
000000c0: a0f9 43ba 7c40 e3bb 8552 d6bb 73fb c8bb
000000d0: dcd1 db38 cb19 c2bb c679 d8ba 5dd2 ab3b
000000e0: 6280 a6bb 9517 81ba eed5 aabb 0262 743c
000000f0: a652 ceba 9f2c ce3b ba99 0abc fad2 bf3a

net_stack.2.weight f4 [32, 64]
0.15338683 0.091464296 -0.11471407 0.05848399 0.08343193 0.008963975 -0.052714575 -0.04311601
-0.0546635 -0.06573409 -0.18120149 0.07588562 0.13934064 0.0001511251 0.0077747176 0.17933305
-0.001271402 0.08635055 -0.03139055 -0.042600777 -0.051788844 0.092587516 -0.0043787817 -0.006244786
0.12389792 -0.024109015 -0.059754726 -0.051419925 -0.26843724 -0.104810074 -0.08111318 0.03084012
0.004067551 -0.049268503 0.081641495 0.06021663 0.04816023 -0.017502006 -0.06545208 0.059021838
-0.12500583 0.15669721 -0.0022325718 0.29217705 0.05639731 0.032949086 -0.025900584 0.1615401
-0.08803324 -0.15595241 -0.06072504 0.2273824 -0.03467908 0.18127643 0.10615208 -0.022609713
-0.1281795 0.0064049843 -0.071816996 0.009693131 0.0406722 -0.107624575 -0.05889331 0.07845741
0.09083489 0.13037403 -0.0997814 0.09029478 -0.04625363 -0.04499023 0.17370154 -0.13865235
0.17411475 0.09503014 -0.075022966 -0.01449662 -0.0039634886 -0.080871575 0.12148155 0.050620463
-0.014852752 -0.2394447 -0.037938263 0.009719294 -0.0025350577 0.09607192 -0.032467496 -0.1181857
-0.23924677 -0.04365119 0.12056827 -0.026999228 0.0021698398 -0.09035641 0.133952 0.008638675
0.0568737 0.042914715 0.1025672 -0.06298854 0.15280429 0.038321957 0.12013133 -0.13534282
-0.25695834 0.21575305 -0.0029618242 0.101188205 0.091512635 0.031431384 0.1040727 -0.064566866
0.023686603 0.18171975 0.12512714 -0.09597316 0.05340214 0.022478966 -0.024736099 0.11398905
-0.00943632 -0.11209168 -0.18562093 -0.106804006 0.15946557 0.023179641 0.1210034 -0.19614066
0.09347105 -0.06033131 -0.10855657 0.13989879 -0.07021672 -0.13629101 -0.06643409 0.06716276
-0.047137987 -0.043781295 -0.15444969 0.040681407 0.035829533 0.005469961 -0.043751083 -0.06516174
0.003431783 0.079804756 -0.07680756 -0.040666945 0.078754045 0.1807286 -0.039394945 0.05437924
0.18131794 -0.039031766 -0.026534881 0.2075437 0.04416178 -0.06350905 -0.079745956 0.23805207
0.01842905 -0.020901373 0.13228433 -0.11382925 0.017891718 0.009567636 0.1150623 0.14543617
-0.018855682 0.03628046 0.04388304 -0.03083114 -0.10890168 -0.017539034 -0.036529806 -0.11429679
-0.1262435 -0.06703878 -0.032142304 -0.22687294 0.021551574 -0.15392281 0.024247665 0.064950824
0.11225618 -0.035732634 -0.069737695 0.05103315 -0.08306917 0.17281617 0.124372214 0.024163717
-0.09074525 0.10811537 0.024556478 -0.105598025 -0.059599254 0.024290245 0.12408182 0.028069045
0.06782009 0.06326868 0.0008984405 0.13567032 -0.034450453 -0.0801983 -0.058915623 -0.042828508
0.08223712 -0.06763037 0.06149532 0.019001335 -0.08507113 -0.06770993 -0.09886393 0.05399317
-0.059191927 -0.002480667 -0.09898846 0.119286805 0.07478256 0.11352714 0.11632576 -0.061027937
-0.16375317 0.0911386 -0.053646382 -0.14201495 -0.16530408 0.12619427 0.07862565 -0.06778805
0.012596907 -0.12107943 -0.1950446 0.0008097391 -0.17693353 -0.041368492 0.08242359 0.14495759
0.20634817 -0.07288522 -0.08958267 0.1271869 0.029760769 0.03601614 0.100787155 0.13573648
-0.22192656 -0.016124548 -0.10254571 -0.17419656 0.07214621 0.013554774 -0.33031717 0.023245696
00000000: 7011 1d3e a251 bb3d 36ef eabd e98c 6f3d
00000010: 5cde aa3d a3dd 123c 3deb 57bd 6a9a 30bd
00000020: d6e6 5fbd 989f 86bd e28c 39be ec69 9b3d
00000030: 50af 0e3e 5677 1e39 0fc3 fe3b 15a3 373e
00000040: 2ca5 a6ba 8fd8 b03d 6193 00bd 277e 2ebd
00000050: 8a20 54bd 869e bd3d e27b 8fbb 10a1 ccbb
00000060: 31be fd3d 4580 c5bc 5fc1 74bd b39d 52bd
00000070: 9b70 89be aaa6 d6bd ab1e a6bd 6ba4 fc3c
00000080: 1749 853b c5cd 49bd a833 a73d b7a5 763d
00000090: a943 453d 5e60 8fbc bd0b 86bd e2c0 713d
000000a0: 8701 00be 3c75 203e 5750 12bb 3b98 953e
000000b0: de00 673d 9ff5 063d 762d d4bc c56a 253e
000000c0: c54a b4bd fdb1 1fbe d2ba 78bd efd6 683e
000000d0: a70b 0ebd 87a0 393e 4366 d93d 0138 b9bc
000000e0: 7d41 03be e7e0 d13b ca14 93bd f0cf 1e3c
000000f0: e597 263d 466a dcbd 1d3a 71bd 47ae a03d
00000100: a507 ba3d c580 053e 315a ccbd 78ec b83d
00000110: 7274 3dbd ad47 38bd d1de 313e e2fa 0dbe
00000120: 234b 323e 299f c23d a4a5 99bd 3b83 6dbc
00000130: 27e0 81bb ff9f a5bd 52cb f83d 6757 4f3d
00000140: f558 73bc fe30 75be 2765 1bbd ac3d 1f3c
00000150: 3623 26bb 5bc1 c43d a3fc 04bd 580b f2bd
00000160: 1bfd 74be 97cb 32bd 7fec f63d 7c2d ddbc
00000170: df33 0e3b c80c b9bd b72a 093e 3b89 0d3c
00000180: 66f4 683d 57c7 2f3d c10e d23d 2300 81bd
00000190: ba78 1c3e 7cf7 1c3d 6a07 f63d 4f97 0abe
000001a0: 0b90 83be 5eee 5c3e 2a1b 42bb c33b cf3d
000001b0: fa6a bb3d 32be 003d 1124 d53d a23b 84bd
000001c0: 680a c23c be14 3a3e 5421 003e 938d c4bd
000001d0: 34bc 5a3d cf25 b83c 5ca3 cabc 1773 e93d
000001e0: cb9a 1abc 5390 e5bd 6a13 3ebe 0fbc dabd
000001f0: f14a 233e 3be3 bd3c a1d0 f73d 19d9 48be
00000200: c06d bf3d f71d 77bd e852 debd a141 0f3e
00000210: c9cd 8fbd df8f 0bbe 990e 88bd a18c 893d
00000220: c313 41bd 0454 33bd 0f28 1ebe 8ca1 263d
00000230: fdc1 123d 5c3d b33b 5634 33bd 8573 85bd
00000240: c4e7 603b ad70 a33d 484d 9dbd 6292 26bd
00000250: cd49 a13d eb10 393e 985c 21bd c4bc 5e3d
00000260: 69ab 393e c6df 1fbd ae5f d9bc 5686 543e
00000270: fce2 343d 0811 82bd d951 a3bd ecc3 733e
00000280: 85f8 963c 5b39 abbc 8b75 073e 4f1f e9bd
00000290: a791 923c 93c1 1c3c c8a5 eb3d 38ed 143e
000002a0: 3b77 9abc d29a 143d b4be 333d 9691 fcbc
000002b0: d807 dfbd 05ae 8fbc 47a0 15bd 6f14 eabd
000002c0: fa45 01be a14b 89bd a6a7 03bd 6151 68be
000002d0: ed8c b03c f19d 1dbe 0aa3 c63c f004 853d
000002e0: 91e6 e53d 625c 12bd a3d2 8ebd 2308 513d
000002f0: 2b20 aabd b9f6 303e dcb6 fe3d fdf2 c53c
00000300: a5d8 b9bd 976b dd3d ab2a c93c c743 d8bd
00000310: 591e 74bd 56fc c63c 9c1e fe3d 0ef1 e53c
00000320: 42e5 8a3d 0293 813d 5285 6b3a 29ed 0a3e
00000330: eb1b 0dbd 023f a4bd 8251 71bd f26c 2fbd
00000340: ef6b a83d cb81 8abd 84e2 7b3d b0a8 9b3c
00000350: c639 aebd 81ab 8abd 2c79 cabd f127 5d3d
00000360: 3c73 72bd b092 22bb 76ba cabd a44c f43d
00000370: 9927 993d eb80 e83d 333c ee3d 6ef8 79bd
00000380: e9ae 27be e0a6 ba3d 4fbc 5bbd 5e6c 11be
00000390: 7945 29be 1239 013e 7c06 a13d 76d4 8abd
000003a0: 4263 4e3c 7ef8 f7bd c6b9 47be ac44 543a
000003b0: 102e 35be 0272 29bd b3cd a83d c36f 143e
000003c0: ef4c 533e d944 95bd 1e77 b7bd 483d 023e
000003d0: dbcc f33c a985 133d 7f69 ce3d 81fe 0a3e
000003e0: b740 63be a117 84bc 7c03 d2bd 9560 32be
000003f0: 64c1 933d d814 5e3c 551f a9be c26d be3c

net_stack.2.bias f4 [32]
0.024098976 -0.0034870526 0.0047578923 0.014241303 0.00097630755 0.016886313 0.004152576 0.003037555
-0.007756561 0.012581924 0.010569899 -0.014954256 0.0044733407 0.007283359 0.003303571 -0.00062512344
-0.003446537 0.019391973 -0.0039778845 0.010193 -0.0024399597 0.007264076 -0.00080906047 -0.013926077
0.0040024775 -0.01184636 -0.027579134 0.013390145 0.00949856 0.012903293 0.014849126 0.007854628
00000000: 376b c53c 0987 64bb 18e8 9b3b 5b54 693c
00000010: e4ee 7f3a 2a55 8a3c 5512 883b b711 473b
00000020: c02a febb 6a24 4e3c 5f2d 2d3c b202 75bc
00000030: 1a95 923b 3ea9 ee3b b980 583b 53df 23ba
00000040: 4cdf 61bb eadb 9e3c ea58 82bb 8a00 273c
00000050: bbe7 1fbb 7c07 ee3b 2117 54ba 332a 64bc
00000060: 3727 833b 3c17 42bc a3ed e1bc 5762 5b3c
00000070: d99f 1b3c 5568 533c c049 733c b3b0 003c

net_stack.4.weight f4 [1, 32]
-0.029654533 -0.051421847 0.04487193 -0.05617481 -0.05970222 -0.1773076 -0.16970116 -0.07730194
-0.14209376 -0.06818945 0.19996195 0.05233365 -0.022088837 0.022304913 -0.08763294 -0.07517936
0.16311061 -0.082889356 0.037431836 -0.062181376 0.12284485 -0.11728559 0.17928813 0.051483177
0.07272814 0.019993668 0.07926299 -0.10619121 -0.15400681 0.0067695277 -0.13926397 -0.05101446
00000000: 10ee f2bc b79f 52bd a1cb 373d 8f17 66bd
00000010: 518a 74bd 2090 35be 24c6 2dbe 7b50 9ebd
00000020: 0781 11be e9a6 8bbd d3c2 4c3e cf5b 563d
00000030: a6f3 b4bc cbb8 b63c e678 b3bd a3f7 99bd
00000040: 7806 273e e5c1 a9bd 2052 193d e6b1 7ebd
00000050: 1596 fb3d 6d33 f0bd 4f97 373e 06e0 523d
00000060: 7ef2 943d c3c9 a33c a254 a23d c77a d9bd
00000070: f6b3 1dbe ead2 dd3b 379b 0ebe 8af4 50bd
