CAPSTONE/CAPMODELS/output/model_ADHD5.pth (torch, 39408 bytes, 9 tensors)

net_stack.0.weight f4 [64, 23]
00000000: 1f73 90bd 9288 443d 9343 b63d 29a4 963e
00000010: 66c4 273e 061d ffbd a10b c4bd b410 4fbd
00000020: c9c9 853d a263 c4bd 7ac1 67be 3aa0 9a3c
00000030: 6912 2dbe 4791 2cbc 63d1 983d e478 a93d
00000040: e39b 5cbc 881d da3c 5829 033b d3f7 b03d
00000050: 0743 45bd 7834 ecbd 046c bd3c b5cb b03d
00000060: 8a7e 703d 81a6 943e 8da5 293e 2992 cfbd
00000070: 6850 cdbd d0dc 643e cb9e eebd 9ff1 2fbe
00000080: eb1d 20be e402 913e 19b5 efbd d39a b43c
00000090: b474 043e 73d7 e3bb aa0b 1c3d 455e b93d
000000a0: 586e 8abe b3eb c5bb f408 59bd 9312 403e
000000b0: a6f5 df3c 881b 4d3d 0d0b 1f3e 0d63 5fbc
000000c0: a88d 65bd 229a 873c acdc 3f3e 1587 233c
000000d0: ce8c 0c3d b2ca 98bc 05d8 2b3d 3e51 543d
000000e0: 4b79 2a3d 4abd fdbc 109d e43d 4597 cd3c
000000f0: e5b0 f73d 717c 51bd bb3f 59bd 7a51 b9bd
00000100: 0e32 753c 0851 07be a442 523c 6273 e7bd
00000110: d195 cabc 530f afbd a743 fc3d 74f4 4dbc
00000120: 8f1b 8e3d 31a5 8b3d 263c 39bc 57ae abbc
00000130: 3241 693b 113b ba3d 0e21 8cbc 3518 a3bd
00000140: c208 4ebb 95ea d33d 715a e83d 6542 343d
00000150: 18b6 473d bd7b e9bd bc65 ed3d eba4 20bd
00000160: 82af d2bd b6e4 903c b9c4 89bd 8627 35bd
00000170: 1125 16bc 6a86 31bd 2e43 613e 5e8b 95ba
00000180: a4e8 bb3d 55fb 4c3d 7e93 653d d002 f93c
00000190: 0d22 8abd 9b54 81bd 0b0f 1e3b ee5b 5e3e
000001a0: 607a d1bb d375 a13d 0128 c93d bb12 103d
000001b0: fdad 3e3e 0d3f aa3d 5a7e 57bd 5170 3f3c
000001c0: d2f3 97bc ac68 dabc 2f32 023e e546 1a3d
000001d0: f641 d33d 053a 673d b811 58bd d036 663d
000001e0: 4a50 3ebd 2868 f8b9 892d 0c3e e99e debc
000001f0: 3856 cb3c 9ff7 473d 5d47 273d 8847 b8bd
00000200: ffb6 123d 2fb1 96bd 782e 163e 9daf bebb
00000210: 0392 813d 542e 253d 1e7d 39bd 1338 44bc
00000220: 7a65 b3bd 162b db3c 9e0b 923d 3cb3 a8bd
00000230: 4b93 913d 9449 bf3d 3cdd 36bd 3635 f4bd
00000240: 9952 a5bc d6d1 37bc 33bb ebbd 7b4e 82bd
00000250: 88c5 0fbc ab34 84bd e2e3 0f3c 30d8 2a3c
00000260: d501 f0bc bb2b cabc cc87 edbd d57d 85bd
00000270: fcd2 4bbe c1f1 2f3e 5294 e1ba d039 42bd
00000280: 5d8d f43d 1420 1fbe 7bed 9ebd 47db 283d
00000290: 1e12 15be ddc1 14bc 8c58 7fbc 8ebf 05be
000002a0: e2ab fabd 5ad1 02be a4c7 353b 9f85 403d
000002b0: cf34 3abc 77c6 5bbd 7b15 8cbe 4141 173e
000002c0: c336 cbbd 2d77 363d 9aad eabd 608e 29bd
000002d0: 9810 fe3d f23c 80bc 4eb0 dcbd 9f64 9abc
000002e0: 962a c0bc 6e85 bdbd 704b eebd 4f3f 223e
000002f0: a349 4ebd a89f 033e 077b 893d c87f 143e
00000300: a8da acbd f63b a03a 6763 13be 6b98 763c
00000310: 1381 133c 8fd1 ca3d 19e9 e13d 29ef bfbd
00000320: 2fd7 0e3a 1b26 f23c 28b4 2f3c 1e18 103e
00000330: 9c13 8a3e 8c6e 1cbe ca4b 8cbd a75d e93d
00000340: 7b20 53bc 2c40 9abd 4b75 e5bc ba9b ecbc
00000350: b571 c53d c1be 603c 9a78 24bc b982 d13d
00000360: de78 8b3d 9a1a 2ebe 36fd 89bd e52e 21bd
00000370: 4060 b83c ddb1 e03c 090a c1bc a722 a93d
00000380: 0d74 c1bd 9869 d93d 9596 70bd ee55 26bd
00000390: 7855 5c3c cacf d4bd 192a c93d d162 863c
000003a0: b90e 7fbd 999d 19be c81e 573d e27a b93d
000003b0: 5684 aebe 0b4f 8b3d 3447 4abc cac3 3a3c
000003c0: a74f 7dbd 63fe 653d bd59 643d 4030 df3d
000003d0: 2850 0c3e 15c9 f0bd 932a 23bd baa7 8a3d
000003e0: ca39 f23c 60c6 a0bd 9991 593d ad5f e2bd
000003f0: a942 c0bd c595 1abe 098c 2c3d 7de8 fb3d
-0.070532076 0.047981806 0.088996075 0.2942212 0.16383514 -0.12456708 -0.095725305 -0.05055304
0.06532628 -0.09589316 -0.22632399 0.01887523 -0.16901554 -0.010532684 0.07461812 0.08275011
-0.013464901 0.02662541 0.0020013656 0.08641019 -0.048159625 -0.11533445 0.023122795 0.08632604
0.058714427 0.29033282 0.16567059 -0.101353 -0.10025102 0.22349858 -0.11651381 -0.17182015
-0.15636413 0.28322518 -0.117044635 0.022046482 0.12935144 -0.006953174 0.03809706 0.090511836
-0.2703731 -0.0060400604 -0.052987054 0.18757086 0.027338814 0.050075084 0.1553156 -0.013634455
-0.056043297 0.016552988 0.18736523 0.009980937 0.03431397 -0.01865134 0.04195406 0.05183529
0.04161958 -0.03097405 0.1116277 0.025096545 0.12094287 -0.051144067 -0.053039294 -0.090487435
0.014965547 -0.13214505 0.012833271 -0.113013044 -0.024729641 -0.08547845 0.12317591 -0.012570489
0.0693885 0.06818617 -0.011305844 -0.020957155 0.0035591838 0.09093297 -0.017105605 -0.079636015
-0.0031438326 0.10347477 0.11345375 0.04400863 0.048757643 -0.11400554 0.1159167 -0.039219778
-0.10287382 0.017687183 -0.06726975 -0.044227146 -0.009164111 -0.043341078 0.21998283 -0.0011409333
0.09175232 0.050044376 0.056048863 0.030396849 -0.06744776 -0.06314965 0.0024117853 0.21714756
-0.006392762 0.07883801 0.09822083 0.035174113 0.18621059 0.08312807 -0.052610733 0.011684493
-0.01854888 -0.02666124 0.12714456 0.037665267 0.103153154 0.056451816 -0.052751273 0.056204617
-0.04646329 -0.0004737985 0.13689245 -0.027175384 0.024821386 0.048820134 0.04083954 -0.089980185
0.03581905 -0.07358014 0.14666164 -0.0058192746 0.06326678 0.040327385 -0.045285337 -0.01197626
-0.087595895 0.026753943 0.07131122 -0.08237311 0.07108172 0.09340206 -0.04464458 -0.11924212
-0.020180987 -0.011219462 -0.11510315 -0.06362625 -0.008775122 -0.06455358 0.008782359 0.01042752
-0.029297749 -0.024679055 -0.11598167 -0.06518141 -0.19904703 0.17182066 -0.0017210341 -0.047418416
0.119410254 -0.1553958 -0.077601396 0.041224744 -0.14557692 -0.009079424 -0.015585076 -0.13061354
-0.12239815 -0.12775174 0.0027737403 0.04700243 -0.01136513 -0.053656068 -0.27360138 0.14770986
-0.09922554 0.04454725 -0.11458893 -0.041395545 0.12405509 -0.015654061 -0.10775815 -0.018846808
-0.023457807 -0.09253965 -0.11635482 0.15844463 -0.050363194 0.12853873 0.06712919 0.1450187
-0.08440143 0.0012224901 -0.14393388 0.015050988 0.009002942 0.099032514 0.11030788 -0.09371788
0.0005448935 0.029559186 0.010724105 0.140717 0.26968086 -0.15276545 -0.06850393 0.11394816
-0.012886162 -0.07531771 -0.028010031 -0.02888285 0.096408285 0.013717354 -0.010038519 0.102300115
0.06810163 -0.17002335 -0.06737749 -0.039351363 0.022506833 0.027428562 -0.023564355 0.082585625
-0.09445963 0.106158435 -0.058737356 -0.040609293 0.013448112 -0.10391195 0.098224826 0.016404541
-0.0622699 -0.15001525 0.05251959 0.09056641 -0.3408534 0.068021856 -0.012346078 0.011399219
-0.06184354 0.056150805 0.055749644 0.10897875 0.13702452 -0.11757103 -0.039835524 0.067702726
0.029568572 -0.07850337 0.05311737 -0.11053405 -0.093877144 -0.15096195 0.042125735 0.12300203

net_stack.0.bias f4 [64]
00000000: d809 873d f66b 4ebd f1bc ce3c 1efa 3b3d
00000010: 0a10 0dbd f089 833b 0209 61bb f756 a6bc
00000020: e89c 893d 9e4f 7a3d 7864 e83c 1eec 0b3d
00000030: 6d5d 22bd 800f 0bbd de1c 36ba 5e52 863d
00000040: d0e3 37bd d4f5 6b3d 913a 92bd 6d57 02bd
00000050: 227e c33c 7ff3 56bb 6a93 7cbd 648e bdbc
00000060: e222 903d 3c01 62bd 0a04 813d 1c7e 6cbb
00000070: d710 3fbc 36aa 9d3d ea90 1ebd 8395 1e3c
00000080: c0c5 18bd 7bec a03d e272 12bd 24cf 903d
00000090: 49a8 4f3d 06ec 4abd 51b7 803d 7c8e 923d
000000a0: e3fb 55bd 2f95 83bd 4124 35bd a80f 043d
000000b0: c01d bb39 7833 95bc 2e2a 8c3d 72b9 0f3c
000000c0: e33e 703d 52d8 363d 7e8b d8bc 1a00 5d3c
000000d0: 4b58 023d 48e3 51bd b0ed 62bc bdd3 833d
000000e0: 7865 83bd 6cc7 a1bd 2323 383d b12e 4f3d
000000f0: 1c00 933c ed33 8d3d 19db 08bb 558c 29ba
0.065936744 -0.05039593 0.025236579 0.045892827 -0.034439124 0.004014246 -0.0034337644 -0.02030514
0.067193806 0.061111085 0.02836822 0.034160726 -0.03963988 -0.03395033 -0.00069470506 0.06558679
-0.044894993 0.057607487 -0.07140077 -0.031821657 0.023863856 -0.0032798944 -0.061664023 -0.023139186
0.07037903 -0.05517696 0.062995985 -0.003608591 -0.01166173 0.07698481 -0.03871242 0.009679201
-0.037297964 0.07857605 -0.035754092 0.07070759 0.0506976 -0.049541496 0.06284965 0.07156083
-0.05224217 -0.06424939 -0.044224028 0.032241493 0.00035689585 -0.018213019 0.06843983 0.008772241
0.058653723 0.044639893 -0.026433703 0.013488794 0.031822484 -0.051242143 -0.013850614 0.0643687
-0.06415838 -0.07899365 0.044955384 0.050581638 0.017944388 0.0689467 -0.0020882546 -0.00064677495

net_stack.2.weight f4 [64, 64]
00000000: 476c 583e 355a ddbd 6aa2 1f3e e7a4 613d
00000010: b320 45bc aad4 21bd 233b fcbc 5f39 16be
00000020: d337 37bc 1084 b53d 81f3 523d 868b 1d3d
00000030: 7eda e83d 7526 0abe 030d 073e cdfd 9fbd
00000040: 440d 18bd f356 813d 1cbe a33d b7b1 3e3e
00000050: d823 ad3e d183 87bd fb8d 8e3c d768 80bd
00000060: da54 c93d 38f5 fb3d 8e32 9f3d e27b 013e
00000070: b747 a2bd 8fa8 773e b327 e73d cfb6 5fbd
00000080: 56a8 7d3d b0dd 8cbd 2078 f3bd ac88 903e
00000090: 1a5b 613c 02f7 27bd 6f83 05bd 776e 043d
000000a0: 6555 38be 3ff1 4dbd 3132 e1bc 6e77 033e
000000b0: c892 c6bd c6ed 51bd fcfa b7bb 82d5 c4bb
000000c0: ec98 4bbd b548 283e 60a7 d5bc ed7f dabd
000000d0: 04a4 213e d85b 0a3e 5f8c 743d 96f1 643d
000000e0: 1877 e7bd f405 0cbe ce1f 413d 7c3e d33d
000000f0: 6690 33bd e6c0 033d 3ddc 5bbd ef70 fcbd
00000100: d45e 363d 8f29 043d 1b5c 24bd 3a18 fe3d
00000110: 30b1 13be b9d4 8b3c f4fd 18be bc6d ae3d
00000120: 737c e53d 77ba e13a 4c3a 80bd ee5a 043e
00000130: 4ab5 c1bd dfc2 1fbe a807 143e f8f9 3a3e
00000140: 6847 f5bd 28d4 75b9 769f 73be 2315 043d
00000150: 35e5 1fbe 19e4 6cbe 0c41 303d 2332 02bd
00000160: b271 9c3d 887b 0ebe 2f96 1b3d 3025 013e
00000170: 9fa9 2abe 351e e73c 2033 1e3e 9c3b f4bd
00000180: 8a58 72bd 5fd2 f53d 92f7 b9bd a472 fabc
00000190: 60a0 4a3d 5690 ffbd 5efd 693d 4f5b d33d
000001a0: b102 e4bd dc5e 67be 51f6 563d 5a00 b33d
000001b0: bc86 abbc 7265 b3bd 6198 033d 174a 193b
000001c0: cfa7 d83c 8146 743d 987f b43d 54dd 0d3d
000001d0: 6f9b dc3d 8386 bdbc 59d5 943d 1989 823d
000001e0: 27e0 f0bb 9450 1abe 3b07 d4bd 5e37 6abb
000001f0: fcff 723a 15ac c13d 3bee 4fbe 1351 29be
00000200: 7b58 043d 0434 39bd dd31 0dbd 3311 59be
00000210: 7054 a23d be30 c93d 26c5 8d3d 5f1e 97bd
00000220: 264d 3ebe dcb5 363e 0051 2e3e 8f95 393e
00000230: 463d b0ba 637f 383e 4361 a93c 8117 cfbd
00000240: 3de2 88bd 0747 eebc 6f6e 5fbb d2b3 973c
00000250: c95a 8ebd adcf a9bc 0419 373d e939 b63c
00000260: bb9e a3bd d221 4ebd 542e dabd 6332 113c
00000270: 17be 9d3c 7d87 cdbd 4a78 8fbc 2a20 61bb
00000280: 35ff 133d 744f 87be 1af7 0b3e ace8 0abd
00000290: 571f e1bd 48e8 513d c204 db3c aa4e 36be
000002a0: 8a7e 0abd b0e0 403e b45a df3d 798a d6bc
000002b0: 13c8 313e 6861 763e a2d2 653d 6cb0 2f3e
000002c0: f10b 87bc be62 1ebe aa18 ae3c d327 05bd
000002d0: 182d e7bd 896d ca3d fa72 9fbd c2c3 98bd
000002e0: 9552 57bc 8467 e23d 201f 0abe 082f ef3d
000002f0: 6e62 033e d73c 2cbd a872 63bd 09df 1a3d
00000300: e5c1 883c 1cef 043c b322 3a3c d837 c73c
00000310: fbc6 973e aa6d 0e3e 4dc9 e23d 5857 bf3d
00000320: 5397 0abd bf26 f1bd 9317 41bb aa90 053e
00000330: 927a 0d3c 1358 02be 8dfa f43d c685 ad3d
00000340: ffce 03bd 5a6a f1bd 1293 c43d 1de5 ee3d
00000350: 5271 86bd 09fa 10bd 4cc2 353d 8af5 cfb9
00000360: 600e e1bd a5e6 a53d 1dc1 28bc 9ae3 d8bd
00000370: 65d6 67bd 109b 81bd a5d9 e93d e947 123e
00000380: 8a31 473a 6534 0bbe bb54 1ebe 55bb 46bd
00000390: fe06 943d 43b3 483d 15f2 813d 4446 753d
000003a0: 79cd f93c 61d5 3bbd ff0c b13d 1cb0 cabd
000003b0: ae23 823c 0700 1a3d c4a0 04be 0649 d5bd
000003c0: 6331 133e c449 60bd ae00 aabd 5475 2d3d
000003d0: 2c0c 843d 0efb 8cbd e3c4 00bd 9318 d3bd
000003e0: 6cb1 a43d 3649 693c 08b6 bd3b 456a 9f3d
000003f0: 326d f03d c1cd f5bc 1ab0 8dbd 8116 3d3c
0.21135055 -0.10808221 0.155893 0.055088904 -0.012031722 -0.039509453 -0.030789917 -0.14670323
-0.011182743 0.088630795 0.051501755 0.038463138 0.11369799 -0.13491233 0.13188557 -0.078120805
-0.037122026 0.06315412 0.07995245 0.1862248 0.3381641 -0.06616939 0.017401686 -0.062699966
0.09830637 0.12302631 0.077733144 0.12644914 -0.07923835 0.24185394 0.11286869 -0.0546177
0.061928116 -0.06878221 -0.118881464 0.28229272 0.01375463 -0.04100705 -0.032596048 0.03233191
-0.18001325 -0.0502789 -0.027489753 0.12838528 -0.09695965 -0.05125215 -0.0056146365 -0.0060068974
-0.049706385 0.16433986 -0.026080787 -0.10668931 0.15785223 0.13511598 0.05970418 0.055894457
-0.11302012 -0.13674146 0.047149472 0.10314652 -0.04383888 0.032166384 -0.053676832 -0.12326228
0.04452403 0.032266196 -0.0401269 0.124069646 -0.1442306 0.017069208 -0.14940625 0.08517024
0.112053774 0.0017221709 -0.06261119 0.12925312 -0.09458406 -0.15601681 0.14456046 0.18259418
-0.1197651 -0.00023444055 -0.23791298 0.03224672 -0.1561478 -0.23133887 0.043030784 -0.031786095
0.07638873 -0.13914311 0.037985023 0.12611842 -0.16666268 0.028212646 0.1544919 -0.11925432
-0.05916647 0.12003016 -0.090804234 -0.030572243 0.04946935 -0.12478702 0.057126395 0.1032015
-0.11133326 -0.2259478 0.052481 0.087403014 -0.02093827 -0.087595835 0.03212774 0.0023390108
0.026447205 0.05963755 0.08813399 0.034634903 0.10771834 -0.02313543 0.07267255 0.063738056
-0.00735094 -0.150698 -0.103529416 -0.0035738568 0.0009269712 0.0945665 -0.20305721 -0.16534834
0.032310944 -0.04521562 -0.03447138 -0.21197967 0.079262614 0.0982375 0.06922369 -0.0737884
-0.18584117 0.17842811 0.17023087 0.18123458 -0.0013445995 0.18017344 0.02067626 -0.10111905
-0.066837765 -0.029086603 -0.0034092923 0.018518362 -0.0695091 -0.02072891 0.04470159 0.02224441
-0.0798926 -0.050325222 -0.10653368 0.008862111 0.019255681 -0.10035608 -0.017513413 -0.0034351447
0.036132056 -0.26427805 0.1366848 -0.0339133 -0.10992306 0.05124691 0.026735667 -0.17803445
-0.033812083 0.18835711 0.10905972 -0.026189076 0.17361479 0.24060595 0.05610908 0.17157143
-0.016485186 -0.15467355 0.021251995 -0.032508682 -0.11287898 0.098841734 -0.07785602 -0.07459213
-0.013142248 0.110549 -0.13488436 0.116788924 0.12830517 -0.04205021 -0.055529267 0.03781036
0.016694019 0.008113649 0.011360812 0.02431862 0.29643998 0.13909021 0.11073551 0.093428314
-0.03383572 -0.11774968 -0.0029463514 0.13043466 0.00863518 -0.1272891 0.11961851 0.08472781
-0.03217983 -0.11787863 0.09598364 0.11664794 -0.06564583 -0.035394702 0.04437475 -0.00039665058
-0.1098907 0.081006326 -0.010299948 -0.105902866 -0.056600947 -0.06328404 0.114184655 0.14285244
0.00075986295 -0.13594206 -0.1546201 -0.048518497 0.07227896 0.048999082 0.063450016 0.059881464
0.030493485 -0.04585779 0.08645057 -0.098968714 0.015886154 0.037597682 -0.12951952 -0.10414319
0.14374308 -0.05475785 -0.08300911 0.04234822 0.06447634 -0.068838224 -0.031437766 -0.103074215
0.08041653 0.014238646 0.005789522 0.07783941 0.11739577 -0.030005338 -0.06918354 0.01154101

net_stack.2.bias f4 [64]
00000000: efc8 743d 9cae 703d a1e9 3abd 50cb 3cbd
00000010: 341c 3cbd 7759 333d 236d 3f3d 854b e5bc
00000020: 92fa 44bd 5bcd 8d3c 6653 b53c 3743 a53c
00000030: cf11 cebc ef8e d63c ca8d ba3c 7846 a33c
00000040: a922 603b 3d3d 5c3c 309a 803c ec6c 903c
00000050: 509e 283d cc04 cfbc 64b4 81bd 9427 cc3c
00000060: 01e0 4cbd 7fbd 7e3d f318 1f3d b34c 1f3b
00000070: 8edd 62bd 8854 6abd 33a7 bcbc c3b7 92bc
00000080: 69a5 6b3d af72 14bd 96ea 78bd fc57 6e3d
00000090: e096 24bd b07c c63c 4739 9d3c 7a0e b8bc
000000a0: 81f9 85bd 8ff9 3a3d 3702 e33c 907b fc3b
000000b0: ea43 57bd 4685 6d3d d04a 3fbd 1323 2f3d
000000c0: 38f8 813d 66c9 28bd 2771 81bd e0be b73c
000000d0: ac46 313d a5b5 46bd 478f 46bd d930 6d3d
000000e0: af7e 80bd a48e 36bd 545b f23c 444d d9bc
000000f0: 0202 5e3d de60 7cbd 7c94 973c ba97 093d
0.059761938 0.05876027 -0.045632962 -0.04609233 -0.045925334 0.043786492 0.04673494 -0.027990112
-0.048090525 0.017309835 0.022134494 0.020173652 -0.025154976 0.026191203 0.022772688 0.019931063
0.0034200347 0.013442335 0.015698522 0.017630063 0.041166604 -0.025270842 -0.06333235 0.024921216
-0.050018314 0.062192436 0.038842153 0.002430719 -0.055387072 -0.05720952 -0.023028946 -0.01790989
0.057530794 -0.036242183 -0.060770594 0.058189377 -0.040182948 0.024229378 0.019192351 -0.02246784
-0.0654173 0.045648154 0.027711017 0.0077051595 -0.052555002 0.057988428 -0.046702206 0.04275806
0.06346172 -0.041207694 -0.0632041 0.022429883 0.04328029 -0.048513073 -0.048476484 0.057907913
-0.06274163 -0.044569626 0.029584564 -0.026526101 0.054201134 -0.061615817 0.01850342 0.033591963

net_stack.4.weight f4 [32, 64]
00000000: 0e07 843d 47b4 03be d26c 5bbc f62b 99bd
00000010: c1a6 753e 51e1 08bd c79b 9c3c a556 7cbd
00000020: 961a 74be 4e7e 0fbe 109e b9bc 39df 823c
00000030: faae 80bd 2602 dcbd 8d57 78be 3554 123e
00000040: 3aac 8abe 92ea 91bc c630 d7bd 0282 17bc
00000050: 80fd b83d 89db 14bb f6e0 123e 7235 0ebe
00000060: 6014 de3d 8497 fb3c 8368 0bbe 2698 1abe
00000070: 7b9a 97bd 0c31 32bd 0f59 db3d 4efd 77bc
00000080: c351 a7bd 0e41 8bbd 7aae a7bd 5640 593c
00000090: 1b08 a83d 85ce a8bd 0817 b13d 7c38 f13d
000000a0: b78f 7ebd e46f e43c 2f1a 823b dc26 093d
000000b0: 3e90 433e c5d5 8abd 4308 0dbd 5d59 29be
000000c0: 59eb a8bd 9a94 0abc 876f 0b3e 9f0c 003e
000000d0: 76f2 863d 5586 0e3e f465 2f3e 4856 ec3d
000000e0: 1d0d b43d 47e1 bb3d 154e c2bd dd8f cc3d
000000f0: 1b1b f3bd 5a77 a4bd b843 f3bd e97b 23bc
00000100: 7bbe a93d 7e71 11be b4ee 8ebd deb0 05bd
00000110: 254c 263e f1dc 76be 2033 783d 6e94 8e3d
00000120: 9780 24be 28bb 35bc 64c1 1dbe df50 d23d
00000130: d9dd b3bd ca47 213d 4009 2f3c 48f8 27bd
00000140: 6bb7 b73d 1529 413e aa34 253e b467 c93d
00000150: c222 093d 6d4d 48bd a821 2a3d 1bb7 e23d
00000160: dd39 35be 5db0 133e 8a65 edbc 0e10 2dbd
00000170: b00c 603d 46c9 623d 935a 30bd 0a21 c13c
00000180: 9c02 a13d 6d03 033d d10f 4cbd a7e6 4fbb
00000190: 26a6 443e 0796 03be 120f d93c c480 53bc
000001a0: 3556 47be 7f09 093c 67fa 953d 4f75 26be
000001b0: bedf f7bc e2f9 ebbc fcd3 0a3e 7d9c f6bb
000001c0: 3bba 07bd 6a99 85bd 5faa 363d cb75 323d
000001d0: c85c 0a3d 964c 93bd 2527 40be 4060 0cbe
000001e0: dbf2 273e 17af e83d 77ee 1e3d 7048 17be
000001f0: 58ac 87bd 3c80 d03d 2bed 043c 0857 c2bd
00000200: c27e 5dbe 5482 94bd 2368 603e f842 1b3e
00000210: 4b2d 113e 88ea 90bd da8a a0ba 8bb4 1bbd
00000220: 388a 6f3a 1f95 b4bd c687 42bd 3b13 f83b
00000230: b3e8 aeba 1b22 43bd 856b 10be 33bc 04bd
00000240: e92f 213e 49b3 edbc 17cd 9e3c 4f5a 853d
00000250: b31b 8bbd da2c cb3c 1881 0a3e 0108 243e
00000260: a309 0abd 380b 80bd 4f2e 0cbe d172 d3bd
00000270: 2c51 9c3d e00a b53c 3a6f 833c 8e81 98bc
00000280: 4fb2 0cbe bc3a 0e3d 5222 bb3b 827b 19be
00000290: 639f b83d 017a 4d3d 3e36 74bd 79bd d8bd
000002a0: e6ee d13d 0830 8dbd 0241 f53c ea16 3dbe
000002b0: b218 4b3e a9e1 89bd f243 0b3d 1c6a 75bd
000002c0: d405 d23c e7af 04bb 9b43 0c3e 5842 e3bc
000002d0: 0489 debc bdf2 cebc 7e5f 54bd f92c b33b
000002e0: 2361 71bd d6e3 303d 38b5 1cbe 370c 1fbd
000002f0: fdcc 85be 5715 bd3d e286 563d 1fb0 e0bd
00000300: 805c 23be 5aaa 6c3d 8d89 81bd 001f 2f3b
00000310: 9edd f83d 9127 e33c d32b b43c fa87 193d
00000320: 3877 673d 914f a03d 8052 673b 35fd a63c
00000330: 6e59 b339 1f11 e0bd 83b1 1fbe 67eb 6dba
00000340: 276b 843d 6d8c ae3d fc00 103e 9a25 1abd
00000350: 1f39 b73d 1c4a a03d 2407 cb3d 3fc0 8b3d
00000360: cc8e aabc 18f0 e43b e959 7ebc a153 97bd
00000370: 27f9 8fba 053b c73c 6aaa 29bd 7aaa fb3c
00000380: 8020 a03d f2d0 c5bd 6fc1 093e 587e 1dbc
00000390: cc2e 6cbc fba3 17be 4d32 ff3d 0bb6 6ebc
000003a0: 5e54 a8bd 0845 483d 18fe f33d b3c2 80bd
000003b0: f1cb 823d df56 3ebe 8000 813c ea14 403d
000003c0: 1e64 cb3d bc6c 2c3d 7596 2abd 9477 dcbd
000003d0: 809f c1bd cc4b d2bd 23c5 22bd 9d8a fabc
000003e0: 1cc2 5f3c 6a38 fa3d 779f 163e 3851 183d
000003f0: 7906 cd3d 67ea 963d e3f5 723d c0e9 f3bd
0.06446658 -0.12861739 -0.013392644 -0.07479088 0.23989393 -0.033418003 0.01911725 -0.06160607
-0.23838267 -0.14013025 -0.022658378 0.015975581 -0.06283374 -0.10742597 -0.24252148 0.14289935
-0.27084523 -0.017812047 -0.1050735 -0.009247305 0.09032726 -0.002271386 0.14343628 -0.13887575
0.1084373 0.030711897 -0.13614087 -0.15097103 -0.07402512 -0.043503806 0.10710346 -0.015136076
-0.08169892 -0.067995176 -0.08187576 0.013259968 0.08204671 -0.082425155 0.08646971 0.11778352
-0.062148776 0.027885385 0.0039704065 0.033484325 0.19097993 -0.067790546 -0.034431707 -0.16537996
-0.08248014 -0.008458281 0.13616763 0.12504815 0.065892145 0.13918431 0.17128736 0.11539894
0.08791564 0.091738276 -0.09487549 0.09988377 -0.11870404 -0.08030577 -0.11878151 -0.009978273
0.082882844 -0.1420345 -0.06979123 -0.032639377 0.16239984 -0.2410772 0.06059563 0.069619045
-0.16064678 -0.011091985 -0.15405804 0.10269331 -0.087825485 0.039375104 0.010683358 -0.041008264
0.08970531 0.18863328 0.16133371 0.09834233 0.033480413 -0.048901964 0.041536003 0.11070081
-0.17697854 0.14422746 -0.028979082 -0.04225164 0.0546996 0.05536773 -0.04305513 0.023575325
0.07861826 0.03198569 -0.04981977 -0.0031723173 0.19204006 -0.128502 0.026496444 -0.012909118
-0.19466479 0.00836408 0.07323151 -0.16255687 -0.030258056 -0.028805677 0.13557428 -0.007525979
-0.033136588 -0.06523402 0.044596072 0.043569367 0.03377989 -0.07192342 -0.18764932 -0.13708591
0.16401236 0.11361521 0.038801637 -0.14773726 -0.06624669 0.10180709 0.008113186 -0.09489256
-0.21630386 -0.072514206 0.21914725 0.15162265 0.14177434 -0.07075983 -0.0012248412 -0.038013976
0.00091377227 -0.08817505 -0.047492765 0.007570652 -0.0013344496 -0.047639947 -0.14103515 -0.032406043
0.15740933 -0.029016154 0.019384904 0.065113656 -0.067923926 0.02480166 0.13525808 0.16018678
-0.033700597 -0.0625214 -0.1368954 -0.10324634 0.0763267 0.022099912 0.016044248 -0.018616464
-0.13739894 0.034723982 0.0057108784 -0.1498852 0.090147756 0.05016518 -0.059622042 -0.10583014
0.102506444 -0.06893927 0.029938225 -0.18465772 0.1983364 -0.067324944 0.034000345 -0.059915647
0.025637545 -0.0020246448 0.13697664 -0.027741596 -0.027164944 -0.025262231 -0.05184888 0.0054680076
-0.058930527 0.04318603 -0.15303504 -0.03883001 -0.26132956 0.09232586 0.052374728 -0.109710924
-0.15953255 0.057779647 -0.06325064 0.0026721358 0.12151645 0.027728828 0.021993553 0.037483193
0.05651018 0.07827676 0.0035296977 0.02038441 0.0003420817 -0.109407656 -0.15595059 -0.000907591
0.0646575 0.08522878 0.14062876 -0.037633516 0.08946442 0.07826635 0.09913471 0.068237774
-0.020820044 0.006986629 -0.015524366 -0.07388998 -0.0010984287 0.024320135 -0.041422285 0.030720938
0.07818699 -0.09658994 0.13452695 -0.009612642 -0.014415454 -0.14808647 0.12460766 -0.01456977
-0.08219217 0.04889396 0.11913699 -0.06287136 0.06386555 -0.18587826 0.015747309 0.046894945
0.09931205 0.042095885 -0.041647393 -0.10764995 -0.0945425 -0.10268363 -0.039738785 -0.030583674
0.013657119 0.122177914 0.14709269 0.03718683 0.10011 0.073689274 0.059316527 -0.11909819

net_stack.4.bias f4 [32]
00000000: 28f1 cbbc 1844 ce3c 933c 3ebd 56ec 02bc
00000010: ec95 3dbd 9210 263d c7ba 503d ae55 61bd
00000020: f112 3d3d ab5c 54bd 9152 ed3c cc0c 6a3a
00000030: 886e 343d e247 61bd cfcd 3fbd a2b8 e23c
00000040: dff1 3ebd 080e ce3b 6bdb 193d 4ae6 4ebd
00000050: f24c 49bd f1a7 09bd aef9 773d 816c 45bd
00000060: 6ab3 3d3d 90d6 6cbd a309 5a3d 4d30 6e3d
00000070: 01bc 513d d7de 813d 3489 693d e450 4a3d
-0.024895266 0.025178954 -0.046444487 -0.007990917 -0.046285555 0.040543146 0.050959375 -0.05501335
0.046160642 -0.051846188 0.028970035 0.00089282985 0.044050723 -0.055000193 -0.046827134 0.02767593
-0.046617385 0.0062882937 0.03756277 -0.05051259 -0.049145646 -0.033607427 0.060540847 -0.04819918
0.04631368 -0.05782181 0.053231847 0.058151532 0.051204685 0.063413315 0.057015613 0.04939355

net_stack.6.weight f4 [32, 32]
00000000: 3a90 fdbd c97c a73d 9885 f8bd e54e cabd
00000010: c810 77bc 4a7e 92bd 1a88 2dbd 6ef0 9c3d
00000020: ea9e a33d 8d22 8bba b972 dcbd 4820 9b3c
00000030: 378d 9fbd 5a5d 243e 08dc 9bbd 36b2 f53b
00000040: df2a afbd 5fe3 4f3c 25cf b3bd f18f 0f3e
00000050: 2313 5b3e ec0c 0abe d8bf fabc 5c14 e03d
00000060: 8c3b 44bd ad0c d83d 66dd 0d3e 50f7 d53d
00000070: ad10 f0bd 1813 4e3d b18a 3abd 2fb6 3ebd
00000080: 7938 2d3e 2523 bf3c 0b75 613b b0e4 7cbd
00000090: 79d9 433e 9ffd c2bd a46c f0bd 6da6 0e3e
000000a0: 7bbd 17be 0e83 ea3d d17f bbbd c4cc 5a3d
000000b0: 9fa4 adbd c7e1 db3d 9773 cc3d 37b7 9abe
000000c0: a639 48bd 1228 59bc 5be4 ccbd 3b81 093e
000000d0: b9ea 823d b758 003e b02a a8bc 402c 133e
000000e0: ccf0 1fbe c0a8 473d 10a1 07be 6d7a 06be
000000f0: 10ab c73d e770 90bd 8f1b dc3b 3308 abbd
00000100: 046b 2bbe eee8 c23d 6669 3cbe 654b 8f3a
00000110: 5e4a 48be ee72 c9bd 9fa9 803c f1fd c3bc
00000120: a454 bd3d a1a2 cfbb 4bf7 813d 4f02 de3c
00000130: df39 083e c3b3 913d 75ee 20be 881a c3bd
00000140: b3c7 d7bd 2d46 633d 1137 debb 4462 383c
00000150: 6a0a 943d 695b aabc 4fb3 303e 509f be3c
00000160: c2c4 033e f986 5ebd a3d3 483c 7bb9 133e
00000170: 7013 2c3d f971 85bc 5425 353d d810 2d3d
00000180: 44cf e53d 5706 cabd c102 28bd f1c1 99bd
00000190: edc2 e53c 46a3 01bc 5c8d 353e e2b7 993c
000001a0: 90dd 883e 1b33 203c f0b6 e93c 205e c2bc
000001b0: b40a ed3d 2840 6cbe c87f 59be 3264 f53c
000001c0: 2523 cabc 8c6b dd3a 6429 8fbc ecc4 ff3c
000001d0: 8255 37bd 839a 39be 097c a1bd d58f a43d
000001e0: 3f15 c63d affc 58bd 9b22 163e a906 b93d
000001f0: cd24 5a3e fd27 e03c 1e17 ba3c 6035 fe3d
00000200: 6b2d a2bc dd06 9a3d 81b0 f4bc 1c9f 9ebd
00000210: f39e efbd f04b d4bc ec76 23bd 593e 893d
00000220: 43c1 a13d 739d eabd d528 5dbc 5a33 9dbc
00000230: 6e7f 713d 53dd 04bd e074 a0bd 2b45 863d
00000240: fc58 07bd 02d7 c6bd 6cc4 8e3d 707c b3bd
00000250: efe9 27be a79b 46bd 6402 a53c 466b bfbd
00000260: a033 bc3d 873d 593d 6734 2bbd 245e ab3a
00000270: 6661 ef3d e101 5a3e 1e14 a03c b951 653d
00000280: 944e 30be 8949 c6bd 5c47 29be ee22 42bd
00000290: cafe 20be 547e 2ebe 10cc 0f3e b942 a4bd
000002a0: 6c7c ae3d d245 4ebe 2c0d 62bd 40af 06bc
000002b0: 815b 6f3d 5eab 2d3d b5f2 8abd 41da 103d
000002c0: deae b7bd 2392 ab3b f79f e63c e4da b23d
000002d0: e179 103d 942b 0b3d 146e 91bd bcfe af3d
000002e0: 8361 ff3b a037 88bd df85 88bd ba3e 9e3d
000002f0: 34ef 15be eca2 073e 3455 5bbd 5dfd ee3c
00000300: 960e 6c3d ac54 81bd 01c9 9ebd ea4a 1cbe
00000310: e226 3ebd edd8 94bd a2d3 23bd 437f 4abe
00000320: 9e10 bd3d d236 49be 2914 c8bd 7fcf cb3d
00000330: f837 603e 2e70 90bd 09e7 103e 0e6c fc3d
00000340: b7e1 bdbd eef6 39be 0356 74bd 3b89 0a3d
00000350: 8391 f73a 4bf2 32be d091 ecbd 00e9 b5bc
00000360: b98f 663d 33b3 c8bd f474 cf3d 7421 d73c
00000370: 4ab0 ad3d 862c 943d a76e cb3d f996 b4bc
00000380: b430 ae3d 6e47 e4bd e71c a63c 0022 7a3d
00000390: 4a5a 083c fc16 9dbc 01b8 50bd 189d c33d
000003a0: 0905 44bb 06af 13bd 4657 893d 7ab4 c4bd
000003b0: 3a41 a33d f3fe 20be 5c1c 753e c603 25be
000003c0: 02f0 ed3d beee 8c3d e559 9a3c 7dee 06bc
000003d0: 831b e13d 7e8b 75bc f601 99bd 39e2 a13d
000003e0: b416 a5bd 114f 983d 754d a83c 8f9c 23be
000003f0: 5750 c53d 4af6 05be 0eb6 1bbe f25e 233c
-0.12381025 0.08178098 -0.12134856 -0.09878329 -0.015079685 -0.07152994 -0.042366125 0.07663046
0.07989295 -0.0010615155 -0.10764069 0.018936291 -0.077906065 0.16051236 -0.07610327 0.007498051
-0.08553099 0.012688487 -0.08779744 0.14019753 0.21394019 -0.13481492 -0.030609056 0.10941383
-0.04790835 0.10549293 0.13853988 0.10447562 -0.11721931 0.050311178 -0.045542423 -0.046560463
0.16916074 0.023332188 0.0034402038 -0.06174153 0.19125928 -0.09521031 -0.117394716 0.13930674
-0.14818375 0.11450778 -0.091552384 0.053417936 -0.084786646 0.10736423 0.099829845 -0.30217907
-0.048883103 -0.013254182 -0.10004493 0.13428204 0.06392426 0.12533842 -0.020528167 0.14372349
-0.156192 0.048744917 -0.13245034 -0.13132639 0.097494245 -0.070527844 0.0067171524 -0.08351173
-0.16740042 0.09517084 -0.18399581 0.0010932504 -0.19559619 -0.09836374 0.015705882 -0.0239248
0.092446595 -0.0063365255 0.063459955 0.02710071 0.13303326 0.07114365 -0.15715964 -0.09526545
-0.105361365 0.055486847 -0.006781467 0.011253897 0.07228549 -0.02079554 0.17255901 0.023269325
0.12868026 -0.05432794 0.012257489 0.14426224 0.042010725 -0.016289698 0.044225052 0.04225239
0.112211734 -0.098644905 -0.04101825 -0.075076945 0.02804705 -0.007912463 0.17729706 0.01876444
0.2673154 0.0097778095 0.028529614 -0.023726523 0.11574307 -0.23071349 -0.21240151 0.029955003
-0.024674961 0.0016893013 -0.017475791 0.03122183 -0.04475928 -0.18125348 -0.07884986 0.08035246
0.09672021 -0.052975353 0.14661638 0.090344734 0.21303101 0.027362818 0.022716101 0.12412524
-0.019797048 0.0752084 -0.02986932 -0.077451915 -0.11700239 -0.025915116 -0.039908335 0.06701345
0.0789819 -0.11455812 -0.013498505 -0.019189525 0.058959417 -0.032437634 -0.07834792 0.065561615
-0.033043846 -0.09708978 0.06971058 -0.08763969 -0.16397832 -0.048488285 0.020142742 -0.09346633
0.09189534 0.053037193 -0.04179802 0.0013074321 0.11688499 0.21289779 0.019540843 0.05598614
-0.17217475 -0.096819945 -0.16531128 -0.047396593 -0.15722194 -0.17040378 0.14042687 -0.08020539
0.08519825 -0.20143822 -0.055188343 -0.008220494 0.058436874 0.042399757 -0.06784574 0.035364393
-0.089689 0.0052359267 0.028152449 0.08733156 0.035272483 0.033977106 -0.07101074 0.085935086
0.0077936067 -0.066512346 -0.06666159 0.07726808 -0.1464203 0.13245744 -0.053548053 0.029173547
0.057631098 -0.06314978 -0.07753182 -0.15262952 -0.0464238 -0.07267938 -0.03999675 -0.19775109
0.09231685 -0.19649819 -0.0976947 0.09951686 0.2189635 -0.070526466 0.14150633 0.12325297
-0.09271567 -0.18160602 -0.05965234 0.03382228 0.001888797 -0.1747524 -0.11551249 -0.02220583
0.05628941 -0.097998045 0.10129729 0.026261069 0.0848089 0.07235055 0.09933215 -0.022044646
0.08505383 -0.11146437 0.020277454 0.06106758 0.008322308 -0.019175999 -0.05095673 0.09551448
-0.0029910228 -0.036055587 0.06706099 -0.09604736 0.07971425 -0.15722255 0.239366 -0.1611472
0.116180435 0.06881474 0.018841693 -0.008235571 0.109915756 -0.014986871 -0.07471077 0.07904477
-0.08060971 0.07436956 0.020544747 -0.15977691 0.09634464 -0.13082233 -0.15206167 0.009971367

net_stack.6.bias f4 [32]
00000000: 0f00 36bd 0727 6fbd 1942 653d ea77 613d
00000010: 675f 483d 807d 513d 930c 5f3d 0d98 46bd
00000020: cbd2 4c3d ffc7 693d d0e0 56bd 5267 553d
00000030: 1664 463d 20d0 68bd c0f7 4bbd 60f0 513d
00000040: b00e 5bbd b6e4 5f3d ef87 2f3d f4eb 5e3d
00000050: 6339 4bbd eb76 613d bff7 65bd d93e 523d
00000060: 4780 513d 0367 473d 632d 59bd 4c93 73bd
00000070: f273 3ebd edde 58bd 6f87 7cbd 336e 56bd
-0.04443365 -0.05838683 0.05597124 0.055046 0.048919108 0.051145077 0.05445535 -0.04848485
0.050005715 0.057075497 -0.05246049 0.052100487 0.048435293 -0.05683911 -0.04979682 0.05125463
-0.053480804 0.054661475 0.042854246 0.05442424 -0.049615275 0.05504505 -0.056144472 0.051329467
0.051147725 0.048682224 -0.0530218 -0.059466645 -0.046497293 -0.052946974 -0.061652597 -0.052351188

net_stack.8.weight f4 [1, 32]
00000000: 6b70 b63d e07c 0d3e 09fc b4bd 8b48 ecbd
00000010: b7bd 2dbe 2b6f e0bd 51b4 55be 6cc3 0c3e
00000020: afed 63be 772b 8cbd 9cb9 5f3e 9084 1fbe
00000030: 5894 a1bc 70ea c53d 29d7 3a3d b795 1fbe
00000040: c139 293e 99de 30be 80ff 50bd 0dd4 f8bd
00000050: e4eb 083e 859e d9bd d759 aa3d 5a84 47be
00000060: 2676 71bd 3850 1fbd ac60 403e 5aeb c03d
00000070: dc22 8b3d 1e37 be3d 7b3f f43d b648 283e
0.08908161 0.13817167 -0.088371344 -0.11537274 -0.16966902 -0.109587036 -0.20869567 0.13746423
-0.22258638 -0.06844228 0.21848148 -0.15577912 -0.019724056 0.09663856 0.04561535 -0.15584455
0.16525938 -0.17272414 -0.051024914 -0.121498205 0.13371235 -0.10625938 0.08317917 -0.19484082
-0.058950566 -0.038894862 0.18786877 0.0941989 0.06793758 0.092878565 0.119261704 0.16433987
