CAPSTONE/CAPMODELS/output/model_GADG2.pth (torch, 17392 bytes, 5 tensors)

net_stack.0.weight f4 [64, 23]
0.027842594 -0.1356619 -0.03271979 0.043500364 0.12105281 -0.24416769 -0.07543081 0.08178398
0.11430905 -0.12119209 -0.033967 -0.19220872 -0.06828999 -0.03285188 -0.15835282 0.06161212
0.21703425 0.08693722 -0.14762098 0.020891681 0.15266345 -0.070268184 -0.11426597 -0.054088023
0.14453778 0.02795382 0.069529854 0.010239729 0.12799644 0.08769699 -0.07573701 -0.19016428
-0.00066886115 0.13611087 -0.22305524 0.021062743 0.034362435 0.090308845 -0.029006831 -0.13426179
-0.053726394 0.07086662 -0.12231036 0.007650229 0.08241959 -0.052686166 0.026043348 0.044466343
-0.10872242 0.015838008 -0.054673113 0.19846597 0.18222395 -0.018524058 -0.045494035 0.086697936
-0.041848313 -0.15330258 0.108323455 0.008018195 0.048407596 0.042086158 0.032028165 -0.03788357
0.020790517 0.031312533 0.060981814 0.011344998 -0.08629626 0.1269144 0.1537257 0.05965919
-0.11643753 -0.05633044 -0.05684989 -0.057942916 0.028608141 0.012321067 -0.07466678 0.07623056
0.0035808263 -0.08072669 0.04241366 -0.042611808 0.17580163 0.047926977 0.1243081 0.033571467
-0.03073244 0.028481612 -0.037393067 0.09687966 0.014045469 0.06681047 -0.02242719 -0.023561532
0.024330445 -0.11498649 0.07528494 -0.10186806 0.2159894 0.1599218 -0.2071774 -0.0067584487
-0.00734245 -0.15511286 -0.10881178 -0.05558339 0.0505387 -0.038502276 0.006241255 0.17853755
-0.04418595 0.10337113 -0.09832117 0.04243732 0.043311153 0.13858801 0.21780929 -0.06571034
-0.004008122 0.21140066 0.09968283 -0.006882404 0.0856724 -0.02581218 -0.18680501 0.008807236
-0.16274588 -0.10313703 0.03378787 0.052176233 -0.0006507884 0.081807904 0.04346807 0.09145126
0.014889907 -0.016324861 -0.055484742 0.034573395 0.06896315 -0.011339085 -0.06794594 -0.024041003
-0.13904299 -0.2257827 0.08029262 0.10092113 -0.040107094 0.013707822 -0.10541017 -0.22847693
0.029836409 0.024318388 -0.040200777 0.07795606 -0.081825376 -0.0958324 -0.082439505 -0.14408733
0.10473308 0.037739363 -0.014693298 0.23417377 -0.029752793 -0.07208344 0.04817195 -0.1246067
-0.0696454 0.10806903 0.08579337 0.022398492 -0.092432186 -0.10486789 0.078394406 0.073531754
-0.066814624 -0.029875262 -0.015292433 0.048590194 -0.03805345 0.034293693 0.25223282 0.1834545
-0.0765285 0.04869465 0.10717519 0.19427848 -0.041844662 -0.1255157 -0.105982825 -0.15990867
-0.028273959 0.079116814 0.027902763 0.040148206 0.015790801 -0.03232864 0.03748188 0.05340229
0.003089083 0.15113772 -0.060887996 -0.0016523058 -0.099550806 -0.19095935 0.04352996 0.119061396
0.18855554 0.14590508 -0.009642951 -0.09526885 0.11326445 -0.05989121 -0.030008115 0.026374524
0.12141092 -0.025097925 -0.038463503 0.012032765 -0.1278254 -0.12891655 -0.029043078 -0.017184475
0.12226806 -0.108703926 -0.06575559 0.02229073 -0.05287619 0.09067525 0.09668657 -0.08710582
0.061521597 -0.11854206 0.0031879311 -0.011863189 -0.07800061 -0.047285516 0.14469832 0.024121365
0.082805626 -0.017773617 -0.0951597 -0.019257048 -0.12619746 0.041086882 0.014989844 0.10356898
-0.0092678135 0.14601581 -0.14439946 0.044450592 0.011083444 -0.024331057 0.056157786 -0.031858377
00000000: 2716 e43c f4ea 0abe 3005 06bd 702d 323d
00000010: 89ea f73d 1807 7abe 787b 9abd 5c7e a73d
00000020: dd1a ea3d 8f33 f8bd fb20 0bbd 5dd2 44be
00000030: 9fdb 8bbd b18f 06bd 3e27 22be fe5c 7c3d
00000040: 3a3e 5e3e 240c b23d f429 17be 0825 ab3c
00000050: cf53 1c3e c4e8 8fbd 4704 eabd 678b 5dbd
00000060: b601 143e 69ff e43c ab65 8e3d 89c4 273c
00000070: 8011 033e 7b9a b33d 011c 9bbd 6dba 42be
00000080: 8356 2fba a660 0b3e 9868 64be c68b ac3c
00000090: a0bf 0c3d d8f3 b83d bc9f edbc ec7b 09be
000000a0: 3510 5cbd 8522 913d db7d fabd c6ae fa3b
000000b0: 9acb a83d 73cd 57bd dc58 d53c 5722 363d
000000c0: dca9 debd b6be 813c eaf0 5fbd aa3a 4b3e
000000d0: ea98 3a3e c4bf 97bc f457 3abd b08e b13d
000000e0: 2369 2bbd 5afb 1cbe b0d8 dd3d bf5e 033c
000000f0: 0b47 463d 8962 2c3d f72f 033d cd2b 1bbd
00000100: e050 aa3c 9241 003d 11c8 793d 5fe0 393c
00000110: 18bc b0bd d9f5 013e 456a 1d3e 325d 743d
00000120: cd76 eebd bfba 66bd 6edb 68bd 8d55 6dbd
00000130: 9f5b ea3c 4dde 493c e6ea 98bd c51e 9c3d
00000140: 4cac 6a3b 0954 a5bd f2b9 2d3d b889 2ebd
00000150: 5805 343e 144f 443d 3f95 fe3d 3c82 093d
00000160: 99c2 fbbc 4552 e93c 7929 19bd d868 c63d
00000170: f81e 663c edd3 883d 3ab9 b7bc 1d04 c1bc
00000180: a450 c73c 097e ebbd fe2e 9a3d 34a0 d0bd
00000190: 532c 5d3e 8ac2 233e 5026 54be fa75 ddbb
000001a0: ef98 f0bb e8d5 1ebe b6d8 debd 69ab 63bd
000001b0: ab01 4f3d 90b4 1dbd 7183 cc3b 8cd2 363e
000001c0: 54fc 34bd 3eb4 d33d 9c5c c9bd c1d2 2d3d
000001d0: 0967 313d 04ea 0d3e 6609 5f3e 2593 86bd
000001e0: 9056 83bb 6a79 583e 8326 cc3d ca85 e1bb
000001f0: 0375 af3d 1174 d3bc d049 3fbe 3a4c 103c
00000200: dba6 26be 8239 d3bd 2665 0a3d bfb6 553d
00000210: ac99 2aba e78a a73d 930b 323d cc4a bb3d
00000220: ccf4 733c b7bb 85bc f843 63bd d59c 0d3d
00000230: 8d3c 8d3d 92c7 39bc 3e27 8bbd a3f1 c4bc
00000240: 4961 0ebe 9533 67be 7570 a43d bdaf ce3d
00000250: 5647 24bd c696 603c 4ae1 d7bd dbf5 69be
00000260: 7c6b f43c 5b37 c73c 92a9 24bd 6da7 9f3d
00000270: 1094 a7bd c743 c4bd 0bd6 a8bd a18b 13be
00000280: 4c7e d63d 9794 1a3d 29bc 70bc 40cb 6f3e
00000290: 21bc f3bc 7ca0 93bd f34f 453d cc31 ffbd
000002a0: 3fa2 8ebd 4c53 dd3d 6fb4 af3d 0b7d b73c
000002b0: 164d bdbd fac4 d6bd 3f8d a03d d197 963d
000002c0: 1bd6 88bd f7bc f4bc 1d8d 7abc 8306 473d
000002d0: efdd 1bbd 8b77 0c3d a924 813e 7fdb 3b3e
000002e0: f9ba 9cbd 0b74 473d aa7e db3d f0f0 463e
000002f0: 4f65 2bbd 3087 00be 860d d9bd 19bf 23be
00000300: ca9e e7bc ff07 a23d 5694 e43c 7272 243d
00000310: b65b 813c 096b 04bd 9a86 193d 5cbc 5a3d
00000320: 3672 4a3b d9c3 1a3e b165 79bd 2f92 d8ba
00000330: 4be1 cbbd d98a 43be 794c 323d 76d6 f33d
00000340: b414 413e 2468 153e 78fd 1dbc 511c c3bd
00000350: 31f7 e73d 7c50 75bd 94d3 f5bc 630f d83c
00000360: 4aa6 f83d 2a9a cdbc e88b 1dbd 1325 453c
00000370: a9e4 02be b302 04be c0eb edbc 75c6 8cbc
00000380: ad67 fa3d 2aa0 debd deaa 86bd 0d9b b63c
00000390: b494 58bd f2b3 b93d 9c03 c63d 8964 b2bd
000003a0: 12fe 7b3d 2ec6 f2bd 9cec 503b d25d 42bc
000003b0: c9be 9fbd 75ae 41bd cc2b 143e 2b9a c53c
000003c0: ff95 a93d fa99 91bc 17e3 c2bd f5c0 9dbc
000003d0: e839 01be b84a 283d f697 753c f91b d43d
000003e0: 07d8 17bc 2b85 153e 74dd 13be d311 363d
000003f0: 5597 353c ed51 c7bc b505 663d ee7d 02bd

net_stack.0.bias f4 [64]
0.019439775 -0.0117814485 0.08237983 -0.08862063 -0.06725537 0.06939011 -0.07424771 -0.097188115
-0.093713 -0.095429406 -0.032479577 -0.051323757 0.067509264 0.10759402 -0.05616788 -0.08224702
0.08692805 -0.0152007155 0.0584739 -0.056695793 -0.09770387 0.040859554 0.08753866 0.028808895
0.08616212 0.0838289 -0.07120498 0.08799721 0.087915584 0.0004095062 -0.10243946 0.07870837
0.035874203 0.071111575 0.050073247 0.030637173 0.07492624 0.07958654 0.09866831 -0.09039035
-0.08521098 -0.05322288 -0.09930729 -0.090220496 -0.06801681 -0.009604545 0.08870467 0.09491704
-0.090703435 -0.08657879 0.074179314 -0.09492813 0.06701588 0.060461666 -0.050715577 0.103734
0.09553191 0.04662151 -0.05396999 0.094435535 -0.03197448 0.07584979 0.099241585 0.02414006
00000000: 2a40 9f3c fa06 41bc c2b6 a83d bc7e b5bd
00000010: 2fbd 89bd 671c 8e3d 2f0f 98bd 900a c7bd
00000020: 9aec bfbd 7e70 c3bd 4e09 05bd dc38 52bd
00000030: 4c42 8a3d 415a dc3d 4a10 66bd 2071 a8bd
00000040: 5507 b23d 6c0c 79bc 5482 6f3d d939 68bd
00000050: f718 c8bd 595c 273d 7847 b33d a200 ec3c
00000060: c475 b03d 7cae ab3d ebd3 91bd e237 b43d
00000070: 160d b43d feb2 d639 c8cb d1bd db31 a13d
00000080: d4f0 123d f2a2 913d 9b19 4d3d cffa fa3c
00000090: ee72 993d 45fe a23d 9c12 ca3d 931e b9bd
000000a0: 1883 aebd 3c00 5abd 9f61 cbbd 86c5 b8bd
000000b0: 664c 8bbd 625c 1dbc cbaa b53d dd63 c23d
000000c0: b9c2 b9bd 3850 b1bd 53eb 973d ae69 c2bd
000000d0: 9f3f 893d a7a6 773d 23bb 4fbd 7e72 d43d
000000e0: 3ca6 c33d 32f6 3e3d a30f 5dbd 6b67 c13d
000000f0: acf7 02bd 2257 9b3d 2c3f cb3d 60c1 c53c

net_stack.2.weight f4 [32, 64]
-0.07802121 -0.036281604 0.14334175 0.007860205 0.07450134 0.089629345 -0.0032751132 -0.05793143
-0.040921256 -0.15804745 -0.118289895 0.068959385 0.028714593 -0.013546569 -0.009378831 -0.1524124
-0.113915905 -0.052653074 0.04317015 0.005133641 -0.023234647 -0.032118957 0.14601105 0.0077818776
0.08848706 -0.026545817 -0.036382537 -0.05753946 0.019866232 0.027131166 0.14810313 0.16148199
0.04258002 -0.089336015 0.013630895 -0.030695096 0.029172394 -0.018311718 0.10230591 -0.101119354
0.032658957 -0.10911841 -0.17233402 -0.13600476 -0.004537655 -0.056212906 -0.095688164 0.15701127
-0.077854425 0.09583407 0.035667103 0.057594374 -0.027295593 -0.100702465 -0.06699283 0.116848454
0.22952035 0.03602731 0.14540283 0.063838035 0.027385974 0.026036743 0.13919203 0.06635356
-0.009772296 0.0019158274 -0.06027431 -0.11785609 -0.07231476 -0.1077961 -0.066168 -0.02641705
-0.11839203 0.023750037 -0.07800724 0.01737853 0.037080824 -0.022610303 0.059391845 0.013116099
-0.100808606 0.06970531 0.13617103 -0.040589314 -0.10248685 -0.08793729 0.051894225 -0.02824368
0.10043889 0.010866094 0.14667578 0.0141252745 0.056658752 -0.079172835 0.017828537 0.081230685
-0.02486327 -0.031174568 0.032635152 -0.10237559 -0.0812846 0.11231174 0.07119807 -0.030731734
0.10385775 0.09796386 0.001011648 0.08484813 -0.101547286 -0.02558459 0.0057586064 0.32322186
-0.08053937 0.1059417 0.0957585 -0.19030187 -0.084339626 -0.09694799 -0.06297206 -0.017060753
-0.14135094 -0.082463145 0.07194266 0.021278815 -0.10897993 -0.043156482 -0.11145428 0.095545374
0.05739947 0.024514703 -0.03584873 -0.11939406 0.005713304 -0.14237764 -0.00525529 -0.222216
-0.111068815 -0.061470814 0.035778593 0.052419502 0.1464739 0.0173976 0.109380424 -0.06314486
0.1215334 -0.10903907 0.14920895 -0.15631826 -0.13086067 -0.0024530597 0.13345256 -0.12622377
0.047495913 0.18114662 -0.033167284 0.16383466 0.11903015 -0.12734734 -0.14223626 -0.0064783627
-0.10292829 -0.042755757 -0.013226622 0.17471789 0.17040145 -0.012537563 0.093523696 -0.16555189
0.07728476 0.054644242 0.10164884 -0.092837274 0.022519818 0.022746317 0.07509808 -0.029502083
0.01648405 -0.17922045 -0.03399889 -0.06331561 0.02225628 -0.07726337 0.012749088 0.016891249
0.017942391 -0.05768953 0.014080037 0.07417538 -0.07802873 0.051787805 0.097927466 0.114238776
0.064490736 -0.013204555 0.05146143 -0.05048915 -0.044694412 0.12234192 -0.15794708 0.043398198
-0.044205945 0.036410935 0.021879163 -0.06978815 -0.15432847 0.07384015 -0.118320435 -0.016907556
-0.0080770645 -0.005037977 0.017538382 0.030459369 -0.1057115 0.1458008 0.10687403 0.057707887
-0.23078272 0.04957225 0.029632479 -0.14919394 -0.02886686 0.068454534 0.06212699 0.08121815
-0.10813012 0.0349623 -0.04751897 -0.07442606 0.094748914 0.109408066 0.019728387 0.022830622
-0.073758066 0.005382993 0.022689207 -0.12645315 0.060053542 0.07768263 -0.040749393 -0.024026727
0.04312487 -0.10635265 0.021258717 -0.044143494 0.12993698 0.07107729 -0.042551395 -0.021142675
0.31781158 -0.068997726 -0.084394105 0.1948882 0.06064548 -0.08228372 0.004683357 0.13056427
00000000: 96c9 9fbd 059c 14bd 2ec8 123e 17c8 003c
00000010: 2994 983d 978f b73d 48a3 56bb 8249 6dbd
00000020: 0c9d 27bd 31d7 21be f941 f2bd 943a 8d3d
00000030: de3a eb3c 6ef2 5dbc aba9 19bc ff11 1cbe
00000040: be4c e9bd c0aa 57bd 2fd3 303d 1a38 a83b
00000050: 9656 bebc 2b8f 03bd ec83 153e 1fff fe3b
00000060: b438 b53d 9d76 d9bc db05 15bd 7fae 6bbd
00000070: 82be a23c 2e42 de3c 59a8 173e 895b 253e
00000080: 6368 2e3d cdf5 b6bd 1e54 5f3c 4874 fbbc
00000090: f2fa ee3c 7502 96bc c385 d13d aa17 cfbd
000000a0: 66c5 053d 7979 dfbd 5478 30be d544 0bbe
000000b0: 9cb0 94bb 813f 66bd 28f8 c3bd 90c7 203e
000000c0: 2472 9fbd a744 c43d ab17 123d 14e8 6b3d
000000d0: 029b dfbc 183d cebd 8933 89bd 3e4e ef3d
000000e0: 6207 6b3e 5f91 133d 7be4 143e 84bd 823d
000000f0: 8d58 e03c 024b d53c 5b88 0e3e 60e4 873d
00000100: fb1b 20bc 801c fb3a 32e2 76bd 895e f1bd
00000110: c319 94bd 34c4 dcbd 1783 87bd 9268 d8bc
00000120: 8577 f2bd 708f c23c 43c2 9fbd 6b5d 8e3c
00000130: 10e2 173d 3e39 b9bc dd44 733d e8e4 563c
00000140: be74 cebd a8c1 8e3d 6b70 0b3e fb40 26bd
00000150: a0e4 d1bd 7718 b4bd 0a8f 543d 4a5f e7bc
00000160: e8b2 cd3d b407 323c 2d32 163e b26d 673c
00000170: 0213 683d 5e25 a2bd 270d 923c 465c a63d
00000180: 0eae cbbc cf61 ffbc 70ac 053d 4baa d1bd
00000190: 8a78 a6bd b303 e63d 4bd0 913d 1ec1 fbbc
000001a0: 5fb3 d43d 47a1 c83d 4699 843a dbc4 ad3d
000001b0: 06f8 cfbd c696 d1bc b1b2 bc3b 567d a53e
000001c0: d3f1 a4bd f6f7 d83d 081d c43d 7ede 42be
000001d0: 41ba acbd ab8c c6bd 7ff7 80bd fec2 8bbc
000001e0: 4dbe 10be 70e2 a8bd ac56 933d e950 ae3c
000001f0: df30 dfbd dac4 30bd 2442 e4bd 4bad c33d
00000200: b51b 6b3d 0fd3 c83c 1ed6 12bd df84 f4bd
00000210: ab36 bb3b 72cb 11be 9134 acbb 978c 63be
00000220: 0c78 e3bd d2c8 7bbd 938c 123d d5b5 563d
00000230: 41fd 153e 6985 8e3c d802 e03d 1852 81bd
00000240: 81e6 f83d e04f dfbd 3bca 183e e511 20be
00000250: 5700 06be 83c3 20bb caa7 083e ce40 01be
00000260: 138b 423d 807e 393e 6bda 07bd 46c4 273e
00000270: 14c6 f33d 5767 02be 62a6 11be 7248 d4bb
00000280: 11cc d2bd a920 2fbd 79b4 58bc 3fe9 323e
00000290: b87d 2e3e 5a6a 4dbc 5a89 bf3d 6f86 29be
000002a0: 7947 9e3d a4d2 5f3d 442d d03d 7821 bebd
000002b0: 7b7b b83c 7c56 ba3c 06cd 993d 5aae f1bc
000002c0: 8f09 873c 9185 37be 6c42 0bbd 9dab 81bd
000002d0: cd52 b63c 423c 9ebd 8de1 503c 845f 8a3c
000002e0: ecfb 923c db4b 6cbd f5af 663c 43e9 973d
000002f0: 87cd 9fbd 731f 543d 328e c83d 05f6 e93d
00000300: b813 843d eb57 58bc 38c9 523d b6cd 4ebd
00000310: 7d11 37bd 678e fa3d e1bc 21be 4fc2 313d
00000320: 4b11 35bd a223 153d ee3b b33c 17ed 8ebd
00000330: 4808 1ebe 8139 973d fc51 f2bd b781 8abc
00000340: aa55 04bc 9d15 a5bb a7ac 8f3c ed85 f93c
00000350: 457f d8bd ce4c 153e c5e0 da3d 1b5f 6c3d
00000360: 4e52 6cbe 460c 4b3d d0bf f23c 4cc6 18be
00000370: 317a ecbc e431 8c3d df78 7e3d b455 a63d
00000380: 5373 ddbd a134 0f3d 40a3 42bd b16c 98bd
00000390: b80b c23d 5611 e03d 6d9d a13c 4907 bb3c
000003a0: 780e 97bd d163 b03b b7de b93c ef7c 01be
000003b0: b4fa 753d 1218 9f3d d6e8 26bd b3d3 c4bc
000003c0: b4a3 303d 6bcf d9bd c326 ae3c cfcf 34bd
000003d0: 330e 053e f890 913d 5f4a 2ebd 6733 adbc
000003e0: 33b8 a23e ae4e 8dbd d1d6 acbd c690 473e
000003f0: 6567 783d 5e84 a8bd d976 993b a4b2 053e

net_stack.2.bias f4 [32]
0.07738358 0.056897096 0.081546515 0.07153369 -0.07841446 0.07685472 -0.0733068 0.086926445
-0.09311074 0.07822798 0.078103684 -0.07568661 0.08591035 0.067706645 0.10705064 0.07849231
0.09212081 -0.08273895 0.105869554 0.08809999 0.072406955 0.08333841 -0.09259184 -0.07998063
-0.08121841 0.08601263 0.08171557 -0.087222226 -0.08654775 0.093904845 -0.08501166 0.07892804
00000000: 487b 9e3d ee0c 693d dc01 a73d 4180 923d
00000010: c397 a0bd 0266 9d3d e021 96bd 7e06 b23d
00000020: d8b0 bebd fe35 a03d d3f4 9f3d 9501 9bbd
00000030: c4f1 af3d c8a9 8a3d 5e3d db3d 94c0 a03d
00000040: d6a9 bc3d 0a73 a9bd 23d2 d83d c46d b43d
00000050: 194a 943d 54ad aa3d caa0 bdbd e2cc a3bd
00000060: d655 a6bd 6427 b03d 7e5a a73d 91a1 b2bd
00000070: f23f b1bd 2f51 c03d 981a aebd 06a5 a13d

net_stack.4.weight f4 [1, 32]
0.1183223 0.019085003 0.18794934 0.08148048 -0.08823296 0.18776317 -0.098602265 0.10687714
-0.055862207 0.04310303 0.11357224 -0.22332525 0.077171184 0.030384809 0.04559613 0.20264523
0.06732728 -0.12790321 0.07459584 0.12044688 0.028674388 0.09717265 -0.066980496 -0.04159086
-0.18104658 0.08605312 0.15288214 -0.095098585 -0.11747921 0.096125335 -0.14419453 0.16757748
00000000: f652 f23d 2758 9c3c cb75 403e 3ddf a63d
00000010: 7bb3 b4bd fd44 403e fcef c9bd 67e2 da3d
00000020: c5cf 64bd ce8c 303d 9098 e83d 60af 64be
00000030: ed0b 9e3d 90e9 f83c 02c3 3a3d 3b82 4f3e
00000040: e3e2 893d 0ff9 02be b4c5 983d dbac f63d
00000050: 8de6 ea3c 7402 c73d 122d 89bd 2d5b 2abd
00000060: 4664 39be 9e3c b03d 238d 1c3e 0cc3 c2bd
00000070: f198 f0bd 5cdd c43d bba7 13be 6e99 2b3e
