CAPSTONE/CAPMODELS/output/model_MDD2.pth (torch, 16614 bytes, 5 tensors)

net_stack.0.weight f4 [64, 20]
00000000: 85b3 43be b0a2 e63d efab b33c e595 dfbd
00000010: 02b4 063e d574 863c 2085 08be 4864 95bd
00000020: 2f68 123c 4663 01bd 6318 833d a3fe ba3d
00000030: d207 50bd f959 40bd 0429 843d 86d2 0bbd
00000040: d98c 98bd 8d93 85be e67a 803d 404b e3bd
00000050: 5e2c 803d 8414 7d3d 797e ae3d 9676 4bbc
00000060: 0870 c6bc 9789 cabd a3bf 8bbd 3f26 b9bd
00000070: 498a cdbd 05d0 a53d 7c3b 5fbc 10d0 753d
00000080: 5cb4 69bb b5ee 43bd 53e0 babd 415d c6bd
00000090: 9af4 953d 8472 8fbd cd70 f53c 6194 ac3d
000000a0: d562 1e3e 21ca 013d cbf8 e43d 6cb4 683d
000000b0: 435b a63d 3d12 25be 1d42 283d 0a8f b7bd
000000c0: f0b1 7abd 7d1a 9f3c 9e47 c23d 5a05 453d
000000d0: 1841 613d 7a2c a8bd beaa 09be 76a0 393e
000000e0: 6c1a 28be 6978 b03c a557 04bd 4ee4 ddbc
000000f0: 0e5e 163e e261 dcbd 6498 593d 25b3 e93d
00000100: ded1 a0bd e80d ebbd 1cc8 a63d 16d1 043e
00000110: f861 a43d 80be 0cbe 0cff dd3d efaf 4b3e
00000120: de3e aabd 8627 2abd 14e6 a73d 02a8 0fbe
00000130: 3b0c e5bc b2d9 7d3a dfc2 173d 34fc 943d
00000140: 196d f13d 762b b4bd 15da 2bbd 6720 353e
00000150: debb d03a e9d9 143d 2b9b e53d 60e0 713d
00000160: a250 033e 0ab9 8ebc a46b efbd ef88 56bd
00000170: 2055 f4bd 2f74 c63d 8d7e 60bd f8fd 893d
00000180: 4c27 7fbc 0df1 303e ff6f 573c 7f2c cf3c
00000190: fbb4 333d 7ccc 3a3d 7e0c 8abd b084 163e
000001a0: 29d1 9c3d 8fa4 213e 6e56 713d bd30 6e3e
000001b0: 3eeb 72bc bac5 903c 55f0 1fbe 814a 873c
000001c0: f214 a1bd b0ad 2cbe d61e 8ebd a226 7e3c
000001d0: 1a46 9e3d 069f 63bd d1a7 fa3d 2ab3 66bb
000001e0: 267a 28bd 2110 ff3c 9f70 743e 126e 80bd
000001f0: ea82 2cbe 7f87 52bd 67c1 88bc b441 51bd
00000200: 3acd 87be dd23 f4bd 2f50 523d bfbd 07be
00000210: 615a 34bc 675a eb3c 3317 97bd 0c8b 0dbd
00000220: 61d1 063e c25a 053e 2a61 4dbd 4bdf 2c3d
00000230: 5ad7 d1bd 63b0 2abd fec2 0bbe d1c7 8abc
00000240: 5c04 dc3d 61e9 17bd f7a1 92bd 2b7a 14be
00000250: 099b 863d f49c 12be eaf2 53bc b069 07bd
00000260: f475 39bd 33b1 3d3d 6fd4 233e 65b9 2dbe
00000270: 9782 c43d 00a0 66bd 7e3d a83d e653 46bc
00000280: 9e9c ed3d ebda 873d 4cfa 94bd 33e1 933c
00000290: 2cc8 6b3c bb7b 7fbc 6a48 cf3c cdbd 11bd
000002a0: 8fad 853d a4ec 413e e0cd c13c 8105 243d
000002b0: e1b1 14be fb99 223d b808 413e e10c a2bd
000002c0: 8acf 063e a4a3 1fbd e24f b6bd d795 81bc
000002d0: 8692 b7bc 402f 3dbe 37ac 713c 1639 d9bc
000002e0: 798d d33d b63c 273e 8c68 51be f320 8c3d
000002f0: bd90 bc3c cd99 74bc 272b c9bc 2f09 d6bd
00000300: 3951 d63c 4684 763d 5607 ecbd 7d5b eb3d
00000310: 2c09 a8bd 94a0 283d 5018 49bd d21c 953d
00000320: a2fe 94bd 1512 d83d ebd8 6fbb 740f 4abd
00000330: 6090 f83d 19b8 d3ba ac46 3d3d b3b8 9d3d
00000340: 9686 f83d 701a 3fbe 863e 11be bf50 a5bc
00000350: 9460 55bb c747 813d 8775 903c fdc5 d9bd
00000360: 8d28 dfbc 8c8d 90bd cb3b b6bc 97de 263e
00000370: c78b 21bd 30ae c53d 7003 9abd 2d32 463d
00000380: 8e15 c2bd 22a3 ea3d 5b49 d4bd e261 043d
00000390: 27eb 423d 1b39 173e b37b 45bd 3207 9cbd
000003a0: 5889 1cbd f697 edbc 221c d4bd dec8 cabd
000003b0: 46aa 2ebe a8d7 7f3d 0744 0ebe 6be7 b33d
000003c0: f0e5 ec3c a6e2 edbc 6671 ca3d 6e68 96bd
000003d0: 22ae a63d 9ef2 e33c e6c5 2e3e 6eee 8abc
000003e0: 5d8a da3c 2c63 a4bc fed6 ad3d 1481 4f3d
000003f0: 3c0f 233e 29a1 10be 42e8 1fbe b7bb db3d
-0.1911145 0.11261499 0.02193257 -0.10917262 0.13154605 0.016413132 -0.13332033 -0.07294518
0.008935972 -0.031588815 0.06401136 0.09130599 -0.050788708 -0.046960805 0.064531356 -0.034136318
-0.074487396 -0.26089135 0.06273441 -0.11098337 0.06258462 0.061787143 0.085202165 -0.01241841
-0.024223343 -0.098895244 -0.06823661 -0.09040498 -0.100361414 0.08096317 -0.013625022 0.060012877
-0.003566048 -0.04783507 -0.09124818 -0.096857555 0.07322045 -0.07004264 0.029961014 0.084267385
0.15467389 0.031686906 0.11180266 0.05681269 0.081228755 -0.16120239 0.041078676 -0.089628294
-0.06120485 0.01942181 0.09486316 0.048100807 0.05499372 -0.08211608 -0.13444039 0.18127617
-0.16416329 0.021541791 -0.032310147 -0.027086403 0.14684317 -0.10760857 0.053123847 0.11411122
-0.07852529 -0.11477262 0.081436366 0.12970385 0.080264986 -0.13744545 0.10839662 0.19891332
-0.08312772 -0.0415416 0.08198181 -0.14028934 -0.027959934 0.0009683623 0.037051078 0.072746664
0.11788387 -0.08797352 -0.041956026 0.17688142 0.0015925129 0.036340628 0.112112366 0.05905187
0.12823728 -0.017422218 -0.11690453 -0.052376684 -0.11930299 0.09690129 -0.05480819 0.06737894
-0.015573334 0.17279454 0.013149261 0.025289772 0.04387377 0.045605168 -0.06740664 0.14699054
0.07657082 0.1578543 0.058920316 0.2326078 -0.014826594 0.017672408 -0.15619023 0.016515018
-0.07865323 -0.16863132 -0.06939475 0.0155121405 0.077282146 -0.05557158 0.1223904 -0.0035202005
-0.041132115 0.03113562 0.23871087 -0.06270994 -0.16846815 -0.05139875 -0.016693784 -0.05108805
-0.26523763 -0.11920903 0.051346 -0.13255976 -0.011007876 0.02872963 -0.07377472 -0.034556434
0.13165809 0.13022903 -0.05014149 0.042205136 -0.10246153 -0.04167212 -0.13648602 -0.016940983
0.10743019 -0.0370878 -0.071597986 -0.14499728 0.06572539 -0.14317685 -0.012936333 -0.033059776
-0.045278504 0.04631157 0.15999006 -0.16965254 0.095952205 -0.05630493 0.08214854 -0.012104964
0.11602138 0.06633552 -0.07274303 0.01805172 0.014390986 -0.0155934645 0.025303084 -0.0355814
0.06527244 0.18937927 0.02365774 0.04004431 -0.1452098 0.03969763 0.18850982 -0.07912613
0.13165107 -0.03897442 -0.08901955 -0.01581852 -0.022408735 -0.18475056 0.014750532 -0.026516479
0.10329718 0.16331753 -0.20450038 0.06842222 0.023018235 -0.014929247 -0.02455671 -0.104509704
0.026161777 0.06018474 -0.11524837 0.114920594 -0.082048744 0.041168764 -0.04909545 0.07280888
-0.0727513 0.10550324 -0.00365978 -0.049331143 0.12136912 -0.0016152888 0.046209976 0.07701244
0.12135045 -0.18662429 -0.14184007 -0.020180104 -0.0032558786 0.063125186 0.017634166 -0.106334664
-0.027241016 -0.07058248 -0.022245308 0.16295849 -0.039439943 0.09652364 -0.07520187 0.048387695
-0.094767675 0.11456896 -0.10365554 0.03231991 0.04758754 0.14767878 -0.048213672 -0.0761856
-0.03821692 -0.029003125 -0.103569284 -0.099015936 -0.17057142 0.062461525 -0.13893138 0.08784374
0.028918236 -0.029038738 0.0988491 -0.07344137 0.08138682 0.02782565 0.1706768 -0.016959395
0.026677305 -0.02006682 0.08488272 0.050660208 0.1592378 -0.14123978 -0.15615943 0.10729163

net_stack.0.bias f4 [64]
00000000: 4d95 dfbc 09c0 a7bc fb3c d53c ce5d de3b
00000010: 7d9c 143d 00f0 f13c ebad a7bc 94bf 0dbd
00000020: 66a7 e23c c680 bdbc 8f55 bcbc 0619 bdbc
00000030: d276 033d 5ea9 edbc 61b1 f8bc 00ff f53c
00000040: ac05 883c 429c e4bc 96cb aabc 9b3f 0cbd
00000050: 8777 cfbc 7c6c bebc 6567 dc3c a66d 4dba
00000060: 7d42 283c 3623 fe3c 0bdd cd3c e96a 07bd
00000070: 4d42 c03a 5c92 12bd 9d9f 0e3d 62da 23bd
00000080: 241c b33c ccd7 e2bc 37ef bd3c ea26 77bc
00000090: 9917 ed3c 0aad cebc 32ff b9bc 2c93 0fbd
000000a0: 5b57 aabb 5ae0 ad3c 55bb 083c 2905 04bd
000000b0: 0d2b f6bc 5f6e e8bc 5501 ec3c a971 bd3c
000000c0: 5c75 923c ba41 c3bc 070b 67bc d889 ae3c
000000d0: f163 76bb 0321 fc3c 4b0c ec3c 15e5 a2bc
000000e0: e0d0 a53c cd59 0cbb ae87 f8bc ca2f 4b3c
000000f0: bb5b e03b 1f76 b5bc 16b0 c7bc e6ba 1ebd
-0.027292872 -0.020477312 0.026030054 0.0067860847 0.03628205 0.029533386 -0.020468673 -0.03460653
0.027667712 -0.023132693 -0.022990016 -0.023083221 0.032095738 -0.029011425 -0.030358018 0.03002882
0.016604267 -0.02790654 -0.02084903 -0.034240346 -0.02532555 -0.023245089 0.026904771 -0.0007836468
0.010269758 0.03102265 0.025129816 -0.03306094 0.0014668197 -0.03578411 0.034820188 -0.040003188
0.021864004 -0.02769079 0.023185356 -0.015084961 0.028941916 -0.025228996 -0.022704694 -0.035052463
-0.005198402 0.021225143 0.008345445 -0.032231484 -0.030049825 -0.028372942 0.028809229 0.023125486
0.017878227 -0.023835052 -0.01410175 0.021305963 -0.003759619 0.03077746 0.028814455 -0.019884625
0.0202412 -0.002141583 -0.030338135 0.0124015305 0.0068468726 -0.022151051 -0.024375957 -0.03875246

net_stack.2.weight f4 [32, 64]
00000000: cc41 ae3d d15e 203d 7f1b 72bd 1ba1 25be
00000010: 494e 08be 9cf6 103e 18fa 9bbd fc50 45bd
00000020: 481a 44bd da10 ad3d 8da3 d43d 2584 26be
00000030: 2afb aabd 217c 3ebe 8cdd 233d f167 b4bb
00000040: a296 7fbe fdf6 cd3d a8c9 07bd a117 8a3e
00000050: 664b b1bc 80d9 a93c 9633 b13d 940f 61bd
00000060: 4754 79bd 4432 ae3d 27e3 d2bd a05b ecbd
00000070: 44ac 71bd d3e3 abbd e363 99be ff8b 3c3d
00000080: b523 993d a2fe 503d f83c 56be 2aaa 7abc
00000090: e0cc cb3d 31e6 6c3c a021 d2bd 5b66 433d
000000a0: aac2 96bd d466 7b3e d8a1 2bba 2967 b63d
000000b0: 0a40 ad3d 0f4c eb3c 114e 4bbd 7bad b2bb
000000c0: 0985 11bd 9fe8 833d 1aab 1a3d 8511 dcbd
000000d0: be2c d53d a601 8ebd 59e9 d73d 9dd4 cabd
000000e0: 172a 9dbd 78a3 a53d a8bc 1a3e 83eb 2ebe
000000f0: 23bf b33d 274b 823c 7048 9bbd 7785 113d
00000100: 7909 41be aad1 873d b7ca 353d 310f b23d
00000110: 116f 29be 6ee7 2ebd 4a76 9a3c 55ce 393e
00000120: 93f5 3ebd 17a9 6c3d a383 0a3e 2220 cfbb
00000130: 8409 5bbb e9a7 bd3d fb6c cc3d 337f 83bd
00000140: dbfa d93d c68b 673d 58f7 0e3d 51c8 943d
00000150: a46a 3dbd 5b07 e5bb c5b8 babd a7a5 12be
00000160: dc91 f5bd 4d55 953d c3f6 483d a066 64bd
00000170: 19e0 503e 789b 0b3e a258 9f3d e0b8 b3ba
00000180: 6971 fbbd 640a bd3d 6be4 aabc cc22 06bd
00000190: 5eed 5bbd 4081 723d 6603 c7bc 32e4 b7bd
000001a0: 5a01 8e3d 1e66 bebc ee62 0abd 1212 64bc
000001b0: bb7b dc3d 3f0d 703d 16d1 393c 663f 343d
000001c0: b668 3cbd 0b78 d93c a667 4d3d b8af e3bd
000001d0: 91c3 e73d 4274 173d 1a74 86bd b8f1 95bb
000001e0: cb81 1ebd 9be2 d5bd 7037 3b3d 1da7 ee3d
000001f0: 2c67 3cbd f537 b6bd c083 08be c12f ac3d
00000200: 7176 ffbc a04f 07be 6407 0dbe 9b9d 55be
00000210: 7ec8 f2bd 3c14 08bc fbf5 acbd db4c 82bd
00000220: eefc 1bbe 316c bdbd 8a93 6dbe 2b89 bd3d
00000230: 78b0 55be b1fd 37bd 8b6f 0f3d bcff 49be
00000240: 037e 503b 851e 8dbc f527 883c 99a2 85bc
00000250: 080e a43d d6d0 d43d 1600 e33c 745b d5bd
00000260: 1598 743b c055 70bc 9d9c f6bd 932e 293e
00000270: 6d47 a4bd 391d 48bb ae44 e63d f22e 1b3e
00000280: 77ab 163e 19f2 2a3c 568c b93d 55f0 35be
00000290: af6d 0fbe 661a 11be 7a84 053e e0ca eabb
000002a0: 1d35 093c 5da7 c83d 6e70 12bd a860 86bd
000002b0: d479 29bc a2c9 1b3e 9760 7bbd e989 693d
000002c0: 001b 95bc 45a3 ecbd 828d 703d 029c 733d
000002d0: 950d 363e 2f83 a9bd 3c21 18be 5353 fc3c
000002e0: 4bc7 3bbd 6540 6f3b 8bbc 09bd 6fc5 15bd
000002f0: 8d0e b43c bcb5 2c3e 1ca9 dd3c 674f 8abd
00000300: 9c98 35bd 6e2a febd 0fa5 613e 592b babd
00000310: c939 93bd ba29 cc3d 8179 b63c e1fa c63d
00000320: f6a0 373e 1b81 6bbd fbd3 5f3d d578 f1bd
00000330: 1469 43bd 719c bfbd e4b5 873d eedd d63c
00000340: 408e 2e3d db22 1cbe 45fc 9e3d e04a 3d3d
00000350: 8537 31be 4a86 4abe f2c1 753d e635 a8bd
00000360: d86f a0ba cbbc 133e 71d9 363e 2615 c63d
00000370: 24e4 633d e069 7d3c 874a 2fbd a6f7 a93d
00000380: 274b c5ba ae08 89bc e87d a2bb f80b f9bd
00000390: cf02 663d e042 c6bd 6257 09bd ee32 f0bd
000003a0: 1671 0a3c dab3 153e 3b0c ff3c ec69 cbbd
000003b0: 8f6d 35be 6779 26be 1645 fb3c 6aa0 d83d
000003c0: 0f13 8bbd c8b7 53bd 304d 7cbe 1d86 df3d
000003d0: 9695 16bd 18bc 243e e326 1fbe f437 2dbe
000003e0: dad8 753d f6e1 2abd 6f38 8ebd b9d9 afbd
000003f0: c323 683d 3174 9ebd 03db 59bd cb6b 2b3e
0.085086435 0.039152924 -0.059108254 -0.16174738 -0.13311113 0.14156574 -0.07616061 -0.048172936
-0.047876626 0.0845048 0.10382757 -0.16261347 -0.08348687 -0.18602039 0.040006205 -0.005505555
-0.24959806 0.10056875 -0.0331513 0.26971152 -0.021642398 0.020733595 0.08652417 -0.054946497
-0.06087139 0.08505681 -0.10297232 -0.115409136 -0.059002176 -0.083930634 -0.2995902 0.04603195
0.07477514 0.051024087 -0.20921695 -0.015299359 0.09951186 0.014459179 -0.1026032 0.047705036
-0.07361348 0.24550945 -0.0006547249 0.08906395 0.0845948 0.028722791 -0.049634997 -0.0054528094
-0.035527263 0.06440853 0.03776083 -0.10745529 0.104089245 -0.06933908 0.105425544 -0.09903834
-0.076740436 0.0808782 0.15111029 -0.17082028 0.08776691 0.015904976 -0.07582176 0.035527673
-0.1885127 0.06631787 0.044382777 0.08694304 -0.16546275 -0.042701177 0.018855233 0.18145116
-0.046620917 0.057778444 0.13526778 -0.006320969 -0.003342242 0.09260542 0.09981724 -0.06420746
0.1064355 0.056529783 0.034903854 0.0726477 -0.04624428 -0.006989402 -0.09117273 -0.14321004
-0.11990711 0.072916605 0.049063455 -0.055761933 0.20397986 0.13633525 0.07780577 -0.0013711713
-0.12277491 0.092304975 -0.020860871 -0.03274803 -0.053693168 0.059205294 -0.024293613 -0.08979072
0.069338515 -0.023242053 -0.033785753 -0.013920324 0.10765787 0.058606382 0.011341354 0.044005774
-0.045998298 0.026546499 0.050147675 -0.111175 0.11316598 0.036976106 -0.06565113 -0.0045759343
-0.038698 -0.10443612 0.045707166 0.11652968 -0.04599683 -0.08897392 -0.13331509 0.08407546
-0.031184407 -0.13213968 -0.1377235 -0.20860903 -0.11854647 -0.0083056055 -0.084453546 -0.06362315
-0.15233204 -0.092491515 -0.23200813 0.09254678 -0.20868099 -0.044919673 0.035018485 -0.19726461
0.003181339 -0.017226467 0.016620615 -0.016312884 0.08010489 0.10391395 0.027710002 -0.10417834
0.0037322093 -0.014668882 -0.1204159 0.16521673 -0.08021436 -0.0030534996 0.11243568 0.15154627
0.14713846 0.010433697 0.0905997 -0.1776746 -0.14006685 -0.14170226 0.13038817 -0.007165298
0.00837448 0.09797547 -0.035751753 -0.065614045 -0.0103439875 0.15213636 -0.061371412 0.057016287
-0.018201351 -0.11554579 0.058728702 0.059474953 0.17778619 -0.082769744 -0.14856428 0.03080145
-0.045844357 0.0036506888 -0.033627074 -0.03656524 0.021979595 0.16866201 0.027058177 -0.06753426
-0.044334993 -0.124104366 0.22035621 -0.09090299 -0.07188756 0.09968896 0.022274734 0.0971582
0.17932495 -0.05749617 0.05464552 -0.11790625 -0.047707632 -0.09356011 0.0662649 0.026228871
0.04261613 -0.15247671 0.0776296 0.046213984 -0.17306335 -0.1977779 0.059999414 -0.08213405
-0.0012240363 0.14427488 0.17856385 0.096720025 0.055637494 0.015467137 -0.042795684 0.08299188
-0.0015052304 -0.016727772 -0.004958857 -0.12160486 0.056155022 -0.09680724 -0.0335306 -0.11728464
0.008449813 0.14619389 0.031133762 -0.09932312 -0.17717575 -0.16257249 0.030672591 0.105774716
-0.067907445 -0.05168894 -0.2463882 0.10914252 -0.03676375 0.16087377 -0.15542178 -0.16915876
0.06002126 -0.0417194 -0.069443576 -0.08586449 0.05667473 -0.077370055 -0.05318738 0.16740339

net_stack.2.bias f4 [32]
00000000: aba8 ffbc a506 03bd 2999 25bd dcde c53c
00000010: 8b1d 03bd f05e 083d 62bc eabc 40d7 0cbd
00000020: b56d 073d c074 6abd d72d 153d 4fad 13bd
00000030: 05a0 58bd 45b4 493d 2123 293d 17ef f63c
00000040: c3d9 01bd 9d70 013d 9911 f9bc 2430 d53c
00000050: 32fb 58bd 8aed fb3c db33 d3bc 6bd3 00bd
00000060: 466e 3fbd 9e32 63bd 0d29 173d c112 143d
00000070: 46c6 19bd 6438 1a3d f007 093d 38b4 f53c
-0.031208357 -0.03198876 -0.040429268 0.02415412 -0.032010596 0.033293664 -0.028654281 -0.034384966
0.03306361 -0.057240248 0.03642067 -0.03605395 -0.05288698 0.049244184 0.041293267 0.030143304
-0.031701814 0.031601537 -0.030403899 0.026023932 -0.052973934 0.030752916 -0.025781563 -0.031451624
-0.046736024 -0.055468194 0.036904383 0.036150698 -0.037542604 0.037651435 0.033454835 0.029993162

net_stack.4.weight f4 [1, 32]
00000000: f7bc 4c3e b134 583d 6fb9 763d c36f 80be
00000010: 8987 c43d 106f 12be 1791 4d3e bdd1 c93d
00000020: 54dd c1bd 08c4 753d cf95 c6bd 14ff a73d
00000030: c978 033d 704e 27bd 3251 79bd daff 34be
00000040: e1b9 093d dd68 1abe 11ca 353e 7f11 5bbe
00000050: c494 1f3d a794 18be a536 073c abbf f23c
00000060: 49e0 353d a1eb 1c3d 9106 12be ee75 e8bd
00000070: baee 633d 3cec 81bd a3dc 96bd 9ef7 28be
0.1999396 0.052784625 0.060235437 -0.25085267 0.09596164 -0.1430018 0.20074879 0.098544575
-0.09466043 0.060001403 -0.096965425 0.08202949 0.03209761 -0.04084629 -0.06086845 -0.17675725
0.033624534 -0.15079065 0.17752863 -0.21393393 0.038960233 -0.14900456 0.008252774 0.02963241
0.044403348 0.03831065 -0.14260317 -0.11350618 0.05564759 -0.06343886 -0.07366302 -0.16500708
