CAPSTONE/CAPMODELS/output/model_BPD1.pth (torch, 17382 bytes, 5 tensors)

net_stack.0.weight f4 [64, 23]
000000 4e 5f 94 bb 4d 24 0e bd 8a e4 96 ba 63 2d 85 bd
       -0.0045279628 -0.034702588 -0.0011512202 -0.065027975
000010 65 68 2c 3e 04 e2 9c bd 6a a3 b2 bd fd 05 b1 3b
       0.16836698 -0.076602966 -0.08722575 0.005402325
000020 11 a8 d9 bd 25 cc b1 bd 9c f2 da 3d 2d d5 5c be
       -0.10627759 -0.086815156 0.10690805 -0.21565695
000030 87 77 b9 3d 8f 60 92 3d 05 06 91 3c 87 72 91 bd
       0.09056001 0.07147323 0.017703066 -0.071019225
000040 db e4 ca bd fd 91 7e bd e5 69 cf bd e3 98 44 3c
       -0.09906932 -0.062150944 -0.1012762 0.011999342
000050 d5 4e e6 3d aa 17 e1 3d 7b aa 2b 3b af 0c 6b bd
       0.11245505 0.10990842 0.0026194144 -0.057385143
000060 e2 f1 0d be bb 6c d8 bd c2 f8 b4 3b 27 b1 e3 3d
       -0.13861802 -0.10567614 0.0055228183 0.111177735
000070 2a e7 de 3c c3 01 ef 3d 34 78 a3 bb cc 68 38 3e
       0.027209837 0.11670258 -0.0049886946 0.18008727
000080 a6 29 e7 3d a8 96 1b 3e 05 97 14 3e 4c a0 2d 3e
       0.11287241 0.1519419 0.14510734 0.1695568
000090 df 02 40 3e 29 28 07 be 38 9f a1 bd 4b c2 df 3d
       0.18751095 -0.13198914 -0.07891697 0.1092573
0000a0 cf f8 cf 3c db e3 49 bd 85 7f 85 bd f2 bd 80 bd
       0.025387196 -0.049289566 -0.06518463 -0.06286229
0000b0 24 75 aa bd 2e 39 04 3c 69 3b dd 3d 9f ff 17 be
       -0.08323124 0.008070273 0.10802347 -0.14843605
0000c0 5a bf b2 bd 35 a8 38 3e d6 e2 05 3a ea 4f 08 3e
       -0.08727904 0.18032916 0.00051073486 0.13311735
0000d0 f2 6f 24 3d 3b a0 b2 3c 49 ff a6 bc ec 1f e7 bd
       0.040145822 0.02180492 -0.020385401 -0.112853855
0000e0 11 d8 c3 bd cb f1 9e bc 79 e5 0e 3e 65 88 12 be
       -0.09562696 -0.019402405 0.13954724 -0.14309843
0000f0 1b eb 07 bd 30 7a a1 bd f1 77 86 bd c0 fa 40 be
       -0.0331832 -0.078846335 -0.06565846 -0.18845654
000100 3c 1c c4 3d 89 9b 06 3e 91 77 9b 3b 46 06 27 3b
       0.09575698 0.1314527 0.004744478 0.0025485917
000110 a3 ef 52 bc ee f8 98 bc 29 56 37 3e c4 58 46 3e
       -0.012874517 -0.018673386 0.17903961 0.19369799
000120 e0 e9 3f 39 39 ca 19 3e 09 8a a0 be 05 89 42 3c
       0.00018302305 0.15018548 -0.31355312 0.011873488
000130 da 20 ab 3d 73 b7 f5 bd eb 1d 51 be c2 10 86 bc
       0.08355875 -0.11997881 -0.20421569 -0.016365413
000140 a2 83 94 bd eb d3 93 3d 03 ec 86 bd 3f 41 97 bd
       -0.072516695 0.072181545 -0.065879844 -0.073854916
000150 15 32 41 3d 5e af 22 bb 91 dd b8 bd 60 ff 8e bd
       0.047166903 -0.0024823765 -0.090266354 -0.06982303
000160 5d 95 32 bd 9b 86 82 3e 92 29 90 3d 86 81 bc 3a
       -0.043599475 0.2549332 0.07039179 0.0014381863
000170 71 ce d6 bd 27 ae 83 bd b7 4c 42 be ec 1d 45 3d
       -0.10488594 -0.06429701 -0.18974577 0.04812424
000180 95 92 4f 3e 21 04 c0 bd 02 38 e8 3d 1d 0c ed 3d
       0.2027076 -0.093757875 0.11338808 0.11574576
000190 cf 66 62 bc 7b a7 c6 3d bd a0 9b bd b6 a8 a9 3d
       -0.013818457 0.09699913 -0.07599018 0.08284132
0001a0 ca a9 6a bd e1 37 e6 3d 48 8f 0c be 5b d1 f7 bc
       -0.05729083 0.11241127 -0.13726532 -0.030251196
0001b0 20 a7 07 3d 92 06 1d 3d 86 14 9f bd 3a 11 b3 bd
       0.033118367 0.038336344 -0.077675864 -0.0874352
0001c0 d6 67 87 bb e0 d2 00 bc c0 7f cc 3d 55 a4 1f bd
       -0.0041322513 -0.0078627765 0.09985304 -0.03897508
0001d0 1b a8 05 be 85 06 0e 3e bf f8 b4 bd 5e a3 1f be
       -0.13052408 0.13869675 -0.08836507 -0.15589663
0001e0 0e a5 e5 3d c5 56 3f 3d 81 c3 2a 3e a5 55 94 3d
       0.11213122 0.04671361 0.16676141 0.07242898
0001f0 cb c4 42 bc bc 31 7f bd e9 d6 95 bd 45 b6 0f bd
       -0.011887739 -0.06230329 -0.073163815 -0.035085935
000200 93 8c 4d bc 80 35 50 be 6b 87 f5 3b 74 10 fe 3d
       -0.012545723 -0.20332909 0.0074929497 0.12405482
000210 7d e7 3f bb 4e 14 23 bc fd 26 01 be 38 7d 30 bd
       -0.0029282265 -0.0099535715 -0.12612529 -0.043088168
000220 81 56 20 bd b7 e0 a6 bd 56 4e d2 3b b3 b6 31 3e
       -0.039144997 -0.0814833 0.00641803 0.1735485
000230 dd c6 88 bb 33 a7 61 be fc 8c 69 3e 81 31 5c bd
       -0.004174097 -0.22036438 0.22807688 -0.053758148
000240 03 a8 35 bd 27 c4 f5 3d 61 13 22 3e a2 fd 89 3c
       -0.04434968 0.12000304 0.15827705 0.016844574
000250 b1 d9 05 bd 28 23 ad bd b1 68 51 be a3 ae 0b 3d
       -0.03267831 -0.08453971 -0.20450093 0.034102093
000260 8a 4c 19 3e f7 a4 1c 3d 15 59 ff 3d 13 b7 00 3e
       0.14970604 0.03824326 0.12468163 0.12569837
000270 3a 83 f5 3d 72 11 03 3c 7e 9a d5 3d ad eb 5b bd
       0.1198792 0.007999765 0.10429858 -0.053691555
000280 1c 5c f7 bb 13 84 e8 3d df e9 fc 3d 88 28 f9 3c
       -0.007548822 0.11353316 0.12349295 0.030414835
000290 e2 ee 39 bd e9 84 0c 3c 5c aa 64 3d 35 e1 04 bd
       -0.045393832 0.00857661 0.05582653 -0.032441337
0002a0 1e a5 f1 bc 12 6d ef 3d 3c f3 27 3e 9a 5b f1 3d
       -0.02949768 0.116907254 0.1640138 0.1178505
0002b0 24 bf f3 bd 1a 12 15 3e b0 89 00 3d 55 ba c9 3d
       -0.119016916 0.14557686 0.03138131 0.09849993
0002c0 81 13 af bc 6c a4 5d 3e 12 0f 9d bd cc a0 77 3d
       -0.021371605 0.21644753 -0.0766889 0.060456082
0002d0 aa 40 0e 3e 49 61 83 3c 06 10 b1 bd ba 66 7f 3d
       0.13891855 0.0160376 -0.08645634 0.062353827
0002e0 c7 e4 39 3e c8 96 f0 3d 35 cc 60 3d 08 62 2f bc
       0.18153678 0.11747509 0.054882247 -0.010704525
0002f0 61 08 3a 3e 9a 44 d4 3a b2 20 dc bd eb 54 88 bd
       0.18167259 0.0016194761 -0.10748424 -0.06656822
000300 64 b8 fa bc 2f 18 9a bd 19 ff 14 bd 2b 0d 33 3d
       -0.030605502 -0.07524144 -0.036376093 0.04371373
000310 bf 24 a2 bc 94 4a 1b 3d 6a f7 3a bd c2 e2 c1 3d
       -0.019792913 0.03791292 -0.04564611 0.09467079
000320 b5 9b be bb c0 c4 09 3e a1 82 7d 3d 50 fc 04 be
       -0.0058169016 0.1345396 0.061892156 -0.12986875
000330 9a cd 0f 3c 9a 20 69 be 6c 93 55 3a de b8 c2 3d
       0.008777047 -0.22766343 0.0008147273 0.09507917
000340 b3 95 58 bc 91 cb 87 3d 3c cb 29 bc 90 24 15 be
       -0.013219285 0.06630624 -0.010363396 -0.14564729
000350 aa 9c 53 3d 93 4e 46 3d f8 4c 11 3e 2f 74 68 bc
       0.05166308 0.048414778 0.14189517 -0.014187857
000360 40 3b 14 3c 2a 42 b8 3e 03 0a 00 3e a0 31 3d be
       0.009047329 0.3598798 0.12503819 -0.18475962
000370 eb d8 a9 39 26 20 a3 bd e9 46 04 be 9d fe c5 bc
       0.00032395808 -0.07965116 -0.12917675 -0.02416926
000380 27 1a c4 bc ce bf 61 3c 7a 7f 2d be 63 ef 14 be
       -0.023938252 0.01377864 -0.1694316 -0.14544444
000390 9e 0d 9f 3d 65 87 75 3d a2 de be 3c 56 73 e1 bd
       0.07766269 0.059943575 0.023299519 -0.11008327
0003a0 38 bc 1f bc 88 e3 5e 3e 47 95 60 3d de 60 9b 3d
       -0.009749465 0.21766484 0.054829862 0.07586835
0003b0 d4 35 ac 3d 6a 48 70 bc d9 5f b8 bd 5e 0a 20 ba
       0.084087044 -0.014665702 -0.090026565 -0.00061050605
0003c0 a0 bd 94 3d d7 df d2 3d 45 d0 87 3d ec 16 00 be
       0.072627306 0.102966 0.06631521 -0.12508744
0003d0 15 a4 2b 3d 23 4f e9 3d 84 a6 b2 bd 0a 07 6d bd
       0.041904528 0.11392047 -0.087231666 -0.05786804
0003e0 c4 9b 53 be eb 9b 73 bd 09 49 cc 3c f3 98 fb bd
       -0.20664889 -0.059474867 0.02493717 -0.12285032
0003f0 13 20 e7 bd bf 9c 4b 3e fd 7b 48 3e 44 5f ed bd
       -0.112854145 0.19884013 0.19578548 -0.11590436

net_stack.0.bias f4 [64]
000000 c5 7a 3c bd 81 de 1c 3d b0 21 40 3d 85 f5 95 bd
       -0.04601552 0.038298134 0.046907127 -0.0732222
000010 5d a2 3b 3d 08 79 90 3c 19 e5 55 bd 48 79 ac bb
       0.04580914 0.017635837 -0.052220438 -0.0052634813
000020 7f ab 50 bd 03 fb 48 bb 9b 8e d4 3c 29 8f 30 bd
       -0.0509448 -0.0030667193 0.025946906 -0.04310528
000030 92 a8 41 bc b6 e7 24 bd 54 84 26 3d a8 ea 58 bd
       -0.011819975 -0.04026004 0.04065354 -0.05295816
000040 e1 11 db 3b f1 1a 8a bc 7f 00 8c bd fc e4 70 3d
       0.006685481 -0.01685855 -0.06836032 0.058812127
000050 5c a0 63 bd ed e2 51 3d 32 d8 81 3d b1 2b 69 3c
       -0.055572852 0.051241804 0.06340064 0.014231608
000060 f4 12 28 bd df 2d 6a 3d 4a 6f 66 bd 8d 78 0b 3d
       -0.0410337 0.057172652 -0.056258477 0.034050513
000070 4a b6 89 3d d0 df d0 bc f5 dd d7 bb d3 99 66 bc
       0.06724222 -0.025497347 -0.0065877386 -0.0140747605
000080 58 77 94 bc d2 bb 73 3d 2d 65 50 bd 33 f5 0f bd
       -0.018123314 0.05950529 -0.05087774 -0.03514595
000090 68 ee 78 bc cf 73 56 bd 02 c4 8a 3d 49 e3 a0 bc
       -0.015193559 -0.052356537 0.06775667 -0.019639628
0000a0 93 2b 79 3d 15 ad 75 bb 2a 0b 82 3c d1 ab bf ba
       0.06083257 -0.0037487198 0.015874464 -0.0014623349
0000b0 1d 77 82 3b f9 a0 ba bc 0e fb 62 3c 9f 6d 06 3c
       0.0039814846 -0.022781836 0.013853801 0.008204847
0000c0 a8 b6 f6 bc 9d af 49 3d b2 5d b7 bc 1c a0 10 bd
       -0.030116394 0.049239744 -0.022383545 -0.035308942
0000d0 40 c9 9c bd 46 36 74 bd 9c e8 86 bd 08 0e 09 3c
       -0.07655573 -0.05962207 -0.065873355 0.008365162
0000e0 7f b1 64 bd d0 ab 55 3d d3 60 42 bd da 46 23 bd
       -0.055833336 0.052165806 -0.04745562 -0.03986249
0000f0 0c 10 60 3d 94 6e ce 3b d6 bc 83 bc ca 4d 2a bd
       0.054702803 0.006299803 -0.016081255 -0.04157809

net_stack.2.weight f4 [32, 64]
000000 6f ab b3 bd 9c d3 f7 bd 87 26 de 3d 1e db 82 3c
       -0.08772933 -0.12100908 0.10847192 0.015973624
000010 56 77 9e 3d e7 c2 80 3d 8f f8 b8 bd d5 72 54 bd
       0.07737605 0.06287175 -0.09031784 -0.051867325
000020 de a8 c9 3d a9 3a b9 3d 7f bf 87 3c 3b 5d 62 3e
       0.09846662 0.09044392 0.016570805 0.22105877
000030 5f 3a 8f bd eb 20 9f bd 26 5f 8c bd 63 e3 68 3a
       -0.06993555 -0.077699505 -0.068540856 0.0008883981
000040 9a 70 29 3d 88 05 ec bd c1 a5 aa 3c e3 ec 84 3e
       0.04136715 -0.115244925 0.02083099 0.2596198
000050 e3 3b 97 3d 8a 64 3b 3b 73 2d be 3d 9b 35 15 bd
       0.07384469 0.0028593861 0.092860125 -0.036428075
000060 17 2b a0 bd 5f 9b 0c be dd 1a 1c 3c f3 20 4a 3d
       -0.07820719 -0.13731144 0.009527889 0.04934783
000070 5c 90 1b 3d 6f 75 51 bd e7 92 cb bd 92 95 68 be
       0.03797947 -0.051137384 -0.09940129 -0.22713307
000080 94 36 f5 bc 3c df cd bd 87 63 00 3e ce f3 09 be
       -0.029933251 -0.10052344 0.12537967 -0.1347191
000090 2c b4 e5 3d c6 8c 4d bc ad 23 bc bd de f0 bc 3d
       0.11216006 -0.01254577 -0.09186492 0.09225629
0000a0 67 a4 95 3d b9 44 3b 3d b5 bc f3 3c a2 96 e5 3c
       0.07306748 0.045719836 0.029753068 0.028025929
0000b0 a6 91 66 3d 97 22 00 be 7c c3 41 bd 0f 8a a7 bc
       0.056291245 -0.12513195 -0.04730557 -0.020451574
0000c0 d1 63 a9 3d d9 e4 e0 3c c9 3f 3e 3d 1c 3e 21 3d
       0.082709916 0.027452873 0.04644755 0.039365873
0000d0 11 7c 0c 3e a1 53 cd 3c 51 f6 8f be b0 49 2c bc
       0.13719203 0.025064291 -0.28117612 -0.010515615
0000e0 65 66 c6 3d 61 22 6d 3e 5d 78 8a bc a3 36 19 be
       0.09687499 0.23157646 -0.016903097 -0.14962249
0000f0 16 4a 86 3d ec 9f 10 3e 53 2b 62 3e 8d ef 78 bb
       0.065570995 0.14123505 0.2208684 -0.003798458
000100 81 87 08 bc c8 21 08 3c b4 7e 8c 3d 3d 6a 5c 3e
       -0.008333088 0.008308835 0.06860104 0.21524902
000110 5a 38 d5 bd 76 eb a0 3d eb d1 ed 3d 13 0d cf 3d
       -0.10411139 0.078574106 0.11612304 0.101099156
000120 d9 2d e1 bc cb b9 64 bd af 0c 8b bd 6a 91 ef bc
       -0.027487682 -0.05584125 -0.067895286 -0.029244144
000130 0c 42 2e 3e 13 58 17 bc 61 d5 2f 3c ec 34 b2 bc
       0.17017382 -0.009237307 0.010732026 -0.02175375
000140 06 b5 87 bc 21 c6 a4 3d 6e 82 33 3e a0 82 cf bc
       -0.01656581 0.080456026 0.17530224 -0.025330842
000150 77 8e 0d 3d 65 e1 24 bc cb e8 f0 bd 21 50 cc 3d
       0.034559693 -0.010063504 -0.11763152 0.09976221
000160 c9 82 e3 3c 17 d6 9b bd 0c 11 05 bc 85 bf 1b 3b
       0.027772324 -0.07609194 -0.00812174 0.0023765278
000170 c3 b6 98 bc e9 86 fb 3d 91 0a d5 3d 2b 04 50 bd
       -0.018641835 0.122815914 0.10402406 -0.050785225
000180 d1 09 7a 3d 13 d8 84 bd a2 50 f7 3d 37 c0 d1 3d
       0.061044518 -0.064865254 0.12075926 0.1024174
000190 2c 47 3e 3b c9 60 9a 3d 1c eb 61 bd a0 fa fb 3d
       0.002903412 0.075379916 -0.05515586 0.12303662
0001a0 99 30 2a bc 0a f4 da 3d 56 0c 12 3e 1b 74 d1 bd
       -0.010387563 0.10691078 0.14262518 -0.102272235
0001b0 57 38 e0 bd 84 95 11 3d 11 98 73 3a cc 0c 89 bd
       -0.10948246 0.03554298 0.0009292374 -0.06691894
0001c0 9b 34 87 3d 5d 6d 2b 3d c0 73 99 3d aa bc cd bd
       0.066018306 0.041852344 0.07492781 -0.100457504
0001d0 91 3c 03 bd 86 a8 88 3d 72 3c 27 3d 8c 2a a4 bc
       -0.032040183 0.06672768 0.04082913 -0.02003982
0001e0 43 fc 19 3d 8e bf 37 be c9 7f 24 bd fa 3d 8e 3d
       0.03759409 -0.17944166 -0.040160928 0.06945415
0001f0 d8 62 12 3d 72 0d 00 3e 58 7c 17 be f1 d6 11 3d
       0.035738796 0.12505129 -0.14793527 0.035605375
000200 61 9e 28 3d 55 e6 4a 3d 0b 12 cf 3d b5 02 6b 3d
       0.041166667 0.049536068 0.10110863 0.05737563
000210 79 46 1c 3a 3b a3 67 3e 74 36 fa 3d da 3f 23 3d
       0.0005961429 0.22620861 0.12217417 0.039855815
000220 c0 81 a2 3c f0 77 92 bd 36 fc 76 3d bf b2 3e be
       0.01983726 -0.071517825 0.06029912 -0.18622874
000230 b7 ec 82 3c df df b3 bd ba 27 27 bb 50 33 c2 bd
       0.015982015 -0.087829344 -0.0025505857 -0.09482443
000240 ae 23 bb bc 7a 9b 1c be 41 b6 f8 bd ba 5b 8d 3d
       -0.022844162 -0.15293685 -0.12144137 0.06902261
000250 67 ea e8 bd f6 ca 85 bd 2f 36 49 3d c4 d7 a2 bd
       -0.11372834 -0.06532852 0.04912394 -0.0795131
000260 98 2d 1c 3d 28 99 aa bc 63 5f ff bb 9b b8 06 3e
       0.03812942 -0.020824984 -0.0077933534 0.13156359
000270 f5 a9 17 3d 06 85 b2 bd 64 dd 98 bd 62 e7 02 bd
       0.037027318 -0.087167785 -0.07464102 -0.031958945
000280 08 73 f1 bd 37 0d 5b 3d 99 21 2a 3e 67 6d 4f bd
       -0.117895186 0.0534794 0.16614379 -0.050641444
000290 c0 44 0d bd 89 88 be bd b0 a3 a5 3d 39 a1 73 3c
       -0.034489393 -0.09303386 0.080878615 0.014869981
0002a0 37 a9 13 3d db 1d dd 3d cf 62 6d 3d 04 78 95 3d
       0.036050048 0.1079671 0.05795556 0.07298282
0002b0 1a c9 96 bc fd 17 77 bc 3f b7 d0 bc dc e3 82 3d
       -0.01840644 -0.015081403 -0.025478004 0.06391117
0002c0 34 a8 48 bd 6d 54 7a 3d eb 7b fc bd 13 5e c0 3d
       -0.048988536 0.06111567 -0.12328323 0.09392943
0002d0 96 31 1a 3d b4 81 5f bc 32 ef 06 bd 03 d1 90 3d
       0.037644945 -0.0136417635 -0.03294296 0.07071116
0002e0 57 ca 08 be e6 e6 f3 3c 4d 1c cf 3b 64 60 61 be
       -0.13358437 0.029773187 0.0063205124 -0.22009426
0002f0 e5 83 22 3e 21 62 03 3e 7b 3f a7 3d 9f a5 60 bd
       0.15870626 0.12830402 0.08166405 -0.05484545
000300 e8 0c 82 bc 7a 24 c8 bd 4a 5f 91 3c 41 a4 75 3d
       -0.015875295 -0.09772582 0.017745633 0.059971098
000310 bc bc c8 ba bf 00 5f 3d e9 37 50 bd 7b e0 9c 3d
       -0.0015315036 0.05444407 -0.05083457 0.07660004
000320 1d 0b 20 3d 6f fb 66 3d 43 cd 75 bd b5 c5 6a bd
       0.0390731 0.05639213 -0.060010206 -0.057317454
000330 8d 30 38 bd 57 aa 6f bd 5c 8d 11 3e c4 b3 47 3e
       -0.044968177 -0.058512058 0.1421408 0.19502169
000340 7b bf aa bc 11 42 80 3e e6 a4 eb 3b 18 86 18 be
       -0.020843258 0.25050405 0.0071912883 -0.14894903
000350 b3 1e b9 bd ad 6f de 3d d2 b2 52 bd 05 b1 bd 3c
       -0.090390585 0.10861144 -0.051440068 0.023155699
000360 98 a0 52 3e e4 ad d5 bc f5 aa 7f bd 06 81 37 3e
       0.20569074 -0.026083894 -0.062418897 0.17920312
000370 ce a2 15 be d4 96 cb bd 05 3d cf bd 59 fb 1a 3d
       -0.14612886 -0.099408776 -0.101190604 0.03783736
000380 97 32 f5 3c f4 75 4e be 50 07 1b 3d cc 7d f9 3d
       0.02993135 -0.20162183 0.03784877 0.12182197
000390 ad 22 c9 bc 42 58 09 3e b6 93 fd bc d5 02 9a 3d
       -0.024552668 0.13412574 -0.030954223 0.075200714
0003a0 6e 7f ef bd 75 ec 14 3e 85 6a 12 bd 7a 83 58 bc
       -0.11694227 0.14543326 -0.035746116 -0.01321494
0003b0 c4 fe f3 3c b4 4c 9b 3d 45 c0 26 be fd 31 97 bd
       0.029784568 0.07582989 -0.16284283 -0.073825814
0003c0 a6 7e 98 3d 2f d3 31 bd 8b 0b c3 3d 28 d7 00 bb
       0.07446031 -0.04341429 0.09523686 -0.0019659493
0003d0 ce 0e e3 3d b4 55 97 3d 46 f7 78 be b9 5e bb bb
       0.11086808 0.073893934 -0.24313077 -0.005718079
0003e0 65 fb 12 3d e8 a9 8d bd fe b8 cc bb 70 f2 a6 3d
       0.03588428 -0.06917173 -0.0062476387 0.0815171
0003f0 c6 37 62 be 1c 51 ef bd dd 99 6a 3d 59 ca 70 bd
       -0.22091588 -0.11685392 0.05727564 -0.058786724

net_stack.2.bias f4 [32]
000000 c1 79 6e 3d aa f4 8f bd 6f 0b 96 3d 67 15 98 bd
       0.058221582 -0.07029088 0.073263995 -0.07425957
000010 ac 4f 78 3d f1 85 aa 3d 85 2f 95 3d 93 25 98 bd
       0.060622856 0.083263285 0.07284454 -0.07429042
000020 da 41 59 bd b1 d2 35 3d 14 8b 80 bd 1e 51 85 3d
       -0.053041317 0.044390384 -0.06276527 0.065096125
000030 a7 d8 76 bd 45 6e 6f 3d 0a 6f 9c bd 5d 47 88 3d
       -0.06026521 0.05845477 -0.076383665 0.066542365
000040 18 d2 81 bd 31 0e 65 3d 8d 69 74 bd 50 bd 4a bd
       -0.063389 0.055921737 -0.059670974 -0.04949695
000050 0a ca 80 3d 6c 8a 8a bd d8 92 48 bd f4 e1 9d bd
       0.06288536 -0.06764683 -0.048968166 -0.07709113
000060 da 5f 53 bd 4e 28 86 bd 0f 64 67 3d 2a 88 86 bd
       -0.051605083 -0.06550656 0.056491908 -0.0656894
000070 09 74 89 3d c1 e8 a4 bd 76 d8 3d bd 58 c6 5b 3d
       0.06711585 -0.08052207 -0.04634901 0.053655952

net_stack.4.weight f4 [1, 32]
000000 4a 9e eb 3c a7 bc 21 be 40 86 0d 3d 10 da 79 bd
       0.028762002 -0.15794621 0.03455186 -0.060998976
000010 4c a7 da 3d e4 f2 9f 3d 24 38 99 3d 9a 0b 43 bd
       0.106764406 0.078099996 0.07481411 -0.047618486
000020 ea 18 0d be e4 78 09 3c ac ea 92 bd 8c fb c5 3d
       -0.13779035 0.008390639 -0.07173666 0.096671194
000030 c1 e6 b4 bd bb c2 3c 3e ad fb 74 bd 0e 73 08 3e
       -0.08833075 0.18433659 -0.05981033 0.1332514
000040 cc 6b da bd 35 4c 82 3c 06 5d 9f bd 15 64 b4 bc
       -0.10665092 0.015905479 -0.07781415 -0.02202038
000050 b5 a5 81 3d 85 c5 aa bd 4a bb 11 be 8d e7 92 bd
       0.06330434 -0.08338455 -0.14231601 -0.07173071
000060 3c 80 03 be 12 25 fe bd ca 41 b3 3d 60 d7 0b be
       -0.12841886 -0.12409414 0.08752783 -0.13656378
000070 8b 3b b3 3d 06 b4 94 bd 75 44 46 bd 97 1a 6c 3c
       0.08751591 -0.07260899 -0.04840513 0.014410636
