CAPSTONE/CAPMODELS/output/model_ADHD3.pth (torch, 22256 bytes, 7 tensors)

net_stack.0.weight f4 [64, 23]
-0.011249944 0.09776118 -0.011150452 -0.0114381565 -0.1166904 -0.0990446 0.12188938 0.14784285
0.17985259 -0.15635979 0.07351123 0.018690659 -0.12662108 0.06589998 0.2630866 -0.06032426
-0.02230799 -0.16299635 0.14928447 0.09305417 -0.13189623 -0.013885571 0.11863267 -0.11702179
0.07057349 0.17465799 -0.08520537 0.18146381 -0.058463644 0.040414948 -0.09056594 -0.05209405
-0.05558407 0.3032917 0.13724533 0.14691034 0.13649262 0.0646816 -0.045646474 -0.21960908
0.11439988 -0.051174495 -0.001576544 -0.10726844 -0.024020245 0.31755236 0.11355299 -0.013812436
0.039240427 0.14642979 -0.00046076457 -0.00017277867 0.045982324 0.10027154 -0.13477242 0.006336825
0.078797214 0.0017620341 0.023123082 0.054359727 -0.029992912 -0.051747702 -0.10555062 -0.06895887
-0.13029282 -0.045843773 -0.01938623 0.061989818 -0.00068191584 0.029323934 0.18862976 0.05889757
-0.108102724 0.04649561 -0.108243525 -0.024827672 0.01053166 -0.012149406 0.10955247 0.013121856
0.06303639 0.004390284 0.02366954 -0.07562253 0.053970516 0.09720407 0.012009002 0.035121217
0.023378614 -0.11523813 0.15265526 -0.10188286 -0.04773114 -0.09735337 0.009565897 0.114241205
0.04498521 -0.040153906 -0.06965439 0.22182456 0.062599264 -0.011790066 -0.11254721 -0.07526698
0.011961875 -0.043220155 -0.003193331 -0.030432036 -0.20057604 0.04677346 -0.09573339 -0.16631824
0.053496826 -0.033838794 -0.023370918 0.076990426 0.065931655 0.10303494 0.0998691 0.0687339
0.013092461 0.06871838 -0.05263313 0.011495928 0.091143616 0.08813308 0.082842655 0.13845499
-0.14214666 -0.047838904 0.04045934 -0.113620855 -0.014849344 0.14147837 0.0008932048 -0.02792147
-0.015082442 0.23279625 0.024257384 -0.062268395 -0.041471336 -0.005731902 0.12881915 -0.03763837
-0.10776791 0.059301123 0.14231254 -0.017102538 0.10694774 -0.030440394 -0.13956968 0.09961364
0.053589158 -0.19553049 -0.07149128 0.0039151013 0.114552416 0.026587669 -0.01645431 -0.111492924
-0.05892103 -0.046440743 -0.01797668 0.14083248 0.11787784 -0.1908181 -0.11987023 -0.13612357
0.044508986 0.061277077 0.041293528 -0.06211294 -0.084165044 -0.10768206 0.067668706 -0.07430742
-0.08360623 0.00668729 0.061877552 -0.027686676 -0.14009875 -0.018790927 -0.020217156 0.06783207
-0.015341339 0.0032001287 -0.09413928 0.068161964 0.028515672 0.06389479 -0.071241684 0.14002182
0.07165021 -0.1549603 0.00018160412 -0.06588141 0.06746847 -0.055691138 0.122363314 0.05291781
-0.08948191 0.04401455 0.10258543 -0.08799214 0.14077137 -0.23399392 -0.023815554 -0.034144096
0.03462774 -0.1476825 0.15011719 -0.07236873 0.0043913713 -0.06275947 0.031204037 0.11420841
-0.052307878 -0.23260713 -0.12361162 0.07880114 0.051139947 0.07535014 -0.04794542 -0.05642923
0.10935066 0.097043514 0.004899891 -0.02809325 -0.009710881 0.03384167 -0.030515712 -0.0625787
-0.007382662 -0.01791611 0.052970883 0.091289826 -0.05089415 0.0962704 -0.06668996 -0.04428819
-0.03402001 -0.16989769 0.0420279 -0.038949266 -0.031633932 -0.015042927 -0.065645926 -0.09253995
0.10423346 0.16512744 0.020322142 -0.05070301 -0.004654112 -0.07051768 -0.08761975 0.010128663
00000000: af51 38bc 0337 c83d 63b0 36bc 1b67 3bbc
00000010: 60fb eebd e5d7 cabd 24a1 f93d 1e64 173e
00000020: 472b 383e c81c 20be 0e8d 963d 271d 993c
00000030: f5a8 01be 92f6 863d 49b3 863e 9216 77bd
00000040: 3fbf b6bc 84e8 26be 07de 183e 2f93 be3d
00000050: ce0f 07be 4e80 63bc aff5 f23d 1fa9 efbd
00000060: d588 903d 8bd9 323e 2780 aebd a6d1 393e
00000070: 9377 6fbd 258a 253d a37a b9bd 9260 55bd
00000080: 1fac 63bd 0d49 9b3e 0a8a 0c3e aa6f 163e
00000090: b9c4 0b3e c977 843d ccf7 3abd 34e1 60be
000000a0: 7c4a ea3d 599c 51bd 0aa4 ceba 8eaf dbbd
000000b0: 1bc6 c4bc 3996 a23e 788e e83d 8e4d 62bc
000000c0: 92ba 203d b1f1 153e c692 f1b9 ec2b 35b9
000000d0: f657 3c3d 2a5b cd3d c801 0abe 24a5 cf3b
000000e0: 6f60 a13d 0ef4 e63a 9e6c bd3c 4ea8 5e3d
000000f0: b2b3 f5bc 66f5 53bd ec2a d8bd 4f3a 8dbd
00000100: 7b6b 05be aec6 3bbd dfcf 9ebc 09e9 7d3d
00000110: 99c2 32ba bf38 f03c 2928 413e 943e 713d
00000120: f664 ddbd 2e72 3e3d c8ae ddbd 6763 cbbc
00000130: fc8c 2c3c 4d0e 47bc 0c5d e03d 0efd 563c
00000140: 3919 813d 5fdc 8f3b a0e6 c13c fcdf 9abd
00000150: 3010 5d3d ed12 c73d 68c1 443c 44db 0f3d
00000160: 8284 bf3c f801 ecbd a951 1c3e f6a7 d0bd
00000170: ba81 43bd 3461 c7bd 48ba 1c3c 4bf7 e93d
00000180: 6942 383d 6c78 24bd f6a6 8ebd fa25 633e
00000190: 0b34 803d 1f2b 41bc 277f e6bd 9325 9abd
000001a0: bdfb 433c 9e07 31bd 3447 51bb 9b4c f9bc
000001b0: ce63 4dbe 8795 3f3d de0f c4bd 544f 2abe
000001c0: 7d1f 5b3d 8c9a 0abd 5e74 bfbc 28ad 9d3d
000001d0: 2d07 873d fc03 d33d 2c88 cc3d 5cc4 8c3d
000001e0: c381 563c 39bc 8c3d d695 57bd 6b59 3c3c
000001f0: 81a9 ba3d 1e7f b43d 69a9 a93d 25c7 0d3e
00000200: e58e 11be baf2 43bd b1b8 253d 0db2 e8bd
00000210: aa4a 73bc b5df 103e f625 6a3a 91bb e4bc
00000220: 591c 77bc 2462 6e3e 6cb7 c63c 250d 7fbd
00000230: d9dd 29bd aed2 bbbb 2be9 033e b12a 1abd
00000240: 6cb5 dcbd bce5 723d 61ba 113e 9f1a 8cbc
00000250: 6b07 db3d 225e f9bc 5beb 0ebe 3c02 cc3d
00000260: 4e80 5b3d 2539 48be 056a 92bd 404a 803b
00000270: 759a ea3d 62ce d93c 30cb 86bc 6756 e4bd
00000280: 2e57 71bd a638 3ebd d543 93bc 6436 103e
00000290: f069 f13d d265 43be 867e f5bd fa63 0bbe
000002a0: 0e4f 363d acfd 7a3d 6723 293d 236a 7ebd
000002b0: b95e acbd 6988 dcbd e495 8a3d 7d2e 98bd
000002c0: be39 abbd 0e21 db3b 5173 7d3d 2bcf e2bc
000002d0: 0c76 0fbe 6eef 99bc 739e a5bc 8aeb 8a3d
000002e0: 3d5a 7bbc 40b9 513b 18cc c0bd 8098 8b3d
000002f0: b399 e93c 46db 823d 29e7 91bd e161 0f3e
00000300: 58bd 923d eaad 1ebe fc6c 3e39 d5ec 86bd
00000310: e92c 8a3d 641c 64bd 9e99 fa3d 58c0 583d
00000320: 4b42 b7bd 9a48 343d 4f18 d23d 3935 b4bd
00000330: 5f26 103e 1a9c 6fbe d618 c3bc aeda 0bbd
00000340: d1d5 0d3d 153a 17be 52b8 193e 0f36 94bd
00000350: 7ee5 8f3b 0988 80bd 9c9f ff3c 19e6 e93d
00000360: c940 56bd 9030 6ebe 1728 fdbd 7e62 a13d
00000370: 1f78 513d 2d51 9a3d 6b62 44bd 5622 67bd
00000380: 3df3 df3d c0be c63d 448f a03b d123 e6bc
00000390: 631a 1fbc 909d 0a3d 16fc f9bc 4329 80bd
000003a0: 42ea f1bb cec4 92bc fff7 583d 29f6 ba3d
000003b0: 6276 50bd 6a29 c53d bf94 88bd 8867 35bd
000003c0: 9158 0bbd a9f9 2dbe 7325 2c3d 4489 1fbd
000003d0: 9592 01bd 9c76 76bc 5f71 86bd 9685 bdbd
000003e0: 5a78 d53d 2b17 293e 9f7a a63c f6ad 4fbd
000003f0: 8581 98bb 936b 90bd fc71 b3bd b1f2 253c

net_stack.0.bias f4 [64]
0.02414328 0.0029507766 -0.011329791 -0.010980245 -0.022300055 -0.036026433 -0.011463085 -0.02036849
-0.008155215 -0.023744447 -0.011685476 0.020765116 0.007339593 -0.041701403 -0.026370754 -0.030390548
-0.004293029 0.014000773 -0.022325234 0.011018343 0.00060958875 -0.015863432 -0.0028096552 -0.013005821
0.001486093 -0.0037269243 -0.006709152 -0.010957822 -0.022116862 0.015918761 0.003907246 -0.038981397
0.027776709 -0.0109908385 -0.014247512 0.018051852 0.019803643 0.024837717 -0.014931484 -0.007191776
-0.013466784 0.03807776 -0.0035944993 -0.00076440774 0.0004129467 7.0967944e-05 -0.022117939 0.006316468
-0.00887315 0.017952759 0.01291585 -0.013459879 -0.0021249678 0.002806847 0.0012949785 -0.027112497
-0.03163832 0.013535292 -0.014995134 0.017412132 0.033337295 0.032417025 0.0018363374 -0.014192456
00000000: 21c8 c53c d161 413b 96a0 39bc 7ce6 33bc
00000010: 9bae b6bc 7490 13bd aacf 3bbc d2db a6bc
00000020: 739d 05bc b783 c2bc 7074 3fbc 9b1b aa3c
00000030: f880 f03b 17cf 2abd 7b07 d8bc 99f5 f8bc
00000040: 8aac 8cbb 8063 653c 69e3 b6bc 4886 343c
00000050: cfcc 1f3a 07f4 81bc 3122 38bb 5e16 55bc
00000060: 02c9 c23a 6a3f 74bb 72d8 dbbb 7088 33bc
00000070: 6c2e b5bc 1068 823c 5b08 803b f5aa 1fbd
00000080: fb8b e33c eb12 34bc 666e 69bc 7ae1 933c
00000090: 403b a23c 7878 cb3c 2fa3 74bc fda8 ebbb
000000a0: c9a3 5cbc 6df7 1b3d b191 6bbb 8962 48ba
000000b0: c580 d839 a0d4 9438 ae30 b5bc 60fa ce3b
000000c0: b060 11bc aa11 933c 009d 533c d386 5cbc
000000d0: 0b43 0bbb 14f3 373b 45bc a93a 071b debc
000000e0: 2f97 01bd 21c3 5d3c 27ae 75bc e3a3 8e3c
000000f0: b08c 083d b7c7 043d 42b1 f03a 7a87 68bc

net_stack.2.weight f4 [32, 64]
0.064556 -0.022735426 -0.017678311 0.08316813 -0.18539983 0.14111872 0.06669277 -0.07458762
-0.081080265 -0.069404736 0.05868037 -0.047630552 -0.12680878 -0.052572563 0.07470515 0.1100357
0.1035584 0.00013426534 -0.087618254 0.0044951434 -0.12783957 0.006172723 -0.037567973 -0.071383856
0.1537775 -0.066936485 0.12362906 -0.11636781 0.26086074 -0.16464075 -0.115994826 -0.13658005
0.25621304 -0.0064928634 0.043520678 -0.08085804 0.0153725175 0.033402134 0.17245218 -0.18340114
-0.039004058 -0.00296612 0.08745253 -0.03655065 -0.102456525 0.11181267 0.0048560943 0.059493456
-0.02694224 0.035809264 -0.048224002 -0.06704734 0.025994882 -0.10009911 -0.07629365 -0.028281925
-0.017179344 -0.039293915 0.07485362 -0.016518334 -0.03433437 -0.0736624 0.06815416 0.048992313
0.040012404 -0.013608971 -0.0029511887 0.22972088 -0.009151565 0.00692178 0.0034070848 -0.05758826
-0.21098076 -0.023230847 -0.036790363 0.12764479 -0.073003344 0.17487322 -0.12956792 -0.059826903
0.12375046 0.030423647 0.19412683 -0.0820535 0.1703111 -0.11501281 0.09797366 0.042276774
-0.23507895 -0.04790484 0.14174515 0.03769006 -0.06106765 -0.033191036 -0.12948518 -0.24946117
0.12465557 0.19424 -0.38424948 -0.10847157 -0.027748743 -0.021509668 -0.12463789 -0.15956205
-0.024360318 0.124504395 -0.018001229 -0.019799992 -0.009762394 -0.023617238 -0.049074907 0.024803028
-0.0104180295 0.0033299394 -0.07638354 0.0518745 0.022862565 0.115241 -0.1153667 -0.12377032
-0.06438581 0.06810299 -0.010286853 -0.16997534 -0.12936293 0.12806277 -0.04326845 -0.049327515
0.04861623 0.23362815 -0.020652227 0.055677842 0.038750153 0.080475606 -0.101469025 -0.07514325
-0.05034387 -0.24008474 -0.029020714 0.18156262 -0.046727113 0.038041364 0.0065743197 -0.048653934
0.097276375 0.105170436 0.10263629 -0.104214266 0.19527234 -0.15484823 0.09847249 0.14602853
-0.17643245 0.029170632 -0.057220314 -0.18538335 0.0788187 0.015451077 0.031708803 0.09791697
0.04002706 0.1814967 -0.05126405 -0.042889677 -0.03728249 -0.06708992 -0.10141003 0.13897519
0.13579953 0.1209335 0.03518412 -0.15581699 0.019869925 -0.036302377 0.04011352 0.02022151
-0.05933824 0.042059742 0.15397911 -0.16724762 0.23161988 -0.057974767 -0.09087497 -0.20216703
0.046105158 -0.03797363 -0.0077320435 -0.11957942 0.035873253 0.040081795 0.008119944 0.033792756
-0.034523055 -0.106672555 0.11855929 -0.02499081 0.046306483 0.05242725 -0.03946458 -0.042368967
0.058495533 0.04589898 -0.04838438 -0.23475267 -0.08796885 -0.1785084 0.020855542 -0.060778912
-0.06796378 -0.02424178 0.041337185 -0.19342168 0.1334199 -0.1585912 -0.039874084 0.02625598
0.073211975 0.12536398 0.05936475 -0.060724363 -0.04755337 -0.10399397 -0.024050606 0.017943533
0.23300403 0.09501887 0.013595645 0.004537518 0.00065646076 -0.046023842 -0.031989593 0.07190294
-0.128158 0.070995435 0.020603077 0.053721312 0.085725255 0.10193191 0.057693686 0.1936653
0.024667818 -0.14358898 -0.072528824 -0.16815275 0.049550153 -0.025494343 -0.007854267 0.14298066
-0.042941943 -0.034454476 -0.046731595 -0.051599454 0.09397842 -0.014340377 -0.23636706 -0.03800525
00000000: f035 843d a53f babc 1bd2 90bc 0d54 aa3d
00000010: 74d9 3dbe 6d81 103e 3896 883d 65c1 98bd
00000020: 690d a6bd 1224 8ebd d45a 703d 4118 43bd
00000030: 29da 01be 5456 57bd 04ff 983d 665a e13d
00000040: 6d16 d43d 94c9 0c39 3371 b3bd ff4b 933b
00000050: 60e8 02be 8e44 ca3b e0e0 19bd b331 92bd
00000060: d977 1d3e ff15 89bd 3c31 fd3d 3f52 eebd
00000070: 8a8f 853e 9697 28be b28e edbd a4db 0bbe
00000080: 5b2e 833e 16c2 d4bb bd42 323d e698 a5bd
00000090: 03dd 7b3c add0 083d 4e97 303e 82cd 3bbe
000000a0: b8c2 1fbd 3c63 42bb 501a b33d 22b6 15bd
000000b0: bad4 d1bd 0bfe e43d df1f 9f3b 69af 733d
000000c0: f9b5 dcbc bcac 123d 8886 45bd 1e50 89bd
000000d0: 38f3 d43c c300 cdbd d83f 9cbd 7faf e7bc
000000e0: b2bb 8cbc a8f2 20bd db4c 993d 7551 87bc
000000f0: 32a2 0cbd 50dc 96bd 6994 8b3d 2aac 483d
00000100: 0ce4 233d 29f8 5ebc bb68 41bb f33b 6b3e
00000110: 72f0 15bc 19d0 e23b 6649 5f3b abe1 6bbd
00000120: 570b 58be 9e4e bebc 7eb1 16bd 51b5 023e
00000130: c782 95bd f711 333e 74ad 04be 0e0d 75bd
00000140: e270 fd3d 033b f93c 2fc9 463e aa0b a8bd
00000150: 0866 2e3e d68b ebbd 6aa6 c83d 692a 2d3d
00000160: 89b8 70be de37 44bd a425 113e e460 1a3d
00000170: 1222 7abd 53f3 07bd c397 04be c072 7fbe
00000180: 6b4b ff3d dae6 463e 59bc c4be 5826 debd
00000190: 5551 e3bc 0b35 b0bc 2642 ffbd 3c64 23be
000001a0: 4a8f c7bc 29fc fe3d 5077 93bc 9833 a2bc
000001b0: 73f2 1fbc f078 c1bc c502 49bd b82f cb3c
000001c0: 62b0 2abc 1d3b 5a3b f96e 9cbd 5b7a 543d
000001d0: 464a bb3c 7903 ec3d 6045 ecbd 4b7b fdbd
000001e0: b5dc 83bd 9579 8b3d 308a 28bc 040e 2ebe
000001f0: b777 04be e322 033e 423a 31bd a60b 4abd
00000200: d021 473d 383c 6f3e dc2e a9bc 730e 643d
00000210: 7bb8 1e3d 65d0 a43d fece cfbd b4e4 99bd
00000220: 6035 4ebd c6d8 75be d9bc edbc 8deb 393e
00000230: ee64 3fbd 43d1 1b3d 646d d73b 5949 47bd
00000240: d638 c73d 9963 d73d fa32 d23d 4a6e d5bd
00000250: 79f5 473e 8990 1ebe f2ab c93d 8188 153e
00000260: b5aa 34be 40f7 ee3c d95f 6abd 22d5 3dbe
00000270: b36b a13d 8426 7d3c 17e1 013d b188 c83d
00000280: 6af3 233d 45da 393e 41fa 51bd 16ad 2fbd
00000290: 86b5 18bd 7166 89bd 10b0 cfbd 834f 0e3e
000002a0: 080f 0b3e fcab f73d 391d 103d 7d8e 1fbe
000002b0: 41c6 a23c cdb1 14bd 134e 243d 95a7 a53c
000002c0: a80c 73bd d646 2c3d b3ac 1d3e f642 2bbe
000002d0: c32d 6d3e f376 6dbd a81c babd e004 4fbe
000002e0: c3d8 3c3d 3d8a 1bbd 155d fdbb 0ee6 f4bd
000002f0: d5ef 123d cf2c 243d 8309 053c 466a 0a3d
00000300: 0c68 0dbd 2477 dabd 37cf f23d 87b9 ccbc
00000310: deab 3d3d f5bd 563d 9da5 21bd 158b 2dbd
00000320: 0399 6f3d 9200 3c3d b32e 46bd 0163 70be
00000330: 0329 b4bd e8ca 36be 3ed9 aa3c 4ff3 78bd
00000340: 9830 8bbd b396 c6bc 2e51 293d 5510 46be
00000350: 3a9f 083e bb65 22be 0253 23bd c816 d73c
00000360: 29f0 953d 6a5f 003e 7428 733d 1cba 78bd
00000370: 53c7 42bd cafa d4bd c705 c5bc 51fe 923c
00000380: 9c98 6e3e 4199 c23d 45c0 5e3c 76af 943b
00000390: 5616 2c3a 7f83 3cbd 8507 03bd d941 933d
000003a0: da3b 03be 0e66 913d c9c7 a83c e10a 5c3d
000003b0: b990 af3d adc1 d03d 3750 6c3d 3250 463e
000003c0: 2a14 ca3c fd08 13be fe89 94bd 3c30 2cbe
000003d0: 1af5 4a3d 83d9 d0bc 2faf 00bc 8669 123e
000003e0: e4e3 2fbd 2320 0dbd a169 3fbd f359 53bd
000003f0: c277 c03d e7f3 6abc 350a 72be 65ab 1bbd

net_stack.2.bias f4 [32]
0.004751297 0.04127952 0.037190296 -0.00059282524 0.011785526 -0.0070865126 -0.014328291 0.026864044
0.02441114 0.024140686 0.03732174 0.014355176 -0.004522097 -0.005224894 -0.018527465 0.00086300704
0.023277896 -0.012446496 -0.041988824 -0.015053044 0.013086659 -0.019845618 0.05364383 -0.031674027
0.018517356 -0.01112567 0.0022183391 0.0055336882 0.04605482 -0.008828174 -0.010753066 -0.012484091
00000000: c5b0 9b3b b714 293d da54 183d d467 1bba
00000010: 1418 413c fa35 e8bb 35c1 6abc fc11 dc3c
00000020: dff9 c73c b0c2 c53c aede 183d f931 6b3c
00000030: 192e 94bb 9635 abbb e9c6 97bc 6c3b 623a
00000040: 49b1 be3c 63ec 4bbc 79fc 2bbd 0ba1 76bc
00000050: 6d69 563c 4793 a2bc a2b9 5b3d a0bc 01bd
00000060: b6b1 973c 7148 36bc 8e61 113b f153 b53b
00000070: fba3 3c3d 0ca4 10bc a12d 30bc 138a 4cbc

net_stack.4.weight f4 [32, 32]
-0.0026772872 0.03901676 0.06835336 -0.020144757 -0.06316087 -0.042795233 0.103044696 -0.042587884
0.1729251 0.07776762 -0.032289237 -0.22212891 -0.09323237 -0.06354731 -0.10812642 0.015623695
-0.035084907 -0.013005545 0.09911806 0.023412049 -0.048059456 0.11906741 -0.09117846 -0.110123694
-0.09404266 0.06619615 0.059521418 0.07253268 0.036362935 0.027552908 0.10178473 0.023651324
0.019132731 0.04464507 0.042340957 0.028349107 -0.13980345 -0.08335964 -0.027844839 0.017469175
0.07143195 -0.16779731 0.11686661 0.008601652 0.07881912 -0.11918122 -0.030497404 0.051798224
-0.19409718 0.1165507 0.05652662 0.22002064 -0.08248437 -0.108292066 -0.056104753 0.0060784416
-0.10880864 0.08730856 0.10676736 0.10431224 -0.13493088 0.04024805 0.046923418 0.057410974
0.103290804 0.03770106 0.018572712 -0.03419422 0.13243301 -0.008082977 -0.21113546 -0.026876153
0.016467694 -0.12180024 0.0854397 -0.2353259 0.0155273555 -0.104112916 -0.14603266 0.006620851
0.08535985 0.025478186 0.048771072 -0.024143817 -0.009233793 -0.0016662922 0.017498014 0.00805676
-0.15049069 0.10663475 -0.013218846 -0.011456625 -0.2281948 0.19671011 0.0151467 0.062448613
0.033491414 0.20267802 0.00085262425 -0.07465899 -0.034856133 0.048941426 -0.049765177 0.11894319
-0.16986781 -0.08938442 0.16545346 0.07313097 -0.12716994 0.19349031 0.054171715 -5.5223292e-05
0.0145235015 0.0006377853 0.015292586 0.13966906 0.10152625 -0.17020033 -0.1522392 0.15929495
-0.1397 -0.1312103 -0.008407552 0.026331326 0.054271225 0.055000074 0.0918322 0.05007693
0.08532698 -0.088061966 -0.119829595 -0.10612851 0.09060062 -0.19619666 0.14293958 -0.098420426
-0.22057149 0.013683003 -0.3293239 0.020138465 0.0007822897 0.1829164 -0.00058650994 0.025413636
0.121062085 -0.00026406982 -0.14127424 0.12297849 -0.056962065 -0.06627405 0.062998354 -0.0741334
0.1841859 -0.08091823 0.17554936 0.016296986 0.07774699 -0.13293281 -0.07318482 0.008793145
-0.014911068 -0.18080045 -0.17098416 -0.13841446 0.11250696 -0.057722475 -0.17989188 0.06911963
-0.04536239 0.092426345 -0.07688214 0.093969986 0.00776957 0.077459805 0.05101596 0.15921636
0.0039637475 0.12402033 -0.048051056 -0.031216426 0.013565629 -0.089485586 0.010531567 -0.07154982
0.08672846 -0.18738636 -0.11647061 -0.11107858 0.0014264145 -0.021628967 -0.061107025 -0.002471186
-0.10488739 0.25435147 0.2193013 0.07454072 0.07794182 0.0659302 0.05177189 -0.0025159188
0.086847946 -0.050763633 -0.030256625 0.045467038 -0.0067601204 0.16075549 -0.02101979 0.028799957
-0.20229685 -0.059580676 -0.056276772 -0.18064642 -0.14316031 -0.09933603 -0.028042369 0.0036789412
0.09408293 0.1166669 -0.13070747 -0.014879518 -0.20758095 -0.10405529 -0.07115781 -0.060135875
-0.062324286 -0.010168219 -0.057303898 0.030402858 0.056429848 -0.2017786 0.0012930967 -0.19761163
-0.011693338 -0.037227944 0.0612641 -0.08848489 0.052257754 0.00204223 -0.020500407 0.042711742
-0.037518192 -0.020277323 0.08540642 0.10752319 0.05203397 0.0026473238 0.040397286 -0.10586154
0.04103932 -0.115652725 0.12071622 0.057715353 0.21531337 0.028692637 0.089522876 0.14416215
00000000: 6d75 2fbb 0ad0 1f3d d9fc 8b3d 9e06 a5bc
00000010: 7c5a 81bd 0e4a 2fbd 1909 d33d a270 2ebd
00000020: 4713 313e a144 9f3d b841 04bd c375 63be
00000030: 9df0 bebd 1825 82bd 6271 ddbd 87fa 7f3c
00000040: 31b5 0fbd 3615 55bc 69fe ca3d a0ca bf3c
00000050: fed9 44bd 9dd9 f33d c6bb babd 8888 e1bd
00000060: 7099 c0bd d991 873d bbcc 733d 048c 943d
00000070: 4df1 143d a3b6 e13c 8374 d03d 6cc0 c13c
00000080: 3fbc 9c3c c0dd 363d b66d 2d3d 633c e83c
00000090: a328 0fbe 75b8 aabd dc1a e4bc 841b 8f3c
000000a0: ea4a 923d 0fd3 2bbe c357 ef3d f2ed 0c3c
000000b0: eb6b a13d 4915 f4bd b1d5 f9bc 602a 543d
000000c0: 69c1 46be 22b2 ee3d 7588 673d 174d 613e
000000d0: 91ed a8bd 3bc8 ddbd 19ce 65bd aa2d c73b
000000e0: 10d7 debd d5ce b23d d8a8 da3d a8a1 d53d
000000f0: 522b 0abe 24db 243d c532 403d c527 6b3d
00000100: 218a d33d 6d6c 1a3d cd25 983c 3d0f 0cbd
00000110: 859c 073e 766e 04bc e533 58be 612b dcbc
00000120: 42e7 863c 6772 f9bd 02fb ae3d 46f9 70be
00000130: 7366 7e3c 2739 d5bd 9689 15be b9f3 d83b
00000140: 25d1 ae3d a1b7 d03c 2dc4 473d 41c9 c5bc
00000150: 5649 17bc 7d67 daba ff57 8f3c 8000 043c
00000160: 3b1a 1abe 5263 da3d dc93 58bc 91b4 3bbc
00000170: e6ab 69be 606e 493e dd29 783c 1eca 7f3d
00000180: 4b2e 093d d48a 4f3e a582 5f3a d0e6 98bd
00000190: 4ec5 0ebd ce76 483d 92d6 4bbd 7d98 f33d
000001a0: d4f1 2dbe 2e0f b7bd a26c 293e b1c5 953d
000001b0: d638 02be 5322 463e 29e3 5d3d 8f9f 67b8
000001c0: fbf3 6d3c 0c31 273a c18d 7a3c 6805 0f3e
000001d0: ffec cf3d ff48 2ebe 98e4 1bbe 371e 233e
000001e0: 840d 0fbe fe5b 06be d4bf 09bc cbb4 d73c
000001f0: 814b 5e3d c247 613d 8512 bc3d 781d 4d3d
00000200: e9bf ae3d d559 b4bd 3869 f5bd e759 d9bd
00000210: d18c b93d c7e7 48be c15e 123e a690 c9bd
00000220: 7edd 61be ad2e 603c 249d a8be 6cf9 a43c
00000230: 9312 4d3a 704e 3b3e 04c0 19ba 4230 d03c
00000240: 66ef f73d da72 8ab9 32aa 10be 26dc fb3d
00000250: 0e51 69bd b0ba 87bd 4805 813d 41d3 97bd
00000260: 3b9b 3c3e 75b8 a5bd 36c3 333e 4281 853c
00000270: d039 9f3d 8a1f 08be ece1 95bd 2011 103c
00000280: 8d4d 74bc c123 39be 7916 2fbe 85bc 0dbe
00000290: 0d6a e63d 676e 6cbd 9435 38be 988e 8d3d
000002a0: eacd 39bd 064a bd3d 6274 9dbd 5673 c03d
000002b0: e197 fe3b 3fa3 9e3d 1cf6 503d 9d09 233e
000002c0: 53e2 813b 5ffe fd3d 2fd1 44bd 97b9 ffbc
000002d0: 5f42 5e3c 3844 b7bd 988c 2c3c b688 92bd
000002e0: b19e b13d 36e2 3fbe 2588 eebd 2b7d e3bd
000002f0: 87f6 ba3a 3b2f b1bc 5c4b 7abd 9ff3 21bb
00000300: 33cf d6bd 5b3a 823e 8590 603e cea8 983d
00000310: f69f 9f3d 6a06 873d c30e 543d 1de2 24bb
00000320: 56dd b13d 87ed 4fbd bedc f7bc a53b 3a3d
00000330: 0084 ddbb 169d 243e b231 acbc e3ed eb3c
00000340: e826 4fbe de0a 74bd 7982 66bd 60fb 38be
00000350: 9e98 12be b070 cbbd 1cb9 e5bc 641a 713b
00000360: 8dae c03d 0eef ee3d 2ed8 05be 39c9 73bc
00000370: 1a90 54be f11a d5bd 30bb 91bd 0951 76bd
00000380: c047 7fbd 9a98 26bc 7eb7 6abd 6a0f f93c
00000390: fc22 673d 0d9f 4ebe 207d a93a b45a 4abe
000003a0: 6a95 3fbc 547c 18bd 11f0 7a3d 9137 b5bd
000003b0: 3a0c 563d efd6 053b 78f0 a7bc 82f2 2e3d
000003c0: adac 19bd a11c a6bc 90e9 ae3d 1e35 dc3d
000003d0: 9221 553d b97e 2d3b a077 253d efcd d8bd
000003e0: d918 283d 56db ecbd 113a f73d ef66 6c3d
000003f0: 1c7b 5c3e d20c eb3c c557 b73d 3e9f 133e

net_stack.4.bias f4 [32]
0.008257228 -0.0034217972 0.008921155 -0.010357471 0.0018311789 0.009008253 0.009072774 -0.009781887
0.0068156174 -0.018377895 0.00703051 -0.008255004 -0.0060566086 0.017226191 0.026735889 -0.0136095
-0.004781482 -0.00027108385 0.0038083189 -0.0022733298 0.030462895 0.005682524 0.008478126 -0.0017783057
0.0049376064 -0.00093834125 0.008182079 0.023190241 -0.0146285165 0.0038748847 0.01301634 0.007620317
00000000: 5349 073c 3b40 60bb 092a 123c 62b2 29bc
00000010: 2b04 f03a 5a97 133c f9a5 143c 3544 20bc
00000020: 8b55 df3b 3d8d 96bc 3160 e63b ff3f 07bc
00000030: 8476 c6bb f11d 8d3c 3905 db3c 61fa 5ebc
00000040: faad 9cbb 4220 8eb9 fd94 793b 25fc 14bb
00000050: 528d f93c 7734 ba3b d6e7 0a3c 0a16 e9ba
00000060: a5cb a13b 04fb 75ba 200e 063c 76f9 bd3c
00000070: 72ac 6fbc c7f1 7d3b 7d42 553c dab3 f93b

net_stack.6.weight f4 [1, 32]
0.121129625 0.1876064 0.064821675 0.046436384 -0.14350793 -0.15559599 0.07706248 -0.14450604
-0.03669559 -0.1456853 0.12469219 -0.010544343 -0.18233444 0.0444244 -0.11034844 -0.0885245
-0.14973423 0.0854349 0.041534204 0.08199365 0.056967832 0.040995914 0.08642949 -0.006290511
0.053672045 0.06871901 -0.11576099 -0.11924293 -0.16950913 0.0033201724 -0.11400336 -0.2734166
00000000: cf12 f83d e41b 403e 3ac1 843d 1434 3e3d
00000010: bef3 12be 8e54 1fbe efd2 9d3d 64f9 13be
00000020: 1d4e 16bd 872e 15be 9e5e ff3d 2ec2 2cbc
00000030: e1b5 3abe 5cf6 353d 5dfe e1bd 554c b5bd
00000040: ee53 19be 7ef8 ae3d c51f 2a3d 49ec a73d
00000050: 1a57 693d 55eb 273d f201 b13d a220 cebb
00000060: 38d7 5b3d 8dbc 8c3d 1914 edbd a335 f4bd
00000070: cd93 2dbe 4097 593b 987a e9bd 43fd 8bbe
