CAPSTONE/CAPMODELS/output/model_BPD4.pth (torch, 17382 bytes, 5 tensors)

net_stack.0.weight f4 [64, 23]
-0.17425495 -0.17159083 0.045457136 0.05759525 -0.046778426 0.06935024 0.055464774 -0.025120107
0.01351931 0.17780966 0.011777598 0.0018490283 0.038164064 0.015171025 -0.019568866 -0.1267011
0.116834074 -0.025521686 0.0833527 -0.2843508 -0.03973529 0.012843122 0.014049959 0.09417223
0.02726762 0.018752012 0.03374092 -0.08317763 0.20271198 0.13512646 -0.06761342 0.15199381
-0.10126917 -0.042025365 0.011398281 -0.09313005 -0.041933417 -0.06411897 -0.07653667 -0.015489174
0.025325539 -0.00068375457 -0.082859635 0.08156307 -0.011278735 -0.21627197 0.2932969 0.055194516
-0.22625473 -0.20240809 -0.04099401 -0.0679531 -0.11565678 -0.010045115 -0.09942513 -0.056816414
-0.12534884 -0.05271392 -0.046235193 -0.017285261 -0.017204022 0.17432016 -0.102112725 0.11326359
-0.039656512 -0.0979402 0.014399424 0.007035018 0.03368441 0.04383284 0.008563598 0.031426165
-0.057416525 -0.091017164 0.0398492 0.0011898715 0.11529709 -0.1845622 0.2049918 -0.012920497
0.18354058 0.21455464 -0.03969515 0.049471837 -0.013792732 0.13672356 -0.08327188 -0.05490913
0.027635558 -0.07042091 0.0042256573 -0.22448932 0.088356346 0.2793906 0.05464826 0.043774776
0.17138053 -0.1753865 0.08672618 -0.1313514 0.039253917 -0.2634677 -0.052606788 0.0039657066
-0.1284312 -0.09587427 -0.016871138 0.023134094 0.08469299 -0.14006732 0.025903951 -0.03516719
-0.14219107 0.017146284 0.1976182 0.12620829 0.14407156 0.18802895 -0.06662166 0.017343834
-0.057303153 -0.10078991 0.07747924 -0.108904354 -0.0323434 0.105375186 0.1437544 0.030053843
-0.00026601655 0.110194296 -0.035293035 -0.04984487 -0.22625576 -0.010830726 0.1683535 0.21390174
0.07354464 -0.089222774 -0.021172963 -0.10589804 -0.028849099 -0.08697617 0.014076328 -0.22755137
-0.20571724 -0.035414875 -0.010496585 -0.18995902 0.022784643 0.03814408 -0.045264415 -0.055922087
-0.011447433 0.029554116 0.19634223 -0.13366574 -0.06603118 -0.20459981 -0.07961374 0.012079632
-0.102339484 0.035110347 -0.14747015 -0.16052756 -0.058567688 -0.1308844 -0.009993141 -0.0009957323
-0.07341754 -0.07834546 -0.07296098 -0.0036727348 -0.14956501 0.051224083 0.0072895167 0.12712014
0.03893351 -0.16454907 0.027569024 0.13113329 0.066362 -0.04671609 -0.1439045 -0.008206013
-0.041414134 -0.06331709 0.017713474 -0.0926767 -0.13531052 0.03926357 0.10785791 0.18242852
-0.08488084 0.12634262 0.06377329 0.096438386 0.07097717 -0.17009561 -0.041842874 -0.044253193
-0.06862449 -0.16841936 -0.09280262 0.15929225 0.080750994 -0.047527265 -0.06648313 0.14016885
0.08123876 0.020430636 0.014520788 0.0885837 0.0115280915 -0.07421545 0.029964048 -0.06753646
0.18075973 0.035467908 0.08240212 0.04341423 0.07677814 0.093628936 -0.049488164 -0.05026879
-0.026911108 0.0060815345 -0.07193633 -0.107088014 0.11141086 -0.14338252 0.046134587 0.04239641
0.025167817 -0.06403402 0.09802093 -0.10012384 -0.07427986 -0.08633027 0.12837203 0.08633888
0.029305646 -0.048675224 -0.083373316 0.05247937 0.015158408 -0.002820075 0.1734046 0.015940368
-0.08090569 -0.08296029 -0.023122085 -0.06598446 0.08113943 0.1351648 0.20173173 0.24864776
00000000: e46f 32be 82b5 2fbe 4331 3a3d ffe8 6b3d
00000010: bc9a 3fbd 8007 8e3d 082f 633d afc8 cdbc
00000020: 1980 5d3c bc13 363e d4f6 403c 185b f23a
00000030: ec51 1c3d e48f 783c e34e a0bc efbd 01be
00000040: b446 ef3d db12 d1bc d2b4 aa3d 6e96 91be
00000050: 79c1 22bd f56b 523c cd31 663c 5fdd c03d
00000060: 5860 df3c d29d 993c eb33 0a3d 0959 aabd
00000070: bb93 4f3e 975e 0a3e e878 8abd 44a4 1b3e
00000080: 3666 cfbd ca22 2cbd dbbf 3a3c f8ba bebd
00000090: 60c2 2bbd ce50 83bd 42bf 9cbd 4ec6 7dbc
000000a0: 8177 cf3c fe3d 33ba 50b2 a9bd 8a0a a73d
000000b0: 71ca 38bc 6676 5dbe 032b 963e a513 623d
000000c0: 52af 67be 1144 4fbe 56e9 27bd ff2a 8bbd
000000d0: 76dd ecbd 4494 24bc 679f cbbd 54b8 68bd
000000e0: 725b 00be 8dea 57bd 1d61 3dbd d299 8dbc
000000f0: 73ef 8cbc fc80 323e 7a20 d1bd bef6 e73d
00000100: de6e 22bd df94 c8bd 90eb 6b3c 0286 e63b
00000110: aaf8 093d 108a 333d 554e 0c3c b9b8 003d
00000120: 972d 6bbd 3567 babd ea38 233d 76f5 9b3a
00000130: e120 ec3d e0fd 3cbe 5fe9 513e 7eb0 53bc
00000140: 10f2 3b3e 36b4 5b3e 6297 22bd fba2 4a3d
00000150: e9fa 61bc 4301 0c3e 738a aabd 65e8 60bd
00000160: f763 e23c d738 90bd 6277 8a3b 87e0 65be
00000170: 2cf4 b43d 490c 8f3e dbd6 5f3d 2e4d 333d
00000180: 617e 2f3e 8598 33be 7f9d b13d fb80 06be
00000190: b7c8 203d 3de5 86be 377a 57bd c2f2 813b
000001a0: 7883 03be bb59 c4bd 5735 8abc b683 bd3c
000001b0: 8573 ad3d cf6d 0fbe 8634 d43c 790b 10bd
000001c0: 899a 11be 5d76 8c3c 6d5c 4a3e bf3c 013e
000001d0: 7f87 133e a98a 403e f070 88bd a814 8e3c
000001e0: b6b6 6abd f16a cebd 70ad 9e3d 3f09 dfbd
000001f0: 837a 04bd f2ce d73d 5a34 133e 7a33 f63c
00000200: 2378 8bb9 8cad e13d 6e8f 10bd 222a 4cbd
00000210: 97af 67be 5b73 31bc dc64 2c3e 0f09 5b3e
00000220: 929e 963d 6eba b6bd ec72 adbc 12e1 d8bd
00000230: f254 ecbc 9020 b2bd 66a0 663c 3a03 69be
00000240: 8aa7 52be 300f 11bd def9 2bbc 9e84 42be
00000250: dca6 ba3c f83c 1c3d 2e67 39bd 8f0e 65bd
00000260: 048e 3bbc 791b f23c f00d 493e acdf 08be
00000270: 5b3b 87bd 9d82 51be 870c a3bd a6e9 453c
00000280: 5d97 d1bd decf 0f3d 6a02 17be 5661 24be
00000290: ace4 6fbd 8f06 06be 45ba 23bc 3b83 82ba
000002a0: ef5b 96bd 9673 a0bd 916c 95bd 44b2 70bb
000002b0: 9227 19be 58d0 513d e6dc ee3b c82b 023e
000002c0: bf78 1f3d 8d7f 28be 6fd8 e13c ce47 063e
000002d0: cde8 873d 5f59 3fbd b45b 13be 8372 06bc
000002e0: dea1 29bd 64ac 81bd d91b 913c 48cd bdbd
000002f0: d78e 0abe d6d2 203d 9ce4 dc3d 8bce 3a3e
00000300: 01d6 adbd f65f 013e 929b 823d 7d81 c53d
00000310: 7a5c 913d 8b2d 2ebe 6f63 2bbd d642 35bd
00000320: ff8a 8cbd 2076 2cbe 4d0f bebd 821d 233e
00000330: c760 a53d f3ab 42bd 4f28 88bd 6c88 0f3e
00000340: 8260 a63d 265e a73c 99e8 6d3c 5f6b b53d
00000350: 52e0 3c3c 45fe 97bd 2a77 f53c 8e50 8abd
00000360: 1419 393e cc46 113d 71c2 a83d 1fd3 313d
00000370: dc3d 9d3d 87c0 bf3d 1ab4 4abd a6e6 4dbd
00000380: af74 dcbc 9c47 c73b 5b53 93bd f650 dbbd
00000390: 612b e43d ded2 12be 9ff7 3c3d dca7 2d3d
000003a0: bd2c ce3c 4524 83bd 33bf c83d ba0d cdbd
000003b0: 0a20 98bd edcd b0bd f573 033e 70d2 b03d
000003c0: 6512 f03c ac5f 47bd a1bf aabd 9cf4 563d
000003d0: f95a 783c 02d1 38bb fa90 313e 6095 823c
000003e0: e2b1 a5bd 16e7 a9bd 876a bdbc dc22 87bd
000003f0: 6e2c a63d a468 0a3e c392 4e3e 859d 7e3e

net_stack.0.bias f4 [64]
0.066772796 0.045332905 -0.07870329 -0.00067224505 -0.0749372 -0.066927895 -0.0612889 -0.0020268988
0.053076215 0.0118622165 -0.063401155 -0.06124009 0.05457123 -0.055614874 0.060641695 -0.06333329
-0.016139112 0.044224832 0.0425504 -0.04195748 0.042104468 0.057990495 -0.044911075 0.057431374
-0.028436465 0.05999216 0.029540174 0.054227784 0.013255391 -0.031383432 -0.0618043 0.010056531
0.051368326 -0.064303614 0.07017611 0.058081947 -0.06180054 0.0094134025 0.018242287 0.04371002
-0.062335975 0.000817614 0.01972749 -0.047932833 -0.058894075 0.045636367 0.039402373 -0.072068706
0.058760148 -0.052599385 0.053936534 0.06263493 0.04698018 -0.057650667 -0.034485538 0.0694478
-0.020104015 0.062722 -0.0065120063 -0.05915428 -0.05217729 -0.059570964 -0.059684973 0.0702709
00000000: 2dc0 883d ffae 393d 312f a1bd 9a39 30ba
00000010: ad78 99bd 7e11 89bd 120a 7bbd b8d5 04bb
00000020: 7266 593d be59 423c 77d8 81bd e3d6 7abd
00000030: 1586 5f3d 6ccc 63bd 6d63 783d e2b4 81bd
00000040: 2c36 84bc 1925 353d 5449 2e3d 9bdb 2bbd
00000050: bc75 2c3d 7187 6d3d adf4 37bd 293d 6b3d
00000060: 97f3 e8bc 57ba 753d 3cfe f13c f41d 5e3d
00000070: 242d 593c ea8b 00bd 8126 7dbd 26c4 243c
00000080: 9867 523d 9db1 83bd 7eb8 8f3d 56e7 6d3d
00000090: 9022 7dbd ac3a 1a3c d970 953c 4709 333d
000000a0: 0254 7fbd 2655 563a 8c9b a13c 3855 44bd
000000b0: ea3a 71bd 33ed 3a3d 6264 213d c298 93bd
000000c0: 7bae 703d 7472 57bd 8eec 5c3d be46 803d
000000d0: 4a6e 403d 1b23 6cbd b540 0dbd a63a 8e3d
000000e0: 2db1 a4bc 6474 803d ab62 d5bb c24b 72bd
000000f0: dbb7 55bd af00 74bd 3b78 74bd 31ea 8f3d

net_stack.2.weight f4 [32, 64]
0.0022522109 0.016688034 0.09153148 -0.05585457 0.04515245 0.12699197 -0.030843522 -0.18517162
0.017575892 0.021469714 0.02964315 0.027691597 -0.09242238 0.06494154 -0.12932596 0.17237136
-0.14015836 -0.06472556 0.11475428 0.049510166 -0.21025355 -0.084880985 -0.11411084 0.05605362
0.13901648 -0.09711999 -0.06807717 0.062090147 0.004921421 -0.00989514 0.075432554 0.039169118
-0.07655842 -0.05513963 -0.046342775 -0.04854932 0.1768913 -0.21314543 -0.08053884 -0.017325858
0.011308999 -0.10701214 -0.13167419 0.04756992 0.2093899 0.17369993 -0.08582489 -0.027000085
-0.13784958 0.064554214 -0.26397666 -0.21182775 0.012144123 -0.020341381 0.007905084 0.027503312
-0.06184514 -0.09934235 0.0368475 -0.003887965 0.00026215392 -0.0061704367 0.18740174 0.022322226
-0.052444667 -0.060498904 -0.0107120015 0.15240835 0.20378771 0.059222825 0.07797515 -0.060776938
0.16401818 -0.08602455 0.16737263 0.13850723 0.017211411 -0.019552644 -0.015938029 0.051165722
0.13288875 0.20206103 -0.044729464 -0.02746402 -0.015763232 -0.00645871 -0.09659086 -0.0984942
0.032009847 0.064701036 -0.032990035 -0.0754956 0.07354136 -0.036520835 0.091569796 -0.17923187
-0.0916641 0.13439943 -0.07991604 -0.08358651 0.12262006 0.03290942 -0.0034315283 0.011496489
0.19319543 -0.30694017 -0.087459676 0.040849093 -0.026417809 -0.071186356 -0.12109298 0.09295119
-0.16444902 0.0035201558 -0.05050409 -0.09566914 -0.023137033 0.03233603 -0.002125495 -0.021090042
0.059252884 -0.13640988 0.10275139 0.0905728 0.14770813 0.059012376 0.060704328 -0.03828327
-0.008834683 0.22393648 -0.19271664 -0.013517317 -0.13457775 -0.18415284 -0.12041366 -0.12645113
0.25344256 0.08779668 0.048501592 -0.03817338 0.05936585 -0.25470325 0.11646892 -0.19706205
-0.15679449 0.050060757 -0.12134341 -0.02184483 0.121842764 0.11940378 0.036416247 -0.12297453
0.01398156 0.024756545 -0.033880588 0.116808884 -0.09879232 -0.012610588 -0.0075179245 0.04394033
-0.11000785 -0.0678297 0.07697218 0.009295082 -0.07977185 0.03957683 -0.06761195 0.014558969
0.14617431 -0.010350975 0.08504874 0.00037956212 0.06550997 -0.079242855 0.04328372 -0.1338293
-0.032450892 -0.17484893 -0.062895745 0.05455249 0.26599216 -0.101229 0.06361403 0.22030628
0.06652389 0.17221785 -0.2001084 -0.068961136 -0.12350769 0.033272076 -0.10955613 0.025812913
0.009207252 0.071941175 -0.11178602 0.13295922 -0.10756776 -0.051351227 0.029847715 0.06590589
0.07541205 -0.044186994 -0.091342755 0.04887889 -0.08621757 0.08066308 0.11833139 -0.29726326
-0.11684901 -0.006634972 -0.009103346 -0.045384094 0.003108497 -0.039862465 0.24994701 0.071036175
-0.09386517 0.026273528 0.13531612 0.13093099 -0.01647108 0.19388972 0.011956025 -0.054829326
-0.097375676 -0.009000238 0.035058893 0.09771881 -0.1269392 0.07018089 0.075418316 -0.012937024
-0.18263987 0.14289233 -0.13612004 -0.15127954 0.0062114503 0.068914376 0.031441078 0.072471626
0.019081788 0.005009324 0.20867155 -0.032232895 -0.012544718 -0.040915422 0.082114264 -0.03429264
0.15088488 0.0627177 -0.060402 0.05568811 0.17266162 -0.009731249 -0.2371749 0.103820495
00000000: d499 133b 58b5 883c db74 bb3d c3c7 64bd
00000010: c7f1 383d 2f0a 023e 8eab fcbc a19d 3dbe
00000020: 51fb 8f3c 41e1 af3c 31d6 f23c 7dd9 e23c
00000030: f247 bdbd 1200 853d 066e 04be 1e82 303e
00000040: ac85 0fbe d68e 84bd 4b04 eb3d 2ccb 4a3d
00000050: b54c 57be 15d6 adbd f2b2 e9bd 7b98 653d
00000060: 565a 0e3e d8e6 c6bd 0b6c 8bbd 3d52 7e3d
00000070: df43 a13b 3a1f 22bc 627c 9a3d cc6f 203d
00000080: a9ca 9cbd 18da 61bd ecd1 3dbd a7db 46bd
00000090: fe22 353e cc42 5abe 8cf1 a4bd f5ee 8dbc
000000a0: 6149 393c 2e29 dbbd 99d5 06be add8 423d
000000b0: 4e6a 563e 65de 313e f6c4 afbd 482f ddbc
000000c0: 7128 0dbe 0035 843d f327 87be 60e9 58be
000000d0: 25f8 463c f8a2 a6bc 5384 013c a04e e13c
000000e0: 5451 7dbd 0174 cbbd 67ed 163d 3bcd 7ebb
000000f0: b471 8939 6031 cabb 3ee6 3f3e 1add b63c
00000100: 38d0 56bd b3cd 77bd 6481 2fbc ef10 1c3e
00000110: baad 503e a293 723d 6fb1 9f3d 3df1 78bd
00000120: 62f4 273e a42d b0bd bb63 2b3e d7d4 0d3e
00000130: f2fe 8c3c de2c a0bc 7890 82bc 2693 513d
00000140: fd13 083e 16e9 4e3e 3e36 37bd 39fc e0bc
00000150: e521 81bc 96a3 d3bb 6ed1 c5bd 54b7 c9bd
00000160: c21c 033d fa81 843d 8f20 07bd 709d 9abd
00000170: da9c 963d df96 15bd f288 bb3d 8f88 37be
00000180: 63ba bbbd 01a0 093e 05ab a3bd 672f abbd
00000190: 3a20 fb3d 07cc 063d 7ee3 60bb c55b 3c3c
000001a0: 06d5 453e 4327 9dbe 0f1e b3bd 6151 273d
000001b0: 296a d8bc 27ca 91bd 99ff f7bd 325d be3d
000001c0: 5365 28be 6ab2 663b 60dd 4ebd 2fee c3bd
000001d0: e089 bdbc c972 043d e44b 0bbb 06c5 acbc
000001e0: 27b3 723d 08af 0bbe 526f d23d 3b7e b93d
000001f0: cd40 173e f6b6 713d 1aa5 783d ebce 1cbd
00000200: 59bf 10bc 9b4f 653e 8357 45be bd77 5dbc
00000210: c0ce 09be 9092 3cbe 709b f6bd 687c 01be
00000220: 39c3 813e bfce b33d 9ba9 463d b15b 1cbd
00000230: 9b29 733d 7768 82be 4287 ee3d a2ca 49be
00000240: bc8e 20be 820c 4d3d e582 f8bd eef3 b2bc
00000250: b388 f93d f889 f43d 3429 153d 12da fbbd
00000260: ea12 653c 3dce ca3c 5fc6 0abd 7f39 ef3d
00000270: a153 cabd a49c 4ebc ec58 f6bb c7fa 333d
00000280: cc4b e1bd 4cea 8abd 97a3 9d3d 664a 183c
00000290: 6c5f a3bd 501b 223d 2278 8abd be88 6e3c
000002a0: b8ae 153e 2397 29bc 092e ae3d f7ff c639
000002b0: 172a 863d 144a a2bd 454a 313d 8c0a 09be
000002c0: 3aeb 04bd 990b 33be 7ccf 80bd 6f72 5f3d
000002d0: 2030 883e 2651 cfbd 1348 823d f897 613e
000002e0: ad3d 883d e059 303e 37e9 4cbe 7f3b 8dbd
000002f0: 9af1 fcbd 4d48 083d f75e e0bd 9a75 d33c
00000300: 04da 163c e555 933d 12f0 e4bd 7626 083e
00000310: 7c4c dcbd aa55 52bd 3283 f43c abf9 863d
00000320: a271 9a3d 6cfd 34bd e911 bbbd 3b35 483d
00000330: d692 b0bd af32 a53d ba57 f23d e432 98be
00000340: 894e efbd 2e6a d9bb 3326 15bc ace4 39bd
00000350: edb7 4b3b d346 23bd 1cf2 7f3e 6a7b 913d
00000360: 623c c0bd 953b d73c 4f90 0a3e c612 063e
00000370: 5cee 86bc 078b 463e 34e3 433c b794 60bd
00000380: e66c c7bd bc75 13bc ea99 0f3d cd20 c83d
00000390: 5afc 01be 00bb 8f3d eb74 9a3d d0f5 53bc
000003a0: f205 3bbe 5e52 123e 0d63 0bbe 06e9 1abe
000003b0: 6c89 cb3b fb22 8d3d 5cc8 003d 016c 943d
000003c0: 6951 9c3c 4125 a43b ffad 553e a406 04bd
000003d0: 5c88 4dbc ee96 27bd 862b a83d 7076 0cbd
000003e0: 9181 1a3e 2372 803d 1668 77bd 3719 643d
000003f0: 35ce 303e d16f 1fbc fadd 72be d79f d43d

net_stack.2.bias f4 [32]
-0.06037493 -0.057535794 0.057808522 0.06787579 -0.05127358 -0.0560535 -0.05225805 -0.056043282
-0.053098135 -0.06462471 -0.052474987 -0.060969815 0.063204676 -0.051142216 0.057581343 0.052015435
0.06146723 -0.054442942 -0.061219685 0.055232882 0.058125407 -0.065268934 -0.07376777 -0.0619661
0.061764263 -0.062112313 0.05275977 -0.054594964 0.06269498 -0.04856867 -0.05811959 -0.0523672
00000000: b44b 77bd a7aa 6bbd a1c8 6c3d 7602 8b3d
00000010: 3f04 52bd 5b98 65bd 890c 56bd a48d 65bd
00000020: 6e7d 59bd f659 84bd 03f0 56bd 7cbb 79bd
00000030: 7471 813d 807a 51bd 6ada 6b3d 230e 553d
00000040: 10c5 7b3d 90ff 5ebd 7ec1 7abd e03b 623d
00000050: e814 6e3d b8ab 85bd 8e13 97bd 2ad0 7dbd
00000060: 86fc 7c3d 7b69 7ebd a11a 583d f89e 5fbd
00000070: 3a66 803d f1ef 46bd cf0e 6ebd fd7e 56bd

net_stack.4.weight f4 [1, 32]
-0.26221678 -0.11817813 0.1519125 0.12599154 -0.10773105 -0.2002636 -0.12754114 -0.13990894
-0.046346597 -0.1093373 -0.14282827 -0.21955004 0.096135706 -0.088810384 0.11182728 0.16225345
0.12291221 -0.15790339 -0.23908179 0.09618482 0.06359973 -0.06323376 -0.08482055 -0.07804082
0.107843965 -0.120524056 0.2000297 -0.25871 0.09614388 -0.16307114 -0.08728664 -0.06256973
00000000: 4741 86be 6007 f2bd f38e 1b3e ed03 013e
00000010: 19a2 dcbd e711 4dbe 259a 02be 4a44 0fbe
00000020: eed5 3dbd 3cec dfbd 9341 12be bad1 60be
00000030: cce2 c43d 38e2 b5bd b305 e53d c525 263e
00000040: 66b9 fb3d 6db1 21be dbd1 74be 8cfc c43d
00000050: 9340 823d b480 81bd 66b6 adbd ded3 9fbd
00000060: 4cdd dc3d 51d5 f6bd 96d4 4c3e a375 84be
00000070: 15e7 c43d 1ffc 26be 57c3 b2bd 8f24 80bd
