CAPSTONE/CAPMODELS/output/model_BPD4.pth (torch, 17382 bytes, 5 tensors)

net_stack.0.weight f4 [64, 23]
000000 29 fa bc bc d8 1c 20 be 35 12 82 3d 87 89 bc bd
       -0.023068504 -0.15636003 0.06351129 -0.09205919
000010 a9 49 9e 3d 2a b8 2e 3d 4f 44 0f 3e 24 06 94 3d
       0.07728893 0.0426561 0.13990901 0.07227734
000020 20 c6 3f bc d0 e0 26 3d 47 24 28 3d e3 de 9a 3e
       -0.0117049515 0.04074174 0.04105022 0.30248174
000030 0a 57 66 be 8d 33 6b 3d bb 6f 0d bd 22 d0 12 3d
       -0.2249414 0.05742221 -0.034530383 0.035843022
000040 a8 36 a5 bd d5 28 e8 3d 77 28 9d bc d8 08 03 3e
       -0.080670655 0.11335913 -0.019184334 0.12796342
000050 83 ef 03 3e db 93 94 3d 92 5e 13 3d fb 03 d1 3d
       0.12884335 0.07254764 0.03597886 0.10205837
000060 2e a1 91 bd cf 55 1d be c4 31 3c 3e 5a a4 11 be
       -0.07110821 -0.15364765 0.18378359 -0.14222851
000070 b5 3d 67 3d 2a 5c e7 3d 95 80 54 3d 83 e2 1e bb
       0.056455333 0.11296876 0.051880438 -0.0024243898
000080 a1 5c 9b 3e 2a cc bc bd e7 42 11 3e 38 d5 67 3e
       0.30344108 -0.09218629 0.14185677 0.2263993
000090 86 1c d5 3d 82 78 85 3d e9 40 50 bd 9f 83 d3 bd
       0.10405831 0.06517126 -0.050843153 -0.10327839
0000a0 5d 18 d2 bc ad 74 4f 3e f0 29 59 bd 19 8f 23 be
       -0.025646383 0.20259352 -0.05301851 -0.15972556
0000b0 9b 2c c2 bd 4b 23 18 ba 86 62 1b bd 0a e0 e4 3d
       -0.09481164 -0.0005803599 -0.037935756 0.111755446
0000c0 69 48 e6 3d 3e a3 a9 3c 62 01 d6 3b 53 98 aa 3d
       0.1124428 0.020707723 0.0065309266 0.08329835
0000d0 64 5f 2a 3d fa 19 c9 bd 98 70 c1 3c e9 6c 3c 3e
       0.041594878 -0.09819408 0.02361326 0.18400921
0000e0 0b 60 ee 3c c4 f0 12 3e d9 6a 5d bd f8 c3 2b 3d
       0.029098531 0.14349657 -0.054056976 0.041934937
0000f0 a8 4f d8 3d ba 61 e9 3c 60 cc 03 bd 84 c4 9f bc
       0.10562068 0.028488982 -0.03217733 -0.019502886
000100 c3 e7 1a bd 4e 75 bf bd d2 90 9c 3d 9a a5 74 bd
       -0.03781868 -0.09348546 0.0764481 -0.059728242
000110 0b 8e d4 3c a2 3a f1 bc aa 44 06 be e1 af 0f be
       0.025946638 -0.029446904 -0.13112131 -0.14031936
000120 27 a9 42 3e 4c 9e 21 bd c1 b4 2e 3e d3 8e b3 bd
       0.19009839 -0.039457604 0.1706114 -0.08767476
000130 84 ac 7a bd e8 38 fa bd 7d 0e a9 3d 5e 40 1d bd
       -0.06119968 -0.12217885 0.082547165 -0.038391463
000140 8b 2d a4 bd f0 99 74 3d f9 cf 2d 3c 4c 35 92 bc
       -0.08016499 0.05971712 0.010608667 -0.01784768
000150 36 20 67 be 5e 79 67 be d2 17 e3 bc 6c 68 1d 3d
       -0.22570881 -0.22604892 -0.02772132 0.038429663
000160 ce 48 82 bd c0 36 31 be 40 a5 34 3c 1b 8c 0b bd
       -0.06361543 -0.17306042 0.011025727 -0.03406916
000170 09 72 e3 3d 68 63 19 bc 51 a9 9b bd d7 fd f2 bd
       0.11105735 -0.009362079 -0.07600654 -0.11864822
000180 bc 97 2c 3e 79 c9 64 3d 27 67 d8 3d cc de 97 bb
       0.16854757 0.0558562 0.1056655 -0.0046347138
000190 97 39 19 bd 9e c7 a2 bc 6b ca c2 3d c0 00 1c 3d
       -0.037408438 -0.019870576 0.095112644 0.038086653
0001a0 4e f2 71 be 25 1d 88 3d 85 24 2e 3d db 50 0f 3e
       -0.23627588 0.06646184 0.042515296 0.13995688
0001b0 40 bb c5 bb f7 a2 b5 bc ad a4 84 bd fe f5 44 bd
       -0.006034285 -0.022172434 -0.06476722 -0.04808616
0001c0 8d 0d 0a bd 47 2e cf bd 9a 79 28 3c b6 40 3c 3e
       -0.03370433 -0.101162486 0.010282898 0.1838406
0001d0 ec b6 e1 3d 4f 4d d5 3d e3 18 88 bd b2 5b bb bd
       0.11021218 0.10415136 -0.06645372 -0.09148349
0001e0 38 03 03 3d f3 2c 52 3b 65 03 c9 3d a4 bb 8e 39
       0.03198549 0.003207025 0.098151006 0.00027224154
0001f0 1c 84 ab bc 0f 66 27 bc 82 f5 07 be e5 15 12 be
       -0.020937018 -0.010217204 -0.13277248 -0.14266165
000200 af ce 33 be c6 3b 3b 3d 64 a5 93 3d 3f 1e 43 3d
       -0.17559312 0.0457113 0.0720928 0.047636267
000210 22 2d ee bd a9 27 dd bd ef 56 cf bd 21 ef d2 3c
       -0.11629702 -0.1079858 -0.10124003 0.025748791
000220 54 51 4c 3c 00 3a 03 3e 8c cc 2c bd 47 21 6e bd
       0.012470562 0.12815094 -0.04218726 -0.058137204
000230 c2 37 99 bc f1 bd cf 3d 4c d3 1b bd e8 7a f8 3d
       -0.018703345 0.1014365 -0.038043305 0.121328175
000240 14 22 0e 3e a8 3f 1f 3e c3 9d 93 3d f0 51 6e bd
       0.13880187 0.15551627 0.07207825 -0.05818361
000250 f4 9e 31 3e db b0 02 3d e9 21 c5 bc bb 88 38 3d
       0.17345792 0.031906944 -0.024064021 0.04505227
000260 ce 48 8f bc 58 08 95 bd 88 17 7a 3b 1b f3 15 bd
       -0.01749077 -0.07276982 0.0038160998 -0.036608797
000270 92 3d e6 bc 6e be 64 bd 5e cb f4 bd e2 e0 94 3d
       -0.02810553 -0.05584567 -0.11952852 0.072694555
000280 c6 39 82 3d 2c 21 22 3e 81 5c 93 3d e5 96 94 bd
       0.06358676 0.15832967 0.07195378 -0.07255343
000290 32 a0 83 3d e0 dc 5a bd 23 24 bb bc 03 e1 0e bd
       0.06427039 -0.0534333 -0.02284438 -0.034882557
0002a0 4d a2 1a be 13 14 82 bd e5 a1 d3 bd 4d 42 49 bd
       -0.15100975 -0.06351485 -0.10333613 -0.049135495
0002b0 59 4c b2 bd 9b 35 61 bd c6 85 25 bd d4 38 50 3d
       -0.087059684 -0.054982763 -0.04041078 0.050835446
0002c0 87 81 7a 3d 3e cb a0 bd b1 04 e0 bc eb 9e 00 3e
       0.061158683 -0.07851265 -0.027345987 0.12560622
0002d0 1d b0 98 3c 1b 8a bf 3d 85 be 04 bd 3a 0f da 3d
       0.018638665 0.093525134 -0.032408256 0.106474355
0002e0 40 66 8d bd 8c 87 ce bc f3 fe 8e 3d 54 22 5b 3d
       -0.06904268 -0.025211118 0.069822215 0.053499535
0002f0 73 de 18 bd 50 ac fd 3c 3a c8 75 bd 4e c8 d7 bd
       -0.03732152 0.030965954 -0.060005404 -0.10536252
000300 76 f5 d1 bd 69 6b e1 bd 98 22 1f 3e 1a 33 03 be
       -0.10251896 -0.11006815 0.1554054 -0.12812462
000310 0b 0e 45 3d 23 f4 29 bd ec 5d 43 be 85 ff 12 3c
       0.048109096 -0.041492593 -0.19078797 0.008972053
000320 54 79 61 3c 6c 6b bd bc 64 20 43 be 91 07 13 3d
       0.013761837 -0.023122512 -0.19055325 0.035895888
000330 08 db a2 3d d3 42 88 bd c5 9e 94 3d 01 53 3d 3e
       0.07951933 -0.06653371 0.072568454 0.18488695
000340 00 0e 52 3c b0 f3 fc bd cd bc 08 be ba 00 81 3e
       0.012820721 -0.12351167 -0.13353272 0.25195867
000350 31 87 25 3e 3d 6c 9a bc 86 3d 50 3d 14 f6 57 bd
       0.16164853 -0.01885044 0.050839923 -0.052724913
000360 d1 51 24 bd 63 bc 0e 3d 21 fe 79 bd 2c 94 a7 3d
       -0.04011709 0.03484763 -0.06103337 0.081825584
000370 23 10 95 bd 9f a6 78 3d 9d 70 cf 3d 23 eb 3b 3d
       -0.072784685 0.060705777 0.10128901 0.04587854
000380 71 cf be bd 3f 9c 28 be 04 6f b3 bd fa ca 40 3e
       -0.0931691 -0.16465853 -0.08761409 0.1882743
000390 2e 2a fc 3b 4b da 98 3d 45 91 32 bd b8 3d 20 3e
       0.007695458 0.07463511 -0.04359557 0.15648544
0003a0 53 0c 8a 3d 3f 8e c5 3d ad 3f 5a bd 41 97 0b be
       0.06740632 0.09646272 -0.053283382 -0.13631918
0003b0 26 78 b4 bd f8 28 34 bd 34 ff 7b bc cb e7 23 3c
       -0.08811979 -0.043984383 -0.015380669 0.010003994
0003c0 ca 00 c7 bc 75 5f d3 bd bc f8 82 bb de df 35 be
       -0.024292368 -0.10320941 -0.0039969366 -0.1776118
0003d0 01 55 22 3e 7a ab a9 bc b0 eb 6e 3d 11 cc 65 be
       0.15852739 -0.02071165 0.058330238 -0.22441126
0003e0 8f 39 af bd 85 1c 8b bb 95 ad e1 bd 63 e9 b0 bd
       -0.085559 -0.004245343 -0.11019436 -0.08638265
0003f0 c1 6e 94 3d b2 28 e6 3c 7f 9d a7 bc 83 32 fe bd
       0.07247687 0.028095577 -0.020460842 -0.12411978

net_stack.0.bias f4 [64]
000000 74 03 2e 3d f0 57 91 3d 37 8b 0f bd d1 06 5b 3d
       0.042483762 0.07096851 -0.035044875 0.053473298
000010 20 f9 0f 3c ae b7 2a bd b7 61 83 3d ed 2e 8d bd
       0.008787423 -0.041679077 0.06415122 -0.06893716
000020 e2 8c 0f bd ce ca bb bc ef d2 6a bd cb 2d 6c 3d
       -0.035046466 -0.022923853 -0.05733007 0.05766086
000030 81 36 68 bc 96 e5 87 3d 69 5c 54 bd fc fd 16 3d
       -0.014173151 0.06635587 -0.05184594 0.036863312
000040 59 2b 93 3d cb 04 63 3d 8c 20 6d 3d 6d cd 77 3d
       0.07186002 0.055424493 0.057892367 0.060498644
000050 a0 44 e4 3b 1d ba 95 bd 75 59 02 3d 68 19 24 3d
       0.0069661885 -0.07310889 0.031823594 0.04006329
000060 82 64 24 bd 88 ca 67 3d 1f 6f 1c bd 50 5b 96 bd
       -0.040134914 0.056589633 -0.03819191 -0.07341635
000070 d8 34 5a bd c5 f4 80 3d c3 66 82 3d 71 45 80 3d
       -0.053273052 0.06296686 0.063672565 0.06263245
000080 54 b6 75 bd 32 32 7b bd 7d 8a fa 3c 2e 68 f8 bc
       -0.059988335 -0.061327167 0.030583614 -0.030323114
000090 53 43 1f 3c 8b 9b 1e bd 0f ee 80 3d 01 de 79 bd
       0.009720641 -0.038722556 0.06295406 -0.061002735
0000a0 b8 ac 8a bd 67 8b 41 3d 4d a1 18 bd 2a 34 80 bc
       -0.06771225 0.047252085 -0.037263203 -0.015649874
0000b0 b3 bb 6e bc 94 e1 5d 3d c0 fc 85 3d a2 cd 1b 3c
       -0.014571118 0.054170206 0.06542349 0.009509476
0000c0 78 2c 65 bd c3 80 67 bd b1 94 21 bd 9d eb 8f 3d
       -0.05595061 -0.05651928 -0.039448444 0.070273615
0000d0 34 a2 2b 3d f7 c4 81 3d 9d 29 0f bc bd 15 52 3d
       0.041902736 0.06336396 -0.008737949 0.051290262
0000e0 a0 ba 8c 3d 20 5a 84 bd 27 4b a7 bc a9 04 8d bc
       0.068715334 -0.064625025 -0.020421578 -0.017214136
0000f0 b7 d9 6f bd 16 5a 93 3d 19 ac 6b 3d 1b 8b 7b bd
       -0.05855724 0.07194917 0.057537172 -0.06141196

net_stack.2.weight f4 [32, 64]
000000 8c 24 56 be 5b 46 18 be f7 d4 83 3c 5d 20 26 be
       -0.20912379 -0.14870588 0.01609276 -0.16223283
000010 06 02 d2 3d 31 2d 93 bc 81 5d 02 bd 12 96 03 3e
       0.10254292 -0.017965885 -0.031827454 0.12850216
000020 cd dc df bd a2 d0 44 3c 36 32 0c 3d 1b 1e be 3d
       -0.10930786 0.012012633 0.034227572 0.09283086
000030 53 e7 ed bc c1 a1 1d bd 97 4c ab 3d ec 10 fc bd
       -0.029040968 -0.03848434 0.08364218 -0.12307915
000040 2e 73 5a bd fc b0 aa 3c 6f 3c ea bd 8b 24 6b bd
       -0.0533325 0.020836346 -0.11437308 -0.057407897
000050 50 d6 fd 3d 18 5a f8 3d 9c d8 56 3d 35 01 3b 3d
       0.123943925 0.12126559 0.05245267 0.045655448
000060 55 76 5a bd 03 30 ad bd 89 43 cb 3c fc a4 97 bd
       -0.053335506 -0.08456423 0.024812477 -0.07404515
000070 41 bc ec 3d 23 b2 88 3c 95 50 0d be 4a 49 10 bc
       0.11559344 0.016686505 -0.13800271 -0.008806536
000080 40 a2 08 be c4 99 b3 3d b6 6e 24 3d 89 46 4b bd
       -0.13343143 0.08769563 0.040144645 -0.049627814
000090 2b 02 4c bd 07 da 32 3d e0 ce 4e 3d d7 20 79 ba
       -0.049806755 0.04366496 0.05049026 -0.000950349
0000a0 ce d4 88 3d 47 bb a8 bd 1c f7 f5 3d 1d ab 8f 3c
       0.06681214 -0.08238845 0.12010023 0.017537648
0000b0 d4 06 48 bc 0e 0f 0a be a8 ba 09 3e 48 0e a9 bd
       -0.012208659 -0.13482305 0.1345011 -0.08254677
0000c0 82 4b db bb 71 ad 03 bd 1e 13 1e 3c 83 af ae bd
       -0.006692351 -0.03214783 0.009648113 -0.0852957
0000d0 94 0e c4 3a 1d 73 dc 3d fa 44 8e 3d 52 ad 11 3e
       0.0014957958 0.107641436 0.0694675 0.14226273
0000e0 bf 1b 62 bb 52 7b 64 3d 76 72 32 be c9 2c 4b be
       -0.0034501401 0.05578167 -0.17426476 -0.19841303
0000f0 6d ca 47 bd 39 5c 8f 3d be e7 16 3d 82 4d ad 3d
       -0.048777033 0.07000012 0.0368421 0.08462049
000100 db 7c a7 bc d4 e0 b9 bd 26 90 dc 3b ff 77 ff 3d
       -0.020445278 -0.09076086 0.006731051 0.12474059
000110 8a 37 3f bd 1d d1 d0 bd 41 e5 23 3e dc 68 b9 bc
       -0.046683826 -0.10196135 0.16005422 -0.022633009
000120 75 58 84 3d 99 8d 5a be 4e d7 04 be 02 1c fb 3d
       0.06462184 -0.21343078 -0.12972757 0.122612014
000130 fc b8 d2 bd eb 71 15 3e 31 f4 19 3d c0 25 f8 3b
       -0.10289189 0.14594238 0.037586395 0.0075728595
000140 cc 41 6c 3d e8 84 9d bd c6 fc 1d 3d 75 67 38 3e
       0.057679936 -0.076913655 0.03857114 0.18008216
000150 e2 52 cf bd 56 e5 06 be bc 6e 84 bc 11 49 c6 bb
       -0.101232305 -0.13173422 -0.016166084 -0.0060511907
000160 41 80 42 3e 32 66 8a 3b a1 29 0f be 94 5d c1 3d
       0.18994237 0.0042236084 -0.13980724 0.09441677
000170 46 f2 dc bb 24 82 76 3e b0 ba 01 3e 46 4b c2 bb
       -0.0067427484 0.24073082 0.12668872 -0.0059293834
000180 6b 6d 15 be ba cc 09 3e 33 de a7 bd f0 56 5d be
       -0.14592521 0.13457003 -0.08196678 -0.21615195
000190 9c ec 03 be 8a e5 7c bd 17 c1 38 3e 32 88 3f bd
       -0.12883228 -0.061742343 0.18042408 -0.046760745
0001a0 b9 5e 5f be 69 36 ec 39 ba 22 96 3c 92 0d 24 bb
       -0.21813478 0.00045053966 0.018327106 -0.0025032503
0001b0 6f c4 e6 bd 80 d1 31 3e b8 dd 8f 3d c5 ad 6d 3c
       -0.112679355 0.17365074 0.07024711 0.014506762
0001c0 ad e9 f9 bc 83 ac 80 3c 3a 2d f5 3b 28 72 95 3d
       -0.030506933 0.01570726 0.007482198 0.07297164
0001d0 dd 11 be 3d d5 b0 22 3e 01 79 81 bc df 15 6f 3c
       0.09280751 0.15887769 -0.01580477 0.014592617
0001e0 a8 52 13 3e 55 ce 64 3d e4 4f 94 3b 35 b1 40 be
       0.14387 0.055860836 0.0045261253 -0.18817599
0001f0 8e eb 95 bd 05 2f 04 3e 5b 11 01 3e 59 02 fa 3d
       -0.07320319 0.12908562 0.12604277 0.12207479
000200 e4 2f 1c 3d c1 fa a9 3c ec 46 ef 3d 6f 9d a0 3d
       0.03813161 0.020749452 0.11683449 0.07842528
000210 a0 97 b3 3d dc 2e ad 3c 89 78 25 3d c7 da c5 3d
       0.087691545 0.021140508 0.040398154 0.09660869
000220 3a 8b 6b 3c 02 39 09 3e e1 07 c1 ba 3e 23 b5 3d
       0.014376456 0.13400653 -0.001472708 0.088446125
000230 c5 5e 9d bd 00 66 d2 3d 33 71 98 bd 54 19 0e 3e
       -0.076840915 0.10273361 -0.07443466 0.1387685
000240 4d 89 82 bd d0 50 af 3d 50 2e 66 3c 26 13 ca bc
       -0.06373844 0.08560336 0.014049128 -0.024667334
000250 7a a9 8a 3c 4f 62 fb 3d 72 28 ff bc 7c 0e a9 bd
       0.016926516 0.1227461 -0.031147216 -0.08254716
000260 46 3a 50 3d f1 21 fe 3d 7b 6f 29 3d 79 bc 8d bb
       0.050836824 0.124088176 0.04136608 -0.004325446
000270 28 09 37 3c d2 ad eb 3d ff b2 bf bd 67 cc f5 bc
       0.011171617 0.11507763 -0.09360313 -0.030004693
000280 c3 aa 99 bd 11 3f b9 bc 44 ec cd 3b 6c b4 a7 3d
       -0.07503273 -0.02261308 0.0062842686 0.081887096
000290 6c 9c 9d bd 49 3e 3b bd ca 39 84 3d 19 9e 8c 3e
       -0.07695851 -0.045713697 0.06456335 0.2746437
0002a0 87 3c 21 be 10 80 ae 3c 09 86 0a 3d be 3f 46 3c
       -0.15745746 0.0213013 0.033819232 0.012100158
0002b0 30 64 b0 3c 36 53 ed bc 91 1c 9f bd 38 19 50 bd
       0.021532148 -0.028970342 -0.077691205 -0.0508053
0002c0 2b 3f 23 ba 63 5f 3a be 44 fa f3 3c df 09 68 3d
       -0.00062273693 -0.1820045 0.029782422 0.05665004
0002d0 b5 51 19 bd ba 0f e3 3c 46 11 39 be 72 45 c9 3c
       -0.037431438 0.02771746 -0.18072996 0.024569247
0002e0 c8 9b 01 3e 20 57 c3 3d f3 7c 14 be c8 78 7d 3d
       0.12657082 0.09538102 -0.1450079 0.061882764
0002f0 57 09 4b bd 82 95 a9 3d ee 03 0b bd a3 2c cd bd
       -0.049569454 0.082804695 -0.033939295 -0.100182794
000300 82 d2 a7 3d f6 9a 08 bd 1f 30 1d bd 9e 41 4d be
       0.08194448 -0.033350907 -0.03837597 -0.20044562
000310 91 d6 32 3e f7 3b a3 3d d2 6b ed bc ad fd be 3d
       0.17464663 0.07970422 -0.028982077 0.093257286
000320 aa 10 e0 3c cd cb c7 3d d7 e1 81 3d 79 3f a0 bd
       0.027351696 0.09755669 0.06341904 -0.078246064
000330 ee a3 23 3e 74 14 1a be ac 94 98 3d 22 48 45 3e
       0.15980503 -0.15046865 0.07450232 0.19265798
000340 8d a5 50 bd 5f d4 f2 bd 81 e5 a1 bd 96 3f b6 3d
       -0.05093913 -0.11856913 -0.079051025 0.08898847
000350 d9 77 36 bd 8a 94 21 3e c9 76 0f be 9a df 84 3c
       -0.04454789 0.1577932 -0.14010157 0.016219903
000360 87 83 0a 3e ea 51 f3 bd f7 f7 5f bd ff 0a 91 bc
       0.13526736 -0.11880858 -0.054679837 -0.017705439
000370 bd 80 88 3d d4 d8 37 be 65 fd 6c 3d fd 87 ba 3d
       0.0666518 -0.17953807 0.057858843 0.09107969
000380 6f d9 b1 bd f1 a4 4d bd 0d 5c c6 3d f5 43 e7 bb
       -0.0868405 -0.05020613 0.09685526 -0.0070576617
000390 94 e5 0f bd 00 eb 21 3d 5b df c7 3c 1a 5e 48 3e
       -0.035131052 0.039530754 0.024398496 0.19567147
0003a0 61 16 d5 bb 09 25 94 3d 76 ee 23 bc 9b ab 34 3e
       -0.006502912 0.072336264 -0.010005584 0.17643587
0003b0 19 e4 2f bc 14 70 fb bb 6d 7d 5e bd 59 e2 ca 3d
       -0.010735535 -0.007673273 -0.054318834 0.09906454
0003c0 7f 1c 54 3e 55 8b fc 3d 78 a1 68 3d b4 b9 23 bb
       0.20713995 0.12331263 0.056794614 -0.0024982514
0003d0 00 bc 94 3d c8 6d a3 3d 7b e1 ed 3d a2 be 1e be
       0.07262421 0.079799235 0.116152726 -0.15502408
0003e0 8f f0 5f be 5f eb 7b bc 05 b9 b1 3d b3 08 f5 bc
       -0.2186911 -0.015375941 0.08677868 -0.029911375
0003f0 a4 00 1c 3e bd 84 c1 bc 77 23 e2 3d f6 98 bf 3d
       0.1523462 -0.023622865 0.11041921 0.09355347

net_stack.2.bias f4 [32]
000000 f2 fe 5b bd 53 53 77 3d ac 91 04 3d 13 a5 58 bd
       -0.05370993 0.0603822 0.032365486 -0.052891802
000010 0f 3b 68 bd dd b4 72 3d 0d 5b 53 bd 24 85 92 3d
       -0.056696948 0.059254516 -0.051600505 0.07154301
000020 f0 18 6c bd 1a 4c 58 bd cc fb 62 3d bc 6c 61 bd
       -0.05764097 -0.05280695 0.055415913 -0.055035338
000030 5a 2f 46 3d c4 1a 5f 3d b6 93 74 bd c3 0f 60 3d
       0.048385 0.054468885 -0.05971118 0.05470253
000040 8f 61 7b bd 8b b5 80 bd 03 ae 43 bd c9 c6 75 3d
       -0.061372336 -0.062846266 -0.047773372 0.06000403
000050 9a ac 56 bd c8 07 60 3d d9 21 48 3d f6 5f 56 bd
       -0.0524107 0.05469492 0.048860405 -0.05233761
000060 fc 46 ae bc fb 6c 61 3d 59 72 68 bd 76 c7 c3 3a
       -0.021274082 0.055035572 -0.056749675 0.0014936763
000070 73 cb 78 3d d1 54 97 3d cc c2 62 3d f1 95 83 bd
       0.0607409 0.07389224 0.055361554 -0.064250834

net_stack.4.weight f4 [1, 32]
000000 d7 55 85 bd 95 10 06 3e 7a b2 8c 3c 19 f3 c0 bd
       -0.06510513 0.13092263 0.017174948 -0.09421367
000010 ef 58 69 bd fe 2d 37 3e 4f 40 24 be 1b 23 af 3d
       -0.05696958 0.17888638 -0.16040157 0.08551618
000020 0f 13 ec bd 12 87 df bd b9 a7 25 3e 1b 9b bc be
       -0.11527073 -0.109144345 0.16177262 -0.36837086
000030 cd 98 96 3d 1c 86 c9 3d ad c2 2d be dc 92 20 3e
       0.07353363 0.098400325 -0.16968794 0.15681022
000040 7f d6 08 be c4 05 0a be 29 d7 f9 bc c8 56 5d 3e
       -0.13363074 -0.13478762 -0.030498104 0.21615136
000050 eb f4 83 bd 29 fa 46 3e 5e ae 5e 3d 21 ec 9b bd
       -0.06443199 0.19431366 0.05436551 -0.076133974
000060 26 69 2c bc bc e9 4a 3e 7f 3a 43 be 9c 72 17 3d
       -0.010523116 0.19815725 -0.19065283 0.036974534
000070 92 f3 02 3e c0 e5 c4 3d 21 12 08 3e d6 78 d6 bd
       0.12788227 0.09614134 0.13288166 -0.104722664
