CAPSTONE/CAPMODELS/output/model_GAD2.pth (torch, 20710 bytes, 5 tensors)

net_stack.0.weight f4 [64, 36]
-0.027067587 -0.2534588 0.15301241 0.09295204 0.15672186 -0.12708734 -0.05722614 0.04995281
-0.035435315 0.0013020474 0.16919766 -0.23255725 -0.023730813 -0.013224081 0.0016262576 -0.30309477
0.14561303 0.14831787 0.17826834 -0.010292722 -0.016796766 -0.06803328 0.1394873 0.12365814
0.059137587 0.040339585 -0.037074964 0.069586106 -0.0708055 0.1142251 0.05570189 0.08638076
0.044353236 -0.050349306 0.06400143 -0.006430338 -0.040546615 0.1091774 -0.067741305 0.114277296
-0.006050651 0.0134045025 0.023434332 0.100497454 0.008936183 0.010926602 0.019194636 -0.008634648
0.096303396 -0.044845857 0.10963985 -0.058987074 0.008733827 0.03581786 -0.07433978 -0.062506296
0.04543307 -0.04308822 0.07337832 -0.06860557 -0.04052038 0.07003757 -0.12665944 0.017881373
0.07398363 -0.02572981 -0.018585693 0.03548188 -0.06156407 -0.028541954 -0.112094484 0.090858646
-0.03709781 0.16018394 -0.13241658 -0.0810191 0.014477282 -0.07676759 0.058332108 0.01735257
0.022489836 0.038729202 -0.037889414 -0.04146439 -0.0146331275 0.024719689 0.020428672 0.022394605
-0.09599581 0.21161933 -0.12359313 0.07233954 0.025973482 0.11913216 -0.06445914 -0.05267697
-0.0037306848 -0.06812634 -0.001387183 0.05754558 -0.0680118 0.01838889 -0.028395208 -0.040991094
0.08075618 -0.18542272 -0.0063763554 0.038046684 -0.020405397 -0.046547964 0.044275332 -0.041909583
-0.040364265 0.0525214 -0.035898298 -0.03708083 -0.04394831 -0.06477353 0.0629465 -0.053413477
-0.0064656315 0.061969467 -0.058128405 0.08845238 0.059424467 0.02178049 -0.20269011 0.04159655
-0.02826725 -0.1495221 0.055817753 0.07544446 0.015632035 -0.012476083 0.016418405 -0.044362288
0.009129169 0.013931466 -0.04603564 -0.007414413 -0.040971003 -0.24376 -0.028855244 0.019512538
0.020029718 0.15028207 0.05796515 -0.03906121 0.014507554 -0.074 -0.045595024 -0.0645316
0.059404746 -0.06183645 -0.042690944 0.020941854 -0.031072706 -0.201565 0.026086092 -0.004003134
-0.044928387 0.021234697 0.05167337 0.034044717 -0.018604599 0.08597425 0.021954995 -0.07122807
0.007370009 -0.035673805 -0.056385137 0.07939178 0.040248238 -0.08350172 0.017663447 0.009278678
0.03745443 0.017300889 0.11847005 -0.026535802 0.010095349 -0.0389501 -0.004803426 -0.068505205
0.124320306 -0.026678197 -0.20468953 -0.07977781 0.06630477 -0.07446984 -0.055584043 -0.104615994
-0.05772583 -0.07906879 0.037776195 0.0109861065 0.016942825 -0.07789658 0.13972817 0.122745484
0.1638815 0.010912636 -0.1272257 -0.05519566 0.05898276 0.17048083 0.02420021 -0.02625624
0.12464527 0.045279134 0.04547148 -0.038066976 0.08889129 -0.028073475 -0.04211998 -0.20465223
-0.061063383 -0.070278846 -0.036494553 0.1470064 0.022920363 0.005886352 -0.001220379 -0.026220137
-0.030967107 -0.053958483 -0.05459914 -0.008966723 -0.088833004 0.033773404 -0.016773546 0.024802638
-0.059574887 -0.14032161 -0.01431374 0.014756813 -0.029641157 0.14258558 -0.06322001 -0.041088603
0.08727045 -0.17103173 0.049618967 -0.036008947 0.11248474 0.12032884 0.060563862 0.037457373
-0.025148833 -0.061974704 -0.10048909 0.015909297 0.19654694 -0.14027971 -0.06689754 0.041179728
00000000: d8bc ddbc 5ac5 81be 49af 1c3e a45d be3d
00000010: b27b 203e 2f23 02be f565 6abd 519b 4c3d
00000020: 9f24 11bd 76a9 aa3a 2742 2d3e 7d23 6ebe
00000030: 1f67 c2bc d1a9 58bc 2628 d53a 3d2f 9bbe
00000040: 951b 153e a4e0 173e fa8b 363e cea2 28bc
00000050: 5f99 89bc 0855 8bbd c2d5 0e3e 7b40 fd3d
00000060: 413a 723d 1f3b 253d ebdb 17bd 2983 8e3d
00000070: 7902 91bd d9ee e93d aa27 643d 65e8 b03d
00000080: bdab 353d 133b 4ebd 2f13 833d 96b5 d2bb
00000090: 3514 26bd 6798 df3d f4bb 8abd 370a ea3d
000000a0: 8a44 c6bb 8f9e 5b3c 5bf9 bf3c 9cd1 cd3d
000000b0: 1169 123c 7e05 333c 123e 9d3c 5778 0dbc
000000c0: b73a c53d 4ab0 37bd dc8a e03d 6e9c 71bd
000000d0: 5318 0f3c c0b5 123d 743f 98bd 4d03 80bd
000000e0: 0718 3a3d 467d 30bd 5f47 963d 1481 8cbd
000000f0: b3f8 25bd dc6f 8f3d 03b3 01be f57b 923c
00000100: bb84 973d 53c7 d2bc 0641 98bc 7355 113d
00000110: 9b2a 7cbd d1d0 e9bc cb91 e5bd 1914 ba3d
00000120: e0f3 17bd 4207 243e 3698 07be 58ed a5bd
00000130: 1f32 6d3c 5438 9dbd a6ed 6e3d fa26 8e3c
00000140: 9b3c b83c 83a2 1e3d ee31 1bbd 90d6 29bd
00000150: c9bf 6fbc f280 ca3c 085a a73c e474 b73c
00000160: 7499 c4bd bdb2 583e 651e fdbd c126 943d
00000170: 57c6 d43c 90fb f33d 2703 84bd cec3 57bd
00000180: 817e 74bb d385 8bbd 23d2 b5ba eab4 6b3d
00000190: c549 8bbd 4ca4 963c 119d e8bc 47e6 27bd
000001a0: 7f63 a53d 74df 3dbe bff0 d0bb d7d6 1b3d
000001b0: 3829 a7bc 14a9 3ebd 0d5a 353d 62a9 2bbd
000001c0: 0055 25bd ae20 573d 180a 13bd 12e2 17bd
000001d0: 2503 34bd fca7 84bd 18ea 803d 17c8 5abd
000001e0: a6dd d3bb b2d3 7d3d 0d18 6ebd 8526 b53d
000001f0: 1267 733d 006d b23c ff8d 4fbe 2561 2a3d
00000200: b890 e7bc 521c 19be 28a1 643d a082 9a3d
00000210: c10e 803c 7c68 4cbc e47f 863c 3bb5 35bd
00000220: 8392 153c ce40 643c de8f 3cbd 9bf4 f2bb
00000230: 36d1 27bd 399c 79be d561 ecbc c2d8 9f3c
00000240: 5d15 a43c 8be3 193e dd6c 6d3d a6fe 1fbd
00000250: 17b1 6d3c 508d 97bd d9c1 3abd 2529 84bd
00000260: 6452 733d 3848 7dbd b3dc 2ebd 408e ab3c
00000270: 308c febc 0e67 4ebe 80b2 d53c b92c 83bb
00000280: d406 38bd 63f4 ad3c 75a7 533d 7972 0b3d
00000290: ac68 98bc 4513 b03d f6da b33c 06e0 91bd
000002a0: 1e80 f13b b21e 12bd 1af4 66bd 2898 a23d
000002b0: 56db 243d f302 abbd efb2 903c 9905 183c
000002c0: d169 193d 98ba 8d3c 6da0 f23d 9c61 d9bc
000002d0: f666 253c 248a 1fbd 0f66 9dbb 754c 8cbd
000002e0: a59b fe3d 3c8c dabc 229a 51be 8c62 a3bd
000002f0: ccca 873d a583 98bd 18ac 63bd e940 d6bd
00000300: eb71 6cbd d1ee a1bd 36bb 1a3d 12ff 333c
00000310: aecb 8a3c 3e88 9fbd e714 0f3e fc61 fb3d
00000320: 8dd0 273e eaca 323c 7447 02be d814 62bd
00000330: e897 713d 8792 2e3e 853f c63c 5417 d7bc
00000340: 0546 ff3d 9d76 393d 4d40 3a3d 1eec 1bbd
00000350: a30c b63d 58fa e5bc 0086 2cbd 5b90 51be
00000360: 991d 7abd 5bee 8fbd 507b 15bd d988 163e
00000370: 7cc3 bb3c 4de2 c03b 20f5 9fba 9dcb d6bc
00000380: bbae fdbc 9203 5dbd 59a3 5fbd 2ae9 12bc
00000390: 14ee b5bd fb55 0a3d ad68 89bc e72e cb3c
000003a0: cc04 74bd 78b0 0fbe 2d84 6abc 8fc6 713c
000003b0: 03d2 f2bc f401 123e 7e79 81bd 864c 28bd
000003c0: daba b23d f122 2fbe 423d 4b3d 1e7e 13bd
000003d0: 665e e63d f86e f63d d011 783d e76c 193d
000003e0: ed04 cebc 30d9 7dbd 39cd cdbd 3754 823c
000003f0: 9a43 493e 7ca5 0fbe 9401 89bd 13ac 283d

net_stack.0.bias f4 [64]
-0.035606705 -0.12275934 0.10909783 0.110185735 -0.12715048 0.04709935 0.039968368 0.100086614
0.06799571 0.11151369 -0.109650925 -0.11159587 -0.117990494 -0.10344832 0.091489136 -0.09776199
-0.11214216 -0.1079567 -0.086981215 -0.10924688 -0.09946593 0.111438416 -0.10955623 0.10179403
0.12133865 -0.1019633 -0.095931746 -0.119953565 0.09953242 -0.08181542 -0.061806377 0.09237915
0.12074239 -0.11861083 -0.080872945 -0.11184636 -0.11492788 -0.057156082 -0.08268828 0.064842224
0.10341455 0.08358684 -0.101402 -0.0990453 -0.060823444 -0.11287357 -0.09991276 0.0054654754
0.08369666 -0.10265719 -0.108675316 0.09854882 -0.0964205 -0.101855 0.113006264 -0.11255029
-0.10598658 0.12357174 0.10306648 -0.11340145 0.10327123 0.1105597 0.116018824 0.110774085
00000000: 56d8 11bd 4069 fbbd af6e df3d 0fa9 e13d
00000010: bc33 02be 3feb 403d dfb5 233d 36fa cc3d
00000020: 5641 8b3d 4a61 e43d aa90 e0bd 608c e4bd
00000030: 00a5 f1bd b6dc d3bd a85e bb3d 7037 c8bd
00000040: caaa e5bd 6718 ddbd 3523 b2bd d4bc dfbd
00000050: cbb4 cbbd d339 e43d 045f e0bd 6379 d03d
00000060: 6680 f83d 22d2 d0bd dd77 c4bd 37aa f5bd
00000070: a7d7 cb3d d88e a7bd af28 7dbd 4831 bd3d
00000080: c947 f73d 3cea f2bd b7a0 a5bd b40f e5bd
00000090: 4f5f ebbd 7f1c 6abd 7958 a9bd 00cc 843d
000000a0: 02cb d33d 942f ab3d daab cfbd 43d8 cabd
000000b0: 0122 79bd 422a e7bd 109f ccbd bb17 b33b
000000c0: 2869 ab3d ef3d d2bd 2a91 debd f7d3 c93d
000000d0: 1c78 c5bd 5b99 d0bd d46f e73d c480 e6bd
000000e0: 7e0f d9bd 2e13 fd3d 8514 d33d 053f e8bd
000000f0: de7f d33d 206d e23d 479b ed3d 86dd e23d

net_stack.2.weight f4 [32, 64]
0.043999296 0.07473583 -0.098569684 0.051705368 0.108794615 0.045854107 -0.09269595 -0.09028607
-0.0015021459 0.016311634 0.07208708 0.1646698 0.0943063 0.09050176 -0.117810644 0.114349596
0.11265453 0.09252791 0.116841145 0.022121064 0.12880035 -0.10918073 0.22606145 -0.006194534
-0.08045092 -0.04597501 0.0040113223 0.07674089 -0.0073555624 0.013731468 0.015919076 -0.14899957
-0.1804239 -0.016819347 0.060318667 0.05943062 0.021932311 0.09866678 0.01102921 -0.067945294
0.033217918 -0.05639336 0.08606241 0.03887659 -0.039128687 0.10446937 0.14776008 -0.08931619
-0.16381276 0.17911515 0.030921962 -0.0085336985 -0.024327986 0.021900136 -0.09619018 0.103167705
-0.10925329 -0.050899375 -0.25561145 0.05187236 -0.05508968 0.06724835 -0.31107423 -0.30653933
0.06838358 -0.07205995 0.07460987 0.092452236 0.065812 -0.049431708 0.053702928 0.006321445
0.06282779 -0.06951144 -0.13998708 -0.11727493 -0.26295102 -0.09053756 0.0739523 -0.051626403
-0.11497003 -0.1049444 -0.05452142 -0.053431325 -0.36285964 0.060606264 -0.15997165 0.0945819
-0.050895907 -0.028783986 0.02829853 0.035727408 0.20502602 -0.20401551 -0.07639428 0.035362214
0.19105177 -0.15271398 -0.07847391 -0.048044004 -0.10220772 0.07319083 -0.07453815 -0.08388881
-0.027054297 0.13087167 -0.058409035 0.057587698 -0.02564681 -0.13841799 -0.0926068 0.1896574
0.12957384 -0.029087374 -0.0680585 -0.0009229086 -0.35313025 -0.01422002 0.050811358 -0.04576218
-0.023159979 -0.055671934 0.18454011 0.0836742 0.23510106 -0.13882764 0.24948543 -0.0077014496
-0.03817355 0.0051852656 -0.1433438 -0.11080993 0.21718188 0.020420961 0.124355234 -0.108941175
-0.007100889 -0.05344003 0.0058993273 0.13302208 0.0009017734 0.16120262 -0.060676698 0.10959683
0.082687005 0.026002785 -0.047395345 -0.02006769 -0.070845366 -0.09366612 0.08767281 -0.08733372
0.13343123 0.18301055 0.13019942 0.11540368 -0.09792655 -0.0017245781 0.18059659 -0.10014315
-0.088245235 0.052081276 0.078973055 -0.07640591 0.15631263 0.0072081937 0.05105837 -0.03599368
-0.071781404 0.060374435 -0.0012297727 0.0422229 -0.021903165 0.17323495 0.04657392 -0.007996161
-0.10691102 0.064703524 0.1570431 -0.02779715 0.0058601247 -0.031468008 -0.22323713 0.09499874
0.014029218 -0.19026493 -0.048922032 -0.023739371 -0.24448968 -0.063297085 -0.13675612 -0.17291102
0.024671573 -0.22354591 -0.15010975 0.19027908 -0.19803013 0.097201414 0.06918446 0.26282683
0.016100818 -0.054787952 -0.030735716 -0.06534924 0.029014347 -0.0006050428 0.07328715 -0.050911814
-0.08631334 -0.03568275 -0.16061762 -0.043098945 0.036065344 -0.016851604 -0.12530288 -0.03603171
0.12036821 0.053964894 -0.16039802 0.02521392 -0.028176092 -0.01600621 -0.047200345 0.06589323
-0.082828514 -0.15471798 -0.19431308 -0.06709381 -0.18080483 -0.016194528 -0.07466185 0.08434666
0.12291349 0.14044088 -0.06687083 0.021270478 -0.061282482 -0.17328118 -0.0068172845 -0.11404777
0.08314641 -0.1439037 0.05997606 0.09975007 -0.12697911 -0.0074149887 -0.0039529195 0.12941115
-0.12453924 -0.0572595 0.25697774 -0.12859833 0.10136448 0.072984196 0.06835358 -0.05555642
00000000: 9b38 343d 190f 993d e7de c9bd 02c9 533d
00000010: b6cf de3d 84d1 3b3d 60d7 bdbd e7e7 b8bd
00000020: a7e3 c4ba fa9f 853c 64a2 933d 339f 283e
00000030: a923 c13d fd58 b93d b546 f1bd 1f30 ea3d
00000040: 6bb7 e63d 467f bd3d 694a ef3d 3c37 b53c
00000050: 3de4 033e 269a dfbd a77c 673e 84fb cabb
00000060: 74c3 a4bd 4b50 3cbd 6971 833b 542a 9d3d
00000070: ee06 f1bb f3f9 603c b968 823c 5893 18be
00000080: 0bc1 38be bac8 89bc b510 773d 866d 733d
00000090: 64ab b33c cf11 ca3d dcb3 343c e726 8bbd
000000a0: 830f 083d b9fc 66bd 7d41 b03d 0f3d 1f3d
000000b0: 6745 20bd 09f4 d53d 6b4e 173e 68eb b6bd
000000c0: 88be 27be f669 373e 0e50 fd3c edd0 0bbc
000000d0: 7c4b c7bc ea67 b33c 5bff c4bd 9749 d33d
000000e0: 30c0 dfbd dd7b 50bd 81df 82be 1d78 543d
000000f0: b7a5 61bd 81b9 893d 1f45 9fbe b9f2 9cbe
00000100: b10c 8c3d 2b94 93bd 0fcd 983d 9957 bd3d
00000110: 71c8 863d e778 4abd 9af7 5b3d 2024 cf3b
00000120: dbab 803d 045c 8ebd c658 0fbe d72d f0bd
00000130: 84a1 86be c26b b9bd 4e74 973d 3576 53bd
00000140: 6875 ebbd 17ed d6bd da51 5fbd ceda 5abd
00000150: bdc8 b9be 463e 783d 9ccf 23be 28b4 c13d
00000160: 3a78 50bd 65cc ebbc 52d2 e73c e756 123d
00000170: 57f2 513e 71e9 50be 9b74 9cbd f8d7 103d
00000180: 13a3 433e 0e61 1cbe eeb6 a0bd cac9 44bd
00000190: 4852 d1bd 13e5 953d 75a7 98bd e5cd abbd
000001a0: f9a0 ddbc 3903 063e 503e 6fbd 14e1 6b3d
000001b0: 4219 d2bc 72bd 0dbe a2a8 bdbd 8d35 423e
000001c0: 01af 043e a548 eebc 4162 8bbd 59ef 71ba
000001d0: 7dcd b4be 16fb 68bc 921f 503d 2071 3bbd
000001e0: ffb9 bdbc 4108 64bd 15f8 3c3e 615d ab3d
000001f0: 55be 703e d528 0ebe 1c79 7f3e 715c fcbb
00000200: de5b 1cbd 29e9 a93b b8c8 12be 51f0 e2bd
00000210: ed64 5e3e dc49 a73c f5ad fe3d 8d1c dfbd
00000220: 93ae e8bb efe3 5abd 254f c13b f136 083e
00000230: fd64 6c3a 4d12 253e 2188 78bd 4e74 e03d
00000240: ce57 a93d cb03 d53c 9f21 42bd ff64 a4bc
00000250: 6017 91bd 06d4 bfbd cd8d b33d 05dc b2bd
00000260: 32a2 083e 1e67 3b3e ff52 053e c458 ec3d
00000270: b78d c8bd 3d0b e2ba 50ee 383e da17 cdbd
00000280: ebb9 b4bd 2d53 553d a0bc a13d b47a 9cbd
00000290: 6b10 203e b632 ec3b 9522 513d 1c6e 13bd
000002a0: 2102 93bd 2f4b 773d 5330 a1ba ebf1 2c3d
000002b0: 446e b3bc 8164 313e 4bc4 3e3d 5402 03bc
000002c0: 2af4 dabd 4883 843d e8cf 203e d9b6 e3bc
000002d0: 4a06 c03b 99e4 00bd 4698 64be b38e c23d
000002e0: ceda 653c cfd4 42be 7862 48bd 1279 c2bc
000002f0: 815b 7abe e7a1 81bd cc09 0cbe 960f 31be
00000300: 0a1c ca3c 38e9 64be 5fb6 19be 85d8 423e
00000310: 69c8 4abe 8911 c73d 95b0 8d3d 3d91 863e
00000320: dde5 833c 5569 60bd 78c9 fbbc d3d5 85bd
00000330: 7faf ed3c bc9b 1eba 9317 963d e888 50bd
00000340: 0cc5 b0bd 1328 12bd f278 24be 8588 30bd
00000350: 41b9 133d 600c 8abc 664f 00be fd95 13bd
00000360: 9c83 f63d 4b0a 5d3d 613f 24be 6c8d ce3c
00000370: 8cd1 e6bc 751f 83bc 2655 41bd 08f3 863d
00000380: ffa1 a9bd 646e 1ebe 02fa 46be 7b68 89bd
00000390: e724 39be 63aa 84bc 50e8 98bd f1bd ac3d
000003a0: 11ba fb3d bccf 0f3e 93f3 88bd 6d3f ae3c
000003b0: 5703 7bbd 9f70 31be 8763 dfbb e191 e9bd
000003c0: aa48 aa3d 7e5b 13be 75a9 753d c449 cc3d
000003d0: d006 02be 6ff9 f2bb 7e87 81bb 5b84 043e
000003e0: 6e0e ffbd f088 6abd 9692 833e 48af 03be
000003f0: 2e98 cf3d bd78 953d f6fc 8b3d 218f 63bd

net_stack.2.bias f4 [32]
-0.10328685 0.092576906 -0.107371174 0.08988461 -0.098068096 -0.08892152 -0.11101527 -0.0819827
0.08313972 -0.10149021 -0.10122485 -0.09007217 0.090111434 -0.09538902 -0.093171 -0.083423465
-0.11491499 -0.08411166 0.07710227 -0.09612638 0.079242036 0.100823045 0.11448746 0.081209704
-0.08619127 -0.11476074 -0.08351836 0.08789614 0.080900654 -0.08055273 0.09644494 0.116205275
00000000: 0e88 d3bd f698 bd3d 6be5 dbbd 6c15 b83d
00000010: edd7 c8bd 7c1c b6bd f95b e3bd 8ce6 a7bd
00000020: 2845 aa3d 19da cfbd f94e cfbd c277 b8bd
00000030: 588c b83d 525b c3bd 70d0 bebd ecd9 aabd
00000040: 8d58 ebbd bc42 acbd cce7 9d3d e8dd c4bd
00000050: a649 a23d 507c ce3d 6778 ea3d 4651 a63d
00000060: 0c85 b0bd ae07 ebbd ad0b abbd e402 b43d
00000070: 3eaf a53d d4f8 a4bd ed84 c53d 08fd ed3d

net_stack.4.weight f4 [1, 32]
0.12400756 -0.12125315 0.0862782 -0.17489488 0.12254493 0.20738612 0.10749964 0.15240285
-0.17426658 0.093975134 0.054018028 0.1671991 -0.11427212 0.15233344 0.13053282 0.26633593
0.08823421 0.29134288 -0.13937043 0.13008103 -0.07423612 -0.1301267 -0.08717919 -0.14232637
0.21895474 0.09059878 0.1461989 -0.13799842 -0.12165411 0.18165506 -0.11805228 -0.09972173
00000000: adf7 fd3d 9253 f8bd a0b2 b03d a517 33be
00000010: d6f8 fa3d 075d 543e c528 dc3d 7e0f 1c3e
00000020: f072 32be 0976 c03d 0242 5d3d 3e36 2b3e
00000030: 8007 eabd 4cfd 1b3e 65aa 053e 2f5d 883e
00000040: 23b4 b43d e52a 953e 1fb7 0ebe f633 053e
00000050: 1b09 98bd ef3f 05be 018b b2bd 01be 11be
00000060: ac35 603e da8b b93d 2ab5 153e 754f 0dbe
00000070: ca25 f9bd c903 3a3e 65c5 f1bd e83a ccbd
