CAPSTONE/CAPMODELS/output/model_BPD1.pth (torch, 17382 bytes, 5 tensors)

net_stack.0.weight f4 [64, 23]
000000 98 b9 86 3d 0a 4f d4 ba 46 6e 92 3c 8a 2b 27 be
       0.06578368 -0.0016197872 0.017874848 -0.16325203
000010 ca 01 ce 3c e0 02 fd ba 42 e0 bf 3d 3c c2 6e bd
       0.025147337 -0.0019303225 0.09368946 -0.058290705
000020 0b de 64 bd 1b 15 04 3e cb 19 38 be 49 35 8d bd
       -0.05587582 0.12898676 -0.17978589 -0.06894929
000030 9e 24 83 bd 3f a4 02 be 1c 62 9a 3c 4f eb 0d 3e
       -0.064034685 -0.12757967 0.01884561 0.13859294
000040 cc 97 1e bc 4d 1b 6c be 99 0e 3c 3d 33 8b bc 3d
       -0.009679746 -0.2305729 0.04591236 0.09206238
000050 ea bb cf 3d 53 f5 db 3b 63 0f 9b 3d 65 b8 93 bd
       0.10143264 0.0067125945 0.07571294 -0.07212905
000060 a0 b4 1b 3e 1b c8 bf 3d e1 f6 b1 3b 86 ff 89 3c
       0.15205622 0.09364339 0.0054310416 0.016845476
000070 39 01 0f bd e4 98 7d bb b3 16 de 3d b1 5c e1 3d
       -0.034913275 -0.0038695866 0.10844173 0.110040076
000080 3e 39 ee bd be b3 a2 bc ef 47 b7 3d 48 11 f8 3c
       -0.11632012 -0.019861098 0.08949267 0.030281678
000090 d2 a2 e5 bd d7 6b d0 3c 7b 83 f7 bd 77 16 9f bc
       -0.11212696 0.025442047 -0.12085625 -0.019419892
0000a0 08 c8 e8 bb 39 45 4d 3d 97 81 10 be 9c 5e 6a bc
       -0.0071039237 0.050114844 -0.14111935 -0.014304783
0000b0 9d 46 24 bd 6f ae 18 bd cf a8 0c 3e 87 13 08 be
       -0.040106405 -0.037275728 0.1373627 -0.13288699
0000c0 3d 11 85 3d f5 ee d8 3d 43 79 26 3e 65 85 36 be
       0.064974286 0.105924524 0.16257195 -0.17824323
0000d0 8f 2c 0c be 51 bd c0 3c 1d ce ab 3c 4c cc d8 bd
       -0.13688873 0.023527773 0.020972306 -0.105858415
0000e0 74 b7 fd 3c fa 02 9f bd ca 92 50 be 15 3b 58 bd
       0.030971266 -0.077642396 -0.20368496 -0.05279072
0000f0 08 19 1c 3e 7c 10 8d bd a2 94 0d 3c f6 e5 bc 3d
       0.15243924 -0.0688791 0.008641394 0.09223549
000100 86 69 b4 bd 58 70 8a 3d e6 31 10 3e 62 f9 60 3d
       -0.088091895 0.06759709 0.14081535 0.05492533
000110 1e 95 31 3e 5c d0 df 3d d8 01 04 be e6 45 fc 3d
       0.1734204 0.10928413 -0.12891328 0.123180196
000120 3d de 34 bd 26 e4 0e 3c 4c ab 00 3e 3d 00 66 3e
       -0.044157255 0.008721387 0.12565345 0.22461028
000130 70 82 b2 3d 33 91 4e bd cb f7 44 3e a1 c2 a3 3d
       0.08716285 -0.05043144 0.1923515 0.07996107
000140 6a 6a 5c be 96 c3 88 bd ce b4 9f 3c da db 23 3d
       -0.21524969 -0.0667793 0.019495394 0.04000459
000150 2a 97 b2 3d 33 8a 00 3d e8 15 20 3d f9 7a 9e bd
       0.087202385 0.031381797 0.03908339 -0.07738299
000160 09 aa 4c 3d 3e 51 28 bd 9d 2f 0e bd 4c ce a1 bc
       0.049966846 -0.041093104 -0.034713376 -0.01975169
000170 d9 4c cb 3c 5c 9c 48 3d ab c4 cd 3c 9b 7a fd 3d
       0.024816917 0.04897724 0.025118193 0.12376901
000180 85 1d ad 3c 5c e1 03 be ab 0a 7d 3d 62 83 3d bb
       0.02113224 -0.12878937 0.061777752 -0.0028917422
000190 b1 2d fd bd c4 fc c5 bc f2 25 4f be 3f 3d 99 3d
       -0.123622306 -0.02416838 -0.20229319 0.07482385
0001a0 ad c9 2d 3e f8 b8 c6 bd 5c c1 47 3d 7d f7 6f 3d
       0.16971464 -0.09703249 0.048768386 0.058585633
0001b0 02 4c 12 3e 89 f8 8f 3d fb 3f 07 3d 43 6f b9 bd
       0.14286807 0.07029826 0.03302 -0.090544246
0001c0 ad fe a7 3c 6c b0 6c bd 91 f5 30 be 68 4d d3 3d
       0.020507181 -0.057785437 -0.17281176 0.103174984
0001d0 81 fe 76 3d 64 00 a2 bd 4f 63 43 3c 30 0d 17 be
       0.060301308 -0.07910231 0.0119255325 -0.14751124
0001e0 1e 2b b8 bd 4c 15 da bd 12 1d 1f be ff 17 0f 3c
       -0.08992599 -0.10648593 -0.15538433 0.008733748
0001f0 fa c4 bb 3d 5c 09 91 3d a5 30 dd 3d 43 5d 6b bd
       0.0916843 0.07081863 0.10800294 -0.05746199
000200 ab a5 df bd 44 4f 01 3e c5 fa 1d bd 28 d2 2e be
       -0.109202705 0.12627894 -0.03856923 -0.17072356
000210 8b 94 c0 3d 35 ed 0d 3e 3d 4f cf 3a 67 4b f1 3d
       0.09403332 0.13860019 0.0015816462 0.1178196
000220 3a 39 96 3d d0 7a bb bd cd 13 3f 3b ee b5 ea 3c
       0.07335134 -0.09154284 0.002915609 0.028651204
000230 71 d0 fe 3d fe dd a5 3d a7 2b 73 3c eb b4 d4 3c
       0.12442101 0.08098982 0.0148419505 0.025965175
000240 43 26 22 3e d7 fc 5b 3e ff 59 5c be df 5e 50 be
       0.15834908 0.2148317 -0.21518706 -0.2034869
000250 ec a4 5a bc 65 f2 06 be d7 5c 14 3d 4f b7 71 bc
       -0.0133449845 -0.13178404 0.03622135 -0.014753177
000260 60 bc ee 3d 9b 8b 92 bd e0 0d f6 bd 00 8f 5d bd
       0.116570234 -0.07155534 -0.12014365 -0.054091454
000270 75 ec 7d bd 86 fd 7f 3d 7c ae 05 bd 14 ad 1c 3a
       -0.06199308 0.06249764 -0.032637104 0.00059767184
000280 0e 55 a5 bc 33 9f e1 3d 5f d4 61 3e 9f 59 83 bd
       -0.020182159 0.11016693 0.2205367 -0.06413578
000290 87 e9 62 bc 35 b1 93 3d 41 fc 37 be fa 06 8d 3d
       -0.013849623 0.07211534 -0.17967321 0.06886096
0002a0 82 52 c7 bd ca 69 de bd 8b 33 01 3e 6f 4e 3a 3d
       -0.09732534 -0.108600214 0.12617318 0.045484956
0002b0 fb 19 56 3e 90 e0 b9 bd 4c af 40 bd 11 3a 01 be
       0.20908348 -0.09076035 -0.047042176 -0.12619807
0002c0 aa f3 30 be 4e 01 73 3d 61 1a 92 bd b3 af f6 bc
       -0.1728045 0.059327416 -0.071339376 -0.030113077
0002d0 2f 9d 34 be 28 4c 06 be 99 44 7f bc e6 c1 d6 3d
       -0.17638086 -0.13114989 -0.01558032 0.10486202
0002e0 cf db d6 bd 5b ab 44 bb c1 36 78 bc 3f 0e d4 3d
       -0.10491144 -0.0030009362 -0.015149773 0.1035428
0002f0 19 67 f3 bc 17 e7 52 3d cf 30 9d bd 13 c8 13 bc
       -0.029712247 0.051489916 -0.07675325 -0.009019869
000300 25 d2 7c bd ba 4f 8b bd 50 27 59 3d 2e 70 42 3d
       -0.061723847 -0.06802316 0.053016007 0.047470264
000310 a2 ef 2b 3d fb af 60 3d be 3b ae bd c3 c3 9e 3b
       0.04197658 0.054855328 -0.08507489 0.004845114
000320 b5 1e 81 3b 84 4b 8d bd e8 b3 00 3e ba cb 3a bd
       0.003940428 -0.06899169 0.12568629 -0.045604445
000330 cc b4 05 ba 9b ef 85 bd b1 8f f1 3d b0 2d 81 3e
       -0.0005100488 -0.06539842 0.11794985 0.2523017
000340 82 c5 3c 3e 74 b3 31 3e 2c 91 ee 3c da 1c 1c 3d
       0.18434718 0.17353612 0.029121958 0.038113452
000350 61 36 17 be 06 40 ea bd f6 e7 4d bd 54 cd 54 3e
       -0.14766838 -0.11437993 -0.050270043 0.20781451
000360 46 89 4e 3d 41 31 b1 3d 6d f0 d7 bd 24 2f 29 bd
       0.050423883 0.086519726 -0.105439045 -0.041304722
000370 1b 7b ac 3d 13 4d 26 be b4 ab 42 be 3a c2 07 be
       0.08421918 -0.16240339 -0.19010812 -0.13257685
000380 2a 9e d7 3c c7 4a 02 bc 74 8f 11 3e 01 ee 91 3d
       0.026320536 -0.007952399 0.1421488 0.07125474
000390 a4 4c f3 bd 6e 49 87 bd 7d fe 86 3d 4a 92 67 bc
       -0.118798524 -0.066058025 0.065915085 -0.014133999
0003a0 a6 0a a4 3d d6 b6 8b bd 0d 04 8d 3d d6 53 0e be
       0.080098435 -0.068219826 0.06885538 -0.13899168
0003b0 e6 94 00 3c f1 4f 7e 3c 87 bf 1a be 1f 22 95 be
       0.007848 0.015521989 -0.15112124 -0.29127595
0003c0 7c a2 30 3e c4 9d 8d 3d be 5c 0f bc b1 f1 2e 3d
       0.17249483 0.06914857 -0.008750139 0.042710964
0003d0 79 a2 9f 3d 6a d2 cd bd 91 f5 df 3c 41 cf 92 3d
       0.07794661 -0.10049899 0.027338775 0.07168437
0003e0 99 65 69 bd f0 87 8f bd 0a 89 b5 3d 10 89 cb bb
       -0.056981657 -0.0700835 0.08864029 -0.0062114075
0003f0 1f d5 f5 3c e5 71 ef 3b a0 fa cd bd cf d5 b7 3d
       0.03000885 0.0073072785 -0.100575686 0.08976328

net_stack.0.bias f4 [64]
000000 49 de 93 3c ae b7 e9 3c 06 4f 48 bd ad d0 25 3d
       0.01805033 0.028529968 -0.048903488 0.04048221
000010 06 42 ad 39 4b 47 8c bc 78 5a 18 3d d5 d5 ab bc
       0.00033046323 -0.017123839 0.037195653 -0.020975986
000020 0a f8 26 bc 66 c0 49 bd 42 e2 2d bd 1e 5c a4 3c
       -0.010190973 -0.04925575 -0.042452104 0.020063456
000030 1a 91 d2 3c 18 56 1b 3d 4f 28 86 bd 3e 93 f3 bc
       0.025703955 0.037923902 -0.06550657 -0.029733296
000040 8a c5 3f bb 00 85 95 3c 66 5e 3e 3c 1e 53 7b 3d
       -0.002926203 0.018251896 0.011619186 0.061358564
000050 30 85 2b bd e6 c1 15 bc 25 fb c9 bc fa 4f cb bb
       -0.041875064 -0.009140467 -0.024655888 -0.0062046023
000060 64 21 76 3b b2 32 9f bb aa f8 bd 3a ea 72 87 bd
       0.0037556523 -0.0048583383 0.0014493663 -0.06613715
000070 87 8b 84 bd a4 7c 60 bc d7 7d 91 bc fe c2 1d 3d
       -0.06471925 -0.013701592 -0.0177602 0.038516037
000080 28 ec 3a bd 6a da 6d bd 3e 8f 43 3d 4d 33 b5 bc
       -0.045635372 -0.058069624 0.04774403 -0.022119189
000090 36 30 52 bd d0 51 8d bd b1 9a 81 bd 35 1f 5e 3d
       -0.05131551 -0.0690037 -0.06328333 0.05422898
0000a0 08 49 68 3d 92 88 37 3d 7b d3 71 bd 87 6f 91 bd
       0.056710273 0.044807978 -0.059039574 -0.0710135
0000b0 fe 94 bf 3b 7a 2a 4c 3d 85 79 c5 3c 09 c0 9f 3b
       0.0058466187 0.049845196 0.024105797 0.0048751873
0000c0 21 b5 7d 3d be 04 be 3a a2 91 08 3d fa 1c 67 bd
       0.061940316 0.0014497263 0.03334201 -0.05642412
0000d0 bf 44 da bb df f9 c1 3c 85 44 2d 3d c0 24 01 3d
       -0.006661027 0.023678718 0.042301673 0.03152919
0000e0 11 50 ec 3c 05 f1 0c 3c 02 60 1b bd 50 1a 06 3d
       0.028846772 0.008602385 -0.037933357 0.032739937
0000f0 9a 4b 1c bd 56 aa bc bc 4f 42 55 bd ab d8 25 3d
       -0.038158037 -0.023030441 -0.05206519 0.040489834

net_stack.2.weight f4 [32, 64]
000000 1a fa 4b 3e 6c 36 51 3c 56 80 bf 3d 06 11 84 3d
       0.19919625 0.012769323 0.0935065 0.064485595
000010 ac 71 f3 bd 2c 7a 1b 3e 1b 57 e3 bc 44 07 d4 bb
       -0.118869156 0.15183324 -0.027751496 -0.0064705927
000020 da f0 92 bd 3d 3b d3 bc 4f d1 8b bb 98 23 ac 3d
       -0.07174845 -0.025785083 -0.004266895 0.084052265
000030 a8 c5 83 be 65 15 6f 3e 6d 9d 08 be d3 b2 39 bd
       -0.25736737 0.23348005 -0.13341303 -0.045336556
000040 ab 4a 06 bc df b1 2a be 9a 44 ea 3b 03 3b 18 3d
       -0.008196513 -0.16669415 0.007149291 0.037165653
000050 06 3e 64 3d 2c 75 27 bd 5e 19 4c 3c fe dc ab 3d
       0.055723213 -0.04088323 0.01245722 0.0839176
000060 58 7e e8 3b 5b 11 bd 3d f8 b4 26 3c a3 4f fc bc
       0.0070951395 0.09231826 0.010174982 -0.030799692
000070 c0 a3 30 bd 34 a5 20 bd 7c 74 71 bd c7 93 95 3d
       -0.043124914 -0.03922005 -0.05894898 0.07303577
000080 eb 07 4c 3d 3b 08 6e bd 2a 21 a3 bb 38 49 0f be
       0.04981224 -0.058113318 -0.0049783187 -0.13992774
000090 12 c2 72 3d c7 eb fb bd 45 39 93 bd 14 8a 02 bc
       0.05926711 -0.1230083 -0.07188658 -0.007967491
0000a0 ec 8a e4 3d 21 a5 82 3c e0 da 5a bd 4d a5 03 be
       0.1115931 0.01594788 -0.05343139 -0.12856026
0000b0 05 6c 93 3c 09 6a 70 3e 53 16 05 bc 2b 12 b4 3d
       0.017995844 0.23477949 -0.008122998 0.08792528
0000c0 9d 0d 60 3e 41 b6 a5 3d 86 06 02 3e b9 9b e9 3d
       0.21880193 0.08091403 0.12697801 0.11406655
0000d0 55 f1 91 3c 39 62 9c be d9 00 1b 3b 04 2b 18 3d
       0.017815271 -0.30543688 0.0023651628 0.037150398
0000e0 f1 74 13 3e 91 ca ed 3c 2f ee 03 bd da fe 8f bb
       0.14400078 0.029027255 -0.03220957 -0.0043943943
0000f0 e2 d7 93 3d 28 b7 c3 39 b7 f6 07 3e c7 c1 0a 3c
       0.07218911 0.0003732976 0.13277708 0.008469052
000100 0a 42 38 3e 77 f6 a2 3d eb 26 ab 3d 54 d0 12 bc
       0.17993942 0.07957166 0.083570324 -0.008960802
000110 28 b4 f9 3d 1a ee 0e 3d cf af b7 bc ac 20 3a bd
       0.12192565 0.03489504 -0.0224227 -0.045441315
000120 32 60 0c ba 5b 43 f7 3d f5 f0 78 3d 82 c2 8f bd
       -0.00053549104 0.12073394 0.06077667 -0.07019521
000130 26 2f 56 3d 01 8a 3b be ca ec 9f 3d f1 e0 82 3d
       0.052291058 -0.18314363 0.07808836 0.063905604
000140 cc 0d f5 3c 03 f4 fe bd 6a c2 38 be e9 16 1e bc
       0.029913805 -0.12448885 -0.18042913 -0.009649017
000150 11 55 09 bc 5c b3 02 be 2a 33 06 3e 93 8a 41 3e
       -0.008382098 -0.12763733 0.13105455 0.18900518
000160 ea 25 ef bd 76 21 8d bd 85 57 eb 3c 5f 6f bc 3d
       -0.116771534 -0.06891148 0.028728256 0.0920093
000170 2d c9 ba bc d0 c9 0f 3e 9e 03 49 3d cc cf 2e be
       -0.022801006 0.14041829 0.049075715 -0.17071456
000180 a2 35 d0 3d e3 be 91 bd 6f d0 0d be dd e2 15 bd
       0.1016648 -0.07116487 -0.13849042 -0.036593307
000190 27 62 20 bd 6e 0c b0 bd 2b 88 3a 3d 6b b1 1e be
       -0.039156105 -0.08596121 0.045540016 -0.15497367
0001a0 9f 69 9a bd d9 53 91 ba a3 12 03 3c 1c 02 26 bd
       -0.07539677 -0.0011087611 0.008000049 -0.040529355
0001b0 40 20 00 3d 23 a3 18 be f0 7c 1a be a1 21 34 3d
       0.031280756 -0.14905982 -0.15086722 0.043977384
0001c0 19 ef 51 3d 3e 45 cf 3b cc 85 91 be 70 76 af 3d
       0.051253412 0.006325393 -0.2842239 0.08567512
0001d0 cf 0f ad bd 17 c8 9c 3d cc 37 bd 3d 8c 7d 81 3d
       -0.08450281 0.076553516 0.09239158 0.06322774
0001e0 e5 c7 a7 bd 34 58 e0 bc 48 e6 28 3d f5 4c bc bd
       -0.08192424 -0.027385809 0.04123524 -0.09194366
0001f0 8b e6 33 3e a1 e0 f3 3c 44 c8 d4 bd 05 61 a0 bd
       0.17568414 0.029770197 -0.1038976 -0.07831005
000200 c2 7b 83 3d 18 28 55 be f9 80 b7 bc 19 c4 ae 3d
       0.06420089 -0.20816076 -0.022400366 0.085334964
000210 7f 7f 3d bd a5 06 5f bd 42 d9 6f bd 2a 6a 7a bd
       -0.046264168 -0.054449696 -0.058556803 -0.061136402
000220 a2 49 da 3d 97 b3 81 bc f8 4b 5d 3d 61 3a db 3c
       0.106585756 -0.015832705 0.054027528 0.026761236
000230 81 7f 0f be 75 24 b8 3b ce 48 47 ba 37 f8 8b ba
       -0.14013483 0.0056195804 -0.00076020963 -0.0010678832
000240 03 76 64 be 41 05 a2 3d 80 d7 e0 3d 20 ac 8b 3c
       -0.22310643 0.07911158 0.10978603 0.017049849
000250 12 7f 26 be 6b 64 96 3d 9e 14 7e 3c e2 c6 9c bd
       -0.16259411 0.07343372 0.015507845 -0.076551214
000260 73 c3 27 3e 60 56 cc 3c b7 46 03 be 28 26 f2 bd
       0.16383152 0.02494353 -0.12819944 -0.11823684
000270 d4 a5 96 be c8 c8 0e 3d 66 d2 1e be 92 96 06 be
       -0.29423392 0.03485945 -0.15509948 -0.13143376
000280 71 de c5 bd 1b e2 01 3d ef 94 0c bd 19 ce ab 3d
       -0.09661568 0.03170977 -0.03432172 0.083889194
000290 1c a3 06 3d 9b 38 82 3c 63 6b 91 bc 2f e7 ad 3d
       0.032870397 0.015896132 -0.017751401 0.084913604
0002a0 eb 9c 02 3c fa c8 e5 3c 7d 2b db bd 3d db 16 3e
       0.0079719825 0.028049935 -0.10701654 0.1473207
0002b0 a1 82 e7 bd 63 86 c8 3c 83 1f 0d 3e 58 cf 7b 3d
       -0.11304212 0.024478143 0.13781552 0.061477035
0002c0 f0 38 ed 3d b7 c0 f4 bd bf 5f c5 3d 7f 58 91 bd
       0.115831256 -0.1195082 0.09637403 -0.070969574
0002d0 c9 06 9c bc 7f 50 93 3d 0e d1 02 3d b7 5a d0 3d
       -0.019046204 0.07193088 0.03193765 0.101735525
0002e0 e6 50 2b bd be d5 a4 bd 90 38 98 bc 75 fc aa bd
       -0.041825198 -0.080485806 -0.018581659 -0.083489336
0002f0 0c 08 29 3d 5c e4 d5 3c b5 1e 57 3d 53 22 13 be
       0.04126744 0.026109867 0.05251952 -0.14368562
000300 3c 81 43 be 3b de ee bc 11 56 16 be 0d ec 16 bc
       -0.19092268 -0.029158702 -0.14681269 -0.009211552
000310 fc 1a dd 3c 46 bb b6 bd 3f f4 ff bd 9f b7 c5 bd
       0.026990406 -0.08922438 -0.12497758 -0.096541636
000320 da 0f a2 bd 19 11 c0 bc d9 21 b2 3d 9c 06 98 bd
       -0.0791318 -0.023445653 0.08697862 -0.07423136
000330 df 92 87 3d a9 15 59 bd 7d d7 63 3c 0d a3 83 bd
       0.0661981 -0.052999172 0.013906357 -0.06427584
000340 9c af a0 3c 82 d6 b4 3d 35 cb 3c be 37 63 45 bd
       0.019614987 0.088299766 -0.18436892 -0.04819032
000350 b6 e8 72 bd 9d 98 71 bd 5a 32 79 3d b1 11 4f bd
       -0.05930396 -0.058983434 0.060839035 -0.05055398
000360 eb f3 4a 3e c1 dd a2 3d f4 e2 29 be 81 95 01 3b
       0.1981961 0.079524525 -0.16590482 0.001977295
000370 8d 3a b3 3d da a2 62 bd 19 fc ef 3d f6 64 02 3c
       0.08751402 -0.05533109 0.11718006 0.007958641
000380 7f ac 88 bd 1e e5 9d be 36 f5 9c 3d 89 ed 8a 3c
       -0.06673526 -0.30838865 0.07663958 0.016958969
000390 c2 5e e2 bd bd be fc bd eb c0 9b bb fe da 90 3d
       -0.1105323 -0.12341068 -0.004753222 0.070730194
0003a0 54 5a 71 bd 20 a0 d3 3d ea 6a a8 bd 17 96 85 3d
       -0.058924034 0.10333276 -0.08223517 0.06522768
0003b0 0b 8c 28 bd ef 19 f8 3d a8 b1 3e be 19 d4 00 bd
       -0.04114918 0.121143214 -0.18622458 -0.031452272
0003c0 95 e7 b2 3d 2a 0d 0f be fb cf 24 bd be 57 6e bd
       0.08735577 -0.13969865 -0.040237408 -0.058189146
0003d0 e1 7e 1b 3d 7b 9c f4 3d 44 d7 71 3d bd e9 3b 3e
       0.037962798 0.11943909 0.059043184 0.18350883
0003e0 ac 9f 11 3e 36 2e 94 bd 42 37 40 be 99 49 e8 3d
       0.14221066 -0.072353765 -0.18771079 0.11342163
0003f0 cf d7 8e bd 45 66 67 3d 74 8d 6a be f2 6e 15 3e
       -0.06974756 0.056494016 -0.22905523 0.14593104

net_stack.2.bias f4 [32]
000000 de 4f 56 3d 7e e5 8c bd f5 d9 7c 3d 03 38 9f 3d
       0.05232226 -0.0687971 0.061731298 0.07774355
000010 3a fe 54 3d e1 05 91 bd 14 04 69 3d f1 3d 89 bd
       0.05200026 -0.070811994 0.056888655 -0.067012675
000020 7f df 5a 3d 44 6b 52 3d af c5 93 bd 5c db 88 bd
       0.0534358 0.051371828 -0.072154395 -0.066824645
000030 d1 de 90 bd c3 f5 84 bd d5 32 80 3d 9a ca 80 bd
       -0.07073749 -0.06492188 0.062596954 -0.06288643
000040 ee 09 7d bd 71 f0 86 3d 9e 65 9e 3d 21 6f 76 3d
       -0.061777048 0.06588829 0.07734226 0.060164575
000050 c0 bd 8a bd 6f 53 7e bd 4d af 72 3d 8b 4c 93 bd
       -0.06774473 -0.062091287 0.05924921 -0.07192334
000060 eb ff 89 bd 72 48 5c 3d d3 6b 8f 3d 76 a5 83 3d
       -0.067382656 0.053780027 0.07002988 0.064280435
000070 db 91 93 3d fa 79 8d 3d ce 7e ab 3d 25 c4 74 bd
       0.07205554 0.06908031 0.083737954 -0.05975737

net_stack.4.weight f4 [1, 32]
000000 64 cf a8 3d 37 d7 fc bd da ef 49 3d e6 93 a2 3d
       0.082426816 -0.123457365 0.049301006 0.07938366
000010 a2 5f 3c 3c 27 2b f1 bc e0 58 f2 3c 61 c3 19 be
       0.01149741 -0.029439522 0.029583395 -0.15015937
000020 3e 9d 54 3c f2 be 92 3d 19 32 a6 bd 1a 7b 24 bd
       0.012976943 0.07165326 -0.08115024 -0.04015646
000030 17 34 77 bd db 29 ee bd 1a 85 1a 3e f3 ba 0c be
       -0.06035241 -0.11629077 0.15089837 -0.1374319
000040 53 ce c8 bd 12 8b 13 3e 1c 85 19 3d 7c e2 08 3d
       -0.09804978 0.1440852 0.03748046 0.033419117
000050 b2 1a 4d bd 9d 8f 4c bd b8 ae 53 3e 1d 7f 04 be
       -0.050074287 -0.049941648 0.20672119 -0.12939115
000060 7f cf 3a be 0f 72 88 3e 37 8d b7 3d d0 14 1b 3d
       -0.18243216 0.2664952 0.089624815 0.037861645
000070 2a 5e f1 3d 55 29 4f 3d a9 bb 51 3d 06 79 fa bd
       0.117855385 0.050576527 0.051204357 -0.12230115
