CAPSTONE/CAPMODELS/output/model_DEPG3.pth (torch, 22256 bytes, 7 tensors)

net_stack.0.weight f4 [64, 23]
000000 17 6c d6 bc c6 2c 91 be 7e 21 36 3e 9d fd 53 bd
       -0.026174588 -0.28354472 0.17786214 -0.051755536
000010 27 dc 46 3a 32 60 cb 3d b3 53 26 be 07 7e 16 3d
       0.0007585906 0.09930457 -0.16242866 0.036741283
000020 41 e1 12 be e3 49 2f bd f5 f6 10 3d b8 61 f9 3c
       -0.1434374 -0.042795073 0.035391767 0.030442104
000030 1e f9 0e 3e 0c c0 b8 bd 0e ac 12 be 10 4e 0b 3d
       0.13962218 -0.09021005 -0.14323446 0.034009993
000040 bf ab 0c bd 4f ff 9e bc 14 27 19 be ac da cf 3c
       -0.034343477 -0.01940885 -0.14956313 0.025372826
000050 fa 37 d8 3b e5 71 0a 3e 55 d4 e7 bd 46 35 d6 3d
       0.00659847 0.1352001 -0.11319796 0.1045938
000060 2b 35 74 3e a6 4c 0e 3e d4 c6 52 3d 7c c1 92 3d
       0.23848407 0.13896427 0.05145915 0.071658105
000070 37 92 79 be 1f 9d 12 3e 87 03 44 3d 1c ef 87 bd
       -0.24372183 0.1431775 0.047854926 -0.06637403
000080 5a e2 a0 bc ea 4c 17 3e e8 fb 7f 3e 7a 16 c1 bd
       -0.019639183 0.14775434 0.24998438 -0.09428115
000090 25 17 e5 bd e8 4a bf bc 7b 98 80 bd 0f e9 39 bd
       -0.11186055 -0.023351148 -0.06279083 -0.045388278
0000a0 ed da 17 bd 3b 15 0a be 52 7d a2 3d 65 34 8d 3d
       -0.03707402 -0.13484661 0.07934059 0.06894759
0000b0 6f 03 84 bd 6b 35 2f bd 85 0f ae 3b d9 9c 3d 3d
       -0.064459674 -0.042775553 0.0053119087 0.04629216
0000c0 d4 f1 f7 3d d3 22 bd bd 9f 33 cc 3b a5 f8 48 3d
       0.12106672 -0.09235158 0.0062317397 0.04906525
0000d0 4e 79 41 be bb 7a a1 3d 72 f4 82 bd 9b 90 b4 bd
       -0.1889393 0.07884737 -0.063942805 -0.08816644
0000e0 a3 61 30 be 21 12 7b 3e bf c1 2b 3d 10 85 c8 bd
       -0.17224745 0.24518634 0.041932818 -0.09791005
0000f0 2d 7f 8a 3c f4 78 01 be 8b 3f 85 bd bf c7 ad bc
       0.016906345 -0.12643796 -0.065062605 -0.02121341
000100 9c 45 b2 bc 45 db a3 bd 62 e3 c7 bb 87 ba 3a 3d
       -0.021761708 -0.08000807 -0.006100104 0.045588043
000110 79 2d 8e bd 91 43 56 bd 2c e3 9c 3b f8 35 34 bd
       -0.06942267 -0.05231053 0.004787823 -0.04399678
000120 f7 58 e9 3d a3 92 78 3d 58 e1 ae bb 75 f2 02 3e
       0.11393922 0.06068672 -0.0053369217 0.12787803
000130 38 61 22 bd bc 0f 9f bd 2d db 4b 3e 38 5f 69 bd
       -0.039643496 -0.07766673 0.19907828 -0.056975573
000140 47 09 6e bd 03 6a ad bd 31 d4 ba 3c 3f f0 0f 3d
       -0.058114316 -0.08467486 0.022806259 0.035141226
000150 64 07 dc 3d 9b 3d d5 3d de b0 eb bd 7b 03 21 3c
       0.10743597 0.10412141 -0.11508344 0.00982749
000160 b1 86 b6 3c 3f 16 a1 3c 01 92 13 3c 62 fe 24 3e
       0.022281023 0.019663928 0.009006978 0.16112664
000170 00 ff 03 bd 79 aa 5d 3c 04 09 19 be e4 9f 40 3e
       -0.03222561 0.013529413 -0.14944845 0.18810993
000180 f3 fe 0d 3e a9 80 e4 bd 9f d1 96 3d e8 6e 40 bd
       0.13866787 -0.111573525 0.07364201 -0.04698077
000190 cd 69 10 be d2 6b 84 bd 73 6e 49 be fe 07 03 be
       -0.1410286 -0.064658776 -0.1967104 -0.12796018
0001a0 70 3c 94 bd f4 0e d8 3d dc 3f 39 be 13 cf 47 bd
       -0.0723809 0.10549727 -0.18090767 -0.048781466
0001b0 19 f0 de 3d c2 b8 94 bb 18 e7 a5 bd 5e 71 0a bd
       0.10885639 -0.0045386264 -0.08100718 -0.03379952
0001c0 61 70 88 3c b4 2b 93 3d 34 8a e9 3d 16 13 4f bd
       0.016655149 0.0718607 0.11403313 -0.05055531
0001d0 26 ea 9e bd 38 40 22 3a 50 cb 09 bd 6d ad 1c 3e
       -0.07759504 0.0006189379 -0.03364116 0.15300532
0001e0 da be d8 bd a8 d8 ec bc 5a 41 d5 3d d4 53 6e 3d
       -0.10583277 -0.028911904 0.104128554 0.058185413
0001f0 90 6e cd bc df c7 c0 bd 5b 49 33 be 19 4d 9b 3c
       -0.025077134 -0.094131224 -0.17508452 0.018957661
000200 af 86 2a bd 77 28 70 bc 23 b5 8c bd 65 0e d2 3d
       -0.04163235 -0.014658085 -0.068704866 0.10256652
000210 18 ca 38 bc 06 ae 94 bd 32 4c b8 bd 8c 23 a1 3d
       -0.011278652 -0.07259755 -0.08998908 0.07868108
000220 ba cb 49 bd 8b 1f c5 bd 83 a3 1d be 91 dd 4d 3e
       -0.049266554 -0.09625157 -0.15394406 0.20104052
000230 5e ea ca bd 1f fd 33 bd 1b 11 3f 3e 1d 9f 78 3c
       -0.09907983 -0.043942567 0.18658869 0.015174654
000240 fd f1 82 bc fe e6 0c 3b a3 5a 70 bc 4e fc 57 3c
       -0.01598453 0.0021499987 -0.014670047 0.013182713
000250 c1 5b 1c bd d4 28 7e 3e fe 70 44 3e a5 36 15 bc
       -0.03817344 0.24820262 0.19183728 -0.009107267
000260 8a b9 32 3e 1c 8d f0 3d dd c1 78 be 61 ec ea bd
       0.1745359 0.117456645 -0.24292703 -0.11470867
000270 d3 82 40 3c 04 13 1f 3e 2a 46 97 3d 15 b6 47 bd
       0.011749941 0.15534598 0.073864296 -0.04875763
000280 42 25 8c bc d9 2a cd bb ff 13 2d 3e 0b cd 7c 3c
       -0.01710761 -0.0062612114 0.16902159 0.015429745
000290 70 c8 e1 bd c8 d6 43 be 52 05 11 bd 02 0b d9 3d
       -0.110245585 -0.19124901 -0.035405464 0.10597803
0002a0 a3 2e d5 bb 96 b2 9d 3d ec c1 33 3e f5 c8 02 be
       -0.0065058037 0.07700078 0.17554444 -0.12771972
0002b0 05 b7 e9 3d 20 6c 94 bb 25 b0 f9 3d 18 d0 ad 3d
       0.11411861 -0.004529491 0.121918 0.08486956
0002c0 1b 1c e8 bd e7 ce 89 bd 59 ec 09 3e cb e7 50 3e
       -0.11333486 -0.067289166 0.13469066 0.20400922
0002d0 70 d1 e9 3d 01 97 2a bd d6 12 c8 3d f8 4d cf 3d
       0.114169 -0.041647915 0.09769218 0.10122293
0002e0 0a 69 11 3d 09 95 33 3e 58 1b 19 be 7d 89 50 bd
       0.035500564 0.17537321 -0.14951837 -0.05091237
0002f0 cd 94 1b be 35 56 7b 3c 88 d2 0a 3d 37 50 1e bd
       -0.15193482 0.015340378 0.033892184 -0.038650718
000300 0e 91 92 bd 66 1b 3a bd 87 bc 7b 3e d5 4d a8 bd
       -0.07156573 -0.045436285 0.24583636 -0.0821797
000310 3b cf df 3d 5f 4e 87 3d 89 7a 18 3d e0 a7 28 be
       0.10928198 0.06606745 0.037226234 -0.16470289
000320 be b2 42 3d f9 01 00 be 08 16 0a bc ab 4e 2a 3d
       0.047533743 -0.12500753 -0.008428104 0.04157893
000330 b3 f7 41 3d c0 ed 96 3d 91 a4 f4 3c 4e fd e4 bc
       0.047355365 0.07369566 0.029863628 -0.027952816
000340 ab fb 80 3e f0 19 bb 3d 4d 34 05 3c 5d b4 b6 bd
       0.25192007 0.091358066 0.008130145 -0.0892112
000350 db c0 8a 3d 9e 8f 94 3d e4 5d 77 3d 6c 5f d6 3d
       0.067750655 0.07253955 0.060392275 0.10467419
000360 ac e1 7a 3c ed 2e 9b 3c 7a 50 66 3d 79 40 1f 3d
       0.015312593 0.018943274 0.056229092 0.038879845
000370 de c0 d0 bc 9c 71 01 3d 2c 88 83 3c 04 e4 c1 3d
       -0.025482591 0.031602487 0.016056143 0.09467319
000380 35 02 4d 3d 31 0c ee 3c 72 8a 88 3d 38 46 35 3d
       0.050050933 0.029058548 0.06667031 0.04425642
000390 92 9f dc bd 1c 98 9b 3c 44 93 1d 3d 80 4d b8 3c
       -0.10772623 0.01899343 0.03847052 0.022497892
0003a0 7c 4d 17 be 63 09 90 3d af c6 0c 3e 1b 10 7f 3d
       -0.14775652 0.070330404 0.13747667 0.06227122
0003b0 07 1a 37 3d 3d 6d 7f bc 3a 8e be bd 0d 3a 6e 3d
       0.044702556 -0.015590009 -0.09304471 0.05816083
0003c0 c8 ec 2c 3d eb f0 6b bb 8d 88 42 3c 63 bd 80 bc
       0.042218 -0.0036001753 0.011873377 -0.015715307
0003d0 24 6e 82 36 a2 93 cd 3b 7c b7 97 bd e5 e8 17 be
       3.887124e-06 0.0062737027 -0.07408044 -0.14834936
0003e0 77 3c 8d 3d 2b 63 84 3c 6f 47 7f bc 73 72 5c 3d
       0.068962984 0.016160568 -0.015580996 0.053820085
0003f0 54 e4 fc bd 23 83 a2 3d 93 e5 de 3d a2 37 85 ba
       -0.12348238 0.079351686 0.108836316 -0.0010163675

net_stack.0.bias f4 [64]
000000 01 bc 8b 3b 34 73 6d bc 02 d2 1b 3a e6 b1 9c 3b
       0.004264355 -0.014492799 0.00059440744 0.0047819493
000010 2d 03 00 bc 99 7f 2b 3c 3d e0 93 bc 81 c8 6c 3c
       -0.007813257 0.010467433 -0.018051261 0.014452101
000020 85 aa 38 3c 79 ff 5d 3d cc e6 c6 3c 0b 37 80 bc
       0.011271124 0.054198716 0.024279974 -0.015651247
000030 52 3f 69 3d ce 3f 0b 3c 5c 81 dd bc c7 41 46 3d
       0.056945153 0.008499099 -0.027039222 0.048402574
000040 0d 38 36 bc 75 1a 4e bc 21 f7 21 3c 8e c6 93 bb
       -0.011121762 -0.01257955 0.00988558 -0.0045097535
000050 82 51 6d 3b 5a 87 81 bc bf 6a f1 bc 17 be ac bb
       0.0036211913 -0.015811611 -0.029469846 -0.005271684
000060 8d 9b b8 bc d2 bb e7 bb dc f5 d8 bc 38 78 aa 3b
       -0.02253511 -0.0070719505 -0.026484422 0.0052023195
000070 53 98 1f 3d 80 fc d9 bb 47 1e 13 3d 34 4d b0 3b
       0.038963627 -0.006652415 0.035917547 0.005380297
000080 12 f7 c5 bc 70 29 ca 3b db 8f f3 3b cc 0b 8a 3c
       -0.024165664 0.0061694905 0.0074329204 0.016851328
000090 fa 84 1f bc 45 93 84 bc 72 33 0e 3d 20 d9 9f 3c
       -0.009736294 -0.016183505 0.03471703 0.019512713
0000a0 08 c0 27 bc 1c 62 60 bc 8d d2 33 3c be f9 8a 3b
       -0.010238655 -0.013695266 0.010975492 0.0042411974
0000b0 ad be ba 3c c9 a2 96 3b 59 36 2e 3c 89 5f 88 3c
       0.022796 0.004597042 0.010633075 0.016647117
0000c0 12 e1 dc bb d7 8d c6 bc 62 6b fe 3c 2a 42 f4 3c
       -0.0067406977 -0.024237556 0.031057063 0.029816706
0000d0 9a 2e 02 bd 99 62 77 bc 81 61 a8 3c cc 26 13 ba
       -0.031782724 -0.015099191 0.020554306 -0.0005613386
0000e0 ae 72 5f bc ac c9 ad bc 34 7f 81 3c f5 2a 09 3d
       -0.013638182 -0.021214329 0.015807725 0.033488233
0000f0 bf a7 95 bc 74 06 a0 3b 4f b3 a9 bb 60 08 b8 3b
       -0.018268464 0.004883582 -0.005178846 0.0056162328

net_stack.2.weight f4 [32, 64]
000000 61 02 50 3e a3 94 19 3e ae 2c 70 3e bb ba 65 3d
       0.20313407 0.14998107 0.23454544 0.056086283
000010 58 d1 7d 3d a0 3f 4a be ac 3a 49 3c d7 ae 87 3d
       0.061967224 -0.19750834 0.012282055 0.06625145
000020 b3 49 bf 3d 3e fb dd 3d aa 43 fd 3d 82 47 05 be
       0.09340229 0.10838936 0.123664215 -0.1301556
000030 3b 3c 0d 3e f0 54 17 3d 6c a3 b0 bd e6 73 f4 3d
       0.13792507 0.036946237 -0.0862492 0.119361684
000040 77 08 a7 bd a9 fc 06 3e ea ff 18 bc 25 15 00 3e
       -0.081559114 0.1318232 -0.009338358 0.12508066
000050 82 b7 03 bc 9b 5a 8e bd ab f7 b0 bc 0b 95 3e bd
       -0.008039357 -0.06950875 -0.021602472 -0.046528857
000060 44 77 0d be 99 31 5b be 4f d3 2a bd 59 44 a9 bd
       -0.13815027 -0.21405639 -0.041705426 -0.082649894
000070 64 c6 e4 3c 6a 66 45 bd 3f 40 4c 3d 64 17 a5 bd
       0.027926631 -0.048193373 0.049865957 -0.08061102
000080 c2 91 c4 bc b2 22 3f 3e 6e 6e 5e bd e4 b3 fa bb
       -0.023995284 0.18665579 -0.054304533 -0.007650839
000090 9f cd 20 3e 4d 13 33 3c 24 71 12 3e 01 b7 84 3e
       0.15703438 0.010929895 0.14300972 0.2592087
0000a0 91 dd de 3d 53 17 da 3c 06 73 99 3e 79 77 05 bd
       0.10882104 0.02662245 0.29970568 -0.03258464
0000b0 2e 30 17 3e 6a 70 ef bc a4 c6 33 3e f4 76 08 3e
       0.14764473 -0.029228408 0.17556244 0.13326627
0000c0 f6 e4 ce bd 82 fa fc bd 86 36 54 bd 9d ac 9f 3c
       -0.101022646 -0.12352468 -0.05180981 0.019491488
0000d0 b3 f8 16 3d 30 6c 8b 3d 05 d9 7b 3b 3d a8 d1 bb
       0.03685827 0.068077445 0.0038428914 -0.0063982294
0000e0 63 7b 0c bd a8 38 0e be b8 79 09 bd c1 ea d8 3d
       -0.03429736 -0.138888 -0.033563346 0.10591651
0000f0 b1 41 12 be c9 70 89 bd 49 df c9 3d ab 82 74 bd
       -0.14282872 -0.06710965 0.098570414 -0.059694927
000100 c3 8c d9 3d 46 8b c6 bc 32 37 88 bd c7 eb d6 3c
       0.10622551 -0.024236333 -0.06651153 0.026235474
000110 45 cb 39 3e ab ec 5c bc ef e0 ca bc e5 1b af 3d
       0.18143947 -0.01348416 -0.02476546 0.08550242
000120 f4 86 7a 3d 10 ef c3 bd dd 80 1b 3d cb 1a 13 bc
       0.061163858 -0.09567082 0.03796469 -0.008978556
000130 79 05 86 bd 48 47 19 3d b7 88 2b 3e 7b 8b 41 3d
       -0.065440126 0.037421495 0.16751371 0.04725216
000140 df 02 74 3d c8 cb 40 3d e4 5c 41 bd b1 6c db 3c
       0.05957305 0.04706934 -0.047207728 0.026785227
000150 d9 ea 38 bd 41 32 20 3e a7 f5 3a 3c a8 ad 23 3e
       -0.045145843 0.1564417 0.011411107 0.15984213
000160 a5 43 3f bd 1b 10 89 3d 6a f2 8d 3d e4 5c 00 bd
       -0.04669537 0.06692525 0.069310024 -0.031338587
000170 04 1b 94 3d bc 07 ce 3d 36 54 50 bd 5b 19 30 be
       0.07231715 0.10060069 -0.05086156 -0.17197172
000180 a0 02 ee 3d 2b dd 18 3b fd ba de 3d f5 34 82 3b
       0.116215944 0.0023325186 0.10875509 0.003973598
000190 c2 c6 b5 3c f8 8f c5 3c af 0f d2 bd b9 99 17 bd
       0.022189502 0.024116501 -0.10256898 -0.037011836
0001a0 5d dd d1 bc 04 19 50 bb a0 3a a8 3d dc 2f 87 3d
       -0.02561825 -0.0031753192 0.08214307 0.06600925
0001b0 16 aa 84 bd 69 f0 f2 bd 30 bb 73 3d b7 e6 1d 3c
       -0.06477754 -0.11862261 0.059504688 0.009637526
0001c0 58 ea d0 bd c9 9d 8b bd ce 7d b0 3c a3 1d 24 3e
       -0.102009475 -0.068172045 0.021544363 0.1602693
0001d0 31 ac 16 3e 7c fa 39 bd 0c 75 00 3e ec 75 a3 bc
       0.14714123 -0.045404896 0.1254465 -0.01995369
0001e0 42 6f 0c be e3 0c f4 bc 93 47 1c 3d 06 63 9c bd
       -0.13714316 -0.029791301 0.038154196 -0.07636075
0001f0 a6 dd 20 3d 92 11 07 3e 9d e7 b5 bd 2d 80 00 be
       0.03927388 0.13190296 -0.08882067 -0.12548895
000200 ef 53 be bd de 58 d4 3d 12 18 aa bd 02 1f 56 be
       -0.09293353 0.103685126 -0.08305372 -0.20910266
000210 80 24 66 bd be ab 94 3d 6f 93 2c 3d 66 8a c3 bd
       -0.056187153 0.0725932 0.04213279 -0.09547882
000220 de 0a f6 bd 88 f7 80 bd 19 c2 9c 3d 12 84 5d bd
       -0.120137915 -0.06297213 0.07654209 -0.05408103
000230 a7 56 ba bd 7a ae 8f be 88 e1 59 3b 78 b9 58 3b
       -0.09098559 -0.28062803 0.0033246 0.0033069532
000240 f0 8a 9c 3d 0f de ce bd cf dc 63 bd 11 0a 61 bd
       0.07643688 -0.10100948 -0.0556305 -0.05494124
000250 05 41 01 be 86 b7 dd 3d fd d3 59 3d 32 fd 24 bc
       -0.12622459 0.1082602 0.053180683 -0.010070132
000260 bb 60 2f be 8d 09 cc bc a6 c2 da bc a1 e6 29 3e
       -0.17126743 -0.024906898 -0.026704144 0.16591884
000270 cd c4 33 bb c9 cf a1 3b bb 8e 07 bd ac 66 13 be
       -0.0027430535 0.0049381 -0.033095103 -0.14394635
000280 2b e6 14 3e 94 67 20 be 1e bd 59 bd 63 ee 4e bd
       0.14540927 -0.15664512 -0.05315887 -0.050520312
000290 94 dd 8c 3d 85 fd 0b be 91 5f 66 bd bd 4a f7 3d
       0.068782 -0.13670929 -0.056243483 0.12074802
0002a0 f4 1c 77 bc 23 00 bb 3b fc 50 75 3e 16 72 17 be
       -0.015082587 0.0057068034 0.23956674 -0.14789614
0002b0 90 96 e1 bd 91 9c e5 bd 78 da 4d 3d 2f 67 ea bd
       -0.11015046 -0.11211503 0.050257176 -0.11445462
0002c0 9f 42 b2 3b ce 4f 1d 3d 43 89 d2 3d 48 72 a0 bb
       0.0054400708 0.038406186 0.10280087 -0.004896436
0002d0 32 73 93 bb 5c 8a 92 bd 8e 95 97 3d d1 fc d4 3d
       -0.0044998163 -0.07155296 0.07401572 0.103997834
0002e0 9f 8f 48 bd 0d 22 28 3e 83 bc 28 3d 97 30 c6 3d
       -0.048965093 0.1641924 0.041195404 0.096772365
0002f0 5c 75 17 bb d2 36 66 bd 7a d5 2b 3e 60 95 65 3b
       -0.0023110723 -0.056204624 0.16780654 0.0035031661
000300 f5 af ae 3d 16 09 2e bd 76 9e b5 3d 3b fd 3d 3e
       0.08529655 -0.042489134 0.08868115 0.18553631
000310 2c 76 4e 3c ca 77 8c 3d 1c 03 26 3e 43 bc 28 3d
       0.012601417 0.068587855 0.16212124 0.041195165
000320 ac 8f 8b bc ca f7 17 3d 1b b1 b9 bd 69 60 a9 bd
       -0.017036282 0.037101544 -0.09066983 -0.08270342
000330 83 d4 cd 3c c0 f1 04 be 61 15 5d bc 76 f8 01 3c
       0.025125748 -0.12982845 -0.013493867 0.007932773
000340 31 70 79 be bc 44 e9 3d af d7 15 be a5 ad 21 3d
       -0.24359204 0.11390063 -0.14633058 0.03947224
000350 e3 b9 86 3d 39 93 cc bb 24 1d 19 be 15 04 da bd
       0.06578424 -0.0062431362 -0.14952523 -0.1064531
000360 7f 39 d3 3d 43 88 05 3d 02 7a a6 bd 04 23 d1 3d
       0.10313701 0.032600652 -0.0812874 0.10211757
000370 d4 e7 98 bc a2 79 da bc c8 79 8f 3c c7 40 93 bc
       -0.018665232 -0.026669327 0.017514125 -0.017975224
000380 7a a5 01 3e 73 73 73 be f5 a2 f4 bd 11 24 bb 3d
       0.1266078 -0.23774509 -0.11945144 0.091377385
000390 97 29 90 bc be 86 c4 3c fe 03 33 3d 7e 5c 9c bd
       -0.017597957 0.023990031 0.04370498 -0.07634829
0003a0 9c 0f 95 3d cf fe e4 bd 57 5e be bc 9f 81 06 3b
       0.07278368 -0.111814134 -0.023238344 0.0020524038
0003b0 b1 3c 53 3d 14 cf c0 bc 6d 7e 67 bd f8 a3 30 bd
       0.05157155 -0.023536243 -0.056517053 -0.043125123
0003c0 a4 8d 2e 3e bf 8f 91 bd 74 1e 05 be ef 3e 3b 3c
       0.17046219 -0.071074955 -0.12999898 0.011428579
0003d0 d1 80 30 3e e2 c3 78 3b 68 49 3d bc f9 cf 5d be
       0.1723664 0.0037958552 -0.011553146 -0.21661367
0003e0 aa 03 75 bd 95 e9 0d bd 75 23 3e 3e db e5 99 bb
       -0.059817947 -0.03464659 0.18568213 -0.0046965904
0003f0 97 7c ae bd fe 07 e5 bc 16 b3 44 bc b8 91 de 3c
       -0.085198574 -0.027957913 -0.012005588 0.027169093

net_stack.2.bias f4 [32]
000000 1b 6e 85 3d e9 7f 10 bd 3e a7 c0 3a d6 05 02 3c
       0.065151416 -0.035278235 0.001469828 0.007935962
000010 d7 44 8c bc 92 ba 20 3d c3 1d df bc ac af 54 3d
       -0.01712267 0.039240427 -0.027235871 0.051925346
000020 67 6f 04 3c 5e 0a a1 3c 98 71 2c bd aa f6 73 3b
       0.008083201 0.019658264 -0.04210052 0.003722588
000030 e5 fd 37 bb f7 64 62 3d ad 5d 86 bb 11 e9 e5 3c
       -0.0028074917 0.05527207 -0.0041005225 0.028065236
000040 01 19 f0 bb cc 57 ad 3d bf 7f f7 3c 00 54 62 bc
       -0.0073271994 0.084640115 0.030212281 -0.0138139725
000050 78 0d 3e 3c 4a 75 22 bc 35 b0 62 3b 31 85 54 3c
       0.011599891 -0.009915659 0.003458989 0.012971208
000060 51 7a 1f 3d 25 6d 8c bb f5 92 06 bd 1d 22 ca bc
       0.03893501 -0.004285472 -0.032854993 -0.02467447
000070 79 98 ce ba 23 46 f0 3c 6d b5 c1 3c 58 3d 00 3d
       -0.0015761993 0.029330319 0.02364608 0.031308502

net_stack.4.weight f4 [32, 32]
000000 73 03 fc bd af 76 81 3d 83 f9 e1 bd d5 b4 38 3d
       -0.123053454 0.06321465 -0.11033919 0.04509433
000010 d9 7d 87 3d 01 2d ec 3c 03 91 22 3e 9d 21 37 be
       0.066158004 0.028830053 0.1587563 -0.17883916
000020 2d a3 b0 3d 40 e0 d3 3d 03 9c 84 bd 83 db f5 3c
       0.08624873 0.10345507 -0.064750694 0.030011898
000030 0d 34 51 bc e4 c5 ac bc 8e 06 40 3d c3 66 3e 3e
       -0.0127687575 -0.021090455 0.04688125 0.18593888
000040 eb 61 83 bd 57 5e bc bd 60 7d fc 3d b1 33 7c be
       -0.06415161 -0.091976814 0.12328601 -0.24629094
000050 ff a3 9a bd 87 98 77 bc 0d 62 18 bd d7 e9 45 be
       -0.07550811 -0.015112049 -0.037202884 -0.19327484
000060 3f 7c c4 3c ff 6e 55 bd de 6a db 3c 05 6a 19 3d
       0.023985026 -0.052107807 0.026784357 0.037454624
000070 df fc 0c 3d e6 ce 16 3e ee be e1 bc 3f 68 04 3e
       0.034420844 0.14727363 -0.027556863 0.12930392
000080 87 f5 77 bc 6e 7a a1 3c 05 ad 89 bb d1 a8 91 3c
       -0.015134222 0.0197117 -0.0042015337 0.017780693
000090 c9 c1 0e 3d ee 04 06 be 47 59 1a 3d 95 72 11 bd
       0.034852777 -0.13087818 0.037682798 -0.035509665
0000a0 f5 f0 a4 bc e8 6e cc bc b5 ac ee 3d 49 da da bc
       -0.020134429 -0.024955228 0.11654035 -0.026715415
0000b0 21 59 25 be fc 87 e1 bd be ac 44 bd fa 21 b5 bd
       -0.16147281 -0.11012265 -0.048016302 -0.08844371
0000c0 33 8c 1b be b1 d1 9e 3d 21 32 12 3e 83 f0 4b bb
       -0.151902 0.07754839 0.14276935 -0.0031118698
0000d0 eb 4e 18 3d a1 be d9 3d 06 3b 81 bc eb 4e 1b 3e
       0.037184637 0.10632063 -0.015775215 0.15166824
0000e0 90 63 25 3d 48 47 9e 3c 3b c0 c8 bd 66 ab b8 bd
       0.040378153 0.019321099 -0.0980229 -0.09017067
0000f0 30 97 80 bd 73 a8 c8 be f8 ab e3 bc 42 a7 39 3d
       -0.06278837 -0.39191017 -0.027791962 0.045325525
000100 47 62 62 bd 07 65 00 3e d6 10 0f bd b9 f4 15 be
       -0.055269506 0.12538539 -0.034928165 -0.14644136
000110 fa bf 7f 3d 1d 17 6a 3e 1b 89 51 b9 35 b3 44 3c
       0.062438942 0.2286038 -0.00019982869 0.012005617
000120 72 6f b4 3d 20 cd 5e 3d 92 0e a5 3d 3b 70 e3 bc
       0.08810319 0.05439484 0.0805942 -0.027763477
000130 bf 8a 8b 3c 4d 8b 70 bd 0d 0a ac 3d 2c 65 40 3d
       0.017033933 -0.058726598 0.084003545 0.046971485
000140 b9 a4 0e 3e a0 47 a3 bd 3e 8f e3 bc ad ed 60 3d
       0.13930024 -0.07972646 -0.027778264 0.054914165
000150 60 9c 6f bd e5 7f 4f bd 06 cd 60 3d 4e a3 74 3c
       -0.05849874 -0.05065908 0.054883026 0.014931513
000160 0c d0 ce 3d cc d2 02 3d ec 31 16 be 6d 7b c4 3c
       0.100982755 0.031939313 -0.14667481 0.023984635
000170 9e 5f 19 3e 77 45 de 3d cc d7 27 3d f3 cd 84 3e
       0.14977881 0.10853093 0.040977284 0.25938377
000180 fb 19 40 3e 4c 36 7d be 6d b4 3d 3d f1 79 b2 bd
       0.18759911 -0.24727744 0.046314646 -0.08714665
000190 b5 dc c7 bc 4f be 41 be d1 62 ba 3c 71 b8 31 bc
       -0.024397234 -0.18920253 0.022752197 -0.010847197
0001a0 8e a0 d7 3b 2f e8 9a bd f4 8e 65 bd 3d c1 0d be
       0.006580419 -0.07563817 -0.056044534 -0.13843246
0001b0 79 71 59 bd 0d 29 80 3d 07 97 05 bd 02 82 bd bd
       -0.05308673 0.0625783 -0.032614734 -0.09253313
0001c0 9f ff eb 3b 38 2c 35 bb 9f 77 83 3d 21 b1 b6 bb
       0.0072021033 -0.0027644765 0.064193 -0.0055753146
0001d0 5c ec 03 3d 0a 74 2d 3e 13 aa db 3c 8c aa a7 3c
       0.03220783 0.16938797 0.026814496 0.020467065
0001e0 b4 7b aa bd 74 cb e0 bd 85 af 76 3d a9 a1 f8 3d
       -0.08324376 -0.109763056 0.060225982 0.12140209
0001f0 b6 41 a4 3c 08 3c 55 3d 6b b5 d0 bd 36 df d8 3c
       0.020050865 0.052059203 -0.10190853 0.026473623
000200 a8 41 27 3d b7 b5 b7 3c 3b 22 18 be 66 6d 32 bd
       0.0408341 0.022425516 -0.14856808 -0.04356136
000210 6e 04 c7 bd cd b5 e5 3d 12 cc 64 be 7f 6b 2d 3a
       -0.09717642 0.11216316 -0.22343472 0.00066154444
000220 0e 02 69 3d e2 04 b1 3d b4 85 9f 3b 75 a0 48 3d
       0.056886725 0.086435094 0.0048682336 0.04898115
000230 10 11 a6 3b 36 0e 08 3b 00 31 b4 35 c0 53 ef 3d
       0.005067952 0.0020760424 1.3425306e-06 0.11685896
000240 a1 0b 32 be 6b 35 97 bc bc 29 f6 3c 06 52 ac 3d
       -0.17387249 -0.018458089 0.030049197 0.08414082
000250 6e 08 88 3d 90 6b fb bc f4 30 22 be 8b 97 c3 3c
       0.06642233 -0.030690938 -0.15838987 0.023875972
000260 58 0f 48 3e ba 32 70 bd 5a 15 8c 3d 09 b9 89 be
       0.19537103 -0.058642127 0.0684001 -0.26898983
000270 6e 83 9f bc 79 5c 1e 3d 56 89 38 3e 4c 3a cf bc
       -0.01947185 0.038662408 0.1802114 -0.025296353
000280 71 65 f6 ba 7b ed 0e be 5d c0 a0 bd 4d 02 00 3e
       -0.0018798542 -0.13957779 -0.078491904 0.12500878
000290 f9 20 86 bc d6 59 26 bd b4 2a e7 bd b5 fc f2 3d
       -0.016373144 -0.040613018 -0.11287442 0.11864606
0002a0 ce 8a a5 3d 48 67 e8 bd 64 2d 88 3d da 82 30 3b
       0.080831155 -0.11347824 0.066492826 0.0026933462
0002b0 2a 66 af bd 2b 4f 2d bd 01 a8 a9 bd 6a 82 70 3d
       -0.08564408 -0.04231183 -0.08283997 0.058718123
0002c0 58 97 01 3d 62 cb 37 3c 3f 40 a7 3d 60 8b f8 3d
       0.031638473 0.011217924 0.08166551 0.12135959
0002d0 d7 eb 44 3e cb cb 9c 3d 90 dd 06 3d 8d a5 1b 3e
       0.19230591 0.07656058 0.032926142 0.15199871
0002e0 f6 99 a9 bd a9 b4 51 3e 9d 42 79 3d f4 61 34 be
       -0.08281319 0.20479073 0.060854543 -0.17615491
0002f0 e8 84 ba be b8 03 51 3d 85 ee 35 be 9b 51 e3 bd
       -0.36429524 0.051028937 -0.17766769 -0.110995494
000300 4f 75 f6 3d 35 83 a9 3c 93 67 37 be b6 cc 0e 3b
       0.120340936 0.020692447 -0.17910604 0.0021789498
000310 df e9 a2 bc 3c 75 1b be 77 a2 f6 3a 05 66 ee 3b
       -0.019886909 -0.1518144 0.0018816729 0.0072753453
000320 10 48 6e 3b 98 d5 4a 3c fc 71 68 ba af 50 c5 bb
       0.003635887 0.012380026 -0.00088670827 -0.006021581
000330 c9 e4 13 bd 66 b5 32 3d 0a c7 49 3d 95 1b ff 3c
       -0.03610686 0.043630026 0.049262084 0.031141082
000340 44 17 64 3d 49 9f 32 3e 62 4d 61 3e 6e 29 e0 3d
       0.05568625 0.17443575 0.22002175 0.10945402
000350 53 ff b6 bd 71 7a 4e bb 03 51 8e 3d d9 ba 16 be
       -0.08935418 -0.0031506086 0.069490455 -0.14719714
000360 07 25 6c bc df 6b 69 3e a3 2f 89 3c b6 b7 0a be
       -0.014413125 0.22795056 0.016746348 -0.13546643
000370 fd 20 83 3c 7d f6 97 bd e2 61 c5 3d bf 6d aa 3d
       0.016006941 -0.07420061 0.0963781 0.08321714
000380 40 6f e3 bd a5 a8 0d be ce ab 3b 3c 2c 7d 14 bd
       -0.11105204 -0.13833864 0.011454536 -0.036252186
000390 61 45 3e bd 96 e3 8f 3d 51 54 2a bd 87 7c d4 bd
       -0.046452884 0.070258304 -0.041584317 -0.10375314
0003a0 cb 77 bb 3d b1 df bb bd df 8d 5e bd 6e 14 7f 3c
       0.09153708 -0.09173525 -0.054334518 0.015568836
0003b0 b3 4c 2c 3e 33 6f 04 bd b8 0d 1c 3e 64 4b a6 bc
       0.16826133 -0.03233261 0.15239608 -0.02029962
0003c0 86 a9 4e 3e f3 7b cd bd 9e a4 e6 bc be 5c 06 bd
       0.20181856 -0.10033407 -0.028154667 -0.03280329
0003d0 e1 30 25 be b9 1b 8e 3c 15 96 70 bd e7 80 0c be
       -0.16131927 0.017347204 -0.05873688 -0.13721047
0003e0 f7 03 c4 3d dc 19 78 bd 80 5a 65 bb c5 cb 94 3c
       0.09571069 -0.060571536 -0.003499657 0.018163571
0003f0 0f 25 0a 3c 13 11 15 3e ce 11 bc 3d b1 3e 53 3e
       0.008431687 0.14557295 0.091830835 0.20629384

net_stack.4.bias f4 [32]
000000 6d d2 d7 bb b0 85 0a 3b cb 3c 03 bb 84 4d 13 3b
       -0.006586364 0.0021136813 -0.002002525 0.0022476623
000010 38 a9 72 3c 68 29 a6 bb 11 14 6c bc d2 2f a8 3c
       0.014810853 -0.005070854 -0.014409081 0.020530615
000020 9b e7 47 bb 4b 40 e1 3b 9b d4 bc bb 5a 29 71 3c
       -0.0030503038 0.0068741194 -0.0057626492 0.014719332
000030 59 0b 05 bc 66 9b fd bb eb 9d 04 3c 01 ed 87 3c
       -0.008120381 -0.007739472 0.008094291 0.016592504
000040 cd 45 c6 3b 91 e0 a5 bc 8f 7e ba 3c 17 72 ca 3b
       0.0060508014 -0.020248683 0.022765426 0.0061781514
000050 19 62 46 3c 0b 0e 1b 3c 49 27 d9 bb db 5a 0b 3c
       0.012108349 0.009463797 -0.0066269976 0.008505548
000060 69 40 ba 3b a9 1a 5e ba bc 5f 90 3b ac 1d 6d bb
       0.005683948 -0.00084726006 0.0044059437 -0.0036181016
000070 21 60 f1 bc 41 e5 fb 39 2b e0 ba 3c 9d 16 8e 3b
       -0.029464783 0.00048045258 0.02281197 0.004336192

net_stack.6.weight f4 [1, 32]
000000 76 b9 8e 3e ce f6 bc bd ee ad 89 3d 1c b4 47 be
       0.2787587 -0.09226762 0.067226276 -0.195023
000010 5b 17 1d 3e 45 b6 20 be 73 9d 97 bd f6 81 47 3e
       0.1534094 -0.1569453 -0.07403078 0.1948317
000020 56 da 3c 3d 7b 0c e6 bd 0d aa 35 3d 36 61 9c 3d
       0.04610666 -0.11232849 0.044351626 0.07635729
000030 3c 19 ba bd 8d 73 0d be 0b 35 a9 3d 7d 18 db bd
       -0.09086844 -0.1381361 0.0826207 -0.1069803
000040 59 f2 94 3e 93 83 21 3e 2c 6c ad 3d d9 f5 24 3d
       0.29091147 0.15772848 0.08467898 0.04027352
000050 42 30 24 3e 5d ed 74 3d 00 7e 5f be a0 a6 63 3d
       0.16034034 0.05979668 -0.21825409 0.055578828
000060 9a 65 16 be f7 2b 2e be 6d e7 29 bd 76 a1 71 3d
       -0.14687195 -0.17008959 -0.04148047 0.05899187
000070 fd e4 af bd c9 bc 85 3d 54 fb d5 3c 56 94 10 be
       -0.08588598 0.065301485 0.02612082 -0.14119086
