CAPSTONE/CAPMODELS/output/model_BPD2.pth (torch, 17382 bytes, 5 tensors)

net_stack.0.weight f4 [64, 23]
000000 aa 59 8c 3d a2 1b a2 be 54 3e 04 bd 0a b0 a8 3d
       0.068530396 -0.31661707 -0.032286003 0.08236702
000010 c2 a1 3a be 09 45 56 3e fe 18 60 3e ef 7e f6 bd
       -0.18225768 0.20924772 0.21884534 -0.120359294
000020 88 f2 3a 3e 58 60 19 3e 04 68 a6 3d d4 9d 8e 3d
       0.18256581 0.14978158 0.08125308 0.06963697
000030 46 32 f6 bc 9b ac c8 bd 91 52 27 bc 3e 46 67 3b
       -0.03005327 -0.09798547 -0.010212556 0.003528967
000040 1f 24 d5 bc d8 63 9b 3c 8c 09 44 3e 88 17 8b 3d
       -0.0260182 0.018968508 0.19144267 0.067915976
000050 1a 43 a7 3d 97 b8 11 be 5b 36 1c be 02 4d 17 3e
       0.081670955 -0.14230572 -0.1525511 0.1477547
000060 00 97 6d bd a6 d0 9e 3b 47 57 a7 bd 54 81 ea 3d
       -0.058005333 0.00484665 -0.08170944 0.11450449
000070 89 61 95 bd fa 07 57 3d f4 b1 b7 3d 34 33 ae bd
       -0.07293994 0.05249784 0.08969489 -0.0850586
000080 9b c5 d5 3c 30 93 65 3e e3 75 51 3e 74 b9 08 be
       0.026095202 0.22419429 0.20455126 -0.13351995
000090 4e 97 c1 bd 32 15 b5 bd 60 1b bd 3b ea 80 64 3d
       -0.09452687 -0.08841933 0.0057710856 0.055787005
0000a0 35 f9 b3 3d 86 d3 ba bc fe 41 8b 3d 4e ac 90 3c
       0.08787767 -0.02280594 0.067996964 0.017660286
0000b0 81 54 22 3e 75 50 dc bd fb 47 11 3c 13 bb 1b 3d
       0.15852548 -0.107575335 0.008867259 0.038020205
0000c0 1b 49 be bd d0 be 15 be 91 36 de 3d 66 da a8 bc
       -0.092912875 -0.1462357 0.108502515 -0.020611953
0000d0 ff 7c 0c be 57 07 25 be 76 d4 aa 3d 97 71 1f bb
       -0.13719557 -0.16116081 0.08341305 -0.002432918
0000e0 1e c7 52 3d 0a fa 8c bd 2d f4 49 3c fc 83 04 3e
       0.051459424 -0.06883629 0.012326282 0.12940973
0000f0 ec 21 3b 3c b6 dd c5 ba 50 7f fe 3d fe e1 28 3e
       0.011421662 -0.0015095982 0.12426627 0.16492459
000100 73 80 7b 3d 8f 12 02 3c a7 f4 3c 3e f1 c2 b9 3d
       0.061401796 0.007938995 0.18452702 0.09070385
000110 e5 96 2a 3e c4 6f 72 bd 3f 8a 24 3e f9 8f 0b be
       0.16659124 -0.05918862 0.16068362 -0.1362914
000120 5b 89 a7 bd 55 4a a0 bd 7e fb 44 bd 5b 67 98 3d
       -0.08180495 -0.07826678 -0.048091404 0.074415885
000130 80 83 56 bb 40 3e db 3c be 71 2d 3e 17 dd 85 3d
       -0.0032732189 0.026763082 0.1693792 0.0653631
000140 65 f5 b0 bd 91 95 8f 3d 3c 59 60 bd d1 d0 c2 bd
       -0.08640555 0.070109494 -0.0547726 -0.09512485
000150 a5 02 fd bd 3f 39 30 3d ff 71 06 3d 73 f9 df bd
       -0.1235402 0.043023344 0.03282356 -0.109362505
000160 98 a0 21 bd f2 7c f7 3c 9c c6 fe bd 46 7f 8b 3d
       -0.039459795 0.030210946 -0.124402255 0.06811385
000170 c2 8e 71 bd 0e 7d 52 bd a6 78 be bc 9a c7 9d 3d
       -0.058974035 -0.051388793 -0.023250889 0.077040866
000180 9f fd df bd a0 91 1f 3e 08 ca 24 3b 5b 9c aa 3c
       -0.10937046 0.15582895 0.0025144834 0.02082651
000190 71 e4 4a 3c a3 4a 99 bd 41 ab d0 bc b4 a8 2c 3e
       0.012383566 -0.07484939 -0.025472285 0.1686123
0001a0 5b 67 c4 3b 76 6d 7f 3c 4f 51 7c bc 0f 8d 27 be
       0.0059937662 0.015590062 -0.015400245 -0.16362403
0001b0 d3 7e 2f bc 97 27 08 bd 56 f9 d2 3d 8d 5f 82 3d
       -0.01071139 -0.03324088 0.10301463 0.06365881
0001c0 f3 c9 b0 bd ea 29 1e 3d e4 ac a6 bc 05 dc 93 3d
       -0.08632269 0.03861419 -0.020346113 0.072197
0001d0 21 34 12 3d 45 3e 3d be ee fc 35 3e dd c3 0e 3c
       0.035694245 -0.18480785 0.17772266 0.00871369
0001e0 a5 08 86 3d 31 70 98 bd 10 a3 0f bd 45 04 20 3e
       0.065446176 -0.07443274 -0.035067618 0.15626629
0001f0 12 40 b1 bc 5b 61 88 3e d3 ae 0d be b9 f4 24 3c
       -0.021636996 0.26636776 -0.13836221 0.010068112
000200 c2 30 cc 3d b4 5c 2d 3d 97 55 86 3c 69 9b ab bc
       0.09970237 0.042324737 0.016398234 -0.020948129
000210 1d 00 22 be d5 e2 96 3c 4a 2c 38 bd 00 f2 ef 3d
       -0.15820356 0.018418709 -0.044964112 0.1171608
000220 06 80 d0 3b d4 5a 46 3d 6c 9f ab 3b ef eb 06 3e
       0.006362918 0.048426464 0.0052375104 0.13175939
000230 79 cb d6 bc a7 19 c1 bd 9e 4c 30 3e 1b af a1 bd
       -0.02622007 -0.09428721 0.17216727 -0.07894727
000240 8f 65 b2 bd 57 70 60 bd 3b a8 b2 bd 49 9e 10 3d
       -0.08710777 -0.054794636 -0.08723494 0.035307202
000250 24 f2 02 bd 61 fa 93 3d b3 78 29 be f7 35 21 bd
       -0.031969205 0.0722549 -0.1654995 -0.039358106
000260 ae 0b aa bc 4d 40 0a 3d de 2d 87 3d 42 54 fe bd
       -0.020757522 0.03375273 0.06600545 -0.12418415
000270 21 70 09 be 80 43 23 bd 09 1e 09 3e ad d0 2c bb
       -0.1342168 -0.039859295 0.13390364 -0.0026369498
000280 9d f8 e1 3d 51 f0 ee 3b 38 bc 6c 3d 51 27 d2 3a
       0.11033747 0.0072918315 0.057796687 0.0016033446
000290 b6 a5 b8 bd a0 8e 0d bd 10 bb 3e be 9d 5b c8 bd
       -0.09015982 -0.034559846 -0.18626046 -0.09783099
0002a0 14 50 fd 3d d6 f0 61 3d 6b b1 25 3d 87 4f e5 3d
       0.12368789 0.05516132 0.040452402 0.11196809
0002b0 43 68 a2 bd e3 e0 0e bd ca 58 f0 bc 04 9f 64 bd
       -0.079300426 -0.034882437 -0.029339213 -0.05581571
0002c0 e4 29 a3 3d 77 0f 48 3d 27 da 09 3d 5d 2f 37 3d
       0.079669744 0.048842873 0.033655312 0.044722904
0002d0 b8 cd 1f 3d 58 19 fc bc 38 77 53 3d 55 2d 00 be
       0.039014548 -0.030773804 0.051627368 -0.12517293
0002e0 6e 46 94 3d db 43 a6 3c d7 36 fa bc c8 cf 37 3d
       0.07239996 0.020296028 -0.030543728 0.04487589
0002f0 5a 99 b2 bd fb 33 8e bd df b3 b1 3d c9 2a 1c 3d
       -0.08720656 -0.06943508 0.08676886 0.03812674
000300 43 d5 b5 bc 3e 81 22 bd b8 44 92 39 f7 8b dc bc
       -0.022196418 -0.039674036 0.0002789849 -0.02692221
000310 f6 26 3b 3d 41 bc 93 3c f8 26 07 3c 87 1d b7 bd
       0.045691453 0.018034102 0.008249037 -0.08941179
000320 e8 e3 0e be 65 86 e1 bd dd a2 7d bd 2f f4 f7 bc
       -0.13954127 -0.11011962 -0.061922897 -0.030267803
000330 47 8b 14 3d b8 bb 34 3d b0 02 d2 3c c6 46 cf bd
       0.036265638 0.044124335 0.025636047 -0.10120921
000340 8f ea 49 be e0 d9 83 bd b3 87 0e 3d d5 ea 2e be
       -0.19718383 -0.06438041 0.03479738 -0.17081769
000350 2a 50 1c 3c 91 dc ca 3d d6 ea 91 3c 92 12 1d be
       0.009540597 0.09905351 0.017812174 -0.15339115
000360 e9 76 f0 3d 4e 79 1d bc cd db 1d 3d cb 92 88 3d
       0.1174143 -0.009611441 0.038539696 0.066686235
000370 ea 7d ff 3b 6f 01 ed bd c5 27 22 be d9 8d 55 3d
       0.0077969925 -0.11572539 -0.15835483 0.05213723
000380 ca cc 87 bd 68 8a 71 3c 5e 80 e3 3c e9 b9 cb bd
       -0.06630857 0.014742471 0.027771171 -0.09947569
000390 1a 4b a9 3d 14 0d c8 bd b4 1f 32 3b 9f 55 be bc
       0.082662776 -0.097681195 0.002717954 -0.023234187
0003a0 04 ac 7c be c4 8e 12 3d 83 79 5a 3d 4d f8 fd 3a
       -0.24674994 0.035780683 0.05333854 0.0019376368
0003b0 c2 08 89 3b 84 5d 14 3d 48 b9 5e 3d 18 4b 16 3d
       0.004181952 0.036221996 0.054375917 0.03669271
0003c0 1e c2 0d bd 2e 43 2a bd 02 f2 f1 bc 14 0f 35 bd
       -0.034608953 -0.041567974 -0.029534344 -0.044203833
0003d0 69 c9 97 3d 7c 92 9f bb 1c f7 75 bd 05 f2 b7 3b
       0.07411463 -0.004869757 -0.060050115 0.005613568
0003e0 b4 5a 21 3d bf b3 19 3d ac de 8b 3d d1 4c cf 3b
       0.039393142 0.037524935 0.06829581 0.006326296
0003f0 99 30 18 be 3c b0 14 be 68 bb 11 3e ef 31 f8 bc
       -0.14862289 -0.14520353 0.14231646 -0.030297248

net_stack.0.bias f4 [64]
000000 f8 de 96 3d aa 42 eb bc 35 f4 7d bd 7e aa 28 3d
       0.07366747 -0.028718311 -0.062000472 0.04117822
000010 77 26 6d 3d 6b bf 82 3c d9 0a 86 bd f7 56 6d bd
       0.05789801 0.015960416 -0.06545038 -0.057944264
000020 03 cf 13 3d 81 45 63 3d 78 21 77 3d 49 26 7a bd
       0.036086094 0.055486206 0.060334653 -0.061071668
000030 ae e5 07 bd bb 1b 8e bd e1 67 83 3d ff 5f 7d bd
       -0.033178024 -0.06938883 0.06416298 -0.061859127
000040 06 70 80 bd 42 94 29 3d 46 e2 18 3c c6 46 43 3d
       -0.06271367 0.041401155 0.009331292 0.047674917
000050 9e 78 19 3d 72 06 32 bd 1f c0 85 3a 39 1a 8a 3d
       0.037468545 -0.043463178 0.0010204351 0.06743283
000060 ce 83 7b 3d c2 6f 9d bd e4 d9 ac 3c 53 92 3d 3c
       0.061404996 -0.07687332 0.021099992 0.011570531
000070 51 a7 50 3d 52 f3 6b bd 9b e6 4c 3d 1f 0d 6b bd
       0.050940815 -0.057605095 0.05002461 -0.05738556
000080 91 d5 84 3c 40 36 60 bd 29 88 83 bd 3a df 1a 3d
       0.016215118 -0.054739237 -0.06422455 0.03781054
000090 ce 9d 91 b9 a8 64 8b 3d bb a9 73 bc f6 60 0c 3d
       -0.0002777413 0.06806308 -0.01487201 0.034272157
0000a0 c6 5f 20 3c d7 41 34 bd 5d 65 50 3d e8 c2 64 bd
       0.009788459 -0.044008102 0.050877918 -0.05584994
0000b0 f6 b0 79 bd e6 ba ed 3b 02 69 80 ba 98 bb 75 3d
       -0.06095978 0.007254946 -0.000979692 0.059993356
0000c0 f9 4f 1f 3d fc 02 5e 3d 90 0f 92 3d 7f 20 45 3d
       0.038894627 0.054202065 0.071318746 0.048126694
0000d0 a8 18 f8 bc fb 2d 76 3d e4 49 6d bd 2e 92 26 bc
       -0.030285195 0.060102444 -0.057931796 -0.010166688
0000e0 0e e9 19 bd 35 30 59 bd ff 13 76 3d ee 8e db 3c
       -0.037575774 -0.05302449 0.060077664 0.026801553
0000f0 e5 4d 30 bd 58 3f 73 3d 56 b6 7c bd 17 82 4d bd
       -0.043043036 0.05938658 -0.061697327 -0.05017289

net_stack.2.weight f4 [32, 64]
000000 ed c3 c2 3c 96 7b e6 3d 3e c8 b4 3d 7d b0 6d 3d
       0.023775065 0.11254041 0.08827256 0.05802964
000010 ed f0 d1 bc a0 a7 20 bb db dd 84 bd 25 7d af 3c
       -0.025627578 -0.0024513975 -0.06487628 0.021421978
000020 63 3f 03 3e fd f0 2e 3d 1f 8d 44 bd 77 0d 5b be
       0.12817149 0.042710293 -0.047986146 -0.21391855
000030 00 92 75 3d c1 bb 2e 3e d7 4b ad bd 7b 70 1b 3e
       0.05995369 0.1706381 -0.08461731 0.15179627
000040 55 66 39 bc dc 32 fe bd 13 08 cb 3c 01 a5 5f bd
       -0.011315902 -0.124120444 0.024784124 -0.05460072
000050 ab 84 49 be 5b e3 b1 bc a9 3d 33 3d c1 20 bb bd
       -0.19679515 -0.021714857 0.043759976 -0.09137107
000060 1e de 35 be 6a 29 9d bd 3c 36 59 3b b4 c1 79 bd
       -0.17760512 -0.07673915 0.0033143898 -0.060975745
000070 38 4c f2 bd fb 59 3a 3c aa 7b 67 3d 9d 0d 96 bc
       -0.11830944 0.011373992 0.05651442 -0.018317038
000080 39 f2 80 ba 6c 84 40 bd 29 03 9e 3d 05 41 c9 3d
       -0.0009837813 -0.047001287 0.077154465 0.098268546
000090 89 b6 27 ba 9d 02 20 3d bd bb 8f 3d 4e ab d2 bd
       -0.00063977443 0.039064992 0.0701823 -0.1028658
0000a0 20 82 04 3d 84 98 d8 3c 85 93 0c bd e5 a6 77 bd
       0.03235066 0.026439913 -0.034320373 -0.060461897
0000b0 68 29 45 3e 39 50 a1 bd d6 8d 8c bc 88 f4 30 bc
       0.19254076 -0.078766294 -0.017157476 -0.010800488
0000c0 9c 59 d6 bd 0e 85 92 bd ca 3e 09 bc b2 31 fb ba
       -0.104663104 -0.071542844 -0.0083767865 -0.0019164591
0000d0 5c 96 85 bc 2b 80 04 be 23 60 5f 3e 0d 04 1a 3b
       -0.016307048 -0.12939517 0.21814017 0.002350095
0000e0 82 f3 34 bd 86 5a 8a bd 70 a6 90 bd ca f2 5e be
       -0.04417754 -0.06755547 -0.070629954 -0.21772304
0000f0 fe 12 00 3e a9 0b 80 bd 78 06 38 3c 97 e0 cf 3d
       0.12507245 -0.06252224 0.011232011 0.10150259
000100 01 9f 9a 3d d6 b6 d7 3d e3 c3 c5 3c 6e 48 22 bc
       0.07549859 0.1053292 0.024141258 -0.009904964
000110 60 c3 38 3c 02 59 b9 3c 7f b8 9f bb a7 0c 48 3d
       0.01127705 0.02262545 -0.0048742886 0.04884019
000120 04 76 e9 3c 97 95 86 3d 7b 3d dd 3b f9 cb 25 bc
       0.028498657 0.06571501 0.006751714 -0.010119432
000130 f1 cd a9 3c f9 8f 23 3c 21 40 f7 3d 10 57 d4 bb
       0.020728083 0.009983056 0.120727785 -0.006480105
000140 f2 26 6a 3c 3d 00 ef bc 25 c8 d8 bc ba ec 6d bc
       0.014291512 -0.029174918 -0.026462624 -0.014521772
000150 f8 60 32 be e7 fe 25 bd df 71 2a bd 53 fc c6 bb
       -0.17419803 -0.040526297 -0.041612502 -0.00607256
000160 a4 50 d6 3c 1a 86 e3 3c 14 93 9a 3c 06 ad 0f 3d
       0.0261615 0.027773906 0.01886896 0.035077117
000170 55 44 f3 3c fc 55 a9 3d f2 fb 4d bc 0d 28 b9 3d
       0.02969567 0.08268353 -0.0125722755 0.09040842
000180 f1 54 6e 3b ff 83 9b bd 69 43 11 bd 4e 5f 36 be
       0.0036366547 -0.07593536 -0.035464678 -0.17809793
000190 28 19 ba bb 1f 6e a7 ba 0b 96 16 3d b2 b5 c8 3c
       -0.0056792684 -0.0012773908 0.036764186 0.024500702
0001a0 a1 5c 0d bc ca 46 80 3c f7 6f 02 3d 54 63 b3 39
       -0.0086280415 0.015658755 0.03184506 0.00034215546
0001b0 4d 7b fe 3c 5f cc 91 bd ec 2b b6 bd f5 2d 83 3b
       0.031064654 -0.07119059 -0.08895096 0.0040032812
0001c0 26 42 59 bc 7e e1 98 bd a7 0d 87 3d bc 34 05 3d
       -0.0132604 -0.07464884 0.06594401 0.032520995
0001d0 07 57 d6 bb 3f b9 30 3d 81 ee 8a bd 09 bd 67 bd
       -0.006541136 0.043145414 -0.06783772 -0.056576762
0001e0 e8 c4 49 bc bb 2d 98 bd c3 18 38 bc 57 08 59 3d
       -0.0123150125 -0.074305974 -0.011236372 0.05298647
0001f0 32 dd 8b bc 63 b9 6c 3d f4 7c e5 bc d0 58 3c 3a
       -0.017073248 0.057793986 -0.028013684 0.0007184865
000200 7f e3 09 3d a4 e2 34 be b8 92 c3 bd 50 c0 a3 bc
       0.033664223 -0.17664582 -0.09549469 -0.019989163
000210 f0 41 9f 3d 16 0f 21 be b9 39 74 3d d6 e4 fc 3a
       0.077762485 -0.15728411 0.05962536 0.0019294273
000220 ad 1f bd bd 0a a6 c0 3d a8 b7 95 3d 19 5a f3 bd
       -0.09234557 0.094066694 0.0731042 -0.11882419
000230 ff 8a 67 be c4 cc 3f be 14 3c 74 bc 43 70 8a 3c
       -0.22611617 -0.18730456 -0.014906902 0.016899234
000240 02 61 aa bd 2f fb 4a bd 25 69 c7 bd fa bc 3c bb
       -0.08319284 -0.049555954 -0.097368516 -0.0028799162
000250 70 ea b0 bd 1b 2b e8 bc 5f 1a e7 3c 0c e0 45 3e
       -0.086384654 -0.028340867 0.028210817 0.19323748
000260 97 15 85 3e 3c 8a 2b be 5a 27 2f be c2 87 c3 3c
       0.25993034 -0.16751951 -0.17104855 0.023868445
000270 82 43 87 bd 00 c8 06 be 14 3b 8e 3d b2 17 91 bd
       -0.06604673 -0.13162231 0.06944862 -0.07084598
000280 23 61 5a bd d3 bb 40 be 7c ba 3b be 38 f3 45 bd
       -0.053315293 -0.18821649 -0.18332857 -0.048327655
000290 b1 96 bc bc 82 8c 82 3d 64 39 dd 3b c9 0b 4a 3b
       -0.023021074 0.06374456 0.0067512263 0.0030829778
0002a0 67 5c ed bd e7 2c b7 3b 10 3c 68 3a d2 4b 51 3d
       -0.1158989 0.0055900696 0.00088590477 0.0510977
0002b0 56 3e a4 3d 82 68 d7 bd 48 38 97 bb 2f e2 ce 3d
       0.08019702 -0.1051798 -0.0046148635 0.10101735
0002c0 f4 0e b3 bd 9a d7 19 3e 9d 3e 3e 3d f7 c5 46 bd
       -0.087430865 0.15023652 0.04644643 -0.048528638
0002d0 1a 9d 03 bc a5 53 6e bc 1b fe c6 bc 3f 10 ed 3c
       -0.008033061 -0.01454631 -0.024291089 0.02893841
0002e0 9b e2 3c be 80 aa 4c 3d e9 3d 96 bd 4d 6e 74 3d
       -0.18445818 0.04996729 -0.07336027 0.059675504
0002f0 1b bf 29 3d 0a e4 98 3d bb 36 a4 bd 10 ab 86 bd
       0.041442018 0.0746537 -0.080182515 -0.06575596
000300 c1 b1 62 be 3a 33 70 3c 37 c9 a8 3d e2 bb 04 be
       -0.2213812 0.014660651 0.08241504 -0.12962297
000310 ea 1a 0e be 07 f3 6a bc 05 4a 07 3c b2 5d 43 3e
       -0.13877454 -0.014340169 0.008257394 0.1907871
000320 2f 83 62 be 30 5a a6 bd 55 43 11 bb 95 43 f1 bd
       -0.22120355 -0.08122671 -0.0022165377 -0.117804684
000330 c5 15 4d bc aa 03 db 3d 81 fa 4a bb 8a ed 81 3d
       -0.012517397 0.10694058 -0.0030972066 0.06344135
000340 4b 4b 87 3c 60 9f 92 3c 5b 41 02 3e 57 c0 13 3c
       0.016515395 0.017898262 0.12720244 0.009018025
000350 b2 8f a9 bc a0 31 2a 3e f7 87 0f bb 45 58 b1 bd
       -0.020698402 0.16620493 -0.002190111 -0.08659414
000360 ee 6d ef bd 2b 34 16 bd 95 4e 2c 3d a4 7e 44 3c
       -0.11690889 -0.036670845 0.04206713 0.011993084
000370 7e 1b 07 39 d9 b6 37 3e ba 2a b4 3d d6 87 f1 3d
       0.00012884845 0.17940845 0.08797212 0.11793487
000380 29 19 9c 3d bd 6f e8 3c 4d 3d c3 bc ae 35 26 be
       0.076219864 0.028373593 -0.023832941 -0.16231415
000390 a6 9f f6 bc 3b 64 48 bd e2 ed 34 bc 73 47 49 bd
       -0.030105423 -0.048923712 -0.011043044 -0.049140405
0003a0 77 ef d2 3c a0 6c 5a bd af a0 99 bd d4 80 ac 3b
       0.025748951 -0.05332625 -0.07501351 0.005264381
0003b0 79 ee 16 bd 1a f5 05 3e e4 71 7e bc bc 58 29 3e
       -0.03684852 0.1308178 -0.015530083 0.16537756
0003c0 3f 26 95 3d 83 7e 25 bd 2f 08 c9 bd e2 d0 85 bd
       0.072826855 -0.040403854 -0.09816014 -0.06533982
0003d0 76 fb 1d 3c 68 5d bb bc e8 d5 ee 3d 06 b9 88 bd
       0.0096424725 -0.022871688 0.11661893 -0.066759154
0003e0 04 f2 24 3d e1 3a 37 3e d4 94 8b bd ca 0f d5 ba
       0.040269867 0.17893554 -0.06815496 -0.0016255316
0003f0 41 f4 e4 bd 0b 0a 2e be a3 34 be bd f3 21 0c 3d
       -0.111794 -0.16996019 -0.092873834 0.034212064

net_stack.2.bias f4 [32]
000000 1c ae 60 bd ca a3 6f 3c ee f4 87 3d fd 14 7d bd
       -0.054853544 0.014626453 0.066385135 -0.061787594
000010 2c 44 84 bd 5c e7 45 3d 1a de 4e 3d 63 71 6e 3d
       -0.06458315 0.048316345 0.05050478 0.058213603
000020 cf ef 5a bd 9f 0e 5f 3d f8 ed 86 3d 03 69 66 3d
       -0.053451356 0.054457303 0.06588358 0.05625249
000030 c9 04 61 bd 0a 42 7e 3d 75 31 8c bd 04 5f 70 3d
       -0.054936204 0.0620747 -0.06845371 0.058684364
000040 2b 78 6a 3d 32 d3 7c bd 9a b7 52 bd 45 e3 4b bd
       0.057243507 -0.06172485 -0.051444627 -0.049777288
000050 3c e8 70 3d 26 1f 80 bd fa 8a 89 3d d9 b9 8c bd
       0.058815226 -0.06255941 0.06715961 -0.06871385
000060 c3 8c 7f 3d 92 23 88 3d 1b b8 86 3d c9 93 82 3d
       0.0623901 0.066474095 0.06578084 0.06375844
000070 5a 00 3e 3d 81 b5 69 bd 08 d4 81 bd a2 db 80 3d
       0.046387054 -0.05705786 -0.0633927 0.06291892

net_stack.4.weight f4 [1, 32]
000000 c4 52 c0 bd 8b 60 19 3c 83 bd a5 3d f9 99 58 bd
       -0.09390786 0.009361397 0.08092787 -0.052881215
000010 99 e2 2a be ae dd a9 3d 22 8f f5 3d e2 d1 57 3e
       -0.16688003 0.08294235 0.11990191 0.21076158
000020 44 97 22 bd 95 eb 36 3e 36 75 59 3d 28 b5 bf 3d
       -0.03969504 0.17863305 0.053090297 0.09360725
000030 3a df 4a be 6b 40 6e 3d 25 db 9b bd 96 f0 11 3e
       -0.19811717 0.058166903 -0.07610158 0.14251933
000040 f3 ad 01 3e 74 7b 37 be 16 ed de bd a5 62 bc bd
       0.12664013 -0.17918187 -0.10885064 -0.091985025
000050 ea 6a 49 3e 73 66 19 be 51 b5 9e 3e 57 36 8d bd
       0.1966969 -0.14980488 0.30997708 -0.0689513
000060 29 4d 60 3e ce 12 a2 3d 09 bd e1 3d 5d 59 f1 3d
       0.21904434 0.07913743 0.11022384 0.11784623
000070 63 1e 16 3e 4e c0 c2 bd 26 60 ae bd b6 e4 11 3e
       0.14660029 -0.095093355 -0.085144326 0.14247403
