CAPSTONE/CAPMODELS/output/model_GADG2.pth (torch, 17392 bytes, 5 tensors)

net_stack.0.weight f4 [64, 23]
000000 fa ea 92 bd e6 73 70 bd d2 6c 98 be 57 5d 8f 3c
       -0.071737245 -0.05870428 -0.29770523 0.017500563
000010 fe 67 6c 3e 5d 2e 83 bc 51 72 15 3e d9 c5 fe 3c
       0.23086545 -0.016013319 0.1459439 0.0311002
000020 6b 16 ed bd 74 f7 0a be 5c 1f 27 bd c2 be 6c 3e
       -0.115765415 -0.13570958 -0.04080139 0.23119643
000030 ee 04 a5 3e 6e f2 08 bd 1e 65 85 bc 7e 43 08 3e
       0.32230324 -0.033434324 -0.016283568 0.13306996
000040 a3 85 5f be 20 f0 08 be 46 7b 2f be b1 d6 12 3e
       -0.21828322 -0.1337285 -0.17136869 0.14339711
000050 4f 0b 4f 3d 09 e4 37 3c d3 b4 99 bc 1f a0 4b 3e
       0.050547894 0.011223801 -0.018762982 0.198853
000060 d1 28 a5 3d bd b9 83 3d 3a 00 81 3e 41 c5 92 3d
       0.08064426 0.06431911 0.25195485 0.071665294
000070 e7 82 40 bd 0a 7a 8d bb 99 90 2e be 1d f1 9a bc
       -0.04699984 -0.0043175267 -0.17047347 -0.0189138
000080 e0 6f a0 bb ed c5 78 bd e0 3e 3d bd a9 46 0c be
       -0.004896149 -0.06073563 -0.04620254 -0.1369883
000090 61 3d 09 3e 48 7b e0 bd fc a0 0f 3d 49 b5 d4 bd
       0.1340232 -0.10961014 0.035065636 -0.1038614
0000a0 92 12 c3 3d 2e 80 94 bd 19 fc fd bd 23 3c 0d 3d
       0.095250264 -0.07251011 -0.124015994 0.03448118
0000b0 e5 37 25 bd 5e 9b 11 3e cb aa db bd a4 0d 19 3d
       -0.04033651 0.14219424 -0.107259355 0.037366524
0000c0 cc 3f 61 b9 ea 3b ce 3c 5c 4a 84 bd e2 e3 15 be
       -0.00021481438 0.025175054 -0.064594954 -0.14637712
0000d0 f9 24 e0 3a d9 57 97 bc 89 c6 8a bd aa 7a 82 bd
       0.0017100862 -0.018474506 -0.06776149 -0.063710526
0000e0 9b ca 2f be 7e 9f 0f 3d 84 d2 ab bc 70 a0 d6 bd
       -0.17167132 0.035064213 -0.020974405 -0.1047982
0000f0 d2 ff c0 ba 1e 64 18 be a8 5f a2 bd 23 dd 99 bd
       -0.0014724678 -0.14881942 -0.07928401 -0.075128816
000100 3c 80 1b 3e e3 b0 d7 bd 1f 9e ff 3d 87 d1 e1 bd
       0.15185636 -0.10531785 0.12481331 -0.11026292
000110 d5 e1 17 3d 19 93 1e bc 7e 3f 4d bd 1a f6 6f bd
       0.037080605 -0.0096786255 -0.05010938 -0.05858431
000120 40 98 64 bd 36 cb 0c 3d 1c ea 9a bb 0f 0e 7e bd
       -0.05580926 0.034373485 -0.004727615 -0.062025126
000130 66 2f a5 bc 3b 28 e6 3d 37 28 42 3e 50 85 a3 bd
       -0.020164203 0.11238142 0.18960653 -0.07984412
000140 0a cd 26 3e 79 0a f7 3d f3 b2 5e bd bb b9 07 bd
       0.16289154 0.120625444 -0.054369878 -0.03313611
000150 40 6d 98 3d 1e 42 c9 bd 79 c9 c8 bc dc be 79 be
       0.07442713 -0.09827064 -0.024510132 -0.24389213
000160 66 62 9e 3d f8 65 7a 3d 07 86 03 3d 7b c8 c9 3d
       0.07733612 0.0611324 0.03211024 0.09852692
000170 89 a0 00 3d c6 e8 3a bb 29 bf 02 be 96 54 aa 3d
       0.0314031 -0.0028520091 -0.12768234 0.08316915
000180 42 70 e8 3c 01 cd f6 3d 5f c6 49 3e e6 e3 19 bb
       0.028373841 0.1205082 0.19704579 -0.0023481785
000190 4a 1c 39 3e 35 80 d1 3c 70 72 63 3c b3 72 80 bd
       0.18077198 0.02557383 0.0138822645 -0.06271877
0001a0 ea 36 69 3d 47 37 83 3d 42 22 a6 bd 58 62 fa bd
       0.056937136 0.06407028 -0.08112003 -0.12225789
0001b0 fd 0c 9d bc a2 d3 3e be 8d 05 8e bc 0f 98 2f bd
       -0.019171232 -0.18635419 -0.017336631 -0.042869624
0001c0 58 8a f9 3d 11 26 16 bd 9e ef 46 3b 18 a6 1e 3d
       0.1218459 -0.036657397 0.0030355225 0.038732618
0001d0 03 7e 97 3b 86 60 cd 3c 37 d4 20 be 27 2a 5e 3e
       0.004623176 0.02507044 -0.15705954 0.21695767
0001e0 7c 8c 94 3d 6c 8c 2d bd 25 fb 31 3d 71 ad 5b bd
       0.07253358 -0.042370245 0.0434524 -0.053632203
0001f0 7a 11 a4 bd 4b 1b f6 3d 4d c5 cc 3c f8 47 30 bd
       -0.08011146 0.120169245 0.024996424 -0.043037385
000200 54 e2 34 bb bf 2a ba bd 7c a8 13 3d 25 7c bc 3d
       -0.0027600722 -0.090901844 0.03604935 0.09203366
000210 ad ad 07 be f4 e0 a0 3c f3 99 09 be 55 64 2a 3d
       -0.13249846 0.019638516 -0.13437633 0.04159959
000220 9c 41 9d bd 1f f2 7a 3d 3e 85 bb bd c8 88 c4 bd
       -0.076785296 0.06126606 -0.09156273 -0.095964015
000230 2d fe 91 3e 1d 42 c4 bd a9 80 4e 3d 0a 3b 2c 3d
       0.28514233 -0.095829226 0.05041567 0.04204849
000240 35 85 3a 3e f8 a8 7e bd 97 56 11 be 61 0e 93 bd
       0.18214877 -0.06217286 -0.14193188 -0.07180477
000250 86 78 55 3d a2 dc fa 3d d5 2f 33 3d c3 25 48 bc
       0.052116893 0.122491136 0.043746788 -0.012216034
000260 9d 38 c2 bd f1 a8 94 3d 8a 8f b4 3e 01 15 93 3d
       -0.094834544 0.072587855 0.35265762 0.071817406
000270 12 97 c5 3d a0 19 3a 3e c5 4d b9 3d 9e 77 3f bd
       0.09647955 0.18173838 0.090480365 -0.046744935
000280 96 26 bb bc 90 81 0f be 9b 80 7c 3d ac aa 09 3c
       -0.022845548 -0.14014268 0.061646085 0.008402508
000290 68 31 cd 3d 5e cb 05 bd b2 7d f0 bd ad c3 3d bc
       0.10019189 -0.03266465 -0.117427245 -0.011582297
0002a0 db 14 7d 3d 73 0c 24 3d 2f 82 2a bd d5 c8 15 bd
       0.061787467 0.040050935 -0.04162806 -0.03656848
0002b0 4d 0a 09 3e 10 a1 ca bd 70 4d 34 bd af 2a a6 3d
       0.13382836 -0.098940015 -0.044019163 0.0811361
0002c0 3e ac 53 bd b2 1d 4c 3d 37 d7 96 3d 45 f7 92 bd
       -0.051677935 0.049833007 0.07365268 -0.07176069
0002d0 4f cf 11 bd 72 5b 4f 3b 84 ec ea 3d f8 05 08 be
       -0.035598096 0.00316402 0.11470893 -0.13283527
0002e0 e1 57 d7 3d 30 af 79 bd 66 e0 a4 3d 6d 39 02 be
       0.105148084 -0.060958087 0.08050613 -0.12717219
0002f0 6f 5e 3f 3d fa bb 07 3d 9e 5e aa 39 cd 32 cf bd
       0.04672092 0.033138253 0.00032495422 -0.10117111
000300 87 76 f2 bb fa bc 14 3d de 07 b0 bd 90 72 06 bd
       -0.0073993835 0.036313035 -0.085952505 -0.0328241
000310 bc c8 c5 3d ea 58 66 3d 02 26 6c bd 84 01 90 bc
       0.09657428 0.05623714 -0.057653435 -0.017578848
000320 dd bc 12 be e7 4a 0b 3d 61 aa ee 3c eb e0 18 bd
       -0.14329858 0.03400698 0.029133977 -0.037323873
000330 35 9d b6 3d 5b 04 0b 3e 7c 35 17 3e dd 68 1d 3a
       0.089167036 0.1357588 0.14766496 0.00060047006
000340 57 fd 01 be fc fc 5a bc 8f 1f 63 3d ba b7 ea bd
       -0.12694298 -0.01336598 0.05545002 -0.11460824
000350 85 a3 d7 bd c4 48 c9 bd 1d 2f 86 bd a6 c4 9b 3c
       -0.10529236 -0.09828332 -0.06551955 0.019014668
000360 d9 fd 41 3e b5 1e 70 3e 2b 7f 53 bd 9b a0 21 be
       0.18944491 0.23449214 -0.05163495 -0.15783922
000370 78 b3 20 3d 84 d2 89 bd 21 16 95 3c 19 84 d6 bd
       0.039233655 -0.06729606 0.018199028 -0.104744144
000380 0a 60 db 3c eb 56 36 3e 39 50 56 3e 6b 91 56 3d
       0.026779193 0.17806594 0.2092904 0.052384775
000390 53 b1 34 bd 8d ef da bd 11 27 a2 3d dc ec 56 bd
       -0.044114422 -0.10690222 0.079176076 -0.05247198
0003a0 5b 0b c3 ba c0 f9 3e 3d 05 d7 39 3d 3d 61 db 3d
       -0.0014880704 0.0466249 0.045371074 0.10711906
0003b0 e3 fa cf 3d b1 45 b2 3d 11 11 f4 bd 8f f2 d3 bc
       0.10155275 0.08704699 -0.11917318 -0.025872497
0003c0 cc 94 82 bd 55 3a 88 3d b6 b2 1d be 55 d0 80 be
       -0.06376037 0.06651751 -0.15400204 -0.25158945
0003d0 a6 4f 29 be 6a 86 d3 bd 55 c2 ae 3d ac 8c 2f 3c
       -0.1653429 -0.10328372 0.0853316 0.010714691
0003e0 cf 45 bf bd 28 28 5a bc 0b 41 c8 3d ab 0c 86 bc
       -0.09339487 -0.013315238 0.09778031 -0.016363462
0003f0 0d d5 c9 bc e6 dd 89 3d c6 ec 65 3e d1 4e 4f 3e
       -0.024637723 0.06731777 0.22453603 0.2024491

net_stack.0.bias f4 [64]
000000 a3 75 ab 3d ec 08 87 bd 25 4a 9f bd 45 df 72 3d
       0.08372047 -0.065934986 -0.07777814 0.059294958
000010 59 19 a4 3d ff 6a 34 3d e3 b2 f8 3c 64 b4 80 bd
       0.08012647 0.044047352 0.030358737 -0.06284407
000020 2e f9 93 3c 97 9f 36 bd 30 bd 1b 3a 03 d0 be bd
       0.018063154 -0.04458579 0.0005940972 -0.09317019
000030 77 e4 88 bd 3e ea be 3d 3c 74 a7 3d 84 64 ce 3d
       -0.06684201 0.09322022 0.08176467 0.100777656
000040 d5 3d c0 bd 44 f8 74 3d 45 11 06 3d dc 80 80 3a
       -0.093867935 0.059807077 0.032731313 0.0009804028
000050 29 fc c5 bd ce ad bf 3d 12 cf af 3d 05 3a 4e 3d
       -0.09667236 0.093593225 0.085844174 0.0503483
000060 71 e2 0b 3d 01 f0 ac 3d 4c 7a a1 3d 0d cb 79 bd
       0.0341515 0.084442146 0.078846544 -0.06098466
000070 ac 3e 8b 3d 0c c5 bb bd 01 95 a7 bd 8b 81 9b 3d
       0.06799063 -0.09168443 -0.08182717 0.07593068
000080 63 f7 48 3d c3 3a 74 bd 54 0e 0e 3d 9d 4d a1 3d
       0.04906405 -0.059626352 0.034681633 0.07876132
000090 2a 8b a6 3d 2d 7a ad bc b4 54 b3 bd 20 7e e2 3a
       0.08132012 -0.021176422 -0.0875639 0.001728002
0000a0 f4 d5 b5 3d 2d 8a c2 3d 61 8e 9e bd 72 55 2e bd
       0.08878699 0.09499011 -0.07742 -0.042561956
0000b0 11 09 9f 3d 2e aa b8 bd da 9a 7e 3d 71 fe ba bd
       0.07765401 -0.09016834 0.062159397 -0.09130562
0000c0 24 e7 bf bd cb 31 8c bd 01 3b 09 3d 54 6a c0 bd
       -0.093702585 -0.06845435 0.033503536 -0.093952805
0000d0 5e 60 6c bd b0 06 a7 bd cd 1e 94 3d 33 39 88 bd
       -0.05770909 -0.081555724 0.07232437 -0.06651535
0000e0 e2 ac 01 3d 9d 85 bd 3d b9 6a 4a 3d 82 d4 20 bd
       0.031659015 0.09254 0.049418185 -0.039265163
0000f0 44 00 79 bd 7e 75 e4 3c e3 a7 ae bd 20 18 38 bd
       -0.06079127 0.027888056 -0.085281156 -0.044944882

net_stack.2.weight f4 [32, 64]
000000 91 71 00 3c b2 44 5d bd 97 96 bc 3c 30 46 ce bd
       0.007839576 -0.05402059 0.023021026 -0.10071981
000010 96 1e 65 3e fd 19 26 bd 52 c6 b4 bc 82 a8 9a b9
       0.22374949 -0.040552128 -0.022067223 -0.00029498717
000020 39 f4 06 3e 47 ef 54 bc 06 b5 2d 3e b2 60 c8 bd
       0.13179101 -0.012996501 0.16963586 -0.09784068
000030 7f cd ad bd ad 3e 30 be 10 08 e3 bd ef 27 1d bd
       -0.08486461 -0.17211409 -0.11085522 -0.03836816
000040 5c 10 a7 bb 84 f4 74 3b ae 54 0b 3d 14 07 f9 bd
       -0.0050983857 0.0037377188 0.034016304 -0.12159553
000050 ad 63 cd 3d 2a 1d 47 be a0 d5 fe bd e5 d4 70 bc
       0.10028777 -0.19444719 -0.124430895 -0.0146991955
000060 7d 2d ca 3d 96 ae 1d be 01 19 7e bd df 18 5e bd
       0.098719575 -0.1539863 -0.062035564 -0.054222938
000070 05 27 33 be b2 01 c4 3d 56 a9 1f be 90 f6 51 3d
       -0.17495354 0.09570636 -0.1559194 0.05126053
000080 dc 37 b0 3d d9 f5 ee 3d 5d c7 6a bd c1 95 b2 bc
       0.08604404 0.116679855 -0.057319034 -0.021799924
000090 fc c7 8b bd 62 3b 24 be 26 ca 14 3d 30 2c 45 bc
       -0.06825253 -0.16038278 0.036325596 -0.012034461
0000a0 89 4e 31 3c 7e 7d 23 3c 6c 44 41 3d 07 ce 1a bc
       0.010821947 0.00997865 0.047184393 -0.009448535
0000b0 c8 e4 38 bd b3 c9 98 3d 3c 88 77 3d bd 9b 59 3d
       -0.045140058 0.07460346 0.060432658 0.05312704
0000c0 70 b3 06 bd 34 6d b5 3b 93 7b 08 3d bd 2f 16 3d
       -0.03288597 0.0055366997 0.033320975 0.03666662
0000d0 8d 1b 51 3d b8 c3 12 be 20 f5 ee 3d 5d 66 1c be
       0.051051665 -0.14332473 0.11667848 -0.15273423
0000e0 2b db 0d be da 88 a2 bd 7e 3e ca bd 39 cb 71 3d
       -0.13853137 -0.079362586 -0.09875201 0.0590317
0000f0 48 44 95 bd e6 f8 0e be 25 ed 9c 3d b2 07 c5 bb
       -0.07288414 -0.13962135 0.07662419 -0.0060128802
000100 99 d9 6f bb d6 1c 95 bd 06 bb 00 be e3 79 9c 3d
       -0.0036598204 -0.07280891 -0.12571344 0.076404355
000110 59 8b 2e 3d b2 70 b0 bb 8d 47 62 bc cd 9e cd bd
       0.04261336 -0.005384528 -0.013811004 -0.100400545
000120 37 92 34 bd c0 27 b6 bd f1 66 e1 bd 61 c9 14 3c
       -0.044084754 -0.088943005 -0.11005963 0.009081216
000130 6f a8 cc bc 14 f6 d4 3c b4 72 0e 3a 42 d4 4a 3d
       -0.02498266 0.025996245 0.0005433962 0.04951883
000140 68 f7 23 3e 5a 3f a5 3d e9 ed a9 bd f1 33 71 bc
       0.16012347 0.08068724 -0.08297331 -0.014721856
000150 f6 01 ec bd a1 42 6c bd f9 8c 8e 3d 6e 7e 0a 3d
       -0.115238115 -0.05768073 0.06960482 0.03381198
000160 d1 99 41 bc 8b 0c 24 be 6b 5e 41 bd d4 1c a1 3c
       -0.011816458 -0.1602041 -0.047209185 0.019667067
000170 5b b9 f8 bb a6 cc 69 3d 22 d5 8a 3d b4 65 c9 bc
       -0.0075904555 0.057079934 0.06778933 -0.024584629
000180 b0 cd 68 3b 81 f4 08 3d e6 7f f6 3c 96 03 09 be
       0.003552299 0.033436302 0.030090284 -0.13380274
000190 47 66 74 3d 6b 2f b2 3d 52 d5 a3 3c 7a 2a f4 bd
       0.05966785 0.087004505 0.01999918 -0.11922164
0001a0 4a bf b4 bd 36 33 d1 bd 64 32 5f bd d6 f1 07 bd
       -0.08825548 -0.10214846 -0.054491416 -0.033189617
0001b0 ac 17 1f 3a a2 17 1b 3e 44 ce 4d bd d1 da b5 3d
       0.0006068896 0.15145734 -0.05024554 0.088796265
0001c0 fc 7b fd 3d 8b f6 84 3d 58 c7 57 3d 1d 0a c7 3d
       0.12377164 0.06492337 0.052680343 0.09718726
0001d0 fe aa 2e 3e 51 ba 37 bd 80 57 a6 3d ca 46 22 3c
       0.17057416 -0.04485542 0.08122158 0.009904573
0001e0 d3 06 92 bb 45 87 d7 3c f1 48 eb bd 4a 11 39 3c
       -0.00445638 0.026309619 -0.11488522 0.011295626
0001f0 8a c0 4b 3e 8f c3 99 bd 4e 71 c8 3c bd 3d f7 3c
       0.19897667 -0.07508003 0.02446809 0.030180806
000200 2b 3a b3 3d 8f 10 4b bd 72 2c 0c 3d 87 27 89 bd
       0.08751329 -0.04957634 0.034222074 -0.06696992
000210 2c b4 f4 bb 50 d7 80 3c 5a 95 15 3e f0 f0 00 bd
       -0.007467767 0.015727669 0.14607754 -0.031479776
000220 94 b6 ae 3e 67 30 e8 3c 68 d1 8c 3d fa 3c 1a 3c
       0.3412367 0.028343393 0.068758786 0.009413952
000230 90 ba 91 bb ad 43 aa 3d a8 6f 88 3d 6c 96 37 3d
       -0.004447289 0.083136894 0.06661922 0.044821188
000240 4f 86 ac bd b5 45 a0 bd d5 49 6a 3c cf 49 41 3d
       -0.08424055 -0.078257956 0.0142998295 0.04718953
000250 66 e1 28 bc a1 1a 55 3e 8f ad 27 3e 1c 32 5e bc
       -0.010307645 0.2081094 0.16374801 -0.013561752
000260 ea 3e 6d bd bd 79 ac 3d c7 13 71 bd 0a d8 c2 bd
       -0.057921328 0.08421657 -0.05885675 -0.095138624
000270 b3 a6 9f 3c 0f 65 2c bd 77 6a 23 3e 70 ad ca 3d
       0.019488668 -0.042088564 0.15958582 0.09896362
000280 76 46 d1 bc fe 89 58 bd 06 8b 87 3c 05 59 55 3e
       -0.025546294 -0.052865975 0.016545784 0.2083474
000290 c5 97 07 bd e9 ac a3 bd 34 71 24 be b7 93 9a 3c
       -0.033103723 -0.07991964 -0.16058809 0.018869264
0002a0 d2 3f b8 3d 62 45 13 3d 8e 86 ba bd 65 80 c5 bc
       0.08996548 0.03595484 -0.091076955 -0.024109075
0002b0 a8 22 51 3d 49 6b ad bd b7 3e bc bd e2 6e 04 3d
       0.05105844 -0.08467729 -0.091916494 0.03233231
0002c0 fe fe 27 bc e1 fd 3a be ab db b0 3a eb 23 14 3d
       -0.010253666 -0.1826091 0.00134932 0.036167067
0002d0 e1 96 0e 3e c3 a7 03 be e2 2b 86 bd c5 30 e1 3c
       0.13924743 -0.12856965 -0.06551339 0.027489075
0002e0 ab 54 f5 3c d1 ae 78 3d 70 d5 c2 3b 0d 73 af 3c
       0.0299476 0.060713593 0.005945854 0.021417165
0002f0 54 13 f9 3c da 28 cf 3c 45 0c 9b 3d 97 59 20 3c
       0.030404724 0.025288034 0.075706996 0.009786985
000300 31 f8 e9 3d 1f d4 b4 bc ca c3 51 3d c7 ba 09 3e
       0.11424292 -0.022073803 0.05121211 0.13450156
000310 6a 5a b5 bc a0 64 e6 3d 30 88 80 3d cc 11 f7 bd
       -0.02213784 0.112496614 0.06275976 -0.12063941
000320 43 17 06 3d c6 bb 25 3e f3 1f 65 3c b5 f4 7e 3d
       0.032737028 0.16184911 0.013984668 0.06224509
000330 45 6d 47 3d 15 71 be bd 9a ca 1d 3c 70 4d bb bd
       0.048688192 -0.092989124 0.0096308235 -0.091456294
000340 cb 95 da 3a 64 6a 12 be 55 f7 e4 3d 5e f0 49 be
       0.0016676722 -0.14298397 0.11179987 -0.19720599
000350 40 6c f0 3c 0d ab 6d be 50 60 47 3d a1 06 8b 3d
       0.029348493 -0.23209782 0.048675835 0.06788374
000360 a1 00 8e bd 75 57 0d bd 96 e5 6e 3d 2f 6c 49 3d
       -0.06933714 -0.034507234 0.05832442 0.049175438
000370 1e 1d 8f 3d 29 db 06 3d e4 20 90 3d 1e 44 9d bd
       0.069879755 0.03292385 0.070375234 -0.07679008
000380 db 95 aa bd ae e0 57 3c 75 79 2c bd 57 26 d8 bd
       -0.08329364 0.013176126 -0.042108018 -0.10554188
000390 9f cb bc bd 9a fd a8 bd 38 e7 0b be ca 5a 5a 3e
       -0.09218525 -0.08251496 -0.13662422 0.21323696
0003a0 01 07 79 3d 49 73 cc bd 6a 1a 53 be c0 87 77 3e
       0.060797695 -0.099829264 -0.20615545 0.24172878
0003b0 63 9b 08 3e 08 3f de 3d dc ea 4b bd 69 95 34 3d
       0.13340525 0.10851866 -0.049784526 0.0440878
0003c0 50 45 50 3a 99 21 bc bd e1 7e 12 be d4 32 26 3e
       0.00079448987 -0.09186096 -0.14306213 0.16230327
0003d0 6d 6c 41 3d 9f c8 91 bd 1c 48 72 bd f5 38 1d be
       0.047222544 -0.071183436 -0.0591508 -0.15353759
0003e0 e9 3f 0e 3e 7e dc 02 be 5c 7e 30 be 96 42 0b 3c
       0.13891567 -0.12779424 -0.17235702 0.008499762
0003f0 90 66 c1 bb 58 f1 af 3c ad 39 b6 bc 23 b0 b9 bd
       -0.005902119 0.021477386 -0.022244299 -0.090667985

net_stack.2.bias f4 [32]
000000 bc a3 93 bd 7c 25 d1 bd 96 ca 92 3d 42 4c a4 bd
       -0.07208964 -0.10212228 0.071675465 -0.080223575
000010 5c 53 90 bd 37 7b b9 3d c3 c0 9d 3d 9f bb 95 3d
       -0.070471495 0.090567045 0.07702782 0.073111765
000020 9d 14 a2 bd cf e2 34 bd b3 df b3 3d 0b df 94 3d
       -0.07914088 -0.044161614 0.087829016 0.072691046
000030 7e fd 96 bd a8 7f 9a bd 46 c7 a8 bd 89 dc 94 3d
       -0.073725685 -0.0754388 -0.082411334 0.07268626
000040 d7 5e aa 3d ac 09 9d bd 1b 4f a0 3d a3 92 bc bd
       0.083188705 -0.076678604 0.07827588 -0.09207656
000050 0b 2e b0 3d 93 7b 07 bc 29 29 a8 bd dd 1c a6 bd
       0.08602532 -0.0082692085 -0.08210976 -0.08110974
000060 c5 4f 97 3d 39 d6 65 3d 54 38 cb bd 86 82 aa 3d
       0.07388262 0.0561125 -0.09922853 0.083256766
000070 fb c3 97 3d 29 52 94 3d 9f c3 8f bd 69 ef 94 bd
       0.07410427 0.07242233 -0.07019734 -0.07272226

net_stack.4.weight f4 [1, 32]
000000 39 6a c6 bd 9f a7 01 bd 20 b0 10 3e 4d 1c e2 bd
       -0.09688229 -0.031653997 0.14129686 -0.11040554
000010 78 d2 38 be db 3c cb 3d 1e b5 0b 3e 70 e0 39 3e
       -0.18049037 0.09923717 0.1364331 0.18152022
000020 42 02 ea bd bc fd 43 bc 63 58 4e 3d 5b 4f e1 3d
       -0.11426212 -0.01196235 0.05037726 0.11001464
000030 68 f2 48 be 45 75 94 be 33 05 3c be 09 14 46 3e
       -0.1962372 -0.2899572 -0.18361358 0.1934358
000040 33 fb 0e 3e 12 0c 03 be 98 50 22 3e 15 f6 cc bd
       0.13963012 -0.12797573 0.15851057 -0.10007874
000050 dc 31 07 3e 78 11 f8 bc 11 aa 1a be 3b 86 52 be
       0.13202614 -0.030281767 -0.15103938 -0.20559017
000060 32 a3 3e 3d e9 8d 4b 3c fe 9b c4 bd c3 12 ee 3d
       0.046542354 0.012423971 -0.09600066 0.11624672
000070 b2 ac 27 3e c8 51 4e 3d 04 b1 5e bd ed 78 57 bd
       0.16374472 0.05037096 -0.054368034 -0.05260556
