CAPSTONE/CAPMODELS/output/model_DEPG5.pth (torch, 39408 bytes, 9 tensors)

net_stack.0.weight f4 [64, 23]
000000 86 d9 a0 bd 26 22 44 be 87 3e b5 3d 5e 5f a8 3d
       -0.07853989 -0.19153652 0.08849817 0.08221315
000010 c8 32 d4 bd 30 13 bc bd c5 2a d1 3d 27 06 a4 3c
       -0.10361248 -0.09183347 0.10213236 0.020022465
000020 9b 8d 82 bc 0c f1 12 bd 23 6a 17 3e fd ee 57 bd
       -0.015936663 -0.03587441 0.14786582 -0.05271815
000030 f2 85 3c be a3 90 9f bd 1a 23 99 3d a5 48 46 3e
       -0.18410471 -0.07791259 0.07477398 0.19363649
000040 8e fd 11 bd b0 4a 8d 3d b8 b8 c8 bd d4 00 6a 3d
       -0.0356422 0.06899011 -0.09800857 0.057129696
000050 76 a3 41 bd dd fe 4f bd de dc f6 bd b2 b7 7f 3b
       -0.04727503 -0.050780166 -0.12053846 0.0039019403
000060 53 a2 cc bd 7d 3e c0 3d 3e 3d a5 bd cf a3 84 bd
       -0.099918984 0.09386919 -0.08068322 -0.064765565
000070 dd e8 4b 3d 78 42 0e 3e 59 72 35 be e0 b8 e0 3d
       0.049782623 0.13892543 -0.17719401 0.10972762
000080 57 48 d4 bd 43 27 83 bd 66 76 fd bd cb 3b b5 3d
       -0.1036536 -0.06403973 -0.12376098 0.08849295
000090 39 ad a6 bd 02 85 b6 bd 96 3e 71 bc 0c 2a e3 bd
       -0.08138508 -0.08912088 -0.014724394 -0.11092004
0000a0 f0 4f e6 bd c4 df 19 3d 5b c8 82 3d 71 00 19 3c
       -0.112457156 0.037566915 0.06385871 0.009338484
0000b0 d1 1b 06 be 14 fc 6d 3c f0 3e 53 bd 4e d3 ac bb
       -0.13096549 0.014525432 -0.051573694 -0.005274213
0000c0 08 e0 f7 3c 81 da 28 3e 90 d4 28 be eb b2 0d 3d
       0.030258194 0.16489603 -0.16487336 0.034594458
0000d0 35 19 dd 3d 27 af 8e 3d c0 fe 15 3e 14 13 89 bd
       0.107958235 0.069670014 0.1464796 -0.06693092
0000e0 3a fc 31 3e 35 1b 5e 3d a0 68 5c be 90 71 04 3d
       0.17381373 0.054225165 -0.21524286 0.032334864
0000f0 f6 29 66 bd a7 84 51 3e 05 b0 48 bb 53 8d 47 be
       -0.05619236 0.20460759 -0.0030622494 -0.19487505
000100 56 96 c5 3d c0 7f f3 3c 21 44 ce bc f0 b7 ec 3d
       0.09647815 0.029724002 -0.02517897 0.11558521
000110 59 22 bb bd 69 93 1a 3b 2c de 5c 3d f7 e7 b6 bc
       -0.09137411 0.0023586398 0.053922817 -0.022327406
000120 38 83 12 be fa 1a 8b be dc 85 96 3d 3d 9e 9a 3d
       -0.14307868 -0.2716902 0.073497504 0.07549713
000130 da d3 4b 3d 8c 36 d6 3c d0 a0 62 3c f3 8c af bd
       0.049762584 0.026149057 0.013832286 -0.08571806
000140 bc d8 34 3e f8 09 6c bc 34 81 c9 bc 27 c0 13 be
       0.17660803 -0.014406674 -0.024597742 -0.14428769
000150 15 15 8e bc 35 e4 03 bd 92 59 9d 3d ce 16 39 bd
       -0.017344037 -0.032200057 0.076831 -0.045187764
000160 a5 6f 82 bd ee 04 82 bd 95 1b a4 3d f6 79 0f be
       -0.06368951 -0.063485965 0.08013073 -0.14011368
000170 c0 66 c5 bb 71 9a 66 3d 97 79 ba bd 65 16 ec bd
       -0.0060242116 0.05629963 -0.09105223 -0.11527709
000180 34 25 13 bd 5f 06 0d 3e f5 ef 2c 3e b3 86 fe bd
       -0.03592415 0.13771962 0.16888411 -0.124280356
000190 7c 97 77 3d de 08 0e 3e 29 8b ab bd e4 16 26 3e
       0.0604472 0.1387057 -0.08376152 0.1621967
0001a0 36 e8 ad bd 79 90 34 bb c0 11 0b 3e 9a f3 1d be
       -0.08491556 -0.0027551933 0.1358099 -0.15424958
0001b0 bc 63 a4 bd 97 1b 13 3e 77 3a 6a 3c 70 3b 0f bd
       -0.08026835 0.14365993 0.014296166 -0.034968793
0001c0 07 e0 f2 bc 80 d3 2c be 13 af ae 3c bd 1b 9b bd
       -0.02964784 -0.16877556 0.021323716 -0.0757365
0001d0 9e bb 36 3d 0b 2d 7c 3d c4 36 7a 3c e2 dc 3b 3d
       0.04461252 0.061566394 0.015271846 0.045864947
0001e0 77 97 b0 bd 5a c6 cf bc fa 73 f0 bc 77 2b 18 3e
       -0.086226396 -0.025363136 -0.029352177 0.1486033
0001f0 e6 1e c5 3d 48 48 89 3d 48 7c 02 3e e4 8a 02 3e
       0.09625034 0.0670324 0.12742722 0.12748295
000200 09 53 7f 3d 90 37 60 be 69 37 0a bd 04 ab db bc
       0.062335048 -0.21896195 -0.03374425 -0.026814945
000210 eb 88 5d 3e ec 47 bf 3d 96 f1 15 3d 5c e5 14 3e
       0.21634261 0.0933989 0.036607347 0.14540619
000220 dc 1c 03 3d d8 8a 99 3d 86 15 2a 3d cc bc 48 be
       0.032009944 0.074971855 0.041524433 -0.1960327
000230 71 00 bd ba 06 81 f9 3a d7 25 95 3d 86 3d 6e 3d
       -0.0014419687 0.0019035644 0.07282608 0.058164142
000240 11 2e 5b bc bd 3c 01 3e 0e 6f 69 bd e0 c9 11 be
       -0.013377682 0.12620826 -0.056990676 -0.14237165
000250 e4 57 b4 bd a6 36 f3 bd ab 54 ac 3d 85 d7 8d bd
       -0.08805826 -0.11875658 0.08414587 -0.06925873
000260 7f 24 05 bc 59 b2 c2 bd 57 66 07 3d 94 b3 ee bd
       -0.008126377 -0.09506673 0.033056583 -0.116553456
000270 11 b2 47 bd 6a 45 a8 bd 82 a1 81 bd 07 3e be 3b
       -0.0487538 -0.08216365 -0.06329633 0.005805734
000280 bc 90 e8 bc fe c9 10 bd 09 2b 26 be 24 a0 fc 3c
       -0.028389327 -0.035348885 -0.16227354 0.03083808
000290 87 1c 96 3d 2c 66 f2 bd ca fc 7d bd cf 1f 4c 3e
       0.0732966 -0.11835894 -0.062008657 0.19934009
0002a0 0e 9b 87 3d 3b 53 b2 bd a8 f2 0b be 25 7d 43 3e
       0.06621371 -0.08707281 -0.13666785 0.19090708
0002b0 ed a3 82 be 6d 34 c8 bd 8e a0 6c 3d 37 33 b2 bc
       -0.2551569 -0.097756244 0.057770304 -0.021752937
0002c0 c5 e5 8d 3d 45 ef 15 3e ba 0f b2 3d ba e2 2a 3d
       0.06928591 0.14642055 0.08694406 0.04172013
0002d0 97 93 ba bc 58 9e 67 3d a1 8b 8d 3d dc 36 2a 3e
       -0.022775454 0.056547493 0.06911398 0.1662249
0002e0 ca a6 6e 3d f6 50 01 3e 06 20 80 bc 89 2d b1 bd
       0.05826453 0.1262854 -0.01564027 -0.08651263
0002f0 14 69 0e 3d 33 a4 c9 bd ad e4 06 3e 10 90 74 bb
       0.03476818 -0.09845772 0.1317317 -0.0037317313
000300 df eb 70 be 8a 17 a0 bd c9 43 3b be a7 01 ad bd
       -0.23527478 -0.0781699 -0.18287577 -0.08447581
000310 61 af dd 3d 94 cb 39 3d fa ce a2 bd fe 23 5a be
       0.108244665 0.045360163 -0.07949634 -0.21302792
000320 0b fd 37 bc 7c 48 53 bd 0c 9e c5 3d 00 76 fd 36
       -0.011229764 -0.0515828 0.09649286 7.5537246e-06
000330 3e db 57 3d 6e eb 5e bd 5c 58 31 bd 2e 99 01 39
       0.05269932 -0.054423742 -0.043297157 0.00012359463
000340 b9 dd 37 be ec f6 97 bd 96 8d f4 3d f5 37 39 be
       -0.17955674 -0.074201435 0.11941068 -0.18087752
000350 1f 26 28 be 54 fb e0 3d ed ef 0c 3d 48 b3 19 3d
       -0.16420792 0.10985437 0.0344085 0.03752449
000360 39 5b 5f bd 82 7d 76 bc 19 e2 c5 bd e1 91 08 be
       -0.054530356 -0.015044572 -0.09662265 -0.13336898
000370 e7 89 44 be dc 8d f8 3b 86 fc 97 3c 46 03 79 3e
       -0.1919323 0.0075852703 0.01855303 0.24317655
000380 86 7e 7e 3c 27 67 ae bd 8f 52 e2 bc d6 37 72 3d
       0.015533095 -0.085157685 -0.027627258 0.05913528
000390 4c 02 86 3c fe 8e 14 bd de da 3a bd 7d 98 60 bd
       0.016358517 -0.03626918 -0.045618884 -0.054832924
0003a0 13 da c7 3d 2e 54 85 bd 68 74 d1 bc 56 a1 be bb
       0.09758391 -0.065101966 -0.025568202 -0.0058175726
0003b0 d8 e2 93 3c 67 89 2f bd 4b 85 39 3d 93 8a 95 bd
       0.018052503 -0.042855646 0.045293134 -0.073018216
0003c0 5b 55 13 3d 0e 4e 21 3d f2 8b aa 3d a7 43 15 3d
       0.035970073 0.03938108 0.08327474 0.03644147
0003d0 99 f1 2b be 7d 05 14 3d 80 a1 b2 bd c5 d6 03 3d
       -0.16791381 0.036138047 -0.0872221 0.032187242
0003e0 7b ff ac bd f9 51 0f bd 6c 37 17 3d fa b1 a1 3d
       -0.084471665 -0.034990285 0.03691809 0.078952745
0003f0 1e b3 0a 3e 02 83 48 3c 99 bf 82 3d bc 05 c7 3d
       0.1354489 0.012238266 0.063842006 0.097178906

net_stack.0.bias f4 [64]
000000 57 22 02 bc aa ed 73 bb 9c 30 36 bc 20 df 98 3b
       -0.007942758 -0.0037220516 -0.011119988 0.0046652704
000010 1c 75 b6 3c 45 45 c1 bc 51 35 86 3b 37 38 ee bc
       0.022272639 -0.0235926 0.0040957113 -0.02907954
000020 04 4a d9 bb 03 d5 d3 bb 86 66 d7 bb 5b 6e 0e 3c
       -0.006631138 -0.006464602 -0.006573501 0.008693303
000030 dd 36 aa 3c 16 65 b1 bc 36 69 f2 3b f7 ed 91 3b
       0.020778114 -0.021654647 0.007397796 0.0044534164
000040 be 5e d0 bc b2 e2 f8 3b cb 8a 8a bc 4e ff 80 bc
       -0.025435802 0.0075953836 -0.016911885 -0.015746739
000050 e8 28 c3 bc 81 43 92 3c be f6 82 3c 83 fc 6d 3c
       -0.023823217 0.017854454 0.015986796 0.0145255355
000060 d8 7e f6 b9 30 4b 8f 3b 33 f3 20 bb 2d aa 5d bc
       -0.00047015282 0.0043729767 -0.002455902 -0.013529343
000070 16 1a d2 ba ad f4 87 ba 99 30 5e bc 34 02 25 bc
       -0.0016029503 -0.0010372602 -0.013561391 -0.010071326
000080 a5 d4 b9 bb 7f e9 6a 3c 66 3e 6b bc de cb aa bc
       -0.005671101 0.014337896 -0.014358139 -0.020849165
000090 74 b2 a1 3b b5 c7 ab 3b 02 15 a7 bc 9b 86 52 bc
       0.0049346033 0.005242313 -0.02039576 -0.012849475
0000a0 92 ba 49 3c a9 2b 21 bc e0 68 53 bb 91 47 36 bc
       0.012312548 -0.00983707 -0.0032258555 -0.011125461
0000b0 19 8c 96 bb 69 3e 58 3b 8b 0c 04 3c d7 2e bc 3c
       -0.0045943377 0.0032996184 0.008059631 0.022971554
0000c0 3b a4 b0 bb 74 8c a0 bb 79 50 06 3c d9 6a c4 bb
       -0.0053906715 -0.004899556 0.008197897 -0.0059941825
0000d0 4d 0f 46 3c a4 65 75 3b 9c 2a fe 39 46 61 86 bb
       0.012088609 0.0037444616 0.00048478402 -0.0041009514
0000e0 f0 cb f6 bb b6 51 4f 3b 5f a9 94 bc 57 15 bd bb
       -0.0075316355 0.0031634397 -0.018147169 -0.005770366
0000f0 d2 74 89 3c a2 4c 89 bb 4d e9 e0 bb 2d cd 1e 3c
       0.016779337 -0.0041900435 -0.006863749 0.009692472

net_stack.2.weight f4 [64, 64]
000000 2f d4 fd bd 23 ec ba 3d d0 1c c8 3b a9 e8 11 bd
       -0.123939864 0.09127071 0.0061069503 -0.035622273
000010 a6 bf 47 bd d2 ac 2d 3e b9 e3 5d 3d c6 92 83 bc
       -0.048766755 0.16960457 0.05417225 -0.016061198
000020 64 93 d6 3d 34 2c 06 3e 37 12 82 bd e5 9e a2 bb
       0.10477331 0.131028 -0.063511305 -0.0049627894
000030 2b 89 7b 3c e7 4d 9c bd 3e 17 e2 bd 38 2b 7f bd
       0.015352528 -0.07632046 -0.11039589 -0.062297076
000040 42 cb da bd dc 51 6d bd cc c8 d3 3d 11 d0 f3 3c
       -0.106832996 -0.057939395 0.10341033 0.0297623
000050 5f 23 5c 3d db a8 08 be c9 b7 0c 3b 85 e5 a2 3c
       0.05374467 -0.13345663 0.002147185 0.019884834
000060 12 16 1d bc f4 64 a5 bc 4d af b7 bd 40 cb 09 3e
       -0.0095877815 -0.02018974 -0.08968983 0.1345644
000070 ab 5c 4f 3e e6 68 ad 3c ad d9 c5 bd 52 5f 39 3d
       0.20250194 0.021168184 -0.09660659 0.04525692
000080 49 11 a5 bd 7c ce 6c 3e 45 19 30 be 52 11 88 bd
       -0.080599375 0.23125643 -0.1719714 -0.066439286
000090 33 8a b0 bc ee b3 d5 3c 7a a8 db bc cc 8b 76 bd
       -0.021550274 0.026086774 -0.026813734 -0.060191914
0000a0 ce 90 be bd bf e4 ee 3d 5c 44 ef 3c 91 32 25 bd
       -0.09304963 0.116647236 0.029207401 -0.040331427
0000b0 9f ae ff 3c 72 c8 a4 3c 8b 24 b3 bd bd 87 e5 bd
       0.031211196 0.020115111 -0.087472044 -0.11207531
0000c0 09 7a 85 3d dd 0f 84 3d ce d9 af 3c 7d d2 f3 bd
       0.06517417 0.06448338 0.021466162 -0.11905382
0000d0 9c 8b ce 3c ab ad 03 be 7f f4 22 bd 81 03 00 3e
       0.025213055 -0.12859218 -0.03978395 0.12501337
0000e0 52 1e 16 be 13 01 a3 3c d8 75 a9 bd c5 d3 8b bd
       -0.14660004 0.019897973 -0.0827443 -0.06827501
0000f0 f5 08 7d be 16 8d 20 3e 24 1f 86 3c e9 6a 12 3e
       -0.24710448 0.1567882 0.01637227 0.14298595
000100 98 ab 92 3d d7 16 37 3d 5f 94 5a 3c a5 2e a3 3d
       0.07161635 0.044699516 0.0133410385 0.07967881
000110 77 74 a5 3a 5d 0d e7 bd 86 ce dd 3d 46 ad 01 3d
       0.001262321 -0.11281846 0.10830407 0.031659387
000120 36 e1 45 bc ce 23 e0 bd 35 4d 02 bb 26 0c 0b 3e
       -0.01207762 -0.10944329 -0.0019882445 0.13578853
000130 fa 31 c1 3d 51 68 ca 3d 02 93 c6 bc 83 b7 a1 bc
       0.094333604 0.09883178 -0.02424002 -0.019740826
000140 69 e8 56 3c ec d8 a9 bd 4a 16 68 3d d8 bf c6 bb
       0.013116934 -0.08293328 0.05666188 -0.00606535
000150 bd 21 c2 3c 5b 66 0c be 40 b0 1b bc e3 2c a4 bd
       0.023697728 -0.1371092 -0.0095024705 -0.08016374
000160 ae b5 f3 bd 72 6e a7 3d 65 56 12 3e b7 0b c1 bc
       -0.11899887 0.08175363 0.1429077 -0.023565156
000170 1e 7b c2 bd 86 0f 31 3e 64 cd 3e 3d 83 46 51 3d
       -0.09496139 0.17291078 0.046582595 0.051092636
000180 be 60 d7 bd 2a 11 fd bd ed 06 5f 3d 79 c6 8f 3d
       -0.10516499 -0.123567894 0.054449964 0.070202775
000190 e4 8f dc bd 6e 3f 9d 3c d6 8e f0 bd 2c 7c fc bc
       -0.107696325 0.019195285 -0.11745994 -0.030820929
0001a0 f2 c8 66 bd ae c5 7b 3d c2 b7 25 bd b5 c0 07 be
       -0.05634398 0.06146782 -0.04045845 -0.13257106
0001b0 91 8c 95 bd 76 58 78 3d 1d 97 18 bd f2 76 83 3c
       -0.073022015 0.060631238 -0.037253488 0.016047928
0001c0 ce e0 81 3d c7 35 2d 3c c4 b4 4a bb 21 c8 94 3c
       0.06341706 0.010571904 -0.0030930499 0.018161835
0001d0 b6 3d 40 3d 60 52 de bc 13 13 2a 3e e8 0c 4f be
       0.046933852 -0.027138889 0.16608839 -0.20219767
0001e0 a1 9a 20 3e 82 ea ba bd 9c 86 18 3d cb ae 9e bd
       0.15683986 -0.0912676 0.03723775 -0.07748183
0001f0 c3 f1 73 bc 67 e4 fb 3b 1c 34 87 3d a3 97 37 3b
       -0.014889183 0.00768714 0.06601736 0.0028013967
000200 46 0b ba 3d bf 48 2b 3e ed 74 0a 3e a1 08 94 bd
       0.090841815 0.16726969 0.13521166 -0.07228208
000210 1a 73 1c be 1b 75 77 bd 60 b4 45 3d a0 92 86 bd
       -0.15278283 -0.060414415 0.048267722 -0.06570935
000220 c2 51 0b be 1f 6b 6b bd 5f 2a 55 3b 27 05 66 3e
       -0.13605407 -0.057475206 0.0032526476 0.22462903
000230 16 0d a9 3b 1a b2 8f 3d e6 5b 82 bd 9d 53 29 3d
       0.0051590307 0.07016392 -0.063651845 0.041339505
000240 d4 bc 5e bd 6a d6 fc ba 1c 1e f2 3d c4 da 3b bd
       -0.0543793 -0.0019289975 0.11822149 -0.045862928
000250 1d cb b5 3b 3a 1c a2 3d 16 9e 02 3e 82 e8 1f bd
       0.0055478946 0.0791554 0.12755617 -0.039040096
000260 69 89 07 be 4d cf 96 3c 34 7f 95 bd 39 3a ee bd
       -0.13236012 0.018409396 -0.07299653 -0.11632199
000270 1c c6 62 be 3e 4f da 3d 32 05 f7 3d 81 c8 ad 3d
       -0.22145885 0.106596455 0.12061538 0.08485509
000280 c5 6a df 3d 03 69 9c 3d d1 75 68 3d 9d 32 60 3d
       0.109090365 0.07637217 0.056752983 0.05473577
000290 5c 3d 82 bd 95 3d cb 3c e3 e6 c9 3c 77 63 76 bb
       -0.063593596 0.024809638 0.024646228 -0.0037595907
0002a0 26 00 bc 3d ce 94 2f bd d8 aa 0e bd b9 dc 08 3d
       0.09179716 -0.04286652 -0.034830898 0.033413623
0002b0 4a b8 95 be d3 50 bc bd f9 9b 00 be d5 4c e3 bc
       -0.29242164 -0.091951035 -0.12559499 -0.027746597
0002c0 9d 32 fe bd 92 25 bf 3d 78 91 17 3d 35 c7 13 3d
       -0.124119975 0.09333338 0.037003964 0.03607865
0002d0 e9 9b d0 3d 8b d4 fe bd 6d 15 84 3e ae b9 c5 bd
       0.101859875 -0.12442883 0.25797597 -0.09654556
0002e0 65 e1 b5 3c b9 8c 9a 3c 35 5c 7c bd 11 15 4a bd
       0.022202203 0.01886593 -0.061611373 -0.049336497
0002f0 69 60 8c bd 00 24 22 be 30 68 83 be 7f 5b 11 3d
       -0.06854326 -0.15834045 -0.25665426 0.035487648
000300 1e dc 01 bc cf ae 24 3c 7f 88 92 3d cb f5 80 bd
       -0.007926015 0.010051443 0.07154941 -0.06296881
000310 24 c2 cf 3c 43 1f a0 3d e4 4f 00 3e b9 38 43 bd
       0.025361128 0.07818463 0.12530476 -0.047661517
000320 07 4e e2 3a 83 f8 1c bd 8b 03 d7 bc 6a 44 1c be
       0.0017265686 -0.038322937 -0.026246807 -0.15260473
000330 82 7e 1b bd 7a 26 44 3e ff 7e 21 3d 80 b1 7c be
       -0.037962444 0.19155303 0.039427754 -0.24677086
000340 c6 18 16 bd c1 12 af 3d 2e 72 76 3d 28 18 39 bd
       -0.03664472 0.08548499 0.060167484 -0.045189053
000350 29 b2 d9 bd 24 64 ae 3c 56 7e 00 3d c3 54 e5 bb
       -0.106296845 0.021287985 0.031370483 -0.00699863
000360 cd 3e 34 be f8 78 58 3d 99 34 36 3d d6 f5 bc 3d
       -0.17602082 0.05284974 0.044483755 0.09226577
000370 9c 2a bc bd 5e c5 61 3d 5c 81 be 3d f3 51 a7 bd
       -0.091878146 0.055119865 0.09302017 -0.081699274
000380 f8 71 ae bc 06 8d 92 bc a7 91 e8 3d 19 2d b9 3c
       -0.021294579 -0.01788951 0.11355906 0.022604512
000390 71 be e7 3c 92 87 47 be 4d 32 28 3e 04 21 25 3e
       0.028289052 -0.1948531 0.16425438 0.16125876
0003a0 a2 9e 95 3c e1 36 96 bd d2 34 9e 3d 17 52 57 3b
       0.018264119 -0.07334686 0.077249184 0.0032855326
0003b0 6b de 2a bd 10 59 83 3d e9 d6 27 3d 77 95 82 bd
       -0.04171602 0.06413472 0.04097644 -0.063761644
0003c0 63 36 2c 3e a4 50 03 3e f8 92 ee bd 80 7b 27 3e
       0.16817622 0.1282373 -0.11649126 0.16355705
0003d0 ef fe 86 be 4c 20 7b 3d 25 da e9 3d 4d 54 c2 bc
       -0.26366374 0.061310098 0.11418561 -0.023721838
0003e0 56 c8 ae 3d 40 a1 df 3b e5 a8 a2 3c 4f 09 ca bc
       0.08534305 0.0068246424 0.019855926 -0.024662642
0003f0 46 f3 02 be 6c 7e 3b bd 83 b6 64 3d ef 2d 23 bd
       -0.12788114 -0.045774862 0.05583812 -0.039838728

net_stack.2.bias f4 [64]
000000 fb 59 a7 3b 17 14 47 bc 0e 97 60 3b 87 59 63 3b
       0.005107162 -0.012150786 0.0034269723 0.0034690814
000010 dd 28 00 bd 7e bb 81 bb e2 d6 3d 3b af c2 9b 3b
       -0.03128897 -0.0039591184 0.0028967191 0.0047534327
000020 e5 81 9d bb 6f 4f 50 3b 17 9e a6 bc 4a 3e c4 ba
       -0.0048067444 0.0031785627 -0.020339055 -0.0014972177
000030 a0 b3 1f bc 03 50 b1 3c 69 bb 31 3c 05 03 de bb
       -0.009747416 0.021644598 0.010847905 -0.0067752623
000040 64 d1 e8 bb 1a 0b 1d 3c e5 45 fe 3a b7 ba 75 bc
       -0.0071050394 0.009585166 0.0019399492 -0.01499813
000050 63 09 6b 3c bf 76 1d 3c fd bc 8b 3c 6e 20 f4 bb
       0.0143455 0.009610831 0.01705789 -0.007450155
000060 1b f1 65 bc 82 c5 11 3c f1 8b 36 bb 2c c1 96 3b
       -0.014034535 0.008897187 -0.0027854408 0.0046006646
000070 45 5a 59 b9 77 be 8c bc 67 d6 2d 3b 67 eb 26 bc
       -0.0002072836 -0.017180664 0.0026525499 -0.01018796
000080 4f b6 93 bb 65 01 97 3b a4 ae 27 3c c4 0d 2f 3c
       -0.004507817 0.0046083205 0.010234509 0.010684434
000090 b9 97 04 bc fe ca 59 3b 7e a9 f0 3a 52 13 33 3b
       -0.008092814 0.0033232565 0.001836106 0.0027324748
0000a0 6a 92 1d 3c 87 c5 bb 3b ae fe dd 3b 34 c0 c4 3b
       0.009617427 0.005730334 0.006774745 0.0060043577
0000b0 c0 a7 19 3c e6 a6 e5 3b e9 9c 11 3c a1 20 3c bc
       0.009378374 0.0070084212 0.008887508 -0.011482389
0000c0 da 23 c7 bb 40 54 de ba 19 d9 4b bc e8 3b 3e 3b
       -0.006077272 -0.0016962364 -0.012441897 0.0029027406
0000d0 3d 02 47 3b e2 f2 2d 3c 9f e5 99 3b 2c f8 b2 bb
       0.0030366324 0.01061699 0.0046965624 -0.0054617133
0000e0 1c a4 d4 3b 1a fe 26 bb d0 72 81 bc d0 9c 88 3b
       0.00648929 -0.0025481046 -0.015801817 0.004169084
0000f0 28 6e 51 bb 97 c2 19 bb 0e e7 08 bc 40 6a cb 39
       -0.0031956527 -0.0023461932 -0.008355869 0.0003879834

net_stack.4.weight f4 [32, 64]
000000 a5 59 19 3d 1b a6 08 3e d3 a7 25 bc 16 1a 04 be
       0.037439007 0.13344614 -0.010110813 -0.12900576
000010 14 7a 20 be ea 47 bb bc 95 65 01 3e f0 7b 9a bd
       -0.15671569 -0.02286144 0.12636407 -0.075431705
000020 92 d1 13 be 1f e5 06 be 71 d2 26 be f8 ac 17 3e
       -0.14435413 -0.1317334 -0.16291215 0.14812076
000030 3b bc 39 be 87 df 4f 3d 3d 09 a8 3d c1 98 4f bd
       -0.1813821 0.05075028 0.08204887 -0.050682787
000040 51 b8 89 bc 9f c4 c5 3d 49 ab 1d 3e 7e d9 88 3c
       -0.016811522 0.09656643 0.15397371 0.01670527
000050 49 e8 73 3e 08 9f aa bd 64 bd 3e 3e 15 27 0e 3e
       0.23819079 -0.08331114 0.18626934 0.13882096
000060 b8 cc a5 3c 2d 6c da 3b 84 f7 6a bc 33 b7 41 3d
       0.02023922 0.0066657276 -0.014341239 0.047293853
000070 eb 0a 08 3e 19 ca 43 be 3c 04 12 3d 88 68 a5 3a
       0.13285415 -0.19120063 0.03564857 0.0012619654
000080 1d f4 c6 bd 81 3e ae bc 52 ee 55 bd 52 9d 77 3c
       -0.0971453 -0.021270039 -0.052229233 0.015113192
000090 2e e7 e4 3c 26 00 a5 be 55 54 20 bd 19 d6 98 bc
       0.027942266 -0.32226676 -0.039142925 -0.018656777
0000a0 1e 8b ed 3c 7e 5d 85 3c e6 4c 56 3e 17 09 15 3e
       0.028997 0.016279932 0.20927772 0.14554249
0000b0 cc 5b e2 3d 3b 0e 1d be fb e9 d6 3d dc 12 07 3e
       0.11052665 -0.1533746 0.10493847 0.13190788
0000c0 cd 1f 2c bd 54 74 a6 3d 63 49 81 bd ec 99 40 3d
       -0.042022515 0.081276566 -0.063128255 0.04702179
0000d0 c8 f6 52 3d 6e cd b4 3c 2c a3 97 bc 2b 1f ed bd
       0.05150488 0.022070613 -0.018510424 -0.115782104
0000e0 5e 49 b0 3c d4 da 8f bc 07 f1 19 3e e6 86 ad bd
       0.02151936 -0.0175604 0.15033351 -0.084729955
0000f0 41 d7 6e bc 91 d3 2c 3e d5 8a 45 3e cc f0 c8 bc
       -0.014577688 0.16877581 0.19291241 -0.024528883
000100 cd 70 b8 bd d0 22 49 3e cf 3b 6a 3d 3a 4c 1a bd
       -0.0900589 0.19642186 0.057185944 -0.03767035
000110 d0 c2 c7 3d 1f 7a 5b 3e 7e 09 b0 bc 63 1c 09 be
       0.097539544 0.21433304 -0.021488901 -0.13389735
000120 a5 7b 31 3e 46 cf 14 3c b2 e3 d4 3c 3f 68 46 bd
       0.17332323 0.009082621 0.02598748 -0.04843926
000130 13 3f ea bb 10 7c f6 bc 46 2b 2a be 31 89 25 be
       -0.0071486323 -0.030088454 -0.1661807 -0.16165616
000140 26 49 22 3d 7c ad e8 bb fd 78 80 bd 18 b4 62 be
       0.03962054 -0.007100759 -0.06273077 -0.22139013
000150 49 a2 48 3d 17 b3 f8 3d a5 1a 62 be 23 6d 11 be
       0.048982892 0.12143534 -0.22080477 -0.14201789
000160 66 75 de 39 bc f6 a6 3c 48 22 bc 3c 81 3f 4e be
       0.00042430608 0.020381324 0.022965565 -0.20141412
000170 80 14 bd 3d 14 5d 1f 3e ab 4f c4 bd 95 e9 e4 3c
       0.09232426 0.1556285 -0.09585508 0.027943412
000180 89 8c 32 bd 5c 82 3a bd 85 68 bc bd 57 42 54 be
       -0.043591056 -0.045534477 -0.09199623 -0.20728432
000190 58 32 31 be 30 12 80 3b 48 4d ed 3c f4 18 a1 bd
       -0.17304361 0.003908418 0.028967515 -0.078660876
0001a0 4a 80 4b bb cc 3b e3 bd 52 b2 9f bd f2 a3 08 bc
       -0.0031051808 -0.1109539 -0.07797684 -0.008339869
0001b0 1c 69 9d 3d 67 3b 43 bd ce 59 d4 bc 0b e9 ee bd
       0.07686064 -0.047664072 -0.025921728 -0.11665543
0001c0 41 f8 e7 bd d8 91 1c 3d b7 1a 83 bd 0e 15 34 3d
       -0.113266475 0.038225025 -0.0640158 0.04396539
0001d0 ab 46 3c bd 07 2e 08 be a2 1e 3b bc d4 46 ad ba
       -0.04596583 -0.13298808 -0.011420878 -0.0013219961
0001e0 79 94 d7 bd 07 07 de bd 03 fc 15 bd 69 5a 8d 3d
       -0.10526366 -0.10841184 -0.03661729 0.0690201
0001f0 0c fa 10 be 94 7c a2 bc 16 85 1d 3e 5b 98 11 3e
       -0.14157885 -0.019834794 0.153828 0.14218275
000200 6a f9 3f bd 59 ab 72 be de 58 2b 3d d2 92 2b bd
       -0.04686872 -0.23698176 0.041832797 -0.041888066
000210 c7 01 09 3c a2 96 18 3e e9 31 8f bd 4a 92 f7 bb
       0.00836224 0.14901212 -0.069919415 -0.007555281
000220 ee a6 da 3d 60 0e 3d 3c d4 18 22 3d bd c6 c7 bd
       0.106763706 0.011539072 0.03957446 -0.09754703
000230 fb bc b6 3b c3 c2 f1 3a 1f 40 86 bd 76 e4 b5 bd
       0.0055767274 0.0018444884 -0.06555199 -0.08881466
000240 6b cb 90 3d 2e 6b a4 bd b7 3c 33 bd fb 3a 4a 3d
       0.07070049 -0.080282554 -0.043759074 0.049372654
000250 f1 0a aa 3d 0d 97 f1 bd cd e1 2d 3d aa de 18 bd
       0.08302868 -0.11796389 0.04245167 -0.037321724
000260 57 58 e0 bb 5c 2e 5d 3d 72 2a b8 3d 3e 4b 29 3c
       -0.0068464684 0.05399929 0.08992471 0.010332881
000270 36 af 9d bd 3d f6 b5 3d ae 8b e0 bd 90 bb d1 bc
       -0.076994345 0.08884857 -0.10964142 -0.025602132
000280 2c df 07 be 39 43 6c be 78 62 53 3d 6d 5e 5d bd
       -0.13268727 -0.23072518 0.05160758 -0.05404513
000290 6f da b1 3d 9f 19 2f bd 3d 72 5c bd 6c eb 7a 3d
       0.08684241 -0.042749044 -0.053819884 0.061259672
0002a0 98 05 d7 bc 56 0a c0 3c 29 24 4d 3d 85 d7 8d 3d
       -0.026247784 0.023442429 0.050083313 0.06925873
0002b0 13 20 e8 bb e0 23 c0 bd c4 58 31 3d ba f2 65 bd
       -0.0070839017 -0.093818426 0.043297544 -0.056139685
0002c0 24 eb b9 3b 13 9f 0c 3b 93 1d dc 3d f2 2a c3 3d
       0.005673783 0.002145712 0.10747828 0.095296755
0002d0 42 df 24 bd 34 7c 92 3c 8a d5 7d bd 32 e5 d5 3c
       -0.040251978 0.01788149 -0.061971225 0.026110265
0002e0 90 23 09 3e 0a 01 d7 bb 59 86 6c 3c c6 02 e9 3d
       0.13392472 -0.006561403 0.014436328 0.11377482
0002f0 a5 1c 23 be 0b aa e0 bc b6 44 a5 3d f7 58 9e 3d
       -0.15928896 -0.027424833 0.08069746 0.077318124
000300 67 4b 1e be 69 61 0e be a8 87 43 bb 16 9b 96 3e
       -0.15458451 -0.13904347 -0.0029835496 0.29415196
000310 a2 25 66 3d be 80 39 3e 93 b6 45 3c c7 44 27 3d
       0.056188233 0.18115517 0.012067455 0.040837076
000320 64 81 9f 3d 3b 5a cb 3c ab 21 2b bd 09 9c 94 be
       0.07788351 0.024823299 -0.041780155 -0.29025295
000330 30 06 98 3d d2 07 e5 3d 9a b5 01 bc 63 e2 f3 bd
       0.07423055 0.11183132 -0.007916832 -0.11908414
000340 f7 3f b4 3d 66 1c 20 bc 27 c1 d8 bd ec db 9d 3d
       0.08801263 -0.009772396 -0.10583716 0.077079624
000350 0c e9 a0 3d c6 97 09 3e 64 7c 21 3e 1c b9 9d bd
       0.0785695 0.13436803 0.15770108 -0.077013224
000360 40 b5 05 3e f0 d0 f0 bd 12 af 2f bd a0 5c 86 3c
       0.13057423 -0.11758602 -0.04289157 0.016401589
000370 bf 5d da 3d 44 a1 5c 3e 59 3a 04 3e a3 19 90 3d
       0.10662412 0.21545893 0.12912883 0.0703614
000380 5f 1c 20 bc 62 50 b7 bd d6 0d b0 3c 87 6e e1 bb
       -0.009772389 -0.08950879 0.021490972 -0.006879631
000390 c2 f2 44 bd 31 ad 18 3c 5d 92 1f be 96 9f c4 bd
       -0.048083074 0.009318636 -0.15583177 -0.09600751
0003a0 af 2f 5d 3d dd 86 21 3e 37 de 78 3d 63 84 6d bd
       0.054000553 0.15774103 0.060758796 -0.057987582
0003b0 b9 dd 07 3c 8d 20 07 bd 22 ef 17 be 83 bc 62 bc
       0.008292609 -0.032990027 -0.14837316 -0.01383889
0003c0 ef 31 16 3b 0a 1d ca bd f6 5d 04 3d 3e 53 85 3d
       0.0022917946 -0.0986882 0.03231617 0.06510018
0003d0 09 8f d8 bd 49 84 5d bd 9a 7b 03 be 26 c7 aa 3d
       -0.10574157 -0.054081235 -0.12840119 0.08338766
0003e0 d1 63 11 3e bf 1b 7c bd c1 c0 ed bd a4 b8 bb 3d
       0.14198233 -0.0615499 -0.116090305 0.09166077
0003f0 a3 f4 5c 3d 4a 32 79 3d 00 73 e0 bd ca 23 2d 3d
       0.05394424 0.060838975 -0.109594345 0.04227046

net_stack.4.bias f4 [32]
000000 d4 27 23 3c 5d 44 17 bc 59 71 a4 ba a6 60 e4 3b
       0.009958226 -0.009232608 -0.0012545987 0.006969529
000010 f7 de 9d bb bd 8d 1c bb ae 79 56 3b 93 56 37 3c
       -0.0048178392 -0.0023888194 0.0032726335 0.0111900745
000020 eb d4 4b bc e1 bb 3d 3c ba 74 e6 ba 7b 51 88 3c
       -0.0124409 0.011580438 -0.0017582395 0.016640415
000030 81 21 7e bc df d2 88 3c 7a 71 bf 3b e8 5e 5d bb
       -0.015510918 0.016702114 0.005842385 -0.0033778492
000040 fa 2d 2e bc 86 84 af bb 74 a1 1b 39 46 d8 67 3b
       -0.010631079 -0.005356374 0.00014842098 0.0035376712
000050 f7 7a d7 bb 65 af 3e bc bf 26 f0 3b 37 3b 11 bc
       -0.006575938 -0.011638497 0.0073288376 -0.008864216
000060 92 0a cb 3b e2 90 83 3c 36 db a2 3a 97 bb 5c 3a
       0.0061963284 0.016060296 0.0012424949 0.0008420287
000070 1f dd ef bb 3d 2a 44 3c 24 39 e2 bc 1e 46 87 b9
       -0.007320061 0.011972961 -0.027615137 -0.00025801448

net_stack.6.weight f4 [32, 32]
000000 ea ae 13 be 7d 73 51 3d 42 b2 e0 bc 17 f6 91 3b
       -0.14422193 0.05113553 -0.02742875 0.004454385
000010 15 c9 f5 3d bf b6 17 3e 07 6e dd bd ad 13 82 bd
       0.12001244 0.14815806 -0.10812002 -0.06351409
000020 a6 81 59 3d d3 f2 6d 3d c5 8f 9f 3b b6 5a 9a bd
       0.053102158 0.058092903 0.0048694336 -0.07536833
000030 7c 1e f8 3b e9 36 48 be 34 56 a2 bd 52 07 20 3d
       0.0075719934 -0.19552197 -0.07926598 0.03906948
000040 b6 6d 61 bd 8a aa 9f 3d c6 69 01 3d bf 96 91 3b
       -0.05503627 0.077961996 0.031595014 0.004443019
000050 88 f0 08 3d e2 ee a0 bd 41 e1 a9 bd dd 85 06 bd
       0.033432513 -0.07858063 -0.08294917 -0.032842506
000060 d8 95 87 3b ee dc b2 3b 20 09 68 3e 0e b4 02 3e
       0.004137736 0.005458466 0.22659731 0.12763998
000070 68 4b ca 3d 03 83 30 3d c9 c4 6a be ea 38 2f be
       0.09877664 0.043093693 -0.2292663 -0.17111555
000080 82 24 07 bd 93 8c 25 3d cc 88 04 be d6 63 0b 3d
       -0.0329938 0.040417265 -0.12942809 0.034030758
000090 06 a7 a5 3c d2 84 12 3e 62 05 75 3d 56 48 ac bc
       0.020221245 0.1430848 0.059819587 -0.021030586
0000a0 19 48 8e bd 19 32 ab bc 56 03 5d be 5b 38 92 3d
       -0.06947345 -0.020897912 -0.21583304 0.07139655
0000b0 0e 9f dd bd d3 d0 c7 ba f2 b7 c8 3d 31 f8 aa bd
       -0.10821353 -0.001524473 0.0980071 -0.0834812
0000c0 b4 14 74 bd 20 ac cc bd 71 22 21 3d 19 6c 2d 3e
       -0.059590057 -0.09993768 0.039339487 0.16935767
0000d0 97 00 61 3d 2b e0 bc 3d a4 b6 c8 bd 0b bc 45 3e
       0.054932203 0.09222444 -0.09800461 0.19310014
0000e0 34 5b 8e 3d a8 ae 01 be 21 95 01 3e 71 24 d5 bd
       0.06950989 -0.12664282 0.12654544 -0.10407341
0000f0 95 88 e4 3c d5 13 fa bc 1f f2 20 bd a0 90 c6 bc
       0.027897159 -0.030527035 -0.039293405 -0.024238884
000100 e2 32 a4 bd ce 3d d3 3d dd 99 31 bd 2d 8a 78 3d
       -0.080175176 0.10314523 -0.043359626 0.06067865
000110 57 c5 2d be bc 28 71 b9 c2 6a 0c be c3 3e 23 bd
       -0.1696981 -0.00022998726 -0.137126 -0.039854776
000120 eb e5 03 bd 14 83 53 bd d8 48 79 3d 03 dd 92 bd
       -0.03220169 -0.051638678 0.060860485 -0.07171061
000130 3b fb 5b 3d 89 3b e3 3c 53 99 9b 3c 02 3f 48 bd
       0.05370639 0.02773835 0.01899401 -0.048888214
000140 42 11 32 be 94 ad e4 3d 8f fc 80 3e 83 7a 3f bb
       -0.17389396 0.1116592 0.25192687 -0.002921731
000150 c0 5a 24 bc 31 3d e6 bc 71 bb c5 bd d6 7f 0b bd
       -0.010031402 -0.02810535 -0.09654892 -0.03405746
000160 58 5e 78 3d bd c9 d8 3c b4 4a d6 3c fd 4c 8f bd
       0.06063685 0.026463384 0.026158668 -0.06997106
000170 9e 8a e8 bc f3 5c 25 be 9f 3f fc 3d e0 40 90 bd
       -0.02838641 -0.16148739 0.12316822 -0.07043624
000180 06 90 82 bd 09 36 a9 bd 5c 82 c2 3d 13 59 4b bd
       -0.063751265 -0.082622595 0.0949752 -0.049645495
000190 4f 2c 26 3b 75 39 ea 3c fa 5c 1d ba 4f 7c 18 3d
       0.0025356 0.02859185 -0.00060029293 0.037227925
0001a0 96 dd 5f bd 66 ae b6 bd bf 2d 7b bd a3 80 79 3d
       -0.05465468 -0.089199826 -0.061322924 0.060913693
0001b0 38 77 4a 3d 50 45 2a bc 0f 28 f5 bc f0 1a c2 3d
       0.049430102 -0.010392502 -0.029926328 0.09477794
0001c0 b1 48 8d bd d8 74 f1 3c c9 ce 80 3d cf eb 8c bd
       -0.068986304 0.02947466 0.06289441 -0.068809144
0001d0 18 84 09 3e 70 85 ee 3d 9f be 03 be 25 53 92 3d
       0.13429296 0.11646545 -0.12865685 0.07144765
0001e0 4c e4 34 3e 4a 50 32 bd 7e 10 97 bd f2 c4 f5 bc
       0.17665213 -0.0435336 -0.073761925 -0.030001137
0001f0 90 40 25 bc e9 5b 88 bd 1b 66 3f 3d 95 8c d6 3d
       -0.010086194 -0.066581555 0.046728235 0.10476033
000200 31 77 37 bc c9 40 d4 bd 98 b1 88 3d 65 6b 96 3d
       -0.011197851 -0.10363919 0.06674498 0.07344703
000210 b4 a4 13 3e 92 4b f5 3c 86 3b d1 bd d9 59 1c 3d
       0.14418298 0.029943261 -0.10216431 0.038171623
000220 e0 9a 41 3d 9f 05 62 be 9e f3 64 bd ad f0 2b be
       0.04726684 -0.22072457 -0.055896394 -0.1679103
000230 bf e0 71 bd a8 81 fd 3b 46 b4 a1 bc b9 71 f6 bd
       -0.059052225 0.0077364035 -0.019739281 -0.120334096
000240 ae b2 16 3e 6f 24 2a 3c 82 d0 84 3d 20 27 32 bd
       0.14716598 0.010384663 0.06485082 -0.043494344
000250 88 2f 2e bd da 01 28 bc 83 d2 01 3c 9a 5f b2 3d
       -0.042525798 -0.010254348 0.007923725 0.08709641
000260 e9 38 da 3b 47 98 c8 bd 0e 61 11 3e 7c 41 f6 bc
       0.0066596163 -0.097946696 0.1419718 -0.030060522
000270 89 c3 f2 bc 09 0f cc 3d 1f a0 7a 3c 30 a0 a1 3d
       -0.029634254 0.09963805 0.015296965 0.078918815
000280 35 bb b5 3d df 58 27 bd 8d 76 23 bc 83 61 7c bd
       0.088735975 -0.04085624 -0.009976995 -0.061616432
000290 f5 f1 17 3c 81 17 ff bc 31 b1 b9 3d ab ca 8a bd
       0.009273996 -0.031139137 0.09067 -0.06776937
0002a0 0e 52 1d 3d 40 0a 45 bd b0 c2 6d 3c 8c 46 74 bd
       0.03840833 -0.04810548 0.014511749 -0.05963759
0002b0 04 a5 d1 3d f7 8c e0 bd 6a 53 17 be 49 14 e5 bd
       0.10236552 -0.10964387 -0.14777914 -0.1118551
0002c0 4b 11 a1 3d 86 f8 81 3e 62 93 79 bb d2 a9 05 be
       0.078646265 0.2538492 -0.0038082232 -0.13053063
0002d0 ce c5 bd 3d 87 45 0c 3e 4c ae 9b 3d 73 c0 6f 3d
       0.09266244 0.13698398 0.07601604 0.058533143
0002e0 72 f2 2d 3e 95 4d ab 3b 4e cd 93 bd 2f 4f e1 3d
       0.16987017 0.0052277544 -0.07216893 0.11001431
0002f0 f3 7e f7 3d fe 17 c4 bd ef 71 04 bd b7 bc 22 bd
       0.120847605 -0.09574889 -0.032335218 -0.039730754
000300 ca 3b 45 3d 37 d0 df 3c 78 bc 19 3e 9e 64 aa bd
       0.048152722 0.027320964 0.15013301 -0.083199725
000310 cd a1 2f 3e 01 bb 5d bd 29 08 10 be 50 ed 01 3e
       0.17151566 -0.05413342 -0.14065613 0.12688184
000320 26 41 17 be 96 a7 03 be fc 2e 91 3c d9 4e 31 bd
       -0.14770946 -0.12856898 0.0177226 -0.043288086
000330 13 9f f4 3d e7 b0 1d bc 72 fa bf bc e6 93 fd 3c
       0.119444035 -0.009624696 -0.023434851 0.030954313
000340 1f ba bc 3d 9f 3a 04 bd 88 7c ea 3c ad b6 c5 bd
       0.09215187 -0.032282468 0.028623834 -0.09653983
000350 a0 60 06 3d 71 93 25 3d 81 d5 86 3e ab 4b 3f be
       0.032806993 0.040423814 0.26334766 -0.18681209
000360 cc 51 a7 3c 72 79 1d 3d 07 6c 9f be 4d 9d 2c be
       0.020424746 0.038445897 -0.31137106 -0.1685688
000370 2e fb 67 3b 20 57 4f 3c 30 13 f6 3d 99 00 33 3e
       0.0035397517 0.01265505 0.120153785 0.17480697
000380 fb 2e 9f 3c 4d ad 92 3d 89 e5 67 bd 67 e3 1b 3b
       0.019431582 0.07161961 -0.056615386 0.0023786665
000390 b7 f5 13 3e 03 8f 25 be 03 fb e0 3d dd 66 c9 bd
       0.14449202 -0.16167836 0.10985377 -0.09834073
0003a0 b7 86 e2 3c 88 95 84 bd d4 01 f9 3d 93 6f b1 3b
       0.027652128 -0.06473833 0.12158552 0.005414912
0003b0 a5 40 26 3d 2f d9 8d bd e2 49 45 bd 7a 87 aa 3b
       0.040588994 -0.0692619 -0.048166163 0.0052041383
0003c0 f8 ee 11 3d bd 91 45 3b ce 71 d8 bc 9f 3e 76 bd
       0.03562829 0.0030146681 -0.026421454 -0.060118314
0003d0 94 9e c9 bd ec ec c8 bd af 84 44 3d 53 9d 83 bc
       -0.098446995 -0.09810814 0.0479781 -0.016066229
0003e0 4a 0d 52 3d bd b9 99 bd a6 a8 1c bb 01 21 82 bd
       0.051282205 -0.0750613 -0.0023904233 -0.06353951
0003f0 7c 86 c4 bd 74 31 1b 3b e4 cd 28 3e 00 ad 80 3d
       -0.09595963 0.00236806 0.16484791 0.06282997

net_stack.6.bias f4 [32]
000000 ca 1e a4 3c e8 4d 2d bc d2 cb 1b 3c f0 c0 7c bc
       0.020034213 -0.010577656 0.009509044 -0.015426859
000010 bd 91 70 bc 3c 35 d7 bb e7 c5 ce bb 14 f4 43 bc
       -0.014683184 -0.0065676253 -0.006310213 -0.011960048
000020 8c 52 35 3c 5f a1 12 3b 9f 03 45 3c ca 97 a6 3c
       0.011067044 0.0022374017 0.012024789 0.02033605
000030 d9 f2 a4 bc 86 b1 98 bc 6d de 8c 3b de 10 7c bc
       -0.02013533 -0.018639337 0.004298976 -0.015384881
000040 b9 8f f1 ba bb 2a 0d bc ad 30 4c bb ac 95 68 bc
       -0.0018429674 -0.008616145 -0.0031156943 -0.014195841
000050 c6 b1 2b bc c9 85 64 bb 83 71 22 3c a2 65 8a ba
       -0.010479396 -0.0034869781 0.009914759 -0.0010558853
000060 8c 3c ca bb 34 ee 46 3b 49 ce 2b 3c e8 d5 cb bb
       -0.0061717685 0.0030354382 0.010486194 -0.006220568
000070 a5 50 a7 3a 2d 4b be bc 67 1f 53 3c fa f9 9f bc
       0.0012765123 -0.023229206 0.012885905 -0.019528378

net_stack.8.weight f4 [1, 32]
000000 ff 2c 08 be 88 33 ed 3c 5a 23 0e be 09 8b db 3c
       -0.13298415 0.028955236 -0.13880673 0.026799696
000010 74 9e 6d 3d 1a ad 1c 3e cf 43 11 3e 5e be 24 3e
       0.05801244 0.15300408 0.14186023 0.16088244
000020 9e 5f 6e be 79 f3 36 bd 7e 12 cf bc 73 f5 70 bd
       -0.23278663 -0.044665787 -0.025277372 -0.05882783
000030 2c 0e bf 3d 42 17 37 3e 39 6a 42 3e 2a a5 36 3c
       0.09328875 0.17879966 0.18985833 0.011147777
000040 e8 8d e1 3d ee 9d 31 39 9c 3c 60 3d f2 12 bb 3d
       0.110133946 0.00016938869 0.0547453 0.09134473
000050 a5 55 9f 3e 1c c6 47 3e b2 7f b2 3a 54 f0 cd 3d
       0.3112003 0.19509166 0.0013618378 0.100556046
000060 5d 78 02 3e e6 fd fc bd 41 7b 3c bd c1 83 a6 3d
       0.12741227 -0.12353115 -0.04601598 0.08130599
000070 e5 c0 e1 bd 31 c5 9d 3d ad 19 fe bd 8b 6b 77 3c
       -0.1102312 0.07703627 -0.12407241 0.015101324
