CAPSTONE/CAPMODELS/output/model_MDD3.pth (torch, 21476 bytes, 7 tensors)

net_stack.0.weight f4 [64, 20]
000000 c6 e7 6c 3c 58 1c 24 bb 32 21 97 bd 44 57 d7 3b
       0.014459556 -0.0025041308 -0.073793784 0.006571682
000010 10 3d a7 bc fd 22 7b bd 29 3d 1c 3c c8 c0 8f ba
       -0.020414859 -0.061312664 0.009536066 -0.0010967487
000020 2d e4 43 3d c8 4b 23 bd 6c a0 41 bd 33 e7 69 bc
       0.047825027 -0.039867193 -0.04727213 -0.014276314
000030 e6 0d 34 bd cc cd e0 3c 97 91 d1 3c 5c e1 8e bc
       -0.043958567 0.027441882 0.025582118 -0.017441444
000040 04 7a f6 3d ce a5 06 3d f7 32 ab 3c 6d f3 99 bc
       0.120349914 0.032872967 0.020898325 -0.018792832
000050 e8 6f 0a 3d 7b a2 05 3c ba a7 e3 3b 4b 1f 5d 3c
       0.03379813 0.008156414 0.006947485 0.01349623
000060 8d 69 da b9 37 7b 28 bd b5 18 91 3c 73 ca 2e 3d
       -0.00041658842 -0.04113313 0.017711977 0.04267354
000070 5d 51 d8 3d 0a d7 f4 3d f3 d0 80 3c 1d ed d0 3c
       0.10562394 0.11955078 0.015724635 0.02550369
000080 1d 9f be bb e8 44 16 bd 34 00 53 bd a3 c2 77 bc
       -0.0058173076 -0.036686808 -0.051513866 -0.015122089
000090 13 52 85 3c a9 d6 7e bd 53 9b e9 b9 a5 13 5f 3b
       0.016274488 -0.062216435 -0.0004455695 0.0034038809
0000a0 2e f3 9e 3d fe 84 3b bd e3 a3 58 3d af 9f fc bc
       0.077612266 -0.045781128 0.05289067 -0.030837862
0000b0 16 e4 d0 bc 46 47 c1 3c 30 8c a5 3c b2 3e da bd
       -0.025499385 0.023593556 0.020208448 -0.106564894
0000c0 01 a1 37 b8 53 9e a1 3c 7d b3 0c 3e 1e 25 1c bd
       -4.3780547e-05 0.019728815 0.13740344 -0.038121335
0000d0 3e 97 1f 3d 9d e2 3e bc 1f 7a 93 3c 09 ab 33 bb
       0.038962595 -0.0116507085 0.018002568 -0.0027415177
0000e0 4b d8 53 3c 9e 12 f9 bb 21 a1 01 3e 41 8f eb bc
       0.012929986 -0.0076010963 0.12659122 -0.028754832
0000f0 68 c8 45 3d 56 fa 41 38 33 de 4d bd 28 60 3b ba
       0.048286825 4.624793e-05 -0.050260734 -0.0007147812
000100 11 a9 cf 3d 3d 68 94 bd 5f 86 03 3e 8e 29 11 ba
       0.10139669 -0.072464444 0.12844227 -0.0005537503
000110 9d 23 2f b8 b6 b9 22 bc 96 5d 05 be 6e 65 75 3d
       -4.175642e-05 -0.009931972 -0.13023981 0.059911184
000120 fa 2b a8 3b 74 65 5b 3b 43 24 8e 3c 0b 4a 0d 3e
       0.0051321955 0.0033477219 0.017351275 0.13797776
000130 2d f8 99 ba 7d 7c b5 3d 0f 98 ca 39 55 f9 a2 3a
       -0.0011746936 0.08861635 0.00038641735 0.0012433926
000140 d9 cc db bd c0 73 80 3c f1 c7 13 3d d5 ef 77 bd
       -0.10732431 0.015680194 0.03607935 -0.060531456
000150 5b 9c 60 bd 42 2c ac 3d 5b c3 9c 3d e7 f3 b8 3d
       -0.054836612 0.08406879 0.076544486 0.09030896
000160 30 55 18 3e 03 56 c4 3b b6 08 81 3d cf 83 9e bc
       0.14876246 0.0059916987 0.063004896 -0.01934996
000170 52 78 80 bd 9d 87 1c 3e 3e 44 85 bd 35 4d eb 3c
       -0.06272949 0.15286107 -0.06507157 0.028723339
000180 37 19 46 bd 9c 72 63 bd 23 17 8b 39 51 16 3f 3d
       -0.04836389 -0.055529222 0.00026529384 0.046652142
000190 44 63 82 bd 98 31 6a bc fe 0f 4e 3d 99 90 8e 3c
       -0.0636659 -0.014294051 0.05030822 0.017402934
0001a0 8a 62 8b bd 44 49 9e bd cf dc 0e 3e 13 99 75 3d
       -0.06805904 -0.07728818 0.1395142 0.059960436
0001b0 dc 27 32 bd e1 3c bf 3d e7 07 bb 3c f3 8e a6 bc
       -0.043495044 0.093377836 0.022830917 -0.020331835
0001c0 81 15 6e 3c f6 6a 84 3d 61 76 49 3d 0f dc a3 bd
       0.014531494 0.06465714 0.04918516 -0.08000957
0001d0 56 60 91 bd 9f cc 51 3d 26 96 19 bd b4 a7 91 3d
       -0.07098453 0.051220533 -0.03749671 0.07112065
0001e0 2c 2c 93 3c e6 86 80 3c 50 a3 53 bd 47 be 98 3d
       0.017965399 0.015689325 -0.05166942 0.074581675
0001f0 56 42 d6 bd 1f 74 05 bb 75 ab ba 3d db dc ae bc
       -0.10461871 -0.0020363403 0.09114734 -0.021345546
000200 d4 61 b9 3d 8a 0f 07 3d 9e d8 0a 3c d6 08 08 bd
       0.09051862 0.032973804 0.008474497 -0.03321155
000210 a3 3d 0b bc 23 6a 8e bc 25 b7 02 bc 56 3d 15 bd
       -0.008498582 -0.017384594 -0.007978235 -0.036435448
000220 b7 f8 71 3d e2 8b 0b be ae 82 68 3d d2 ea 70 bc
       0.059075084 -0.1362758 0.05676525 -0.014704423
000230 d3 05 56 bd 31 a0 30 bc 9f 24 a0 bc c5 2a b0 3d
       -0.05225165 -0.01078038 -0.019548712 0.08601908
000240 68 65 3f 3c 3e dc 46 3c 3c d4 ac 3b a5 f6 bf bd
       0.011681892 0.012137471 0.0052743237 -0.093732156
000250 e3 42 be bd 9a 74 fd bc 7a 45 69 bc 32 10 0a be
       -0.092901014 -0.030939389 -0.014237756 -0.1348274
000260 20 45 31 3d b8 de 8e 3c 79 72 96 3b 0e be 18 bd
       0.043278813 0.017440185 0.004591283 -0.037290625
000270 cb e1 9d bd c1 78 17 be 68 d8 83 bd f8 3f 71 bd
       -0.07709082 -0.14792158 -0.064377606 -0.058898896
000280 77 ec 7a 3d 77 5a 39 be b3 15 d8 bc 67 f8 44 bd
       0.061260667 -0.18100916 -0.026377534 -0.048088457
000290 f7 f0 78 3d b1 b6 0d bc e2 c5 9a 3d 4a c8 ca 3c
       0.060776677 -0.008649514 0.075572744 0.024753708
0002a0 fe d7 63 bc 36 0e 22 bd f1 8e 93 3b 90 56 d7 3d
       -0.013906477 -0.039564334 0.004503124 0.10514557
0002b0 97 b9 69 ba fc ef 09 3d 3d f7 fb bc 8e 9d 79 3c
       -0.00089158997 0.033676133 -0.03075754 0.015235318
0002c0 5a e8 e0 3b ba f0 0c bd b8 a4 b7 bc c7 68 7e 3d
       0.006863636 -0.034409262 -0.022417411 0.062111642
0002d0 7b ef 2f 3d 20 f6 37 be 3e da 1a bd 8f 98 c4 bc
       0.042952996 -0.17964983 -0.03780579 -0.023998527
0002e0 e5 87 d8 3c 2d 88 75 bc 81 fd 14 bd 44 3c be 3d
       0.026431987 -0.01498608 -0.036374573 0.092888385
0002f0 08 70 97 bc 72 53 57 bb 3a 34 51 3d 46 23 c0 3d
       -0.018486038 -0.0032856134 0.051075198 0.09381728
000300 ee ea 8f 3c 64 4d c4 bb 8a c5 cf bc 05 3b 91 3c
       0.017568078 -0.005990671 -0.025362749 0.017728338
000310 77 a5 df 3d 69 fd 20 bd ee 84 3e 3d b1 c5 da 3d
       0.10920232 -0.03930417 0.04651349 0.10682238
000320 14 50 c4 3a ce a2 ee ba 13 4b bd bc a2 ea 10 3e
       0.0014977478 -0.0018206479 -0.023107087 0.14152005
000330 d1 7f bc bb ca 8c 4a 3e 71 e2 8c 3c 9c d1 98 bc
       -0.0057525416 0.1978027 0.01719782 -0.018654637
000340 6e 46 b7 3d 86 4a ed bc 49 47 ad bc a4 a2 7e bd
       0.0894898 -0.0289662 -0.021152155 -0.062166825
000350 f2 61 a1 3b 58 aa 0a bd 3d 5c 8e bc 9c 90 c8 3c
       0.004925006 -0.03385386 -0.017377967 0.024483018
000360 88 bc 4a bc 84 b6 13 bd 64 d1 ab bd b8 91 2e bb
       -0.012374051 -0.036062732 -0.083895475 -0.0026637148
000370 ec eb 45 3d 0c 9b df 3c 29 75 1d bc 22 85 81 bc
       0.048320696 0.027295612 -0.009610453 -0.015810553
000380 c5 e2 bd 3d ec 93 4c bd 3b 19 24 bd 65 58 c0 bc
       0.092717685 -0.049945757 -0.040063124 -0.02347965
000390 73 ad 9c bd 0a 3c 8d bb da 8c 2c 3c 04 b1 0e bb
       -0.0765027 -0.0043101357 0.0105316285 -0.002177299
0003a0 8c 2d 06 bd 28 5d 6e bd 75 3e 25 3d f8 b5 fa 3c
       -0.03275828 -0.05819431 0.040342767 0.030604348
0003b0 50 4c 14 3d fc f7 73 bd 75 3d 9f 3c 62 36 4f ba
       0.03620559 -0.05956267 0.019438485 -0.0007904527
0003c0 45 7a e4 3c 5c 26 86 3d bb 23 75 3d 80 3d ff b8
       0.027890334 0.06550285 0.05984853 -0.00012170803
0003d0 76 c1 d0 3d 2e 1f 4a bc 15 66 5d bd f2 fa d9 3c
       0.1019315 -0.012336535 -0.05405243 0.026608918
0003e0 18 84 b4 3c 06 9d a7 3c 65 3d 8d bc 1d 5b 71 3c
       0.022035643 0.020460617 -0.01724119 0.014731196
0003f0 b5 71 78 bc fe fa 1f 3b c2 21 87 bc dd ac 11 3e
       -0.015163829 0.0024411078 -0.01649559 0.14226098

net_stack.0.bias f4 [64]
000000 29 11 d0 bb 80 99 0d 3c e0 02 12 3c 19 f4 9a ba
       -0.006349702 0.008642554 0.008911818 -0.0011822014
000010 ae c9 2d bc 7e b8 48 3c ee dc 42 bc 01 33 32 3c
       -0.010607166 0.012251018 -0.011893494 0.010876418
000020 7c 14 d3 bb 7a 3b 17 bc bc d8 21 bc ec 85 24 3c
       -0.006441651 -0.009230489 -0.009878334 0.010041695
000030 8b d9 dd ba ec 96 a4 3b dc 22 c4 3b c9 28 00 bc
       -0.0016925795 0.005022874 0.005985601 -0.007822224
000040 61 77 30 3c ec 8e 13 3b 3c da a5 3b 18 68 12 bc
       0.01077065 0.0022515608 0.005061416 -0.008935951
000050 33 dc 04 bc 47 75 3b bc a2 7f 32 bc 89 49 4f bc
       -0.00810914 -0.011441535 -0.010894688 -0.0126518095
000060 59 20 01 bc 04 e6 77 bb a2 a1 ea 3b 8c 2e ed 3b
       -0.007881247 -0.003782631 0.0071603814 0.007238215
000070 18 db 0c 3b cd 73 3b 3c 69 24 34 3c 6e d8 44 3c
       0.0021492895 0.011441183 0.010995009 0.0120144915
000080 e2 d2 a2 bb 9a 81 a2 bb 14 96 93 3a c7 18 35 3c
       -0.004968987 -0.0049592974 0.0011259937 0.011053271
000090 93 aa 19 3c 27 82 52 3c 7d f9 1e bc 36 0b ff bb
       0.009379047 0.012848414 -0.009703037 -0.007783319
0000a0 31 44 a1 3b df fe 4a bc ae 27 c7 bb 5c ac 1d 3c
       0.004921459 -0.012389868 -0.0060777282 0.009623613
0000b0 16 5c 08 3c aa e1 15 3c 79 c4 af ba e0 7e 9f bb
       0.008322736 0.009148041 -0.0013409994 -0.0048674196
0000c0 20 77 cf bb 4d 85 09 3c b7 54 14 bc 48 1a 1b 3c
       -0.0063313395 0.008393598 -0.009053401 0.009466715
0000d0 9c 87 38 bb 71 98 11 3c 29 12 10 3c 5b 94 28 bc
       -0.0028157001 0.0088864425 0.008793392 -0.010289277
0000e0 ac 11 26 bc ee 10 47 bb 62 32 cd bb 69 9a c1 3b
       -0.010136049 -0.003037508 -0.0062621096 0.0059082997
0000f0 8a 6c ce bb 12 f0 2c 3c d8 2b 05 3c ea 0a 85 3a
       -0.00629956 0.010555284 0.008128129 0.0010150347

net_stack.2.weight f4 [32, 64]
000000 15 46 3e 3d 3b 04 66 3a b8 e9 32 bc 5d 44 26 3d
       0.046453554 0.0008774434 -0.010919981 0.04059254
000010 50 24 40 3c 7e ee 1c 37 bf 11 80 3d 2a 87 9f 3c
       0.011727408 9.353853e-06 0.06253385 0.019473631
000020 90 6a 2f bb 41 fc 9b 3d 27 8e 4b ba dd 34 32 bc
       -0.0026766397 0.07616473 -0.0007765018 -0.010876861
000030 9d 5d 1f 3d d1 b2 09 3d 64 91 53 bd 7c 3d b3 3b
       0.038907636 0.0336178 -0.051652327 0.005469976
000040 f8 fe e3 bc 80 91 8f bc 71 0f 36 3d 73 d6 1a bd
       -0.02783154 -0.017525434 0.04444832 -0.03780217
000050 7b c8 a4 3c bf 05 9c 3d 2e 1b eb 3d a0 71 2d 38
       0.020115128 0.076182835 0.114797935 4.1352236e-05
000060 55 8d d3 3c 20 d6 78 bd f3 4a 91 bd 08 d6 61 bd
       0.025824228 -0.06075108 -0.070943736 -0.055135757
000070 6b 4a ae bd 81 0c e3 3a e7 74 8f bd e7 c5 67 3d
       -0.08510288 0.0017322452 -0.07004719 0.05658522
000080 a0 6d 0b 3d 4a 06 1c 3c da 80 86 3c 5f 82 a9 3a
       0.034040093 0.009522984 0.016418863 0.001293253
000090 fd 3c b3 3b 83 0b fa bb a0 22 e4 3d 37 c2 51 be
       0.005469917 -0.007630767 0.11139417 -0.20484243
0000a0 9c f1 d4 bc ea d3 5b bd 2c c6 9a bd fd c8 50 3b
       -0.025994115 -0.053668894 -0.075573295 0.003185808
0000b0 af ec 2a bd d3 08 60 3d bb 42 d4 3c 6d 0e 5b 3d
       -0.041729625 0.054695915 0.025910726 0.053480554
0000c0 ce 8f 53 3d 63 c6 c2 bd 5a 43 02 3c 67 21 1c bc
       0.051650815 -0.095104955 0.007950628 -0.009529448
0000d0 59 5d a4 3b c8 f9 64 3d c5 e8 e0 bd 05 18 83 3c
       0.0050160107 0.055902272 -0.10981897 0.016002664
0000e0 e3 08 a8 bc 41 ce 7f bd 1d 0e 77 3c bb ce 95 3c
       -0.02051205 -0.06245256 0.015079048 0.018287053
0000f0 6f 3c 20 bd d4 a9 af 3d cf e6 11 be fa 6a 13 3c
       -0.039120134 0.08577314 -0.14248203 0.008997673
000100 d7 4b e4 39 d9 ac 79 3c 17 79 ce bc f6 32 c0 3c
       0.00043544054 0.015238964 -0.025204225 0.0234618
000110 a9 76 a1 3d ba 61 ca b7 31 27 73 bc 39 60 17 3d
       0.07883961 -2.4125784e-05 -0.014840887 0.036957
000120 a3 ed 05 3d 1e aa 39 bd 63 41 ff bb f8 35 b9 b9
       0.03269733 -0.045328252 -0.007789777 -0.0003532616
000130 2f 79 2a 3d 94 a6 49 bd c0 c0 57 bb f4 07 9c bc
       0.041619476 -0.049231127 -0.0032921284 -0.019046761
000140 73 d6 e6 bb 6c 7a 24 be 0e 2a c3 3d e9 eb e3 3b
       -0.0070446073 -0.16062325 0.09529506 0.006955613
000150 0e fe 6b 3e f9 04 0a ba 13 72 99 bc e3 52 fb 3d
       0.23046133 -0.0005265023 -0.018731153 0.12271669
000160 e9 7a 1c 3d 63 f0 c3 3d 33 af 18 bc 36 f9 2f 3c
       0.038203154 0.095673345 -0.0093191145 0.010740569
000170 ed e8 87 3b 1b 13 84 bd eb f1 e6 3a a2 f9 0d bd
       0.00414764 -0.064489566 0.0017619705 -0.034661897
000180 fa b1 17 bc 0f 12 5d 3d a5 c4 39 39 fa 55 02 ba
       -0.0092587415 0.0539723 0.0001771623 -0.0004971918
000190 a0 f1 33 bc d2 5e e1 3b fc c3 65 bb 0f e9 a4 38
       -0.010982901 0.0068777585 -0.0035059443 7.86354e-05
0001a0 f0 90 8f 3d f6 78 79 3b 9f 41 59 3c 55 92 2f bb
       0.070100665 0.0038066483 0.013260274 -0.0026790102
0001b0 2f a3 ad 3d e3 cc ee bb 54 c6 21 3b 99 86 ce bd
       0.084783904 -0.007287608 0.0024684863 -0.10084266
0001c0 8f a7 0b be b8 54 29 bd ea 54 4c bc 06 73 15 3b
       -0.13638137 -0.04134056 -0.012471417 0.0022804155
0001d0 c7 af 8a bb e8 10 6d 3a 29 32 29 bd 2c bd 48 3b
       -0.00423238 0.0009043352 -0.041307602 0.0030630333
0001e0 03 26 e4 bc 4c 2a 39 bd ea 46 6a 3d 6f c3 f5 bd
       -0.027850157 -0.045206353 0.057196535 -0.120001666
0001f0 53 cc 5d 3d ea b6 c4 b8 d1 01 dd 3b 8e 77 6e bb
       0.054149937 -9.380079e-05 0.0067446013 -0.0036387178
000200 08 14 13 3d ae 5b 0d bc 94 54 3c bd af 76 89 bd
       0.035907775 -0.008627815 -0.045979097 -0.0671209
000210 a3 47 29 bd 22 2b b3 bd 5f 0d c7 bc 5a 10 da 3d
       -0.041328084 -0.08748461 -0.024298368 0.1064765
000220 7e f7 88 bc 2d 01 a2 bd e7 86 89 bd 35 d6 95 39
       -0.016719576 -0.079103805 -0.06715184 0.0002857909
000230 9b e7 f7 bd 77 0a a8 bd d6 ce d4 ba cc cf 98 bc
       -0.12104722 -0.08205121 -0.0016235958 -0.018653773
000240 9f bd bd 3b ba 1d e9 3c a7 70 fe 3c 76 7d 3c 3b
       0.005790427 0.028456558 0.031059576 0.0028761304
000250 ed e5 13 be 56 84 d0 3d 0f af 26 3b 6f 9b c3 3b
       -0.14443178 0.10181491 0.0025433933 0.005969457
000260 c6 54 77 3d d5 ed ce 3c aa 04 57 3d a6 40 94 bd
       0.06038358 0.025259892 0.052494682 -0.07238893
000270 4a 75 00 bd 3e c4 f1 bc 34 78 d9 3b cd ee 24 be
       -0.031361856 -0.02951252 0.006636644 -0.1610672
000280 c7 b1 57 bc 01 3d 2c 3d f9 6e ea 3d db c1 86 bd
       -0.013164944 0.042050365 0.114469476 -0.06579944
000290 b8 9b 84 3d 27 f2 36 3d 24 98 66 be 34 82 9b 3b
       0.064750135 0.04466453 -0.22518975 0.004745746
0002a0 32 b2 41 bc 51 e0 80 3e 9d 11 d8 bc f4 73 25 3d
       -0.01182227 0.2517114 -0.026375586 0.040393785
0002b0 ac c7 21 be 55 86 b0 3c 93 d4 40 3d 49 3b a9 3d
       -0.15798825 0.02154843 0.047077727 0.08263261
0002c0 92 11 51 bc f7 a8 76 bd 36 9c 98 3b 04 90 e7 bd
       -0.012760537 -0.06021973 0.0046572937 -0.11306766
0002d0 b1 c0 37 bd c0 24 23 bd 83 45 2f 3d 10 02 0e bd
       -0.0448615 -0.03982997 0.0427909 -0.034669936
0002e0 f1 af 76 3c 30 ec 88 bb e8 dd dc 3d 4e 77 12 bc
       0.015056596 -0.0041785464 0.10784513 -0.008939577
0002f0 b3 ac 34 bd 7e 2d 76 3c 15 2b 80 3c 56 7a 4e 3d
       -0.04411001 0.015025495 0.015645543 0.050409637
000300 16 90 00 3e d7 7b af 3a ac 43 49 bd 84 99 e4 bb
       0.12554964 0.0013388348 -0.049136803 -0.0069763083
000310 1e 33 ea 3d c3 82 e1 3d 41 96 33 3d 78 df 38 bd
       0.11435531 0.11011269 0.043844465 -0.04513499
000320 8b 2c 15 3d 86 04 26 3d a8 35 4a be a2 7d a9 bd
       0.036419433 0.040531658 -0.1974703 -0.08275916
000330 eb 1a 34 3c 7d d8 89 3d 3c 42 90 3d a5 12 2b 3c
       0.010992746 0.06730745 0.07043883 0.010441457
000340 16 44 a9 bb 5e 81 84 3b 72 ee 43 bd d4 5c 88 3a
       -0.005165587 0.004043742 -0.04783482 0.0010403641
000350 d3 65 9c bc 14 be b6 3c ca 02 38 bd 84 4a 9f 38
       -0.019091522 0.022307433 -0.044924535 7.5955904e-05
000360 9e cc 02 3d 46 b9 ec 3d c6 ee 2c bd 57 8b 28 3c
       0.03193342 0.115587756 -0.0422199 0.010287127
000370 77 16 67 3a 49 af 87 3d 18 2d 2d 3c 1c ba 19 bd
       0.0008815298 0.0662523 0.010569833 -0.037531003
000380 4e eb 26 bd 7a 1c 2d 3c 2d 18 cc b9 c1 ad e5 bb
       -0.040751748 0.010565871 -0.00038927924 -0.0070092385
000390 bc 0a a4 3b 7f bf d4 3c 2a 72 9b 3d 9e c8 cf bb
       0.0050061624 0.025970219 0.075901344 -0.006341054
0003a0 90 7e e2 3d 97 df bf 3d 50 73 aa bc d9 4d d9 ba
       0.11059296 0.09368818 -0.020806938 -0.0016578987
0003b0 a9 47 d8 3b 8a 86 21 3c d2 51 9b 3c 2a 97 6f bd
       0.0066003394 0.009858737 0.018959913 -0.05849377
0003c0 45 93 3b 3d fc 26 b8 3b 20 1a ab 3d 96 41 38 3b
       0.045794744 0.0056198817 0.08354592 0.0028115264
0003d0 00 1e e9 3c 37 e4 2b 3d d8 b8 87 3b a3 a0 69 bc
       0.028456688 0.04196569 0.004141908 -0.01425949
0003e0 57 2f b8 bd c6 4a 4d 3d 27 8f d2 3d 73 38 c9 3d
       -0.08993404 0.050120138 0.102812104 0.0982522
0003f0 a7 65 08 ba 10 68 4b bd 40 1c db b9 f9 77 99 3c
       -0.00052031357 -0.04965979 -0.00041791983 0.018733965

net_stack.2.bias f4 [32]
000000 49 1a 44 bc bf 28 c9 bb eb b4 59 bc aa 9d 03 3b
       -0.0119691575 -0.0061388905 -0.013287763 0.0020082989
000010 e6 d7 24 bc d2 03 40 3c 80 ab d2 bb 84 ad 24 bc
       -0.01006124 0.011719661 -0.006429136 -0.010051135
000020 a7 50 97 3a 32 a0 24 3c d9 94 33 bc 94 bb 3f 3c
       0.0011544422 0.010047959 -0.010960781 0.011702437
000030 b4 64 4a bc 33 86 54 bc 51 a0 9d 3b e7 b5 25 3c
       -0.012353111 -0.012971449 0.004810371 0.01011417
000040 42 d3 46 bc c6 a8 27 3c 51 86 3e bc 69 86 ff 3b
       -0.012135329 0.01023311 -0.011628703 0.0077980054
000050 42 4c 4e 3c 2b 71 3a 3c 74 01 04 b9 e8 84 6a 3b
       0.0125914235 0.01137952 -0.00012589042 0.0035784785
000060 0a 88 46 bc d4 44 4d 3c 91 06 50 3c ed 73 30 bc
       -0.012117395 0.012528617 0.012696878 -0.010769826
000070 05 6b 52 bc 26 1a 55 3c 3a d4 c5 bb 31 3a 40 bc
       -0.012842898 0.013006723 -0.0060372623 -0.011732624

net_stack.4.weight f4 [32, 32]
000000 95 cf 3e bd e3 c2 91 bd ad a8 45 3d f8 92 21 3c
       -0.046584684 -0.0711725 0.048256565 0.0098617
000010 39 70 a6 ba 8d 15 9b 3c 68 6a e3 bc ef 50 ac bc
       -0.001269824 0.018931175 -0.0277607 -0.021034686
000020 2d e1 b4 bd 89 85 7d bd 16 c9 81 3d 4f 9d 82 bd
       -0.08832011 -0.061894927 0.06337182 -0.063776605
000030 7d cd 95 bd 1b 07 b0 bd 5b aa 02 3c 0d f9 23 be
       -0.073145844 -0.08595105 0.007975186 -0.16012974
000040 83 ad 80 3d 4f de 4b bc 6b 05 40 3e c6 9b 73 bc
       0.06283095 -0.012443139 0.18752067 -0.014868682
000050 25 11 4f bd 32 ea 2d bd ee 57 89 bd 0b 2e 13 3d
       -0.05055346 -0.042459674 -0.067062244 0.035932582
000060 f3 e7 da 3c 34 52 05 be 98 ee 35 3d f1 f5 6b bc
       0.02672193 -0.13019639 0.044416994 -0.014401899
000070 a5 23 93 bd af 00 c1 bd 32 2a 84 bd e1 47 d0 bc
       -0.07184533 -0.094239585 -0.064533606 -0.0254249
000080 01 b7 1a bd 84 d8 f5 3c 9f 28 2b bc 40 7e 8e 3c
       -0.037772182 0.03001047 -0.010446697 0.017394185
000090 72 85 97 bd d3 bd 4c 3c 99 d6 46 3e f0 5a e5 3b
       -0.073984995 0.0124964295 0.194178 0.006999366
0000a0 be 9e b3 3c fe 6d 16 3e 89 26 cc bd 37 39 aa bc
       0.02192628 0.14690396 -0.099682875 -0.020779235
0000b0 29 98 b5 3c 09 6e 91 bd 5f 10 f0 3d c1 76 8b bd
       0.022167282 -0.07101066 0.117218725 -0.0680976
0000c0 ad 51 10 bd 66 0a 80 bc 35 ba d1 3d 2e 6c 43 bd
       -0.035234142 -0.015629958 0.10240594 -0.04771059
0000d0 87 e2 18 bb 9d 59 70 bd 21 c3 9b 3d 2c 4f af 3c
       -0.002332838 -0.058679212 0.07605577 0.021400057
0000e0 d7 33 11 3d 74 43 94 bc 79 bb 50 bc c5 f8 a3 3c
       0.03544983 -0.01809857 -0.012740009 0.020016083
0000f0 1d 22 84 bd 10 6e e2 bd 16 07 d9 3d 9a e5 d2 3d
       -0.06451819 -0.11056149 0.10597055 0.10297699
000100 fb c7 a3 3d 1d 72 10 bd f7 52 5f bc 52 85 99 bd
       0.079971276 -0.035265077 -0.01363062 -0.07496132
000110 8a 5a 53 bc 6c 3a 5a 38 1b 95 46 3d 47 0a 10 bd
       -0.012900004 5.202966e-05 0.04848204 -0.03516605
000120 c6 b3 6c bb fe 87 77 3d 36 dd 43 3d b4 a9 5d 3d
       -0.0036117896 0.060432427 0.047818385 0.05411692
000130 8a be 47 bd 7b e5 99 bc 95 41 3b 3d 48 e8 d0 bd
       -0.048765697 -0.018786183 0.04571684 -0.10200554
000140 20 d5 a4 bc d6 f1 a1 3a b5 09 e8 3c 02 45 e1 3d
       -0.020121157 0.0012355398 0.028324941 0.1099949
000150 13 e1 d3 bd 53 6b c8 bd d6 5e a9 bb 4b c0 6f 3a
       -0.10345664 -0.097860955 -0.005168776 0.00091457804
000160 f1 6b a1 bd 11 97 d1 bd 64 75 a1 bc d4 0e e9 3c
       -0.07881916 -0.10233892 -0.019709297 0.028449453
000170 a9 a0 81 3d 2b ac bc bd 8a cd 01 be 7e e6 d8 3c
       0.063294716 -0.09212526 -0.12676063 0.026477095
000180 fa c0 04 3d b8 83 16 3d 68 42 41 3b dc 24 c9 3c
       0.0324106 0.03674671 0.0029489044 0.024553709
000190 f6 d5 82 3d f1 36 a6 39 3f 9f 14 3e 2f 01 4e bc
       0.06388466 0.00031702922 0.14513873 -0.012573524
0001a0 66 5a f0 3c 79 87 42 3e 0b 90 89 3c 1c fa 18 bc
       0.02933998 0.18996991 0.016792318 -0.0093369745
0001b0 cd e2 56 bd 43 26 4d 3b 14 d7 6b bd 82 12 48 3d
       -0.052462388 0.0031303323 -0.05757816 0.048845775
0001c0 0b 83 bf 3c 40 1a de 39 ef 10 b2 bc 2f 80 1e 3d
       0.023377916 0.00042362697 -0.02173659 0.038696464
0001d0 09 88 db 3d 65 7a 0f 3a c2 b5 0f 3c 82 7f 63 bd
       0.10719306 0.00054732553 0.008771362 -0.055541523
0001e0 1f d5 df bc 79 4c b8 bd ea 4c 89 3d f2 03 9e bc
       -0.027323304 -0.08998961 0.06704123 -0.01928899
0001f0 c2 ff fe 3b 0f c6 79 bd 7a 0a ee bd e3 59 b4 bb
       0.0077819536 -0.0609799 -0.11623092 -0.0055038794
000200 2b 0f f4 bd 63 3a 3c be 4c 9b a7 3d c5 d7 9f bc
       -0.119169556 -0.18381648 0.081839174 -0.019512067
000210 55 b4 21 3d 75 f4 70 bc 7b 8c b1 3d 60 83 3e 3d
       0.03947862 -0.014706721 0.08669373 0.046512008
000220 46 0b 29 bd 3a 45 0a be ff 95 a8 3c b7 ff 56 3d
       -0.041270517 -0.1350297 0.020579336 0.052489962
000230 13 36 13 3d e8 57 96 bc 1a f4 8c 3d e2 ba 25 bd
       0.03594024 -0.018352464 0.06882496 -0.04046143
000240 2c 3c 14 3e db b7 30 bc f1 49 4f 3d 90 c3 84 bc
       0.14476079 -0.010786022 0.050607625 -0.016206533
000250 d7 a3 4d bd 18 ec d6 bc 76 97 25 3c 8a ee 93 ba
       -0.050205078 -0.026235625 0.010106912 -0.00112863
000260 ab 10 c6 3c 5c 4b 28 3e d2 64 64 bd 8f 61 1d bd
       0.02417787 0.16434997 -0.055760212 -0.038423117
000270 95 06 13 3c ac 29 26 bd fd af a4 3a aa 62 5d 3d
       0.008973737 -0.040567085 0.0012564656 0.05404917
000280 94 fe e8 bd 29 0a 8c bb 95 d5 22 bc e4 44 20 be
       -0.11376682 -0.004273672 -0.009938617 -0.1565128
000290 63 26 dd 3a d2 c7 0a bb 65 f0 9f bd bf 95 6a 3d
       0.0016872402 -0.002117623 -0.078095235 0.057271715
0002a0 a4 f4 66 3c 7c de 95 3d 8e a3 21 bc 28 01 87 bd
       0.014096413 0.07317826 -0.009865655 -0.065920174
0002b0 b6 55 2b bd b1 7e bf bc d5 68 b9 bc ff dd 50 be
       -0.041829787 -0.02337584 -0.022632996 -0.20397185
0002c0 7d b5 79 3d f0 6d a2 3c a3 8b 81 bd 49 3b a9 3d
       0.060964096 0.019827813 -0.06325462 0.08263261
0002d0 b8 38 ca bd 27 97 1e 3e 5f 5c bc 3c 33 18 fc 3d
       -0.098740995 0.15487348 0.022993265 0.12309303
0002e0 2c 80 cf 3d e3 e6 70 3d cd e6 bb 3d 76 f2 a0 bd
       0.10131869 0.05881394 0.09174881 -0.07858746
0002f0 26 1c 05 3c 2c b6 77 bc cb d5 ce 3c 55 3b 1f 3e
       0.008124387 -0.015119117 0.025248429 0.15549977
000300 da 4b 6a 39 6e 3b ac bc b5 0d 95 39 24 a6 1e bb
       0.00022344236 -0.021024432 0.00028429707 -0.0024207914
000310 62 e3 47 3d 9a ad 88 38 ba 4a 34 3c 0f ea f7 3a
       0.048800834 6.517321e-05 0.011004144 0.0018914359
000320 0f a9 7e bd 08 41 e2 bb 8a 3d 85 bd f3 f1 06 3e
       -0.062172946 -0.006904725 -0.06505878 0.13178234
000330 45 96 6b bd f6 73 e0 3d 55 12 3d bd 69 19 66 bc
       -0.057516355 0.10959618 -0.04616006 -0.014044144
000340 ef 02 3b 3d 68 18 91 b9 41 e8 c9 bc 34 b9 a2 3d
       0.045657095 -0.0002767474 -0.02464688 0.07945481
000350 be 20 a4 bc f3 95 09 38 cd 46 a9 bc fa d0 3d 3d
       -0.020035144 3.2802996e-05 -0.020663643 0.046341874
000360 4a f7 20 b8 d9 6f 53 3c 59 7d 9b bb a3 5c 9d bc
       -3.837728e-05 0.0129050845 -0.004745167 -0.019209212
000370 a8 1c 8b bc a0 2e 75 bc 2a bc 29 bc 7d ed a3 3a
       -0.016981438 -0.01496473 -0.010359803 0.001250669
000380 c0 d8 b5 3d 89 10 28 3d 14 fc 9e 3d 68 b0 95 bd
       0.088792324 0.041031394 0.07762924 -0.073090374
000390 62 24 e2 3c 30 12 43 bc f2 e3 fb 3d 8f 57 d7 3c
       0.02760524 -0.011906192 0.122993365 0.026286868
0003a0 5f 0c 5e bd 60 ff 40 3d 06 d2 80 bd 90 f0 10 be
       -0.054211017 0.047118545 -0.06290059 -0.14154267
0003b0 e3 97 e2 bc d1 fe 67 3e 7b 58 d7 bd 26 85 08 3d
       -0.027660316 0.22655798 -0.10514923 0.033330105
0003c0 97 4c c5 3d 0f c8 23 bd e5 7f 06 3d be c1 90 bd
       0.09633749 -0.039985713 0.032836813 -0.070682034
0003d0 4d 36 af bd 4d 99 30 3e 4c 1f 6d 3d 52 f6 3e 3d
       -0.08555279 0.1724598 0.057891175 0.046621628
0003e0 d0 e8 df 3d c3 21 38 bd 04 34 a9 bd 99 71 5e bc
       0.10933077 -0.044954073 -0.08261874 -0.0135768885
0003f0 31 04 af bd b7 85 0f be e5 c7 59 3d c9 9e 50 3e
       -0.08545721 -0.14015852 0.05316915 0.20373072

net_stack.4.bias f4 [32]
000000 0f 96 32 bc a5 1c 84 3c 4f b6 67 bc 5a 7f 6a 3c
       -0.010900035 0.01612694 -0.014142587 0.01431259
000010 13 d4 6f bc 6d c9 7f 3c 8d f2 5e bc fd 0e 65 bc
       -0.014637965 0.0156119885 -0.013607633 -0.013980624
000020 70 01 4c 3c a0 e1 50 3c eb fb 6a bc 03 0c 60 bc
       0.012451515 0.012749106 -0.0143422885 -0.013674739
000030 47 11 86 bc e8 03 68 3c 78 7d 67 bc a0 fe 6a 3c
       -0.01636566 0.014161088 -0.014129035 0.014342934
000040 2e 70 51 3c 45 31 5b 3c be c3 4e bb 02 b1 68 bc
       0.012783093 0.013378446 -0.0031549777 -0.014202358
000050 86 0d 53 bc f6 c8 6a 3c 48 e9 73 3c 87 3e 51 3c
       -0.012881642 0.014330139 0.014887162 0.012771255
000060 10 24 76 bc 9b ab 67 3c 17 0d 4a 3c 45 e9 68 3c
       -0.015023246 0.014140035 0.012332222 0.014215772
000070 8e 6b 5a bc 1e 85 4f 3c c4 10 5c bc 80 1d 5d bc
       -0.013331307 0.012666015 -0.013431732 -0.013495803

net_stack.6.weight f4 [1, 32]
000000 e4 ae 30 3e 00 20 dc bd 9c cc b6 3d 7b d8 18 bd
       0.17254215 -0.10748291 0.08925745 -0.037315827
000010 93 34 e7 3d 5e c9 77 bd 29 59 ab 3c 7c 69 2b 3e
       0.112893246 -0.060494773 0.020916538 0.16739458
000020 92 2d 0e be f2 18 e5 bd a1 1a fa 3c b1 4d fd 3d
       -0.13884571 -0.111863986 0.030530276 0.12368334
000030 28 69 e8 3d 1f 18 a8 bd f6 78 19 3e f5 75 76 bd
       0.11348182 -0.08207726 0.14987549 -0.060171086
000040 1f 8f 91 bc 97 07 9a bd 49 f1 1e bc e2 e8 25 3d
       -0.01776844 -0.07520979 -0.009701082 0.040505297
000050 b1 77 c0 3d 45 ee 65 bd 34 1d 72 bd b8 23 44 bc
       0.09397829 -0.056135435 -0.05910988 -0.011971407
000060 f3 ce d2 3d 58 4c 8a bd 51 0a 5b be 84 d3 34 bd
       0.10293379 -0.06752843 -0.21390654 -0.04414703
000070 a9 3e 52 3d f5 7c 95 bc 09 fc 81 3d 9b 35 8a 3d
       0.05132929 -0.01824806 0.063469 0.06748506
