CAPSTONE/CAPMODELS/output/model_GAD4.pth (torch, 20710 bytes, 5 tensors)

net_stack.0.weight f4 [64, 36]
000000 da f1 c1 bc b1 e2 3d be 90 eb bd 3d 7c 15 06 3d
       -0.023674894 -0.18543507 0.092734456 0.032735333
000010 4d fd 07 3e 1f 68 9a bd e6 91 8e 3d 9f f5 b1 3d
       0.1328022 -0.07539391 0.06961422 0.08689427
000020 74 17 e6 bd 69 a7 de 3d 11 f0 84 bd d6 d4 2e bd
       -0.11234942 0.10871775 -0.064911015 -0.042683445
000030 4b 76 a3 bd aa 4f 97 bd 24 bd c1 3d 04 23 84 3d
       -0.07981547 -0.073882416 0.09459904 0.06451991
000040 c0 09 6d bd 45 87 02 3b 77 5c 13 be aa 86 dc 3d
       -0.057870626 0.0019917053 -0.14390741 0.10767873
000050 df b4 e4 bd 7e 65 1d 3d 03 5b 73 bd 78 f1 5a 3d
       -0.11167311 0.03842687 -0.059412967 0.05345294
000060 df a7 e2 3b 82 00 9f 3d a0 78 22 be 20 13 9e 3d
       0.0069169845 0.07763769 -0.15866327 0.077184916
000070 67 55 aa 3d 1f 95 67 3d 8c 72 df bd 44 78 2a bd
       0.083170705 0.056538697 -0.1091052 -0.0416186
000080 e7 23 80 bd 12 06 84 be f4 85 d3 3b 6c 51 3d 3e
       -0.06256848 -0.2578588 0.0064551774 0.18488091
000090 7c d3 01 3c 93 33 0e be 63 58 57 3d 08 b4 bc bb
       0.007923957 -0.13886862 0.052574527 -0.005758766
0000a0 fd 7a 9f 3d 2f e7 91 bc 52 1a bf bc 7e 58 e3 bc
       0.0778713 -0.017810432 -0.02332798 -0.027752157
0000b0 b8 ff 2e bd 1e 1f 4a be e3 4a 81 3b 63 44 46 3d
       -0.04272434 -0.19738433 0.003945695 0.048405062
0000c0 8c 07 ea bc c6 4d d1 3c d8 7c 72 39 62 44 e9 3d
       -0.028568052 0.02554978 0.00023125426 0.11389996
0000d0 3f 2f 1f bd c8 e8 cf 3c a5 3e 76 be e9 dc ff bc
       -0.038863417 0.025379553 -0.24047334 -0.031233268
0000e0 0b ae ab 3d 0e 46 0a 3d 54 82 15 3e 54 e1 3e 3d
       0.083828054 0.033758216 0.14600497 0.04660161
0000f0 4b da 6c 3d a4 fc 88 3d a8 8a d5 bd 84 cf 0b bd
       0.057825368 0.066888124 -0.10426837 -0.03413345
000100 0a 5d ee 3c cd 3a a0 bc 98 0f f8 bc fa 34 a1 3d
       0.029097099 -0.019559288 -0.030280873 0.078714326
000110 6b 6f 43 3c bb a5 ed bc 99 03 dd bd ee 05 ac bd
       0.01192842 -0.02900969 -0.10791702 -0.083995685
000120 cf 80 41 bb 17 50 14 be e2 7f c8 bd c0 6b d2 3b
       -0.0029526239 -0.14483677 -0.09790017 0.006421536
000130 15 dc 7d 3c af 30 00 be 61 38 ac 3d da 80 8d bd
       0.015494366 -0.12518571 0.08409191 -0.06909342
000140 b3 b2 b5 bb 36 a4 ab bd e5 bf 25 3d ff c2 1b be
       -0.0055449842 -0.0838093 0.040466208 -0.15211104
000150 6c 52 26 bd 27 a6 d1 bd a3 9b 2d bc 68 d9 03 bd
       -0.040605947 -0.10236769 -0.010596189 -0.032189757
000160 ff 9f 42 bd 3f 24 c1 bb 51 6d 8a bd ee b6 ed ba
       -0.047515865 -0.0058942134 -0.06759132 -0.0018136182
000170 2b 69 8e 3d 5c bb 08 3d be 3b f8 bd c4 6e 20 3d
       0.06953653 0.033381805 -0.1212077 0.039168134
000180 74 2a d6 3d c7 4b 98 3d 68 f4 3b bd 2b 32 0b 3e
       0.10457316 0.074363284 -0.04588738 0.13593356
000190 65 a3 7f 3c 46 0b 71 3d 6c 0f b5 3b 2d 3a be 3c
       0.015602921 0.05884864 0.00552552 0.0232211
0001a0 13 1f 9a 3a a5 3f d8 3d 0a f9 4a 3d 10 1b 4d bd
       0.0011758528 0.10559014 0.04955391 -0.050074637
0001b0 cd 90 3a bd 44 ee e8 3d 2c 6d 2e 3b e4 b4 81 3d
       -0.04554825 0.113735706 0.0026615364 0.0633333
0001c0 e5 62 4a 3e ad 0e 8a 3d cf 92 c2 bd 22 e3 3b be
       0.19764288 0.067410804 -0.09500658 -0.18348363
0001d0 88 13 09 3d 66 61 a7 3d 54 e0 3b bd bf 00 81 3d
       0.033465892 0.08172874 -0.045868233 0.062989704
0001e0 98 45 a4 3b b2 36 ae 3c 54 b6 b4 bd c3 dd 80 3d
       0.005013179 0.021266315 -0.08823839 0.06292298
0001f0 43 45 b0 bd 3d c3 e4 3c 67 21 77 bd f2 2f 5a bd
       -0.086069606 0.027925128 -0.06033459 -0.05326838
000200 70 0e 5c bd 81 ef e2 3c a6 d7 81 bd 4b cc c4 bd
       -0.053724706 0.027702095 -0.0633996 -0.09609278
000210 79 b8 f6 bd 01 90 50 bc ba 4a f3 3d 9b 5a 2b be
       -0.12046904 -0.012729646 0.11879487 -0.16733782
000220 1e 21 cb 3b 1f 41 96 bc b0 ec 6f 3d b8 86 93 bc
       0.0061990162 -0.018341599 0.058575332 -0.018008575
000230 2f ba ed bc 93 9a 52 3e 08 50 83 3d 1a 7b 84 3b
       -0.029019443 0.20566778 0.06411749 0.004042995
000240 55 3b 2c be bb db e4 3c 9a 8c 19 3e 89 e9 33 ba
       -0.16819508 0.027936807 0.14995041 -0.00068631076
000250 da 79 74 bd 82 2b b4 bd cc 63 cb bc 09 2a 24 3d
       -0.05968652 -0.08797361 -0.02482786 0.04007915
000260 fa 5d 08 be 27 63 4d 3e 50 9d f8 3d 57 43 2a 3e
       -0.13317099 0.20057355 0.1213938 0.1662725
000270 1d 38 4c bc c5 14 04 3e b9 9b 0a bd f6 92 c2 3c
       -0.01246455 0.12898548 -0.033839915 0.023751717
000280 6b 25 fa 3c 86 ad a3 3c 37 dc d0 bd 5c 2f 5d be
       0.03053542 0.019980203 -0.10198253 -0.21600097
000290 64 08 84 3d ed 79 7e 3d de 24 d0 bd 8b bb 54 3d
       0.06446913 0.062127996 -0.10163282 0.051936667
0002a0 76 d2 d5 bd d7 7e 3e 3e 07 e4 da 3b d0 f1 79 3c
       -0.10440533 0.18603073 0.006680015 0.0152554065
0002b0 0c 2f 59 bc 69 f4 1d be a0 d0 94 bc 72 81 8a bd
       -0.013255846 -0.15425266 -0.018165886 -0.06762971
0002c0 fe cb 3f 3d ce e5 18 3d 12 af 33 bd 9a c1 48 3d
       0.0468254 0.037328534 -0.043868132 0.049012758
0002d0 99 b8 51 3d 82 8f 30 bd bc 74 38 3d cf bf 10 3e
       0.051201437 -0.04310561 0.0450332 0.14135669
0002e0 99 a2 78 3d 61 52 64 bd 4d 65 97 3d c9 b1 ad bd
       0.06070194 -0.055742625 0.073923685 -0.084811755
0002f0 2f d7 78 3d 5d 00 91 bd be e9 1a bc b6 1c 16 3d
       0.06075209 -0.070801474 -0.009455143 0.036648475
000300 5e ea 18 3d 1b 99 27 be 56 61 b8 bd 48 1f f8 3c
       0.037332885 -0.16366999 -0.0900294 0.030288354
000310 89 30 fd bd 5a 88 80 bd 30 db e7 3c 39 d1 cc 3b
       -0.12362773 -0.06276007 0.028302759 0.006250527
000320 98 b7 2a bc 5b 80 37 3e 0a 7d 98 3d 69 d4 53 3d
       -0.010419749 0.17920057 0.07445724 0.051716242
000330 82 4f 21 3e a6 74 8d bd 46 56 7c bd b3 d0 8b bd
       0.15752986 -0.069070145 -0.061605714 -0.068269156
000340 52 aa 80 bd 10 64 6c bd 33 d0 c8 3c 38 03 8c bd
       -0.06282486 -0.057712615 0.02451334 -0.068365514
000350 11 77 cc bd 53 fa 1c 3d fa 70 6e bc 8f e2 7f bd
       -0.099836476 0.038324665 -0.014553303 -0.062471922
000360 06 6f 80 bd 45 7f 1e 3d 52 59 ab 3c 7c fe b8 3d
       -0.06271176 0.038695592 0.020916615 0.09032914
000370 95 a5 08 be 28 e4 63 be 57 62 8d be 6a 70 a5 3d
       -0.13344415 -0.22255003 -0.2761409 0.08078082
000380 b3 81 a2 bd f6 76 06 bd 20 1f 88 3d f0 09 b4 3d
       -0.079348944 -0.032828294 0.066465616 0.08790958
000390 06 f5 aa bd 38 98 9a ba 81 1c 05 3c 7b 55 2a 3d
       -0.08347516 -0.0011794632 0.008124472 0.041585427
0003a0 59 e4 bc 3c b7 62 a2 bd d0 ce 7d bd ff 68 bc 3c
       0.023058103 -0.079289846 -0.06196481 0.022999285
0003b0 d1 52 13 bd ce 90 54 bd 55 6a 95 3d bd 9f 6f bd
       -0.03596765 -0.05189591 0.07295672 -0.058501948
0003c0 80 fe 89 bd 00 b3 c4 3c 4c d6 f3 bd 2b 0f e0 3b
       -0.06737995 0.024011135 -0.11906108 0.0068377457
0003d0 55 d3 8a 3d a3 b6 47 3d 7f 1b d2 bc fe 63 6c bc
       0.0677859 0.04875816 -0.025647877 -0.014428137
0003e0 9a 71 82 3d 11 74 6f bc 19 7e 19 bd 49 25 b8 bd
       0.06369324 -0.014615075 -0.03747377 -0.089914866
0003f0 89 03 92 3c 8e d2 49 be 40 5e 87 3c f9 85 2d 3e
       0.017823951 -0.19709226 0.016524434 0.16945638

net_stack.0.bias f4 [64]
000000 64 45 ef 3d 7f 7b 59 3d 62 96 ce 3d 27 a7 c2 bd
       0.11683157 0.05309629 0.10087277 -0.09504538
000010 9f 9f da 3d 8d 22 e2 bd 36 f3 d9 3d 53 ce 7a bd
       0.106749766 -0.11041746 0.10642092 -0.061231922
000020 76 e4 cc bd 0f 87 cf 3d 3d e3 d5 bd 89 d5 e7 bd
       -0.10004513 0.10133182 -0.10443733 -0.113200255
000030 fc 63 ee 3d 03 99 ea 3d b0 78 de bd 3c bb f4 bd
       0.11640164 0.11454966 -0.10862863 -0.119497746
000040 7e 1c ce 3d b0 b5 cd 3d 86 95 d6 bd 35 7b f0 3c
       0.10064028 0.1004442 -0.10477738 0.029355625
000050 fe c0 dd bd aa dc e4 bd eb 23 ab bd 02 94 df 3d
       -0.10827826 -0.11174901 -0.0835646 0.10916902
000060 cd 5d ce 3d 0e 5e 39 bd d6 d9 d0 bd 68 e4 db bd
       0.10076485 -0.045255713 -0.10197799 -0.107369244
000070 03 2e 83 3d 17 cb d6 bd 54 01 e8 3d e6 77 f4 3d
       0.064052604 -0.10487955 0.11328378 0.11936931
000080 05 4a f2 bd e7 8a eb 3d 3b 68 fb 3c a9 db ce 3d
       -0.11830524 0.11501103 0.03068935 0.101004906
000090 53 1a ec 3d 6e 09 cc bd 85 7b ec bd 56 72 03 be
       0.115284584 -0.09962736 -0.11546997 -0.12836584
0000a0 c7 97 c9 bc 28 f0 ec bd 34 06 d8 3d 9d 32 ca 3d
       -0.024608506 -0.11569244 0.10548058 0.09872935
0000b0 1b 5f fa 3d 74 60 97 bd 24 32 de 3d d7 c1 e1 bd
       0.12225171 -0.07391444 0.10849407 -0.110233
0000c0 c4 7f 8b 3d 82 49 d2 bd b8 6e b4 bd 34 57 ea bd
       0.06811479 -0.10267927 -0.088101804 -0.11442414
0000d0 94 df ef bd bc 94 e1 bd fa 83 e9 3d 18 32 ee bd
       -0.11712566 -0.11014697 0.11402126 -0.116306484
0000e0 01 b8 48 3d 7a d7 e7 bd 02 a9 dc bd cb c6 d9 3d
       0.049003605 -0.11320396 -0.10774423 0.1063362
0000f0 42 1c ed 3d 6b 1d e0 3d 54 8c e1 3d e9 1b c4 bd
       0.115776554 0.10943111 0.110130936 -0.09575636

net_stack.2.weight f4 [32, 64]
000000 e4 ab d9 3d b8 9f c2 3c 62 02 06 3e cf d5 85 bd
       0.10628489 0.0237578 0.13086846 -0.065349214
000010 d4 d9 50 3e 64 d3 ad bd cb e2 38 3d cf 49 a6 bb
       0.20395595 -0.08487585 0.04513816 -0.0050747166
000020 d9 e5 88 bd f1 1a cb bd b4 e2 c2 3d aa 64 5c be
       -0.06684465 -0.09917248 0.095158964 -0.21522775
000030 0d 14 6d 3d 21 e0 75 bb 7a 38 29 be 77 7e 74 be
       0.05788045 -0.0037517624 -0.1652545 -0.23876368
000040 d7 7f 35 3d 0d 99 09 3d d0 e3 fd bc 18 b5 13 3d
       0.04431137 0.033593226 -0.030992419 0.036061376
000050 81 80 3f bb 81 07 f0 bd fc 69 6e 3d d4 8d 05 3d
       -0.0029220881 -0.11720181 0.058206543 0.03260596
000060 62 e1 12 3e 40 a4 6c 3d 81 1a 0a be dc f0 2f 3d
       0.14343789 0.05777383 -0.13486673 0.04295431
000070 df 39 da 3c a0 d2 9d 3d f7 7c a3 3c d8 d0 33 3e
       0.026638923 0.07706189 0.019957049 0.17560136
000080 0b 85 96 3d 63 28 27 bd 6e d6 48 3d e8 97 21 3e
       0.07349595 -0.04081 0.04903262 0.15780604
000090 33 5a 6b 3e 3d 06 6b 3d 21 fb 2c be 52 9c 99 bd
       0.22983627 0.057378996 -0.16892673 -0.07500519
0000a0 59 b8 34 3c 78 6f 2b be 58 fc b9 3d a3 49 2d 3e
       0.01103028 -0.1674174 0.09081334 0.16922621
0000b0 3a 32 55 3d b4 c0 bc bd 9c a7 a7 3d f8 48 d8 3d
       0.052049853 -0.09216443 0.08186266 0.10560793
0000c0 f3 7e 65 3d c5 23 4b bc f5 bf 36 3d 80 c9 9b bd
       0.05602927 -0.012398665 0.04461666 -0.076067924
0000d0 ba da 47 bd 69 c5 22 be 7b 4b 89 3d 96 7d 05 be
       -0.04879258 -0.15895618 0.0670385 -0.13036188
0000e0 5b a4 88 bd 51 85 b2 bc 76 fe 04 bc fa 11 82 3c
       -0.06671973 -0.021792086 -0.008117309 0.015877713
0000f0 6c d1 0a 3e 3c a9 b4 3d 98 ed 61 bc 70 40 8d 3d
       0.1355645 0.088213414 -0.013789557 0.06897056
000100 53 f3 18 3b c5 52 fd 3d 90 0a 77 3a 5d 3c fe bd
       0.0023338392 0.12369303 0.0009423876 -0.12413857
000110 27 f0 fc 3d 0f 86 a1 bc 16 d8 31 3e 3e a7 50 bd
       0.12350493 -0.019717244 0.17367586 -0.050940745
000120 22 3c 13 3d 75 37 bf 3c 7a cb 0f bc 68 cb 06 bd
       0.03594602 0.023341874 -0.00877654 -0.032908827
000130 38 f4 17 3e e4 60 28 3e ed b3 a6 bc a2 ee 98 bb
       0.14839256 0.16443211 -0.020349467 -0.004667119
000140 7a db 71 3e ba a9 16 3e 99 2f 0d be af 68 ab bc
       0.2361888 0.14713183 -0.13787688 -0.02092394
000150 a7 9a 8f bc 9b f9 bc bd 37 13 6d 3d db a9 62 3d
       -0.017529799 -0.09227296 0.057879653 0.055337768
000160 85 d5 bc 3d c0 7d 0c 3d 36 7b ca bd ad b0 72 bb
       0.09220413 0.034299612 -0.09886782 -0.0037031577
000170 ca 9b c5 bd f0 73 52 3d d5 72 90 3d 97 09 e3 3d
       -0.09648855 0.051380098 0.070531525 0.110858135
000180 9f 5c 95 bd e3 41 1f bc d8 31 22 bd 59 ed 98 3d
       -0.07293057 -0.009720298 -0.039598316 0.074671455
000190 a7 2f b6 3d b9 55 d9 bb 17 15 fa bd 82 c6 aa 3d
       0.08895808 -0.0066325334 -0.12211054 0.083386436
0001a0 9c 12 d8 bb a7 0d 72 3d 41 b0 35 3d 06 66 ca 3c
       -0.0065940153 0.05909505 0.044357542 0.024706852
0001b0 ee 60 af 3d f2 7f 8d 3c c7 c8 92 3d a1 75 26 3d
       0.0856341 0.017272923 0.071672015 0.040639523
0001c0 38 82 2a 3e 02 e7 4e 3c 26 b8 d1 bd f7 2a 5c be
       0.16651237 0.012628319 -0.10240202 -0.21500765
0001d0 d8 c8 ab bd 4b 15 d1 bd c2 0e 09 3d 44 a7 1e 3d
       -0.08387917 -0.102091394 0.03346134 0.038733736
0001e0 a2 1f d4 b9 71 61 9e bd f6 52 3d bd 20 b1 62 3d
       -0.0004045936 -0.07733429 -0.046221696 0.0553447
0001f0 3b b1 ac bd 88 40 29 3e 27 3d 56 3b 47 7b 45 bd
       -0.084322415 0.16528523 0.0032690258 -0.04821327
000200 b2 97 1c 3d bb ae 71 bd a6 85 07 3c a1 2a 1d bc
       0.038230605 -0.059004527 0.00827161 -0.009592683
000210 59 7f 9a 3c 8d fe 97 bd c1 4a 7d 3d fb 79 2d bd
       0.018859552 -0.074215986 0.06183887 -0.042352658
000220 b4 37 15 be 75 b8 d2 3b 81 b6 e4 bc 96 ca 03 bd
       -0.1457203 0.0064306804 -0.027919056 -0.032175623
000230 e6 ae 3d 3c b3 4a a8 3c f9 8f cb bd a6 7c 45 3c
       0.011577344 0.020543432 -0.0993957 0.012053644
000240 fd 71 90 bc 0b ab d1 bd 0b 97 36 3b 9c 68 ce bc
       -0.017632479 -0.10237702 0.0027861025 -0.025196366
000250 22 93 39 bd 79 02 27 bd 42 49 ea 3c 67 b0 ec 3c
       -0.045306332 -0.040773842 0.028599385 0.028892709
000260 6d 48 85 3d 49 66 27 3d cc 80 db 3d ce ad 2c 3d
       0.06507955 0.04086903 0.107179254 0.04215794
000270 d9 d7 85 3b e4 c6 92 3d 09 5e 29 bd c4 c8 81 bc
       0.004084569 0.071668416 -0.041349445 -0.015842803
000280 0e 37 20 bc ee 1a 47 3e b2 99 88 bd dd 5f c5 3c
       -0.009778751 0.19443867 -0.0666994 0.024093563
000290 2c 92 03 3d a9 69 f9 bd 25 c0 c3 bd 34 b3 8a 3c
       0.032121822 -0.12178356 -0.09558133 0.016931154
0002a0 e5 b4 48 be d8 f6 b2 bc ed b1 ca bd b6 73 0d 3e
       -0.19600256 -0.02184622 -0.09897218 0.13813671
0002b0 ff ec fc 3c ba 58 e9 3c 23 56 d8 bd 3f 4d 6c 3e
       0.030874727 0.028484691 -0.10563304 0.23076342
0002c0 31 fc 1d 3d 0a bd 7c bc 38 35 a1 3c 75 d6 11 3d
       0.038570587 -0.01542593 0.019678697 0.035604913
0002d0 52 4b 79 3d 37 a8 bb bd dd 1c 73 bd 95 61 12 3c
       0.060862847 -0.09162944 -0.059353698 0.008934398
0002e0 1b a3 75 bd 14 e5 94 bc 19 cb 21 3e d2 00 d0 3d
       -0.059970003 -0.01817564 0.15800132 0.101564065
0002f0 07 41 a0 3d c1 f3 60 bd ae 3a 80 3d 3a 7e a8 b8
       0.07824903 -0.05491996 0.06261192 -8.034376e-05
000300 ac 9f 71 bd 3c 99 9f 3c a6 65 b1 3c 44 e0 bc 3d
       -0.058990166 0.019482248 0.021654915 0.09222463
000310 0c d7 53 3c c2 1d f3 bd b3 26 d6 3d fc f8 19 3e
       0.012929689 -0.1187091 0.104566 0.15036386
000320 55 60 2c be 35 cd 09 3e 26 81 2f 3d 76 c3 9f bd
       -0.16833623 0.13457187 0.042847775 -0.07800953
000330 3a d2 03 3d 53 d0 8d 3b d7 af 0a 3e 27 94 05 be
       0.03218291 0.0043278127 0.1354364 -0.13044797
000340 82 7b e9 bb b7 20 a5 3d 5c 0e 79 be 7f 9f 3a bd
       -0.007125319 0.080628805 -0.24321884 -0.045562264
000350 d9 09 35 be a1 0b 13 3c 29 28 17 bc 1c b6 eb 3d
       -0.17679538 0.0089749405 -0.0092258835 0.11509344
000360 a3 b8 89 3d c8 3d 44 bc 7a eb 96 bd d3 3e 8e bd
       0.0672467 -0.01197762 -0.07369132 -0.069455765
000370 56 cd d9 3d 20 c8 94 3d 16 d0 10 3d 12 9a 35 bb
       0.10634868 0.07264733 0.035354696 -0.0027710241
000380 e0 de a6 bd 70 2c 0e 3e 27 22 49 bb bf 93 d5 3d
       -0.08147979 0.13884139 -0.0030690522 0.10428571
000390 70 3d 1c 3d fe 6a 1b be e2 b3 a1 3d 70 6f b5 bc
       0.03814453 -0.15177533 0.07895638 -0.022147864
0003a0 73 dc 95 3c 0f 2d 23 be 40 2d ba 3c 7c c1 0f 3e
       0.018293595 -0.15935157 0.022726655 0.14038652
0003b0 ac 03 5e 3e 08 4f c0 3c 5d 95 04 bd ea 4f a7 bd
       0.21681088 0.023475185 -0.032369006 -0.08169539
0003c0 c9 3d 0b 3e be c2 57 be f1 0f 1f 3d 76 9f f2 bd
       0.13597788 -0.21070382 0.038833562 -0.11846821
0003d0 a8 c0 b9 bd 76 4a 07 be f0 c6 17 3e 5d e5 04 bd
       -0.090699494 -0.13211998 0.14821982 -0.0324453
0003e0 50 d5 48 3d a1 40 e2 3c 3b 92 26 be 40 6f 09 3e
       0.049031556 0.027618708 -0.1626672 0.13421345
0003f0 60 9d 85 3d 32 b5 ca 3d 86 ef a5 3c 6d 7f cf 3d
       0.065241575 0.098978415 0.020255815 0.101317264

net_stack.2.bias f4 [32]
000000 fc d2 c6 3d 7f bf c8 3d 54 11 b1 3c 0a 46 f1 3d
       0.09708211 0.0980215 0.021614708 0.11780937
000010 dc 70 c7 3d 6b 89 ae 3d 7c cb b0 3d be 90 b3 bd
       0.09738323 0.08522304 0.086325616 -0.08767842
000020 cb 06 9c bd b4 11 a6 bd 2e a0 d9 bd e9 64 3f 3d
       -0.07618483 -0.08108845 -0.10626255 0.046727095
000030 cf f6 b1 3d 7c 00 e4 3d cb 1e ac 3d bf 7d c3 3d
       0.08689653 0.11132905 0.08404311 0.095454685
000040 bb 12 ba bd 1b 5c e5 3d bd 70 b8 bd a9 c8 d1 bd
       -0.09085604 0.11199208 -0.09005878 -0.10243351
000050 e7 71 06 bd 34 3f b0 3d 2d 21 b0 bd 6f ed df 3d
       -0.03282347 0.08605805 -0.08600078 0.10933959
000060 1f a6 b1 3d 20 fc b1 bd 77 fc bf bd 5a 88 e5 3d
       0.08674263 -0.08690667 -0.09374326 0.112076476
000070 a7 ae bb 3d ca 44 df bd cb 61 b5 3d 2b 61 cf bd
       0.09164172 -0.10901792 0.08856543 -0.10125955

net_stack.4.weight f4 [1, 32]
000000 6c 02 fd bd 0d 9e f2 bd b4 3f 6b bc 1a e9 9d bd
       -0.123539776 -0.11846552 -0.01435845 -0.07710476
000010 76 3a 12 be bd 0b 56 be 1f fe 95 be 5d a1 6a 3e
       -0.14280114 -0.20902915 -0.29295442 0.22913118
000020 2e 89 6a 3d 9f db 09 3e 2b b0 c0 3d 6a ab af bc
       0.05725973 0.13462685 0.094086014 -0.021444041
000030 27 42 80 be c9 11 bc bd b6 1e a2 bd 33 3c 0e be
       -0.2505047 -0.0918308 -0.07916014 -0.13890152
000040 ef 86 3c 3e 1d e9 9d bd 17 79 37 3e 1f 94 c5 3d
       0.18410848 -0.077104785 0.17917286 0.096473925
000050 cb af 01 3b 21 26 87 be c2 2c 32 3e 6a cb ec bd
       0.0019788619 -0.26396278 0.17399886 -0.11562236
000060 e2 54 1d be 95 66 ca 3d 86 b2 26 3d 49 00 a8 bd
       -0.15364411 0.09882847 0.040697597 -0.082031794
000070 71 38 f7 bd 20 6a 8b 3d 7a 29 29 be 95 5a a6 3d
       -0.12071312 0.06807351 -0.16519728 0.08122746
