CAPSTONE/CAPMODELS/output/model_GAD1.pth (torch, 20710 bytes, 5 tensors)

net_stack.0.weight f4 [64, 36]
00000000: adf4 adbc 4895 903a 63f5 8b3d 6992 8abd
00000010: 9af2 d53c ff3c d4bd 4adc 99bd dc8b 583c
00000020: d1e8 d73d e2ca 0bbe d232 7e3c 66f6 903d
00000030: 1045 b0bd 5f05 acbc df5e b13c 185a 8cbd
00000040: 57dc 80bd 494f 4e3d f8c4 a43d 560b eebd
00000050: b1e1 db3c 9af0 ba3b 08cb 7dba b50c 733d
00000060: 798d b73d 0c47 cebd a0ae 1bbd b046 d63d
00000070: 0c36 6abc cae1 3ebd 46b6 8ebc 6710 1fbd
00000080: 21ae ac3d cf76 acbd 0a0f 3bbd bd07 51bd
00000090: 9488 eabc 6ddc 8cbe 9c36 bcbd b77f 503c
000000a0: dc68 7b3d c175 003e 39f1 cdbd 4102 0e3d
000000b0: 2704 343d 6d0d 7bbc a972 0f3e b1f2 1ebe
000000c0: 0a77 d63c 4074 2ebe 1f6b 6b3d d071 cf3d
000000d0: 3b0a bfbd 83f2 2a3c 707b 3bbd 138f 80bd
000000e0: 97ab 1bbe a884 ef3c 59a6 b23d 35a9 7cba
000000f0: 16ef 97bc 2aa1 6e3d b332 88bd 19ce d43d
00000100: a344 96bd 3a35 a43a a9a0 873d 5ae8 523d
00000110: ff39 863c ae2c d8bc 50e1 f7bd dd3f 2139
00000120: 69c7 c8bd c6f8 4dbe 026e 0ebb 60fd bdbd
00000130: 2f9e 9bbc 1934 5bbd 70f9 983c 257c dc3d
00000140: 203c 903d 29dd 02be 9a5c 04be 4466 8e3d
00000150: 8f5b 92bd 0760 01bd 460c a63d c481 89bd
00000160: c42c 0ebe d288 67bd 0fed 373d 0075 87bd
00000170: 7b19 0a3e 4e76 843d ae1f ee3d 9fd6 793d
00000180: 1efe 20bd eebf 79bc 9dd2 9f3b b848 26bc
00000190: 3240 483e b6aa 5d3d 846d 08bd 549d 89bd
000001a0: 44af 5abd 9f58 3fbe c80d 4f38 8a46 f4bd
000001b0: 56e8 473d 8e06 5a3d 1cd1 8d3c 7a52 3bbe
000001c0: 5169 343c 50f7 803d 2544 2f3e 5444 86bd
000001d0: 963a b73c 0204 e3bd 24e6 c93d 9082 643b
000001e0: ac0f 8e3d de3e 383d e4d6 e1bc 4551 f33b
000001f0: f9de edbd 49b4 0abe c523 e8bc f6bc 4abd
00000200: dd97 a8bd d24a a9bd e5aa 083d 423d 733d
00000210: 8f6f 9b3d 0f94 b23d 80c3 f13a 9458 a43c
00000220: 2b65 9f3c 9140 9c3c 4a6e b1bb 09e0 1fbc
00000230: cfbd a83d 06a9 323e 14b3 823d f2a5 833d
00000240: fba2 95bc 207f 77bc ea4d b4bd 41fd a53d
00000250: fcc8 07be 40d1 0bbe 57dc 3dbd 588d 893c
00000260: 7c22 2e3d 99f6 67bd daa8 d3bc da2c 5abc
00000270: 42ca ecbd d7ff 68bc b671 633d ef10 13bc
00000280: 3e8a fa3c 5492 373d 1004 5e3d 20a0 1dbd
00000290: 29a3 90bd ab9e e5bc 3e3e af3d 61cd 4abd
000002a0: 68f7 bcbd ceb9 e2bb ba7b 51bd e61d d43c
000002b0: e864 9d3d 9318 2d3d 2ddc 763c f254 de3c
000002c0: 0217 1abd f0ef 65bd 2f37 b93c 9240 9dbd
000002d0: aef6 9cbd 1968 3dbe d62c 89bd 1a41 853d
000002e0: 9234 28bd 3592 283e cca6 993a 6f5f e63d
000002f0: c2c5 fdbc 5e8e babd ce9c 69bd fde5 97bd
00000300: 03d9 a2bc fee8 e93d 3a84 1ebc 1e23 133e
00000310: 816e 09bd 8811 613b 1f9e 2cbc 447d ddbc
00000320: 348e d9bd 29a0 673d 65ff 103e 8e31 72bd
00000330: a767 8dbc d796 aa3d cf98 39bc f105 e4bc
00000340: 3df9 023c 6606 ebbd 6207 013d 016c 823d
00000350: a12a a7bc 258b 113d 34cf 0a3c 0f36 e83c
00000360: 709e f53d 907d 3d3e 77d0 14be d12b a8bd
00000370: 9641 e33d 22de 8fbd b4a4 263d 1cd3 39be
00000380: f448 c43d 2cbb 8f3c 51c9 c63c 1873 82bc
00000390: 474f 223e d595 a4bc 6782 3ebd 4255 6cbd
000003a0: 3891 bfbd 28fd 213d 9de0 963d da9f 5e3d
000003b0: d241 4e3c 9856 6c3c 3d7f ecbb a4a1 06bc
000003c0: 7f96 3dbc 1a50 82bd 220a 393d 361e 263d
000003d0: dcbf ccbd 7c18 ad3d c523 4cbc d1b6 35bc
000003e0: f5a1 6ebd 3bb0 a73d 693e 373d d831 f739
000003f0: 04ec 193e 7785 03be c0d7 80be 5ec0 63be
-0.021234835 0.0011030817 0.06833913 -0.06766207 0.026116658 -0.103631966 -0.0751272 0.013216939
0.10542453 -0.13651612 0.015515046 0.07078247 -0.086069226 -0.020998655 0.021651683 -0.068531215
-0.062920265 0.05036858 0.08045381 -0.11623256 0.026841016 0.0057049515 -0.0009681438 0.05933829
0.08962531 -0.10072145 -0.038008332 0.10462701 -0.014295112 -0.046602048 -0.0174209 -0.038834002
0.0843165 -0.084210984 -0.04566864 -0.05103277 -0.028629579 -0.27511922 -0.091901034 0.012725762
0.0613793 0.1254492 -0.10055775 0.03467012 0.043949272 -0.015323025 0.14008583 -0.15522267
0.02617981 -0.17036533 0.057475206 0.1012913 -0.09328123 0.010433796 -0.045772016 -0.06277289
-0.15202175 0.02923806 0.087231345 -0.0009638251 -0.018546622 0.058259167 -0.06650295 0.103908725
-0.0733731 0.001252807 0.0662244 0.05149112 0.016385077 -0.026388492 -0.12103522 0.00015377947
-0.098036595 -0.20114431 -0.002173305 -0.09276843 -0.018996326 -0.05351648 0.018673629 0.10765866
0.07042718 -0.12779678 -0.1292595 0.06953099 -0.0714637 -0.03158572 0.0810781 -0.06714204
-0.13884264 -0.056526966 0.04490381 -0.06614113 0.13486283 0.06467877 0.11627136 0.060995694
-0.039304845 -0.0152435135 0.004877402 -0.010149173 0.19555739 0.05411788 -0.033307567 -0.06719461
-0.053389803 -0.1868615 4.936548e-05 -0.11927517 0.048805557 0.053228907 0.017311625 -0.18293181
0.0110114375 0.06297171 0.17115839 -0.06556001 0.022366803 -0.11084749 0.09858349 0.003486786
0.06936583 0.04498183 -0.027568288 0.0074254596 -0.11614794 -0.13545336 -0.028337369 -0.049496613
-0.082320906 -0.08266224 0.033366103 0.059384592 0.075896375 0.08719646 0.0018445104 0.020061769
0.01945742 0.019073756 -0.005414759 -0.009758004 0.08239328 0.1744729 0.06381813 0.06428136
-0.018266192 -0.015105993 -0.088039234 0.08104945 -0.13260263 -0.13654041 -0.04635271 0.01679103
0.042513356 -0.05663166 -0.02583735 -0.0133163575 -0.11562015 -0.014221153 0.055528365 -0.008976205
0.030583497 0.044817284 0.054203093 -0.038482785 -0.0706237 -0.02802976 0.08556794 -0.04951227
-0.092268765 -0.0069191223 -0.051143385 0.025893163 0.07685262 0.042259764 0.015067142 0.027140114
-0.0376196 -0.056137025 0.022609321 -0.076783314 -0.07664238 -0.18496741 -0.06698005 0.06506558
-0.04106576 0.16462024 0.0011722683 0.11248671 -0.030978087 -0.09109186 -0.057034306 -0.07416914
-0.01987887 0.11421393 -0.00967508 0.14368865 -0.03355265 0.0034342725 -0.010535746 -0.02703727
-0.10622826 0.056549225 0.14159925 -0.05912929 -0.01726134 0.08329552 -0.011327936 -0.027834864
0.007993993 -0.1147583 0.03150118 0.06368256 -0.02040607 0.03553309 0.008472253 0.02834609
0.1199311 0.1850493 -0.14532648 -0.08211482 0.11096494 -0.0702479 0.040684417 -0.18146938
0.09584227 0.017545305 0.024265917 -0.015924022 0.15850554 -0.020090977 -0.04651108 -0.057698496
-0.0935387 0.03954807 0.0736706 0.054351665 0.012588935 0.014424942 -0.0072173164 -0.008217249
-0.011571526 -0.063629344 0.04517568 0.040556155 -0.09997532 0.08451936 -0.0124597 -0.01109095
-0.058259923 0.0818791 0.044737253 0.00047148648 0.15031439 -0.12843882 -0.25164604 -0.22241351

net_stack.0.bias f4 [64]
00000000: e5e8 c93d 2cdc dc3d 3d38 dc3d 95da fdbd
00000010: cbd8 f13d 3db9 78bc 5903 e5bd f208 ea3d
00000020: be78 ccbd 5e88 ae3d 2d19 b0bd f6e4 db3d
00000030: c64e e7bd 6653 cfbd fd4c d83d 36ea bc3d
00000040: 8a01 dd3d 7f9b e23d a282 aa3d 0623 a6bd
00000050: c043 8cbd 06a5 c6bd 8c3c e7bd 9aae f33d
00000060: 6643 f33d 7264 563d 6369 f0bd cb80 d13d
00000070: 81cd df3d ae68 d2bd b319 f3bd 8465 b7bd
00000080: 7613 e33d 798a c93d 3c3d d6bd 173c dc3d
00000090: 452a 063e c50b f93d f24a d43d 3c95 ec3d
000000a0: a470 733c 753c f0bd 05de f3bd 7c0c cabd
000000b0: fec7 873d 40a3 dd3d 8fc8 fc3d a4d7 f0bd
000000c0: 220e 013e 5d7a 013e 25d2 a9bc e1d7 d23d
000000d0: ad02 093d c9dc f0bd 8162 003e 8c92 b5bd
000000e0: 5592 b5bd a843 ed3d 9f18 fa3d 7d8d 763d
000000f0: 327f c8bc 5ec7 e9bd 4d46 e13d 2547 933d
0.09858874 0.10784182 0.10752914 -0.12395207 0.11808928 -0.015180883 -0.11182279 0.114274874
-0.09983967 0.08522104 -0.08598552 0.1073703 -0.11294322 -0.10123329 0.10561559 0.0922436
0.10791309 0.11064815 0.083256975 -0.08112149 -0.0684886 -0.096994445 -0.11290845 0.11898537
0.118780896 0.052341886 -0.11738851 0.102296434 0.10927869 -0.10273872 -0.11870136 -0.089549094
0.11087696 0.09840865 -0.10460898 0.10753649 0.13102062 0.12160448 0.10365857 0.11551902
0.014858399 -0.11730281 -0.11907581 -0.098656625 0.06629942 0.10822153 0.12342941 -0.1175988
0.12603047 0.12644334 -0.020730088 0.10295082 0.033449817 -0.117608614 0.12537576 -0.08865842
-0.08865801 0.1158517 0.12211727 0.060193527 -0.024474714 -0.114149794 0.10999737 0.07191304

net_stack.2.weight f4 [32, 64]
00000000: 9311 10bd d52d 3dbd 2aa3 dfbc c70d 373e
00000010: 6303 533c 8b79 41bc 271d 27be 5194 823d
00000020: cf05 153e 0843 1cbe 05a7 123e 8895 03bd
00000030: 2647 be3d 301e cb3d 0012 24be ba12 77bd
00000040: 846a a0bd ca5e 0f3b a504 50be 2e71 b7bd
00000050: c508 abbc 251e abbb 6856 91bd eae9 c5bd
00000060: fcea 80bd d606 97bd 3898 37bd 48c2 10bd
00000070: 803f 14be 6b55 093d 0901 173d 3bc2 ed3c
00000080: dc12 853b f44d f7bd 2333 433d 9321 20be
00000090: 202d f0bd 2cd7 3fbe 2cfc ebbd b612 36be
000000a0: aeec 693d ec01 2a3d edc5 db3d 882c 033e
000000b0: e31a 653b cf2e 41bd b7b4 6cbd c514 e13d
000000c0: f46e 30be fb99 27be 392b 20be 6a5b 8f3c
000000d0: 48a3 05bd d382 0b3d b226 d83b 3206 cb3c
000000e0: 6acf 4fbd 25d2 c9bd ab8d 8dbd 598f 6b3d
000000f0: 126d 453e 61bb 4b3e e6ce a7bc 6024 d43c
00000100: 19a5 39bd 5228 7c3e abd6 6c3d 60bc cdbd
00000110: d20f 343d 012a c4bd 9c85 9ebd 69d0 efba
00000120: 9d8c f33d 4b8c 4abe 9978 83bd a238 9c3d
00000130: ac04 51be 8fb7 84bd 911c 3fbe fcee 5abb
00000140: 117e 873d f3d0 163d 43c3 c73d f170 37bd
00000150: 51c9 b33d 96b0 d8bd c4ad 84bd 57f0 783c
00000160: d964 e2bd 49c4 be3d 5b3e 03be aa29 0c3d
00000170: 3c22 ba3d 45aa b13c 26cb 46ba fcff f33d
00000180: 4d0c da3c ef6f 2b3d 7581 2bbe 12f2 b93c
00000190: e565 463d 65c4 e63c 21d8 bf3d b9eb eb3d
000001a0: 3d3f b53d d09a 9bba 0abb e83d bf68 b73d
000001b0: e553 d13c 435e 043e 5bd8 a6bc 8442 a6bd
000001c0: 2255 6e3e 8c15 25bd ea1d 18bd f695 ae3c
000001d0: c282 bf3d 43b9 46bd 3883 9a3d 54be 3bbd
000001e0: 9a04 0ebd 4d5f 75bd 63bd 5d3e 0a0d e43a
000001f0: 1b6e 273e dea8 c9bb 20ad 053e cac5 b5bc
00000200: e707 2e3e dc98 7a3d fdae 3fbc d348 1ebd
00000210: 401d bebd 7bdc 54bc e217 cabd 3a7c af3d
00000220: 15a0 72be 6703 013d 3928 4dbe a67f 0cbd
00000230: 76bc b13d dade ea3c fd31 5c3e 3e9f 743d
00000240: e595 a73d f011 f13d 5270 873c 3756 0e3d
00000250: 26ef ef3d d4bd c83c da23 12bd 28c5 9abc
00000260: 8871 de3d 2e5a 07bd c64f 3bbd 0751 623d
00000270: 14e2 0a3e 6008 bc3b bf92 b6bd 1df3 d8bc
00000280: 36ed c83d 2999 183e 5fa6 cfbc b05c 0c3e
00000290: 4afb db3c 321f e6bc d998 9a3d 1bd5 e83d
000002a0: 5813 f43d 541c 64bd 675c 8fbd 679a 403d
000002b0: 9261 e23d c4f2 b3bd eed5 3c3e 1d31 b0bd
000002c0: f0ce 2d3e 7fae bc3d a5c7 bfbc 7514 d33d
000002d0: 47ab e1bd 0c2d a53c d521 243e 1514 e2bc
000002e0: 9251 cbbd 7a8c b63b b2f5 1cbe 15c0 9d3c
000002f0: 5010 aabd 9f68 3abc 11c6 ce3d 105a 8a3d
00000300: 5a04 40be 2e20 14be ccb3 2abe 671a 1d3e
00000310: b6ed c4bd cbe2 123d d264 223e 1c61 42be
00000320: 68b2 2d3e a501 1dbe b8b5 8c3d 4f82 8abd
00000330: 1978 8c3c 8945 4b3e 2bf7 87bc 9c57 1cbe
00000340: 7ca8 69bd cb07 03bd 52d4 05be dc84 1b3c
00000350: dfd8 533d aa78 5c3e 9b5b 423d c665 b7bb
00000360: bdeb 16be bf6a 253d a552 df3d 17aa 87bd
00000370: 9acf 33be 96b4 433e d8da 143e 51a9 313d
00000380: b0a5 96bd ee1a 7dbb 4040 553e 1010 fcbc
00000390: 24d0 0a3d a62b 2abe b570 d03d bbf4 50be
000003a0: bad2 983c 26ad 603e 4afe 133d 3fc0 7e3d
000003b0: 1bab 3dbd d26d afbd 4973 d0bd c630 0f3e
000003c0: e8a4 d0bd ffa8 13be 9e22 1abd 448a debd
000003d0: a3da 39bc 05b0 313c a650 7bbe f4e9 bcbd
000003e0: 62cc d03d 279b 5fbe f327 443e 021e bbbd
000003f0: 726a 833d 6993 1e3e 2205 34bd 9e36 d5bd
-0.03517301 -0.046186287 -0.027299482 0.1787635 0.012879225 -0.011808763 -0.16319714 0.06375945
0.14552997 -0.15259945 0.14321525 -0.032125026 0.09290914 0.09917867 -0.16022491 -0.060320593
-0.07832816 0.0021876567 -0.20314272 -0.08957134 -0.020878205 -0.0052220994 -0.07096559 -0.09663756
-0.0629482 -0.07374351 -0.0448229 -0.03534153 -0.14477348 0.033528727 0.03686622 0.02902328
0.004061086 -0.12075415 0.04765619 -0.15637808 -0.11727357 -0.18734425 -0.11522707 -0.17780575
0.05711048 0.04150574 0.10731111 0.12809956 0.0034958653 -0.04716378 -0.05778953 0.109902896
-0.17229825 -0.16367333 -0.15641488 0.017499644 -0.03262642 0.03406031 0.0065964097 0.024783228
-0.050734915 -0.09854535 -0.06911787 0.057509754 0.19279888 0.19895698 -0.020484399 0.025896251
-0.045323465 0.24624756 0.05782191 -0.10045695 0.0439604 -0.09578324 -0.07740328 -0.0018296364
0.11892054 -0.1978008 -0.064194866 0.07627989 -0.20411938 -0.064803235 -0.18663241 -0.0033406606
0.06615842 0.036820363 0.0975404 -0.044785444 0.087786324 -0.10580556 -0.06478456 0.01519402
-0.110543914 0.09314782 -0.12816755 0.03421942 0.09088561 0.021687636 -0.0007583372 0.119140595
0.026617194 0.041854795 -0.16748603 0.022698436 0.048437018 0.02816982 0.09367395 0.1151957
0.08849952 -0.0011871699 0.113638 0.089555256 0.0255527 0.12926583 -0.020366838 -0.081181556
0.23274663 -0.04030375 -0.037137903 0.021311741 0.09351112 -0.048516523 0.07544559 -0.045835808
-0.034672357 -0.05990534 0.21654277 0.0017398905 0.16350596 -0.0061541637 0.13054323 -0.02218904
0.16995202 0.061180934 -0.011699435 -0.03864367 -0.09282923 -0.01299202 -0.098678365 0.08568616
-0.23693879 0.031497385 -0.20034875 -0.034301423 0.08678524 0.028670717 0.21503444 0.059722178
0.08182887 0.117709994 0.01653305 0.03475019 0.11715536 0.02450458 -0.035678722 -0.01889284
0.10861498 -0.033044986 -0.045730375 0.055253055 0.13562804 0.005738303 -0.08914708 -0.026483113
0.098108694 0.14902176 -0.025347887 0.13707232 0.026853222 -0.028091047 0.075486846 0.11368772
0.11917752 -0.05569108 -0.07000046 0.04702225 0.11053766 -0.08786538 0.18440983 -0.086031176
0.16973472 0.0921297 -0.023410628 0.10306636 -0.11018997 0.020163082 0.16028531 -0.027597466
-0.09927668 0.0055709453 -0.153281 0.01925663 -0.083038926 -0.011377483 0.10096372 0.06755459
-0.1875166 -0.144654 -0.1667015 0.15342103 -0.09615652 0.035860818 0.15858772 -0.18982357
0.16962588 -0.15332659 0.068705976 -0.06763136 0.01714711 0.19850744 -0.016597351 -0.15267795
-0.057045445 -0.031989854 -0.13069275 0.009492125 0.051720496 0.21530405 0.047450643 -0.005596849
-0.14738365 0.040385004 0.10904435 -0.06624239 -0.17559662 0.19111857 0.14536607 0.043374363
-0.07355821 -0.0038620788 0.2082529 -0.030769378 0.033889905 -0.16618213 0.10177747 -0.20405857
0.01865517 0.21941051 0.03613118 0.06219506 -0.046305757 -0.085658684 -0.10178239 0.1398345
-0.10187703 -0.14419936 -0.03763067 -0.10866216 -0.011343631 0.010845189 -0.24542484 -0.092243105
0.10195233 -0.2183653 0.19155864 -0.09136583 0.06416787 0.1548592 -0.043950208 -0.10410808

net_stack.2.bias f4 [32]
00000000: 47dc c1bd bbd0 a43d de9c d23d 089d dbbd
00000010: b65e b1bd a757 d93d 49a9 b5bd eb1f bfbd
00000020: e5c0 b4bd 0f82 f13d 51b4 c43d 829d fc3d
00000030: d91c d73d 2132 02be 1d44 bebd 99d6 9bbd
00000040: e079 bcbd 0cf8 c43d b60d cb3d af5c a6bd
00000050: e0a8 b13d f648 b8bd 1b73 b63d 98e4 b4bd
00000060: edef e5bd a9b6 9abd 1a99 d8bd ed32 bd3d
00000070: d2da b13d c930 c93d 63d9 c03d 5e8e b7bd
-0.09465843 0.08047625 0.10283826 -0.10723311 -0.08660643 0.106124215 -0.08870179 -0.0933226
-0.08825854 0.11792385 0.09604705 0.1233473 0.10503549 -0.12714435 -0.09290335 -0.07609291
-0.09202933 0.09617624 0.099147245 -0.08123147 0.086747885 -0.08998291 0.089086734 -0.08832663
-0.11227403 -0.07554371 -0.10576077 0.09238229 0.08684315 0.09823758 0.09416463 -0.08962701

net_stack.4.weight f4 [1, 32]
00000000: 2217 113e 7498 23be 3512 5ebd 3890 cb3d
00000010: ef01 683d a713 bfbd ef94 9f3d 5a7e 0b3e
00000020: 0076 233e 93ea c4bd 1d08 09be 24f1 b7bd
00000030: 7624 97bd 7567 cd3d d621 d83d 3094 613d
00000040: 1c37 043e cb77 00be ca63 bbbd 7c5a eb3d
00000050: 701d 16be 9304 1c3e c27f cbbd f56a f53d
00000060: 47df a93d 450a a93c f8fe b63d 0250 1ebe
00000070: 94a6 50be 93c8 e9bd a193 01be 2c3e 093e
0.1416898 -0.15976125 -0.054216582 0.09939617 0.05664247 -0.0932992 0.07792079 0.13622418
0.15962982 -0.09615054 -0.13382001 -0.08981541 -0.07380001 0.100294985 0.10553329 0.055072963
0.12911648 -0.12545697 -0.09149893 0.11491868 -0.14659667 0.1523612 -0.09936477 0.11983291
0.0829454 0.02063478 0.0893535 -0.15460208 -0.20376045 -0.114152096 -0.12653972 0.13402623
