CAPSTONE/CAPMODELS/output/model_DEPG2.pth (torch, 17392 bytes, 5 tensors)

net_stack.0.weight f4 [64, 23]
00000000: 3470 3fbe bb5c 5b3e 22e5 5dbc 9b4f 37be
00000010: a8b2 173e f58d 49be 714b 183e 40fc 1e3e
00000020: 1a3c 9dbd 7753 a33d 54d1 3cbc 1d9b a5bc
00000030: c827 273e e817 b5bc 5cc5 29bd b9e1 2cbe
00000040: 5406 9d3d c4bb b3bd 2ef8 10be 95fc 2d3e
00000050: dffc 333e 1fa3 85bc d8bf 073e 8830 983d
00000060: 3940 213e a011 773d e7b1 31be 319d 333d
00000070: cf83 cb3c 6a9d 0a3c 6d31 703d afa4 e8bc
00000080: 4e39 05be 483c 633c f670 99bd fa9d 3fbc
00000090: 3182 503a cf7a 153d db3e 3fbe d9c8 edbd
000000a0: b887 473e 233c 5cbd 57ad b6bc 1d96 123e
000000b0: 4d26 093d e224 24bd e629 733c 9131 813d
000000c0: 3846 14bd 97f7 ea3d a200 dabd 9b02 cf3d
000000d0: 62ef d2bc f656 923d e5b1 84bc b460 2cbe
000000e0: cc7e 9f3d 3a84 0abe e981 903d 61b3 653d
000000f0: 55ac ca3c 61bc 1c3e 6fda 75bd 35b4 8a3d
00000100: 4d9e 0a3e 754e aabd b26b d33d 3d88 4a3d
00000110: d71b 633d 35e1 0dbd dd60 8bbd ac45 2e3e
00000120: e09e 723d 1227 85bd a0a9 1f3d 1503 463d
00000130: 72cc 16be fd21 213c bda1 c5bd 313e 123e
00000140: 052a 58be adea 38be d3b2 88bc 1247 d23c
00000150: 4a83 413d d8a4 203e e683 d93c 6efa 5a3e
00000160: 7dec ae3d 1286 d0bc 62c0 14be 72e2 fc3b
00000170: 15f0 333e 506d a7bd d3cd 123e 4cdc 563e
00000180: 9362 933d 6192 b43d 7a95 1c3e 86d5 f53d
00000190: 5ce1 e7bd 4c06 f8bd 7ef8 a4bd f327 b73d
000001a0: e81a 34bc edab 0b3e c866 d53b cd6c abbd
000001b0: f3a1 8d3c 254a 2d3e 8620 9a3e 0b99 1dbe
000001c0: a98a 2c3e d297 39bc b229 65be 92b9 ebbb
000001d0: 8c2e 05bd 0537 433c 0bc4 1e3e e016 8a3d
000001e0: 0d41 38bd c959 2ebe b9b1 983d c20e 2b3d
000001f0: 9ea9 30bd fa7e e13d 1d72 41be e05e 19be
00000200: fce5 013c 5180 3b3d b80b e93d 03dd 383b
00000210: cc9f dbbc 574d 02bc b018 f83d 4ccb 9cbd
00000220: f8f5 3b3c af8c dc3c edf6 c8bd 2d47 7b3e
00000230: 433f f2bd 4284 22be e124 163e b875 633d
00000240: b257 2b3d 044a 4dbd 13f6 93bd c78e 883d
00000250: 6e99 543d b34e 8f3d 09a6 0e3e 4075 683d
00000260: 9360 5cbc 9970 56bd 8545 95bd 960f ecbc
00000270: d640 fd3d 70f8 973d 09ac 93bc c653 9cbd
00000280: 3484 953e d0f2 bfbc 016b 3b3d 21ec ccbd
00000290: 8584 133e 53ec 2e3e 20c0 9d3c 34fe 633d
000002a0: 2062 d13c bcda 62bd e29c 31be 1a28 3ebc
000002b0: 4ae8 0dbd 8056 ff3c 31cc ad3c 24e1 58bd
000002c0: a7e1 ce3d e009 44bd 9fef 51bd fcca d73c
000002d0: 2609 f63c 6066 c73c 1f4e 8bbd a7c9 21be
000002e0: af26 3a3d b0b6 7f3d 0a35 e93c 7609 08bd
000002f0: 1f96 bd3d 8cde 5b3e 6974 fcbd 358d 4a3d
00000300: bc9d 213c 79ea 043e 5df4 ef3c baed 653e
00000310: df4c 473e 9f3b 6fbd 5e09 46be 3258 5ebe
00000320: 2d99 55bd 5224 65bd ae0b 71be 76df ec3d
00000330: 466f 3bbd 9102 96bd deb6 663d 7128 44bd
00000340: 0102 043e 901b ddb9 24bd 743c ac8a c93d
00000350: 068e 2cbd a718 c5bd 6f65 d13c ea12 fc3d
00000360: 3fe2 fa3c 465a 6ebe b042 763d 91c5 9b3c
00000370: 0ca1 ddbd 1a3c 9ebd 642b 6cbe acb1 e6bc
00000380: 3bfa 8abd 56d7 d7bd 3396 673c 3884 483c
00000390: 1cd2 85bd 56a5 a3b9 2af3 e7bd 0c55 49be
000003a0: 4bba a6bc bc98 40bd c848 a1bd 32ab 50bd
000003b0: 79ef 8abd 1459 1fbe 4ba2 aebd 57db 543d
000003c0: bab2 933d 8c4b ed3d eef0 d3bc d0e2 1f3e
000003d0: a750 a13d 6f5b 01be 56c9 03bc f130 183c
000003e0: d21f 133b 783e 99bc 34c2 463d fc77 923d
000003f0: 8960 a6bc 721f 96bd 0465 97bc 5649 10be
-0.18695146 0.21422093 -0.013543399 -0.17901461 0.14814246 -0.19683059 0.14872529 0.15525913
-0.07677479 0.07974904 -0.011524517 -0.020215565 0.16323769 -0.022106126 -0.041447982 -0.16882981
0.076672226 -0.08776048 -0.14157173 0.16990884 0.17576931 -0.016313134 0.13256776 0.074311316
0.15747155 0.060319543 -0.1735302 0.04385108 0.024843125 0.008460382 0.058640886 -0.02839884
-0.13010141 0.013869353 -0.07492249 -0.011695379 0.00079539703 0.036494073 -0.18676321 -0.11610574
0.19485366 -0.05376829 -0.022299452 0.14315076 0.033483792 -0.040074237 0.014841532 0.06308282
-0.03619978 0.11473005 -0.10644652 0.10107919 -0.025748912 0.07145493 -0.016198108 -0.16833764
0.077878565 -0.13527003 0.070560284 0.056079272 0.024740377 0.15306236 -0.060022768 0.06772653
0.1353695 -0.08315746 0.103232756 0.049446333 0.055446472 -0.034638602 -0.068055846 0.17018765
0.059233546 -0.06501593 0.038980126 0.048342783 -0.14726427 0.009834764 -0.0964999 0.14281537
-0.21109779 -0.18058272 -0.016686833 0.025668655 0.047244348 0.15687883 0.026552152 0.21384594
0.085412 -0.025454555 -0.14526513 0.007717424 0.17572053 -0.081751466 0.14336328 0.20982474
0.07196536 0.08816982 0.15291396 0.12003617 -0.11322281 -0.12110576 -0.080552086 0.089431666
-0.010992743 0.13639803 0.0065124966 -0.083703615 0.017289137 0.16922815 0.30102938 -0.15390413
0.1684977 -0.011327701 -0.22379187 -0.0071937526 -0.032515094 0.011914973 0.15504472 0.06742644
-0.044983912 -0.17026438 0.07455773 0.04176212 -0.04313051 0.11010547 -0.18891187 -0.14977598
0.007928368 0.04577667 0.11379188 0.0028207905 -0.026809596 -0.00795301 0.12114084 -0.07655963
0.011472218 0.026922552 -0.09812722 0.2453887 -0.118284725 -0.15870765 0.14662506 0.055532187
0.04183168 -0.050119415 -0.07224669 0.066678576 0.051904134 0.069974326 0.13930525 0.056752443
-0.013450759 -0.052353475 -0.072886504 -0.028816026 0.12365882 0.074204326 -0.018026369 -0.07633166
0.29202425 -0.023431212 0.045756344 -0.100059755 0.14406021 0.17082338 0.019256651 0.05566235
0.025559485 -0.055384383 -0.17345002 -0.011606241 -0.034645356 0.031169176 0.02121553 -0.052949086
0.101016335 -0.04786098 -0.05125391 0.026341908 0.03003366 0.024340808 -0.0680201 -0.1579958
0.045447048 0.062430084 0.028467674 -0.033212148 0.09257149 0.21471614 -0.12326891 0.04945107
0.009864267 0.12980069 0.029291326 0.22453967 0.19462918 -0.05840647 -0.19339511 -0.21713331
-0.052148033 -0.05594284 -0.23539612 0.11566059 -0.045760415 -0.07324708 0.05632674 -0.04789013
0.1289139 -0.0004217294 0.014937673 0.09840903 -0.04212763 -0.09623843 0.025561063 0.12308295
0.03062546 -0.23276624 0.060122192 0.019015105 -0.10821733 -0.07726307 -0.23063427 -0.028160892
-0.06786009 -0.10539119 0.014134931 0.012238555 -0.06534216 -0.00031212968 -0.11325677 -0.19661349
-0.020352503 -0.04702066 -0.0787521 -0.050944515 -0.06783957 -0.15561324 -0.08527049 0.05196699
0.07211824 0.11586675 -0.02587172 0.15613866 0.07876711 -0.12632535 -0.008043608 0.009289012
0.0022449386 -0.018706545 0.04852505 0.071517915 -0.020309703 -0.073302165 -0.018480785 -0.14090475

net_stack.0.bias f4 [64]
00000000: 862e b2ba b6a6 afbb 6ac3 473c a786 a9bb
00000010: 659e c63c 9e29 6dbc b8fc 83ba c68b 6d3c
00000020: a57b 9639 96e6 61bb 5748 0dbc 297e 43bc
00000030: a8ed 75bb 01dc 5b3c 2a85 143c 1812 553c
00000040: dc7c 633a d2de 7a3c 1764 e53a f644 c1bb
00000050: d8c6 99bb 9b07 563c 0a8e 5f3c 1465 983b
00000060: ce94 01bc 8ab3 57b9 ab44 2a3c 5423 5fbc
00000070: 176c 013c 0a66 c73c c320 3dbc ee3a 55bc
00000080: cf5b b8bb b91e 43bc 21fc 8abc db74 2ebc
00000090: 16b3 2f3c ea23 c3ba 6fd1 d3ba 4ff7 93bb
000000a0: efcd 16bb 96f3 283c 5532 62bb 9ab3 953b
000000b0: 46db 19bc f845 283c 9e84 34bc 3278 6fba
000000c0: 6ff5 bf3c 1c4c 8fbc 54b8 91ba c71a 1c3c
000000d0: 604e ad3b 177f 663c 8a95 3dbc d6f5 3fba
000000e0: 439c 93bc 2bf9 3b3b c195 db3a cbff 9d3c
000000f0: 3827 8cbc 349f 91ba 6e00 8e3c aa09 84bc
-0.0013594187 -0.0053604497 0.012192586 -0.0051735225 0.02424545 -0.014475254 -0.0010069823 0.014498657
0.00028702352 -0.0034469715 -0.008623204 -0.011931934 -0.0037525687 0.013419152 0.009064952 0.013004802
0.0008677968 0.015311914 0.0017501143 -0.0058981134 -0.0046928935 0.013063337 0.013644705 0.0046507213
-0.007909013 -0.00020570881 0.010392348 -0.013619263 0.007899306 0.024340648 -0.0115434555 -0.013014538
-0.005626179 -0.01190918 -0.016965928 -0.010647978 0.01072385 -0.0014888023 -0.0016160439 -0.0045155655
-0.002301093 0.010311982 -0.0034514864 0.0045685293 -0.009390658 0.010270588 -0.0110179465 -0.0009135037
0.023432462 -0.017492346 -0.0011117556 0.009527869 0.005288884 0.0140683865 -0.011571297 -0.0007322704
-0.018018847 0.0028682451 0.0016753004 0.01928701 -0.017108545 -0.0011110068 0.01733419 -0.01611789

net_stack.2.weight f4 [32, 64]
00000000: 4853 39be 0ef5 853d 7b9c 253e 594a a93d
00000010: 2d3f 443e dce1 08bb 8b53 43be 6d59 f63d
00000020: 764e 58be dac4 26be 81ca e13c 83ee 48bd
00000030: c799 85bc 2835 3e3e 86cf 7dbe a36d e83c
00000040: 6f48 33be 563c 2a3d e892 233d 8bc1 f7bd
00000050: d577 a13c 8a2e c93d 5746 0ebe 3246 023e
00000060: 6b3e 27be 8e73 a8bb d3ce ef3d cd1c aabc
00000070: 7dfb 41bd 2d00 db3d 6679 a0bd 3b22 edbd
00000080: 38f3 e33c 52b1 173d 86cc 14be 94d8 863d
00000090: db6a bfbd ad17 473d 5ca8 09be b50b 923d
000000a0: a8c7 4abe 2601 133c c540 2fbe a3c6 28bd
000000b0: 7a9b 15be e546 dabc e171 fcbd 5b6e af3d
000000c0: 0ae8 abbd 2df6 95be dd5e 5e3e 854b c2bd
000000d0: 0258 fabd 2d9d 87bd 6a5b 74bc 67bf c5bd
000000e0: 2b70 f2bd e98f db3c a6a7 8abd 2623 173e
000000f0: 3971 033e b77b 253c 14e6 abbc e9ac 1abd
00000100: 0913 be3d 461b 663e 2f72 3b3e cd37 6dbd
00000110: f54d bcbd a396 fc3d ae36 c5bc e333 19bd
00000120: 66a7 b6bd 2764 203e 8658 f03d 5f15 9bbd
00000130: 2c91 a1bd 66e2 a83c c98d 05bd 944a c8be
00000140: 1a48 953d 45ff 62bd de42 ad3b 05cf eabd
00000150: 7634 2d3e cc69 89be 31ad e23c 0ade 843d
00000160: 7243 23bb 1b7a 773d 3cc5 babd ab83 1e3c
00000170: bab3 25be f90c aabc 9521 393c 5e26 91bd
00000180: 76fb 653c f924 ea3d 8354 ba3d cf68 463d
00000190: d347 7d3d 882c 02be da17 de3d 66c5 a43d
000001a0: 7ecc d23d bd1a febd 2f4d 98bd 4847 133e
000001b0: 85cf 19bd 7f4a fbbd 08ec 22be 323b c43d
000001c0: 168b e2ba 8428 06bc 364a 483d 695e e5bd
000001d0: 552a 363e 7e8c 6cbd dcff ec3d a9de 033d
000001e0: 3513 b83d faa8 3dbd 8016 39bd 614e 9ebe
000001f0: 262d 2c3c b056 0f3e d681 603d 5fae 24b9
00000200: 2ef9 13bd fd9a 6bbd 0fc0 493d 4257 10bd
00000210: f29c 48bc a82d 40bd 2264 233b 6604 803c
00000220: a638 2c3e 20d3 d83c 7c71 f13d 2bbe 6f3e
00000230: c486 61be 68e2 2e3e c691 8e3d 8a64 f8bc
00000240: 701f a73d b227 8abd 1391 28bd c2aa 8ebc
00000250: 766e 443e 0850 c93c b5d9 81bd 3f0e a13d
00000260: eae4 5cbd cd56 9b3d ce56 13be 2950 173e
00000270: c6d9 71bb ef65 1d3e c67b b33d 9692 ef3d
00000280: 456b 8d3c 351d 1fbe f739 313e 3e9f da3d
00000290: 17f0 af3c 2fdd 463d 800c 463e 6712 493e
000002a0: 4e7b e53d 5b58 6dbd 0c8d 163d 3c15 8cbd
000002b0: 890d e93d 17e8 a8bd 2f04 d73d 3bc8 393d
000002c0: 04d1 03be 64e0 543e 2d7d 573d dfd9 e0bd
000002d0: 0e76 153b 690c d1bc 28aa 9f3c 9906 0e3e
000002e0: 22a5 43be f023 383e d2a3 723d 9e4b 24be
000002f0: 5e92 183e 1db4 1f3d caeb debc 109c 863d
00000300: 8247 febd 9410 5abd 18c2 883d c4c6 a13d
00000310: d5c2 40bd 3dd7 9f3d 2e1f 1ebe 6311 a83c
00000320: 62cd 84bd 8628 fdbd 6e8c 7bbd 7b80 053d
00000330: 24d4 1abd 8132 48bd abae 3bbd d9d8 1f3e
00000340: 2a07 8c3d 066c cebd 7a81 12be 573b c2bd
00000350: 76ea a7bd ec79 c7bd 7c73 a83c 7c41 233e
00000360: 2a4f f2bd bd76 e63d e2eb 0f3b 1244 aabc
00000370: 1fca a9bc d9da 28bd 8cb2 dcbd 035d d73c
00000380: 0ec0 3abc d097 8ebd 026a d23d c871 9abd
00000390: ea0e 5c3d 924e 54bd b98f 703d 2b9d 8c3d
000003a0: ad99 b73d 25e3 02bd 04d7 d83d 4078 2fbd
000003b0: 52fb 1fbe 526c 053e 3dfb d3bd f09d 213e
000003c0: f54d 043e 0c4a 76bd e6da 15bd 5804 6a3d
000003d0: 55c6 523b 94db f9bb 6f34 bebd 0043 f3bd
000003e0: c531 af3d 783c 913d 5a2d ac3d 42d5 063e
000003f0: 1f56 62bd 2a8a 983d 88bc b8bd bf0a 4abc
-0.18098176 0.06540881 0.16172974 0.08266134 0.19164725 -0.0020886576 -0.19074838 0.12028775
-0.2112368 -0.1628603 0.027562382 -0.049055588 -0.016308678 0.18574965 -0.24786195 0.028372591
-0.175081 0.041561447 0.039935023 -0.12097462 0.01971046 0.0982333 -0.1389402 0.1272209
-0.16332404 -0.0051407283 0.117093705 -0.020765686 -0.04735898 0.10693393 -0.07835655 -0.115787946
0.027825937 0.03703434 -0.14531144 0.06584278 -0.09346553 0.048606563 -0.1344313 0.07131139
-0.19802725 0.008972442 -0.17114551 -0.04120506 -0.14610091 -0.026645133 -0.12326408 0.085659705
-0.08393867 -0.2928938 0.21715875 -0.094870605 -0.122238174 -0.06621776 -0.014914373 -0.09655648
-0.118378006 0.02680202 -0.06770258 0.14759502 0.1283616 0.010100297 -0.020983733 -0.037762556
0.092809744 0.22471341 0.18305276 -0.057914544 -0.091945566 0.12333419 -0.024073925 -0.037403
-0.089186475 0.15663205 0.117356345 -0.075724356 -0.078890175 0.020615768 -0.03260592 -0.391194
0.07289143 -0.055419225 0.005287512 -0.11465267 0.16914544 -0.2683853 0.027670475 0.06487663
-0.0024912027 0.060419183 -0.09119651 0.009674947 -0.16181841 -0.020758139 0.0112995105 -0.07087396
0.014037004 0.11432833 0.090981506 0.048439797 0.061836075 -0.127123 0.10844393 0.08045463
0.1029291 -0.12407444 -0.074365966 0.1438266 -0.03755142 -0.122700684 -0.15910351 0.09581603
-0.0017283882 -0.008188371 0.048898898 -0.11199648 0.17789586 -0.05775117 0.11572239 0.032194767
0.089880385 -0.046303727 -0.045187473 -0.30919173 0.010508811 0.13997912 0.05481132 -0.00015705217
-0.03612631 -0.057520855 0.049255427 -0.035239466 -0.01224445 -0.04691854 0.002493151 0.015627097
0.16818485 0.02646786 0.117892236 0.23412387 -0.22024065 0.17078555 0.06961398 -0.030321378
0.08160293 -0.067458525 -0.04115398 -0.017415408 0.19182763 0.024574295 -0.063403524 0.07864045
-0.053929247 0.07584915 -0.14388582 0.14776672 -0.0036903485 0.15370916 0.08763842 0.11697881
0.017263064 -0.15538485 0.17307268 0.10674904 0.021476788 0.04855078 0.19340706 0.19635926
0.11205159 -0.05794559 0.036755607 -0.06839988 0.11379535 -0.082473926 0.10498845 0.04535697
-0.12872702 0.20788723 0.05260961 -0.109790556 0.0022805962 -0.025518613 0.019490317 0.13869704
-0.19105962 0.17982459 0.059238262 -0.1604447 0.14899585 0.03899013 -0.027212042 0.06572735
-0.12415983 -0.053238466 0.066776454 0.0789924 -0.047060806 0.07804725 -0.15441582 0.020516103
-0.06484486 -0.12361245 -0.06141322 0.03259323 -0.03779997 -0.04887629 -0.045820873 0.15610065
0.06837304 -0.100791976 -0.14307204 -0.094839744 -0.08199017 -0.097400516 0.02056288 0.15942949
-0.118315056 0.11253116 0.0021960665 -0.020784412 -0.020726262 -0.041224334 -0.107762426 0.026289469
-0.0113983285 -0.0696255 0.10274126 -0.07541233 0.05372516 -0.051832743 0.058730815 0.06865915
0.08964858 -0.031954903 0.10587886 -0.04283929 -0.15623215 0.13029602 -0.10350654 0.15782905
0.12920363 -0.06012921 -0.03658571 0.05713305 0.0032161672 -0.0076250527 -0.09287345 -0.118780136
0.08554415 0.070916116 0.084070876 0.13167289 -0.055257913 0.07448228 -0.090203345 -0.012331664

net_stack.2.bias f4 [32]
00000000: 7635 583c e8ea 4b3a af29 113c 1e39 903b
00000010: ca29 303c 2b0c 523c 6e12 c839 d84c 36bb
00000020: 99b1 a13c 78a9 733c a0ed dabb 4597 19bc
00000030: 3324 943c 3618 4b3b 6bde b33b 6157 7fbc
00000040: 0ddc 7cbc 4188 00bb ca78 a23a 2f24 84bc
00000050: 1bac 0ebb b224 903c 762e c03c 451e 06ba
00000060: 5346 153b e736 4abb be30 453c 1aec f9bb
00000070: 2d30 6a3c 5222 253b 6b16 11bc cc49 06b9
0.01319634 0.0007778839 0.008860036 0.00440134 0.010752151 0.012820284 0.00038160704 -0.0027816799
0.019738005 0.0148719475 -0.006681159 -0.009374444 0.018083667 0.0030989773 0.005489161 -0.015584798
-0.015433324 -0.0019612464 0.0012395617 -0.016130535 -0.0021770063 0.017595623 0.023459654 -0.0005116205
0.0022777512 -0.0030855478 0.012035547 -0.0076270225 0.014293713 0.0025197458 -0.0088554425 -0.00012806727

net_stack.4.weight f4 [1, 32]
00000000: cec4 c03d 6552 19be 1e36 10be 1595 173d
00000010: 2893 a53a 1243 1fbe 1030 3f3e febb 9b3d
00000020: 7976 5a3e d3a7 b6bd fb30 7bbd cf7d e73d
00000030: 1185 36bd d240 43bd 5ac1 c23d 125e 833d
00000040: 44e9 cd3d b98a a5bd 8dc6 95bd 5462 eb3d
00000050: c7fb 06be a7ce ad3d 9b59 74bd ceb1 663e
00000060: ae11 323e 62ea 673d 5ffa 1fbe 2fcf c0bc
00000070: 7371 99bd 61df 563d ed8a e23d 3ef9 623e
0.094125375 -0.14972837 -0.14083144 0.03700741 0.0012632357 -0.15552929 0.18670678 0.07604216
0.21334256 -0.08918729 -0.06132601 0.11303293 -0.044560496 -0.04766924 0.09509535 0.06414427
0.100542575 -0.080831 -0.07313261 0.11493364 -0.13181983 0.084866814 -0.059655767 0.22528765
0.17389557 0.05662001 -0.15622853 -0.023536293 -0.07492342 0.052459124 0.11061654 0.22165391
