CAPSTONE/CAPMODELS/output/model_SUD2.pth (torch, 17382 bytes, 5 tensors)

net_stack.0.weight f4 [64, 23]
000000 48 e4 73 be 70 a3 a3 3d 97 c7 20 bd 26 a6 11 be
       -0.23817551 0.079901576 -0.039252844 -0.14223537
000010 91 cc 5b be f4 40 05 bc b8 36 98 be a5 e6 db bc
       -0.21464755 -0.008133162 -0.29729247 -0.026843378
000020 e5 23 9a 3d 12 62 d1 3b 48 df 8d bd 59 92 e0 bd
       0.075263776 0.0063898647 -0.06927353 -0.109654136
000030 98 86 33 3e 5c a8 04 3d 0b f4 99 3d 5f d3 2f be
       0.17531812 0.032387123 0.075172506 -0.17170475
000040 05 71 2e 3d e8 0a c4 3d 46 7c ce 3c 1a 36 0b 3c
       0.042588253 0.09572393 0.025205743 0.008496786
000050 d8 57 09 be c5 a9 33 bd 9a 25 68 3c 6f 05 fb 3d
       -0.13412416 -0.043863077 0.014169121 0.12256896
000060 c6 f9 bc bc 7e 91 c8 3d cf 5a 91 3c e8 51 02 3e
       -0.02306832 0.097933754 0.017743496 0.12726557
000070 6f a2 28 bd d3 5e b7 bb ee 0d 3a bd ca 99 bf 3c
       -0.041170534 -0.0055960207 -0.04542344 0.023388762
000080 bf 2b c1 3c ef 4b cf 3d 38 78 e8 3d 66 ec 4f 3d
       0.02358043 0.10121905 0.11351055 0.050762556
000090 25 cc 8b bd 68 31 2c 3c 0f 30 db 3d 2a 0b d7 3c
       -0.06826047 0.010509826 0.10702526 0.02625044
0000a0 0e 26 49 bd 70 ce 46 3c 50 79 03 3e f1 68 d5 bd
       -0.049108557 0.0121341795 0.12839246 -0.104204066
0000b0 dd 50 d6 3d 8b ea 03 be 3d f3 4b 3c 35 36 24 be
       0.10464642 -0.1288244 0.012448129 -0.16036303
0000c0 15 79 15 3e be 48 c6 3d b7 64 38 3d cb 17 3b bd
       0.1459697 0.09681843 0.045017924 -0.045676988
0000d0 ba b9 2a 3e d5 68 14 3e 74 dd 20 be 1d bf 83 bc
       0.16672412 0.14493115 -0.15709478 -0.01608234
0000e0 56 e5 f9 bd 38 89 12 3d b9 3c 48 be d4 e2 07 bd
       -0.122019455 0.035775393 -0.19554414 -0.033175305
0000f0 e5 ae 8b 3d ec 1a fa bc bf b7 2c 3d 44 71 61 bd
       0.06820468 -0.030530415 0.04216742 -0.05503966
000100 31 af 53 bd af 1b e0 bd 29 d5 0b be 39 ff 92 3d
       -0.051680747 -0.1094278 -0.13655533 0.07177586
000110 94 c9 52 be b2 06 cd bd f0 16 11 3e a6 af 8d bd
       -0.20584708 -0.10011043 0.14168906 -0.06918268
000120 55 37 77 bd 07 52 4f bc 62 b1 6b bd 0a bd cf 3b
       -0.060355503 -0.012653834 -0.057542212 0.006339674
000130 bf 41 cc bc 57 56 ff 3b da bf 5f 3e c4 2a cf bb
       -0.024933694 0.007792275 0.2185053 -0.0063222367
000140 dc 75 a1 3d a1 2b e5 3b 54 54 af bb f5 7e 01 3c
       0.07883808 0.0069937264 -0.005350629 0.007903804
000150 f9 87 a2 bd 5b 4d 80 bd c9 87 8a bd 4b f5 a9 3d
       -0.07936091 -0.062647544 -0.0676418 0.08298739
000160 44 57 7f bd e2 09 f2 3d 3a 51 39 3c 9c 18 ad bb
       -0.062339082 0.11818291 0.01131087 -0.0052824747
000170 a5 31 77 3e f2 94 e5 bd 6b 3b 83 3e 37 11 fb bd
       0.24140032 -0.1121005 0.2563127 -0.12259143
000180 f7 ea 3d 3e 90 64 0b 3e 05 b9 da 3c 1e 9a b0 bd
       0.18546663 0.1361258 0.026699552 -0.086231455
000190 0d 01 00 3e 1c 24 c7 bc 6e 06 55 3c fc 16 76 bd
       0.12500401 -0.02430921 0.013002021 -0.060080513
0001a0 5c f8 70 bd 17 cd 0a be bc 49 15 bc a2 be cc 3d
       -0.058830604 -0.13554798 -0.009111818 0.09997298
0001b0 7f 05 12 3d a3 48 3d 3d 7e b3 f1 3b 2a d0 0b 3d
       0.035649773 0.04621185 0.0073761335 0.034134068
0001c0 72 b4 e1 bd 41 f2 9e bc 88 23 be bd 49 72 41 be
       -0.11020745 -0.019402625 -0.09284121 -0.18891253
0001d0 92 fe 77 3d 8a 51 db ba 3b 26 1b 3d 8e 84 30 bd
       0.06054551 -0.0016732675 0.037878256 -0.043095164
0001e0 a7 6c 99 be 92 53 cc bc b4 b2 08 bd 03 33 05 3e
       -0.29965708 -0.024942193 -0.03337355 0.1300774
0001f0 cc 80 fb 3c 52 07 4b 3d 00 54 f7 3b da 38 29 3c
       0.030701064 0.049567528 0.0075478554 0.010328496
000200 92 64 0c be 0e 21 8b ba 2a c4 26 3d 12 3e 03 bc
       -0.1371024 -0.001061471 0.04071442 -0.008010404
000210 0e e2 67 bd ac 8c 34 bd b9 93 5d 3d 84 38 5e 3c
       -0.056612067 -0.044079468 0.054095957 0.013563279
000220 32 bd 83 bd ab a5 07 3e c2 ac b1 3d 6a 77 48 3e
       -0.064325705 0.13246791 0.08675529 0.19576803
000230 5d 96 14 be f7 96 73 be 28 45 38 be 90 ad 4a be
       -0.14510484 -0.23788057 -0.17995131 -0.19792771
000240 e5 d8 91 bd e5 f2 eb 3d d2 10 82 3a 5a 57 62 bd
       -0.071214475 0.11520938 0.0009923226 -0.055259086
000250 36 21 db bd 47 d2 40 bd fb 44 d9 3d a8 0a 0a be
       -0.10699694 -0.047075536 0.1060886 -0.13480628
000260 80 8a 07 bd f5 20 1e bd 83 92 38 bd 75 97 f1 3d
       -0.03309107 -0.03860565 -0.0450616 0.11796466
000270 ad 57 d7 bd 1f e6 84 3d 56 fe 68 3e e4 01 39 bd
       -0.1051477 0.064892046 0.22753271 -0.04516782
000280 5c 89 f1 3d d8 34 0b be f2 d0 3f be 45 de bc bb
       0.11793777 -0.13594377 -0.1873205 -0.0057638013
000290 c1 4f 3a be 69 85 fd 3c ac c7 47 be 9e 33 df bc
       -0.18194486 0.030947404 -0.19509763 -0.027246293
0002a0 9b 3f 2a 3c 65 1c 40 be f9 b4 a0 3d a2 33 e4 bc
       0.010391141 -0.18760832 0.07847018 -0.027856652
0002b0 5c 1d 69 bd 90 ef e1 3c 75 7a 84 bd 6a 9f 40 3e
       -0.056912765 0.027580053 -0.06468669 0.18810812
0002c0 ce 42 83 bd 58 4f 44 bd 9b 98 ef 3c ca 2c 40 bd
       -0.06409226 -0.04792723 0.029247573 -0.046917714
0002d0 b1 13 11 3e c9 a3 af bd 77 04 88 be 1c 2f 2c 3e
       0.14167668 -0.085761614 -0.26565906 0.16814846
0002e0 93 2e 70 3d 97 c1 c4 3c 46 91 ea bd bf e2 22 bd
       0.058638167 0.024018092 -0.1145349 -0.039767023
0002f0 a4 44 88 3d c4 fa c9 3d 03 ee 95 3c e7 78 15 3d
       0.06653717 0.09862283 0.01830197 0.036492255
000300 b2 4e 48 be ca e5 92 bd 15 fb 7a 3c 03 9b 68 bd
       -0.1956127 -0.07172735 0.015318652 -0.056788456
000310 c3 f1 fb bc ce 48 5e bd b7 b0 e4 3b 47 5e dc 3b
       -0.03075493 -0.05426865 0.006979074 0.006725106
000320 56 86 82 3c d7 f6 7d bd b2 a2 b7 bd 59 c9 9b 3d
       0.015933197 -0.062002983 -0.089665785 0.076067634
000330 e7 de b3 3c f6 b8 b0 bd 19 c9 67 bb 2a ca 2b 3e
       0.021956874 -0.086290285 -0.0035367666 0.16776338
000340 7d 2d bb 3d 1e cc 40 bc 58 67 02 bd 7a 55 c2 3d
       0.091395356 -0.011767415 -0.031836838 0.094889596
000350 90 ba 2e 3e 13 68 2a 3e cb 96 a5 3d f3 df 77 bd
       0.17063355 0.16641264 0.08085402 -0.06051631
000360 86 8e 40 bc e0 8c d4 bc 9e f6 97 3c f2 69 ee bc
       -0.01175273 -0.02594608 0.018550213 -0.029103253
000370 76 e5 c9 bd 60 bb 05 3d 19 55 50 3d 50 19 92 3d
       -0.09858219 0.032649398 0.050862405 0.07133734
000380 9e 00 8f 3c 1b c6 92 bb c4 4c 05 3e d1 88 20 3d
       0.017456349 -0.0044791824 0.13017565 0.03919298
000390 9f 07 a3 bd c4 f4 24 bd fb d0 36 bd 7e fc c4 bd
       -0.07960438 -0.04027249 -0.044632893 -0.096184716
0003a0 42 ee 9c 3c 8f 23 36 3e 0f 83 37 3d 0a 79 b9 3c
       0.019156579 0.17787002 0.04480272 0.022640724
0003b0 e4 1d 56 3e 15 0d 8d 3d b4 65 d2 3c ed 4c 6b be
       0.2090984 0.06887261 0.025683261 -0.22978564
0003c0 a8 1f 62 be b1 75 35 be c6 57 2f bd 68 fe b1 bd
       -0.22082388 -0.17720677 -0.042808317 -0.08691102
0003d0 c2 00 a6 bd 85 c7 c0 3d cf fa 51 be 30 b0 8d 3c
       -0.08105613 0.09413055 -0.20505832 0.017295927
0003e0 40 5a 61 bd 3d df a6 3c e4 be b6 3d f0 e4 60 3e
       -0.05501771 0.02037012 0.08923128 0.21962333
0003f0 73 34 0d 3c 74 73 07 be 74 ba 89 bc b5 6e 41 3c
       0.008618462 -0.13227636 -0.01681254 0.01180618

net_stack.0.bias f4 [64]
000000 8f 5f 64 3c 01 a8 1b bc 23 10 9a bc 17 59 51 bc
       0.013938799 -0.0095005045 -0.018806523 -0.012777588
000010 d2 dd 84 bc cc c2 ae 3c 47 63 16 3c 2a 9b b7 3c
       -0.016219053 0.02133312 0.009178943 0.022412855
000020 dd d7 94 3c 67 72 08 bd 9c a8 c8 bc fa 06 68 bc
       0.018169338 -0.033312228 -0.024494462 -0.01416182
000030 08 de 0b 3c 4d 88 66 3c 56 85 1d 3c e8 65 e3 3c
       0.008536823 0.014070583 0.009614309 0.027758554
000040 89 ce c5 bc 29 7a 15 bc fe 38 cc bc d2 a5 2e bc
       -0.024146335 -0.0091233635 -0.02492952 -0.010659652
000050 05 a8 0a 3c 10 c1 8f 3c bf ad c0 3c 9a 77 02 3c
       0.008462911 0.017548114 0.023520349 0.007963086
000060 0b 99 2b bc 58 a2 81 bc cc 83 a5 bc 0f 6f 43 bc
       -0.0104735 -0.015824482 -0.020204447 -0.011928334
000070 2c 8d b9 bc 71 ef 6c 3c c1 d8 90 3c e3 20 94 3c
       -0.022650324 0.014461384 0.017681481 0.018082088
000080 98 b4 6b bc 8d 37 bd bc 45 3c a8 bc bd f9 00 bc
       -0.014386319 -0.023097778 -0.020536551 -0.007872042
000090 56 bf 36 bc 2a 3f 4b 3b 8c 08 d7 3c fd 22 96 bc
       -0.0111540165 0.003101299 0.026249193 -0.01832723
0000a0 68 b5 e4 bc f1 41 cf bc d0 a8 e2 3c 7d f1 bf 3c
       -0.027918532 -0.025299998 0.027668387 0.02343058
0000b0 15 5a 09 bd 9a 23 ac 3c ef b9 b3 3b d1 92 78 bc
       -0.033533175 0.02101307 0.0054848115 -0.0151717225
0000c0 3a 59 10 bc cc a2 ce 3c 57 c0 25 bc 76 31 d9 3c
       -0.008810336 0.025224112 -0.010116658 0.026512843
0000d0 d0 a4 d3 bc 03 cd 0b bd 96 26 12 bc 16 72 d0 3c
       -0.025835425 -0.03413106 -0.008920332 0.025445025
0000e0 52 9a b1 bc 94 f0 bf 3c 18 e5 9e 3c d9 96 c0 b9
       -0.021680031 0.023430146 0.01939635 -0.00036733484
0000f0 15 44 2a ba 7f 2f ce bc 41 ef a7 3c 64 75 c1 bc
       -0.00064951304 -0.025169132 0.020499827 -0.023615547

net_stack.2.weight f4 [32, 64]
000000 db 07 1c 3e 7d 79 0b 3e d7 14 9f bc f0 ad 98 bd
       0.15237372 0.13620563 -0.019419117 -0.07455051
000010 1e 3b 87 3e df 8b 14 be 57 9b a4 bc ae 79 19 bd
       0.2641229 -0.14506482 -0.020093603 -0.03746956
000020 53 d4 2a bd ce 55 b4 3d be 8d e8 3a c0 60 07 be
       -0.041706394 0.088054284 0.0017742438 -0.13220501
000030 f6 56 6b be 44 cf c2 3c 76 c0 14 be d0 de 44 bd
       -0.22982392 0.023780473 -0.14526543 -0.048064053
000040 76 b6 89 bd 9d 77 68 bd 1e 8f 1f 3d c4 86 36 be
       -0.06724255 -0.056754697 0.038954847 -0.17824847
000050 ad b2 08 3e a0 48 df 3d 5e 51 85 3d 61 8c b9 bc
       0.1334941 0.10902524 0.0650966 -0.022649946
000060 73 83 30 bd 8f fb 0c 3e d9 2d 58 3c fc 92 0e 3d
       -0.04309411 0.13767837 0.013194525 0.034808144
000070 f9 f0 7d bd 7a ca 46 3e 3e 6b 98 bd 63 a2 9c bc
       -0.061997388 0.19413176 -0.0744233 -0.0191204
000080 a7 2f 0d bd dd 4a 66 3d 7a 63 c4 bd c4 95 c4 3d
       -0.034469273 0.05622374 -0.09589286 0.09598878
000090 a5 7e 7f bd 26 66 86 bd 5b 3e de 3c b0 b9 8f 3d
       -0.062376637 -0.06562452 0.027129343 0.07017839
0000a0 7b a6 39 3d 7f 00 1e 3e 5e 6c 0f bd 86 c5 00 bc
       0.045324784 0.15429877 -0.035015456 -0.007859593
0000b0 5e 50 0d 3a ca 4a 84 3d d6 c6 ef bd 3a 58 63 3b
       0.0005390699 0.064595774 -0.11707847 0.0034690038
0000c0 a6 86 19 3d 00 fe 7e bc 83 cc 0f 3d 04 9b d8 3d
       0.037481926 -0.015563488 0.035107147 0.10576442
0000d0 e7 04 79 3e 57 7a 1f 3e 67 c3 bc 3d 8d f6 55 be
       0.24318276 0.15574013 0.092169575 -0.20894833
0000e0 f3 1f bb bc c3 33 b9 bd 21 f8 fb 3c 97 ba 4b 3d
       -0.022842383 -0.09043076 0.030757966 0.049738493
0000f0 4f 8f e7 3d e2 c4 5b 3c 10 7e a9 3d 6c 10 fe bb
       0.11306631 0.01341364 0.08275998 -0.0077534225
000100 d3 5d 70 3e c0 da 57 3e 1f ee 1d 3c 85 3e 83 3e
       0.23473291 0.2107954 0.009639292 0.25633636
000110 5f 3f a1 bd 40 ed 05 3e 6f 32 42 3c 71 b7 f2 bd
       -0.07873415 0.13078785 0.011852845 -0.11851395
000120 8c 66 af b9 7e 90 aa 3b 7f e6 d4 3c 4f 02 c6 3d
       -0.00033455004 0.005205213 0.025988815 0.09668409
000130 44 1d ab bd 26 60 6b 3e 50 b1 74 b8 77 02 04 be
       -0.08355191 0.22985896 -5.833927e-05 -0.12891565
000140 1a 42 d8 3b 35 0a 97 3d bd 17 5f bd c0 7f 6a 3d
       0.006599677 0.07374994 -0.054465998 0.05725074
000150 7b 05 98 bd ce 58 b8 3d 46 99 ca 3d 23 44 40 3d
       -0.0742292 0.09001313 0.09892516 0.04693998
000160 0f 50 e8 bc cd 62 02 3d b5 37 c2 3d de e6 e9 3c
       -0.028358487 0.031832505 0.094832815 0.028552469
000170 ff 7b 19 be 8c d8 09 bb 69 02 90 bc bf 3d 61 bc
       -0.14988707 -0.0021033613 -0.017579274 -0.013747632
000180 d1 a0 02 be 6a 86 aa bd 2a 08 42 bd 34 b3 4b 3e
       -0.12756659 -0.08326419 -0.047371067 0.1989258
000190 b9 06 f6 bd f5 d8 e0 bd ab a2 8d 3e 9f 4c 99 bd
       -0.12013001 -0.10978881 0.27663168 -0.074853174
0001a0 47 06 0c 3e 58 67 02 3c 2a aa 63 3e 60 0b c0 3c
       0.1367427 0.007959209 0.22232881 0.023442924
0001b0 38 62 b8 bd 95 67 2b 3e 3b 99 f7 bc 5e ee 95 bd
       -0.09003109 0.16738732 -0.030224433 -0.073208556
0001c0 c6 82 61 3e 77 16 31 3d 33 e0 0e be 9c 9d 8b bd
       0.22022542 0.043234315 -0.13952713 -0.06817171
0001d0 79 13 78 be 7e 47 70 bd da a9 af bd 25 db 8f bc
       -0.24226178 -0.05866193 -0.085773185 -0.017560551
0001e0 2f 9e 1b bd 53 eb a4 3d 2e d9 0b be ce a5 c9 3d
       -0.037992653 0.08052697 -0.13657066 0.09846078
0001f0 84 e7 1a be 4a ef 32 3d d8 83 bb bc 93 d9 f0 bd
       -0.15127379 0.043685235 -0.022890016 -0.11760249
000200 6f c1 1a 3d 95 c0 f1 bc 29 7f 28 be f9 9d b4 3d
       0.03778213 -0.029510776 -0.16454758 0.088191934
000210 b6 1b 9a bd 35 43 05 3e cd 6d 2f be 81 d3 0d be
       -0.07524817 0.13013919 -0.1713173 -0.13850214
000220 eb 1b 58 bd ae a5 0c 3d cf 88 64 bc f7 ad 18 3c
       -0.052761 0.034337692 -0.013948633 0.00931882
000230 96 34 a4 bb a7 ac 02 3d eb 45 08 bc fc 0e 20 ba
       -0.0050111515 0.031902935 -0.008317451 -0.00061057485
000240 55 88 89 be 76 75 66 bd df cb 67 3b 0f 19 83 3d
       -0.26861826 -0.056264363 0.003536932 0.06401264
000250 84 8b ca bb 6e 96 09 bd 38 bd 96 3c 66 84 66 3d
       -0.0061811823 -0.033590727 0.018400773 0.05627861
000260 4f e6 89 bd ee 80 b3 bd 6d 83 ff bc 32 d8 22 3e
       -0.06733381 -0.08764826 -0.031190598 0.15902784
000270 fb 5b c8 3d 15 77 e2 bd de 36 03 3d b8 ae 53 3d
       0.09783169 -0.11057869 0.032034747 0.051680297
000280 48 71 96 bd b8 c8 9d 3d ce 96 dd 3d 5b 5c 3f 3d
       -0.073458254 0.077043 0.10819779 0.046718936
000290 6b 72 86 3d 1b f8 60 3d 4f c8 93 bd b7 46 e0 bd
       0.06564792 0.05492411 -0.0721594 -0.10950988
0002a0 16 f2 97 bd e7 db cd bd c4 6a 2a 3e 7e 26 85 bd
       -0.07419221 -0.10051709 0.1664229 -0.065014824
0002b0 13 b2 e5 bd fd 36 0d bc b6 5c 24 3e 9d 02 52 3d
       -0.112156056 -0.008619067 0.16050991 0.051272023
0002c0 fe ef c9 bd 56 83 6b bc 96 35 d7 bc 11 17 8e bd
       -0.09860228 -0.014374575 -0.026270669 -0.06937993
0002d0 2a cb 76 be d1 af 1a be 39 ea 94 bc 32 eb 71 3d
       -0.24100938 -0.15106131 -0.018178092 0.05906219
0002e0 5a 1d 28 be a6 56 5c bd b9 38 93 3c 55 cf 83 3d
       -0.16417447 -0.053793572 0.017971383 0.0643603
0002f0 2f d7 a5 3d e5 3c de bd e5 fa e0 3c dd ee 74 be
       0.08097684 -0.108514585 0.027463386 -0.23919244
000300 56 f1 17 be c1 7e 10 3e 39 d5 0c 3e 5c 43 f4 bd
       -0.14838156 0.14110853 0.13753213 -0.1192691
000310 1c 6a 02 3e 6a 5b 55 be 6c f2 ec bd 74 73 9e bd
       0.1273579 -0.20835653 -0.11569676 -0.07736865
000320 6b aa 13 be cd 79 27 3e b7 01 16 3e 34 89 85 3e
       -0.14420478 0.16355057 0.14649092 0.2608124
000330 8c 77 b3 bc c8 28 f2 3d f3 da 12 bd 5b ed 00 be
       -0.02190759 0.11824185 -0.035853337 -0.12590544
000340 32 ee 2c 3e b0 33 ae 3d e4 e8 b5 3d d1 98 e5 3c
       0.1688774 0.08505952 0.08882311 0.02802697
000350 cc 3d ac bd f0 a3 6f bc 7d 5e 0a be 60 ef 20 3d
       -0.08410224 -0.014626488 -0.13512607 0.039290786
000360 16 80 a0 3c cb 1e d8 3d 86 f0 a2 3d 24 a2 28 bd
       0.019592326 0.10552748 0.079560325 -0.041170254
000370 54 26 72 bd 5c 01 42 3d 37 99 86 bd 1e 45 ec bd
       -0.059118584 0.047364578 -0.06572192 -0.115366206
000380 a8 a5 fb 3d 13 05 85 3e fc ec 1a bd ab 7d c1 3d
       0.12287456 0.25980434 -0.037823662 0.094477974
000390 98 7d 90 bd 9f e6 d0 bd ee 3c 4a be ab 20 08 3d
       -0.07055205 -0.102002375 -0.19749805 0.03323428
0003a0 9b ce 03 3d a1 d3 dc 3d 42 21 fc 3d 5d e8 fd 3b
       0.032179456 0.107825525 0.12311031 0.007748647
0003b0 ed 70 06 3e 3d cf 48 3e 19 a2 08 3e d5 9e f3 3d
       0.13129015 0.19610305 0.13343085 0.11895529
0003c0 87 72 52 bd 61 a7 b6 3d 03 39 c3 bd ea d0 81 3d
       -0.051378753 0.08918644 -0.095323585 0.06338675
0003d0 6c 9e 46 3e bd fb 99 3d 35 01 e5 3a 41 f8 3d be
       0.1939637 0.075187184 0.0017471673 -0.18551733
0003e0 ab c5 e1 3c fb 4d 0b bd 2f 08 8d bd 87 ab 5c bc
       0.027560076 -0.034009915 -0.068863265 -0.01346863
0003f0 fd ff 7b bd 1e 51 d8 bc 0e b3 65 be 65 a2 8e bc
       -0.061523426 -0.026405867 -0.22431585 -0.01741142

net_stack.2.bias f4 [32]
000000 9d 15 19 bd a2 50 c6 3c 99 dc 08 3d d4 0f 03 bd
       -0.037374128 0.02420837 0.033413503 -0.031997517
000010 15 9e fa bc 8d 43 12 3d 20 cf e7 bc 4a 7b 18 3d
       -0.030592958 0.035708953 -0.028297007 0.037226953
000020 78 7a 0f bd f6 c2 d8 3c af 9c 0a 3d 57 7e 65 3a
       -0.035028905 0.026460152 0.03384083 0.0008754483
000030 7d 16 02 3d 6d 37 92 3c c6 26 e4 3c 16 91 e5 3c
       0.031759728 0.017848695 0.02785052 0.028023284
000040 46 a3 f8 bc 4a 85 f4 3c 16 18 f9 3c b3 3f 2e 3d
       -0.030351292 0.029848713 0.030406993 0.042541217
000050 36 d6 dc 3c 26 66 ef 3c c9 88 df 3c 45 2c ea bc
       0.026957612 0.029223513 0.027286904 -0.028585562
000060 db e4 ef bc 4a 47 b7 bc 5c 50 0a 3d cb 06 13 bd
       -0.029283931 -0.02237286 0.033768043 -0.03589515
000070 c4 38 0e 3d 05 b2 53 bd 64 6a 14 bd a9 26 ff 3c
       0.034722105 -0.051683445 -0.036234275 0.031146364

net_stack.4.weight f4 [1, 32]
000000 7d 39 6e 3d b3 4d 53 be 0c ec 4e bd 88 0d 76 3e
       0.058160294 -0.20635109 -0.05051808 0.240286
000010 56 2d 6c 3d 8e 14 30 bd fc d6 22 3e 87 1e 1f be
       0.057660423 -0.042988352 0.15902323 -0.15538989
000020 82 d4 e8 3d 3f 91 59 be 0d 4c cb bd 20 d2 b4 bc
       0.11368658 -0.21246813 -0.09926615 -0.022072852
000030 3d b1 a6 bd b3 79 82 bd 52 57 03 be c8 86 04 be
       -0.08139274 -0.063708685 -0.12826279 -0.1294204
000040 1a a6 8c 3d 63 ad 1c be 59 9e b0 bc 16 c2 c3 bd
       0.06867619 -0.15300517 -0.021559881 -0.09558503
000050 4b 32 cc bd 14 e0 58 bd 83 62 ff bd e3 19 9e 3d
       -0.0997053 -0.052948073 -0.124699615 0.07719781
000060 15 bc f3 3d b5 ad 09 3d ea 30 86 bd fe 05 6f 3d
       0.11901108 0.033612926 -0.06552298 0.058355324
000070 09 b9 8a be 35 22 96 3d b6 92 ac 3d 4a b5 ce bd
       -0.27094296 0.07330743 0.084264204 -0.10093172
