CAPSTONE/CAPMODELS/output/model_SUD4.pth (torch, 17382 bytes, 5 tensors)

net_stack.0.weight f4 [64, 23]
0	0x3be1e4a1	0.00689371
1	0x3e0f418c	0.13989848
2	0x3c125883	0.008932236
3	0x3d854b57	0.065085106
4	0xbd1e700d	-0.03868108
5	0xbe3aea1f	-0.18253373
6	0xbdd53251	-0.10409988
7	0xbc67351d	-0.014111784
8	0x3d92d988	0.07170397
9	0xbdb8cb91	-0.09023202
10	0x3da03e21	0.0782435
11	0x3e246c14	0.16056854
12	0x3e5566f9	0.20840062
13	0x3da4d6d1	0.080487855
14	0x3c707e7a	0.014678592
15	0xbe6bceb0	-0.23028064
16	0x3e31398d	0.1730711
17	0x3d4fa84c	0.05069761
18	0x3ce22c25	0.02760894
19	0x3d8e4390	0.0694648
20	0x39fcccce	0.00048217777
21	0xbe269fa7	-0.1627184
22	0x3da042bc	0.078252286
23	0x3b372d95	0.0027950753
24	0x3e43896d	0.19095393
25	0x3d6ac8be	0.05732035
26	0x3e535b5f	0.20640324
27	0x3cae668f	0.021289138
28	0x3e39d8ea	0.18149152
29	0x3d8b8b49	0.06813676
30	0x3e1abea0	0.1511178
31	0xbd5b60eb	-0.053559225
32	0xbd0be956	-0.034158073
33	0x3dbca378	0.09210867
34	0xbd5ce4d5	-0.05392917
35	0x3d06ef5f	0.032943126
36	0xbe1a6819	-0.15078773
37	0xbd408245	-0.046999235
38	0xbd9f6ade	-0.07784055
39	0x3cd3d753	0.02585951
40	0xbd1eabad	-0.03873794
41	0xbcb31da2	-0.021864716
42	0xbcdf83f9	-0.02728461
43	0xbd146a5d	-0.03623425
44	0xbe82718c	-0.25477254
45	0x3d7f0d63	0.062268626
46	0x3c234894	0.009966034
47	0x3c8e81f7	0.017395956
48	0x3de016d3	0.109418534
49	0x3e32308d	0.17401333
50	0xbc0ef9d5	-0.008726557
51	0xbe3dc215	-0.18531068
52	0xbd3efaaa	-0.04662577
53	0x3b1529e5	0.0022760567
54	0xbd59da3b	-0.053186636
55	0x3bb5801f	0.005538955
56	0x3d0ec6f5	0.03485771
57	0xbdf64102	-0.12024118
58	0xbd026406	-0.03183367
59	0x3cb1311d	0.021629864
60	0x3d0219b6	0.0317628
61	0x3b9fdbc9	0.0048784954
62	0xbe0dadbf	-0.1383581
63	0x3c742078	0.014900319
64	0x3dc18c61	0.09450603
65	0xba2f7a56	-0.00066939497
66	0xbdb853de	-0.090003714
67	0xbd592cac	-0.053021118
68	0x3dadd3b8	0.08487648
69	0xbdcbe8f6	-0.09956543
70	0x3d1864fa	0.037205674
71	0xbdd088c1	-0.10182334
72	0xbc45fa47	-0.012083597
73	0xbd4cab58	-0.049968094
74	0xbc04f5d3	-0.00811525
75	0xbe56514b	-0.20929448
76	0x3d54dd1d	0.051968683
77	0x3e1f2e96	0.15545115
78	0xbdd5167b	-0.104046784
79	0xbbdc4dd0	-0.006723143
80	0x3d3bc051	0.045837704
81	0x3e5e500f	0.21710227
82	0x3c3bc51f	0.011460572
83	0x3e07474b	0.1321079
84	0xbdac7af9	-0.08421893
85	0x3d0602f8	0.032717675
86	0xbd4f4a12	-0.05060775
87	0xbe2ab358	-0.16669977
88	0x3e2975ba	0.16548815
89	0x3d64e1e8	0.055879503
90	0xbce74166	-0.028229427
91	0xbdf13b6a	-0.117789105
92	0xbd9b2f0b	-0.07577332
93	0x3dfe6cd0	0.12423098
94	0x3d0ba9e2	0.03409756
95	0xbd2ed8b9	-0.04268715
96	0x3db96629	0.09052689
97	0xbe0741be	-0.13208672
98	0xbe5d86b8	-0.21633422
99	0xbdd2d0a9	-0.10293705
100	0xbcda6de9	-0.026663737
101	0x3d1d5bc3	0.03841759
102	0x39d20cb4	0.00040063786
103	0xbe065097	-0.1311668
104	0xbbe50bf5	-0.006989951
105	0x3d43df33	0.04782028
106	0x3d68cee9	0.05683795
107	0xbdde4c18	-0.108543575
108	0xbd8d512e	-0.069002494
109	0xbca9985f	-0.020702539
110	0xbcd59383	-0.026071316
111	0xbe1d9fd0	-0.15392995
112	0x3b80fba9	0.00393625
113	0x3c6350b2	0.01387422
114	0x3e0a19d9	0.13486423
115	0x3e671063	0.22564845
116	0xbe078167	-0.13232957
117	0x3e2f1002	0.1709595
118	0x3dcb157a	0.09916206
119	0x3e2e0546	0.16994199
120	0xbcf04c72	-0.029333327
121	0x3dde6fd9	0.10861177
122	0x3dc23ee2	0.0948465
123	0x3df88470	0.121346354
124	0x3e2404fa	0.16017523
125	0x3c01c93c	0.007921513
126	0xbdedb33a	-0.116064504
127	0x3c09bd90	0.008407012
128	0xbd76243f	-0.06009316
129	0x3bda2f18	0.006658446
130	0x3dde59c0	0.10856962
131	0xbe3ff1d4	-0.18744594
132	0xbe1b4b3c	-0.15165418
133	0x3c94fd2e	0.018187132
134	0xbd6656f1	-0.056235258
135	0xbd908c31	-0.070579894
136	0xbc19ef86	-0.009395486
137	0xbd9be03f	-0.07611131
138	0xbd4a938c	-0.049457118
139	0x3d67c667	0.056585696
140	0x3d806d12	0.062708035
141	0x3da32c59	0.07967443
142	0xbe498cc8	-0.1968261
143	0x3de9c1f9	0.114139505
144	0xbe43c34b	-0.19117467
145	0xbdc47032	-0.09591712
146	0xbd85f3bd	-0.0654063
147	0xbc7bc768	-0.015367366
148	0x3d31c3d5	0.04339965
149	0x3e3c0052	0.18359497
150	0xbdb500cb	-0.08838042
151	0x3dc48f77	0.09597676
152	0xbc580249	-0.013184139
153	0xbcb12eb7	-0.02162872
154	0x3d634ea5	0.055494923
155	0x3deeae8e	0.116543874
156	0x3d6b604c	0.057464883
157	0x3d609c0d	0.05483632
158	0xbd7bff47	-0.06152275
159	0xbe1c1e75	-0.15245993
160	0xbd526b14	-0.05137165
161	0x3e1c2765	0.15249403
162	0xbce062e6	-0.027390908
163	0x3c90df84	0.017684706
164	0x3dbfb2ac	0.09360251
165	0x3bd43ba7	0.0064768377
166	0x3dd1b5a6	0.10239725
167	0x3ca3a1f5	0.019974688
168	0x3e266bfd	0.16252132
169	0xbc3fc205	-0.011703973
170	0xbe607af4	-0.21921903
171	0x3db348c2	0.08754112
172	0x3b504c4c	0.0031783758
173	0x3d241227	0.040056374
174	0x3de54e60	0.111965895
175	0x36a3f220	4.8859656e-06
176	0x3de7629b	0.112981044
177	0xbdb0617c	-0.08612344
178	0x3ca9232b	0.020646652
179	0xbd1069d2	-0.035257168
180	0xbd8dbb60	-0.069205046
181	0x3d6bba12	0.057550497
182	0x3c91e5b7	0.017809732
183	0x3ce5bf6a	0.028045375
184	0xbd466c3a	-0.048443057
185	0x3d18fe15	0.037351687
186	0xbd9283cf	-0.07154047
187	0xbdc7dbd8	-0.09758729
188	0x3dc24496	0.09485738
189	0xbd276e5c	-0.04087673
190	0xbda7dbd4	-0.08196226
191	0x3e70828b	0.23487298
192	0xbde3ac94	-0.11116901
193	0x3e34acb6	0.17644009
194	0x3e45c5c0	0.19313717
195	0xbe64d321	-0.22346164
196	0x3d927d7b	0.0715284
197	0x3da1088f	0.078629605
198	0xbd9ea56e	-0.07746397
199	0x3e02c576	0.12770638
200	0x3da3a08f	0.079896085
201	0x3daca2c3	0.08429482
202	0x3d8cfdeb	0.068843685
203	0xbc52f1d7	-0.012875042
204	0xbcc72d21	-0.024313511
205	0x3c90bd71	0.017668458
206	0x3c72b58d	0.014813793
207	0xbdd8c31e	-0.10584091
208	0xbbb4b6ad	-0.0055149407
209	0xbdb5d606	-0.08878712
210	0xbe103154	-0.14081317
211	0xbd57a845	-0.05265071
212	0x39c94c8e	0.00038394745
213	0xbe84cf5d	-0.25939456
214	0xbd28f86a	-0.04125253
215	0x3d80b113	0.06283774
216	0x3dbd252d	0.09235606
217	0x3d3735bf	0.04472899
218	0x3d12827e	0.03576898
219	0x3da5379a	0.08067246
220	0x3ce300ab	0.02771028
221	0x3d903735	0.0704178
222	0xbd87b919	-0.066271015
223	0x3b8d5634	0.0043132547
224	0xbddcfa4c	-0.10789928
225	0x3c260d65	0.010135029
226	0x3cac06c9	0.02099933
227	0x3cce938c	0.02521684
228	0xbd5495eb	-0.051900785
229	0x3dcb14e0	0.09916091
230	0x3e14f22d	0.14545508
231	0xbd8aca2f	-0.06776845
232	0x3d994080	0.074830055
233	0xbd5504ad	-0.052006412
234	0xbd64ad46	-0.05582931
235	0x3d80a584	0.062815696
236	0x3e036ac3	0.12833695
237	0x3e1a2f5a	0.15057126
238	0xbe0dc639	-0.13845147
239	0x3ce3b581	0.027796509
240	0x3dc829f0	0.09773624
241	0x3c4eb287	0.012615806
242	0xbd30bd10	-0.043149054
243	0xbe03b57a	-0.12862197
244	0xbdbd77f2	-0.092513934
245	0x3e192876	0.14956841
246	0xbcdb6acf	-0.026784329
247	0x3d7aab7c	0.061198696
248	0x3d40e9a4	0.047097817
249	0xbd848b70	-0.06471908
250	0xbd514849	-0.051094327
251	0x3e201be8	0.15635645
252	0x3cf82f77	0.03029607
253	0x3e0d8c5f	0.13823079
254	0xbd934202	-0.07190324
255	0xbc05aa21	-0.008158238

net_stack.0.bias f4 [64]
0	0x3ca8b16d	0.020592416
1	0x3cb0490b	0.021519205
2	0x3cad9fca	0.021194357
3	0x3ca2b2ed	0.01986071
4	0x3c992c8e	0.018698003
5	0xbc5a55f7	-0.01332616
6	0x3cff80ed	0.031189406
7	0xbca00025	-0.019531319
8	0x3b1ef109	0.0024252555
9	0x3b8070b7	0.0039196867
10	0x3c1f8fc7	0.009738869
11	0x3cc17cab	0.023619017
12	0x3b07b82e	0.0020709145
13	0x3bfe7c02	0.0077662477
14	0x3c9b0c9d	0.018926913
15	0x3d05980f	0.032615718
16	0x3cde1f03	0.027114397
17	0xbc8915fa	-0.016734112
18	0x3cc5da4f	0.02415195
19	0xbcfc01e9	-0.03076263
20	0xbcba9680	-0.022776842
21	0x3cad1e84	0.021132715
22	0xbcf968c2	-0.03044546
23	0xbc35a114	-0.011085767
24	0xbcc88beb	-0.02448078
25	0xbc4a3b38	-0.01234322
26	0x3ca99b31	0.020703884
27	0x3c82ff64	0.01599092
28	0xbcd3c65d	-0.025851423
29	0xbcc2afd6	-0.023765486
30	0x3c0a9b84	0.008459929
31	0xbbeff483	-0.0073228492
32	0xbcecea4d	-0.028920317
33	0xbcace451	-0.021104963
34	0xbc9ec867	-0.019382669
35	0xbcaa7dbc	-0.020811908
36	0xbc938b63	-0.0180108
37	0xbc2f21e8	-0.010689236
38	0xbca3f5b6	-0.020014625
39	0xba4ccfad	-0.00078129285
40	0x3c39e47c	0.011345979
41	0x3c8bf2e7	0.017083598
42	0xbca4d255	-0.020119825
43	0x3c7e1fa8	0.015510477
44	0x3c3e01e2	0.011597129
45	0xbce135fc	-0.027491562
46	0xbb8bf955	-0.004271666
47	0x3cb6e2c8	0.022324935
48	0xbbd785d1	-0.0065772315
49	0xbc243553	-0.010022479
50	0xbba1dbeb	-0.0049395463
51	0xbc95706e	-0.018242087
52	0xbce5be12	-0.028044734
53	0xbc9c198d	-0.019055152
54	0xbcd8955e	-0.026438411
55	0xbc8839f4	-0.016629197
56	0xbca1aaec	-0.019734822
57	0xbc29f1ff	-0.010372638
58	0x3ccd512c	0.02506312
59	0xbcaa7c03	-0.020811087
60	0xbcba3a06	-0.022732746
61	0xbcd3d7e6	-0.025859784
62	0xbc86b16c	-0.016442023
63	0x3cc7def5	0.024398306

net_stack.2.weight f4 [32, 64]
0	0x3dcd75af	0.10032212
1	0x3db9f452	0.090798035
2	0xbd0f97d1	-0.035056893
3	0x3dfa9987	0.12236314
4	0xbdef182d	-0.11674533
5	0x3c922352	0.017839108
6	0x3da5e7ed	0.08100877
7	0xbd87d173	-0.06631746
8	0xbc432e4d	-0.011912894
9	0xbd5c973a	-0.05385516
10	0xbdd3407b	-0.10315033
11	0xbb45f598	-0.00302062
12	0x3cdf5170	0.027260512
13	0x3e50c792	0.2038863
14	0x3d939f20	0.07208085
15	0x3d9d3c8f	0.07677566
16	0xbe36d9bf	-0.17856501
17	0xbba1856e	-0.004929236
18	0xbd60c420	-0.05487454
19	0x3ce24fab	0.02762588
20	0xbe2d25b0	-0.16908908
21	0x3ddfdd90	0.109309316
22	0x3cff014e	0.031128552
23	0x3d1d84f1	0.03845686
24	0xbdb191ec	-0.086704105
25	0xbdd54bfa	-0.10414882
26	0xbda59f9a	-0.08087082
27	0x3d7c5345	0.06160285
28	0xbe87f1af	-0.26551577
29	0xbe3b9e76	-0.18322167
30	0xbd82e46c	-0.06391224
31	0xbc2cadcf	-0.010539486
32	0x3d26b134	0.040696338
33	0x3dea3cf5	0.11437408
34	0xbd89337b	-0.06699272
35	0x3d4250da	0.047440387
36	0xbe5afce6	-0.21385536
37	0x3c225bda	0.009909594
38	0xbd114a8b	-0.03547148
39	0x3b6e009a	0.0036316277
40	0xbd4f2f0b	-0.050581973
41	0xbd168b1c	-0.03675376
42	0xbd245695	-0.040121634
43	0x3d174aa7	0.03693643
44	0xbd59c507	-0.053166416
45	0xbd9db5a6	-0.07700662
46	0xbd89184c	-0.066940874
47	0x3e6ef671	0.23336197
48	0xbde49ff8	-0.11163324
49	0xbe0c4fb7	-0.13702284
50	0x3d2be710	0.041968405
51	0x3d16c513	0.03680904
52	0xbe325814	-0.17416412
53	0x3c3eeea0	0.011653572
54	0xbd9537f2	-0.07286061
55	0xbd4d7420	-0.050159574
56	0x3d9bf5bc	0.076152295
57	0x3e4b7950	0.19870496
58	0xbc5e443e	-0.013566075
59	0xbda27e4a	-0.07934244
60	0xbd26c101	-0.040711407
61	0x3dfdc26f	0.12390601
62	0xbe91a799	-0.2844818
63	0x3dde6d15	0.108606495
64	0xbdde3190	-0.10849297
65	0xbdb59f1f	-0.088682406
66	0xbd6b7307	-0.057482745
67	0xbe6846b5	-0.22683223
68	0xbded282b	-0.11579927
69	0x3e14832e	0.14503166
70	0xbc9843f1	-0.018587084
71	0x3e3b8112	0.18310955
72	0xbd8db68f	-0.06919586
73	0xbdedd3c5	-0.116126575
74	0xbb1e5fb3	-0.0024165928
75	0xbdbf87b4	-0.09352055
76	0xbdbd55e2	-0.092448965
77	0xbd422c5d	-0.04740559
78	0xbd808f68	-0.062773526
79	0xbc30614f	-0.010765388
80	0x3d46dbb3	0.048549365
81	0x3e43647e	0.19081303
82	0xbe1e5092	-0.15460423
83	0xbc5b983f	-0.0134029975
84	0xbb7d03ed	-0.0038607076
85	0x3d20e748	0.039283067
86	0xbd8cefc3	-0.068816684
87	0xbb03d278	-0.0020114463
88	0x3c756d6d	0.014979702
89	0xbca5e91f	-0.020252762
90	0xbd9814b8	-0.07425827
91	0xbdeb770d	-0.114973165
92	0x3d2bc317	0.0419341
93	0x3d358032	0.04431171
94	0xbd6c7161	-0.057725314
95	0x3dd9f85c	0.10643074
96	0x3dbd3ef9	0.09240527
97	0xbd0abc3c	-0.03387092
98	0x3d5f62bf	0.05453753
99	0xbda93d02	-0.082635894
100	0xbc776960	-0.015100807
101	0xbc4e58b2	-0.012594389
102	0x3ea72ee7	0.3265297
103	0xbd7e3326	-0.062060498
104	0xbd3aa84d	-0.04557066
105	0xbd43fc2c	-0.04784791
106	0x3da47221	0.08029581
107	0xbe921358	-0.28530383
108	0x3bc8d59f	0.0061289812
109	0x3d935b7c	0.07195184
110	0xb9398069	-0.00017690811
111	0xbdb3349b	-0.08750268
112	0x3cefce1d	0.029273087
113	0x3e29195c	0.1651358
114	0x3d892bde	0.0669782
115	0x3d886b67	0.0666111
116	0x3cd2679b	0.025684169
117	0x3a3e1948	0.0007251692
118	0xbdd077bc	-0.101790875
119	0x3ddebd3a	0.10875936
120	0x3e543a34	0.20725328
121	0x3adecc1c	0.0016998085
122	0xbe413f57	-0.18871818
123	0x3da15d7b	0.07879158
124	0x3e738e0c	0.23784655
125	0x3e1f432c	0.15552968
126	0x3d9eaf7e	0.07748316
127	0xbdbdf568	-0.09275323
128	0x3c8f24c1	0.01747358
129	0xbd152e27	-0.036420967
130	0x3dda54ed	0.106607296
131	0x3d7dea7d	0.061991204
132	0x3d5961ff	0.053071972
133	0xbe2f0b30	-0.17094111
134	0x3da44b26	0.08022146
135	0xbd1ee077	-0.038788285
136	0x3ddf1a7c	0.10893723
137	0x3e49d9ec	0.19712037
138	0xbd8a9ee2	-0.06768586
139	0xbcfb3814	-0.030666389
140	0x3d7dfc7c	0.062008366
141	0xbbc47b94	-0.005996177
142	0x3dbfdf62	0.09368779
143	0xbd197901	-0.037468914
144	0xbddd4a6d	-0.10805211
145	0xbde1e114	-0.11029258
146	0x3e55e705	0.20888908
147	0xbd5b580f	-0.053550776
148	0xbe430aa6	-0.19047031
149	0x3daf55ab	0.08561262
150	0xbddc2a1c	-0.10750219
151	0xbd74ff25	-0.059813637
152	0xbdb4d053	-0.08828797
153	0x3d6eea76	0.058329068
154	0x3d9fcc61	0.07802654
155	0x3e839692	0.25700814
156	0xbe2bac30	-0.16764903
157	0xbc38cdbb	-0.011279519
158	0xbd74dae8	-0.059779078
159	0xbcf89079	-0.030342327
160	0xbe44783f	-0.19186495
161	0x3dcd774f	0.10032522
162	0xbcd183ab	-0.02557548
163	0x3b8f5e8d	0.004375285
164	0x3da83cd4	0.08214727
165	0x3d6daf3c	0.058028445
166	0xbcdeb14b	-0.02718415
167	0xbd2e7d27	-0.042599823
168	0xbb8864ef	-0.004162423
169	0xbe56a9ad	-0.20963164
170	0xbe02a30d	-0.12757511
171	0xbe15095e	-0.14554355
172	0x3ddfacb6	0.10921614
173	0xbe3b59a1	-0.1829591
174	0x3e50041b	0.20314066
175	0x3ce95ac4	0.028485663
176	0xbc7178f0	-0.014738306
177	0xbd4519a1	-0.048120145
178	0x3df17714	0.117902905
179	0xbe64c448	-0.223405
180	0xbcb7fbc9	-0.022458928
181	0x3d32adc9	0.043622766
182	0xbdf3fcea	-0.11913474
183	0xbd94ff50	-0.072752595
184	0xbcc02315	-0.023454228
185	0x3b6486e7	0.0034870447
186	0x3e500137	0.20312963
187	0xbd1136af	-0.03545254
188	0xbe6ec593	-0.23317556
189	0xbd7ef101	-0.062241558
190	0x3d3f8f3e	0.046767466
191	0x3b22e8c3	0.0024857975
192	0xbd8960e8	-0.067079365
193	0xbdccbbd3	-0.09996762
194	0xbe177897	-0.14792095
195	0xbd6558c1	-0.055992845
196	0x3d4a3615	0.049367983
197	0xbdba1f40	-0.09087992
198	0x3e4a9b9b	0.19785921
199	0x3d3b5707	0.045737293
200	0xbce57fef	-0.028015105
201	0x3e1d2edf	0.15349911
202	0x3cfbc9f8	0.030735955
203	0xbd1b4167	-0.03790417
204	0x3af17f14	0.0018424713
205	0xbe0d42a1	-0.13794948
206	0xbdeeeacd	-0.116658784
207	0x3ce00e07	0.027350439
208	0x3d926c9a	0.0714962
209	0x3d6676d1	0.056265656
210	0xbd473e58	-0.04864344
211	0xbdb8d31a	-0.090246394
212	0xbdfdb101	-0.123872764
213	0x3e184c5a	0.14872876
214	0xbe6158ca	-0.22006527
215	0xbd6988f9	-0.057015393
216	0x3e4061c2	0.18787292
217	0xbc8d741f	-0.017267285
218	0x3bdd4751	0.0067528863
219	0xbe4f612f	-0.20251916
220	0x39258670	0.00015785708
221	0x3c9e64bb	0.019335141
222	0x3d2ef71a	0.042716123
223	0xbca8891c	-0.020573191
224	0xbaeb75f3	-0.0017964229
225	0x3de7beea	0.11315711
226	0x3c7bf5fd	0.015378472
227	0xbe0fc161	-0.14038612
228	0x3d27a7f1	0.040931646
229	0x3d23cfb7	0.039993014
230	0xbd0eb542	-0.03484083
231	0xbb042ec2	-0.0020169471
232	0x3da120a9	0.078675576
233	0x3e451b5f	0.19248722
234	0xbdb6fef7	-0.089353494
235	0xbd31e2ff	-0.04342937
236	0x3d7c154d	0.06154375
237	0x3d5b7886	0.053581737
238	0xbe7ecac1	-0.24882032
239	0x3dc745d8	0.097301185
240	0xbe580b87	-0.21098147
241	0x3d306f98	0.043075174
242	0xbe005487	-0.12532245
243	0xbd567e3a	-0.052366473
244	0xbc9030e4	-0.017601438
245	0xbe4abcb9	-0.19798554
246	0x3d3c9de7	0.046049025
247	0xbd6a5092	-0.057205744
248	0x3da56b7a	0.0807714
249	0x3c3bfe85	0.011474256
250	0xbd299fcd	-0.041412164
251	0xbd917986	-0.07103257
252	0x3caacdf8	0.020850167
253	0xbdea92ab	-0.11453756
254	0xbdb64098	-0.08899039
255	0xba89e8ad	-0.0010521613

net_stack.2.bias f4 [32]
0	0x3cd19fe7	0.025588943
1	0xbc95e06a	-0.018295486
2	0x3ce33125	0.027733395
3	0x3cfb0d91	0.030646117
4	0x3ce240c9	0.027618783
5	0xbd0765d6	-0.033056103
6	0x3d0bb928	0.034112126
7	0xbcd269a7	-0.025685145
8	0x3cf7825e	0.030213531
9	0x3cb037d2	0.021510992
10	0x3cd3f1a5	0.025872061
11	0xbcbff1ed	-0.023430789
12	0x3cfcad9c	0.030844502
13	0xbca5d32d	-0.020242298
14	0xbd13601e	-0.035980336
15	0xbcc17c53	-0.023618853
16	0xbcf61d87	-0.030043377
17	0x3c347333	0.011013794
18	0x3ce0a4b1	0.027422281
19	0xbcadb466	-0.021204185
20	0xbc9e7a43	-0.019345408
21	0x3cdbf054	0.026847996
22	0x3cf17109	0.029472845
23	0x3ce8f4d1	0.02843705
24	0xbcd8909a	-0.026436139
25	0x3cc10ffe	0.023567196
26	0x3cb9a932	0.022663686
27	0x3d01291a	0.031533338
28	0x3cb6765f	0.02227324
29	0x3cb29211	0.021798166
30	0x3cb0fe9e	0.021605786
31	0x3ca1d5bc	0.019755237

net_stack.4.weight f4 [1, 32]
0	0xbdbc1a76	-0.091847345
1	0x3e3c8579	0.18410291
2	0xbe315f67	-0.1732155
3	0xbdc27fe8	-0.094970524
4	0xbd8046f9	-0.06263537
5	0x3de9e308	0.11420256
6	0xbe30c4bd	-0.1726255
7	0x3da4d49f	0.08048367
8	0xbe3a6ffc	-0.18206781
9	0xbd4ee4a0	-0.050511003
10	0xbe19502b	-0.14971988
11	0x3d2e6623	0.042577874
12	0xbe391fac	-0.18078488
13	0x3d860dde	0.06545614
14	0x3d819ec2	0.06329109
15	0x3dba89b5	0.09108297
16	0x3ddb801c	0.10717794
17	0xbde7753c	-0.113016576
18	0xbdfd66ea	-0.12373145
19	0x3df09ece	0.117490396
20	0x3e32d400	0.17463684
21	0xbd7c674b	-0.061621945
22	0xbdc85b61	-0.09783054
23	0xbdb9a7c5	-0.090652026
24	0x3d6b91fd	0.057512272
25	0xbe152665	-0.14565428
26	0xbdbe41e9	-0.09289915
27	0xbd840e35	-0.06448022
28	0xbe170d3d	-0.14751144
29	0xbe11ad5b	-0.14226286
30	0xbe257c81	-0.16160776
31	0xbe28ce47	-0.16484939
