CAPSTONE/CAPMODELS/output/model_SUD1.pth (torch, 17382 bytes, 5 tensors)

net_stack.0.weight f4 [64, 23]
-0.11353672 0.23154934 0.15327883 0.05122705 0.08487379 0.069182105 0.056520265 -0.0052287346
0.042177398 0.14085558 0.15007916 0.15207636 0.18759336 -0.18878128 0.14708804 0.049920537
-0.12874122 0.13190731 -0.11874365 -0.21526806 0.08931787 0.009806132 0.07186248 0.1751401
-0.07003677 0.15436108 0.033464774 -0.071983375 0.013086557 0.026057247 0.06549741 -0.035158932
-0.1075526 0.15608712 -0.03015767 0.0122766 0.0037530146 -0.14868964 0.10822038 0.17282592
-0.038849764 0.019181356 0.020692334 -0.0035215302 -0.06261446 -0.08209856 0.10710903 -0.010842493
0.07383073 -0.02343712 -0.17032064 0.012383889 -0.10373096 0.05242221 0.012810432 -0.1379569
-0.10054446 -0.12739344 0.046657395 0.0044922996 0.057069942 0.07942706 -0.00080247596 0.17054719
-0.18649542 0.20705265 0.21540537 -0.14292641 0.11510182 0.06839803 -0.04383178 -0.017804747
0.010922503 0.22704776 -0.017097488 -0.04258545 0.08294391 0.024670927 -0.031460002 0.14445122
-0.0074661123 -0.13729347 0.00034353705 -0.050871346 0.121913716 0.022504965 -0.022499355 -0.25718668
-0.035250906 0.10408429 0.0704808 -0.00036047096 -0.17827983 0.3020095 0.18635572 -0.053046115
-0.09729847 -0.06915128 0.02220501 -0.1708061 -0.062109176 -0.22026624 0.15035942 0.009993308
0.055348683 -0.1362979 -0.18144861 -0.18421203 0.122018814 -0.21483418 0.09066922 0.023614839
-0.012562337 0.06803947 -0.15231206 -0.050441347 -0.022263704 0.21208788 0.23703353 0.22723807
-0.074634284 0.122669764 0.097186476 -0.09580374 -0.18822247 0.045179274 -0.04732621 -0.11455572
-0.1598061 -0.048101418 -0.062449228 0.0377509 -0.101456374 -0.07694573 0.055504855 0.06186407
-0.06951501 0.0036285021 0.05633891 -0.033255048 0.15515746 0.021542987 -0.1943939 -0.028588794
0.039972927 0.1602748 0.13009305 0.020882456 0.09349022 0.06031853 0.047952376 -0.11919444
-0.19624934 -0.047034387 -0.058885667 0.0710847 0.005518899 -0.060541514 0.028200913 0.038228054
-0.22233546 0.019092524 0.028009063 -0.16176292 -0.049635507 -0.17385672 -0.22619443 -0.01452191
0.05662602 0.05647405 0.08401757 -0.03650537 0.107913576 0.14078677 0.1419999 0.1479548
-0.043957658 0.05481919 0.11061839 0.02403535 -0.024239218 0.15408865 0.020678762 0.056135017
-0.034897495 -0.1884177 -0.15134488 -0.021903662 0.010373565 -0.05955374 0.10279732 -0.03268464
0.031021426 -0.008272108 -0.16553107 0.0064772754 -0.18029849 -0.055793628 -0.05137157 -0.04032317
0.04788545 -0.04047602 -0.11864723 0.06709233 0.14168712 -0.055487372 -0.03451375 0.11449162
0.11578941 -0.075095125 -0.014071128 0.017505623 0.16716878 0.017980125 -0.13245833 -0.12243401
0.10320127 0.0037186667 0.23213288 0.11352574 0.0151801035 0.18529622 0.081200644 -0.103129774
0.035167824 -0.0056862095 -0.15148027 0.11933642 0.034018353 0.11096228 0.07268846 -0.121390976
0.16852655 0.07946488 0.1348686 0.09426566 0.09022455 -0.022531925 0.010874793 -0.038598213
0.14811487 -0.045939025 0.05902799 0.062954605 -0.22919627 0.04784558 -0.013748524 -0.045432564
0.064090826 -0.015731184 0.004280805 0.0765148 0.011936319 0.08205519 -0.2994224 0.23157695
00000000: f185 e8bd 451b 6d3e 20f5 1c3e 75d3 513d
00000010: 4fd2 ad3d 59af 8d3d cb81 673d ce55 abbb
00000020: 35c2 2c3d 723c 103e 5aae 193e e8b9 1b3e
00000030: 7918 403e e14f 41be 3f9e 163e 7a79 4c3d
00000040: bdd4 03be b612 073e df2f f3bd 3b6f 5cbe
00000050: 4aec b63d e6a9 203c a32c 933d ed57 333e
00000060: 706f 8fbd d510 1e3e 5c12 093d 056c 93bd
00000070: 0069 563c 0276 d53c 8223 863d d002 10bd
00000080: 8a44 dcbd 4dd5 1f3e 380d f7bc cb23 493c
00000090: 23f5 753b 1942 18be a6a2 dd3d 47f9 303e
000000a0: ee20 1fbd 3822 9d3c f882 a93c 79c9 66bb
000000b0: 033c 80bd 4a23 a8bd fb5b db3d b6a4 31bc
000000c0: 9134 973d 34ff bfbc 8968 2ebe cce5 4a3c
000000d0: e670 d4bd acb8 563d d9e2 513c 9344 0dbe
000000e0: 41ea cdbd 6d73 02be d31b 3f3d 2434 933b
000000f0: 2cc2 693d a8aa a23d 405d 52ba eca3 2e3e
00000100: a8f8 3ebe 9c05 543e 3a93 5c3e 4d5b 12be
00000110: 81ba eb3d 4414 8c3d f488 33bd 43db 91bc
00000120: 4cf4 323c 357f 683e 0810 8cbc 156e 2ebd
00000130: 7fde a93d af1a ca3c 34dc 00bd 05eb 133e
00000140: 4aa6 f4bb a996 0cbe c31c b439 795e 50bd
00000150: e6ad f93d 555c b83c 9150 b8bc f9ad 83be
00000160: 4163 10bd 252a d53d 3d58 903d 98fd bcb9
00000170: fd8e 36be fda0 9a3e 09d4 3e3e e246 59bd
00000180: 6c44 c7bd 309f 8dbd 48e7 b53c cbe7 2ebe
00000190: 3166 7ebd 798d 61be d2f7 193e f9ba 233c
000001a0: 4db5 623d ad91 0bbe aacd 39be 14a2 3cbe
000001b0: 00e5 f93d 7efd 5bbe c9b0 b93d e873 c13c
000001c0: 43d2 4dbc 4758 8b3d b1f7 1bbe 969b 4ebd
000001d0: 5f62 b6bc 912d 593e ebb8 723e 19b1 683e
000001e0: dcd9 98bd 493a fb3d b409 c73d c034 c4bd
000001f0: 64bd 40be e70d 393d 21d9 41bd 309c eabd
00000200: 36a4 23be fe05 45bd c3ca 7fbd b0a0 1a3d
00000210: 5cc8 cfbd b995 9dbd 0f59 633d 2e65 7d3d
00000220: e35d 8ebd 2acc 6d3b a1c3 663d 7236 08bd
00000230: 99e1 1e3e eb7a b03c 320f 47be 0c33 eabc
00000240: a7ba 233d 141f 243e 1d37 053e af11 ab3c
00000250: cd77 bf3d 9010 773d b669 443d 371c f4bd
00000260: 96f5 48be 21a7 40bd 1932 71bd db94 913d
00000270: e1d7 b43b 61fa 77bd 9a05 e73c 0595 1c3d
00000280: e8ab 63be ed67 9c3c 4373 e53c 2ea5 25be
00000290: 9a4e 4bbd 7f07 32be 839f 67be 4eed 6dbc
000002a0: b0f0 673d 5551 673d 6711 ac3d a886 15bd
000002b0: cb01 dd3d 682a 103e 6c68 113e 7781 173e
000002c0: f20c 34bd 168a 603d e58b e23d c8e5 c43c
000002d0: 5391 c6bc 6ac9 1d3e 8266 a93c d5ed 653d
000002e0: adf0 0ebd 92f0 40be 27fa 1abe 4f6f b3bc
000002f0: e3f5 293c 9fee 73bd 6787 d23d 54e0 05bd
00000300: a520 fe3c bc87 07bc fa80 29be 533f d43b
00000310: 2ba0 38be dc87 64bd ff6a 52bd e929 25bd
00000320: 8923 443d 2fca 25bd 52fd f2bd b467 893d
00000330: 6e16 113e ba46 63bd 4a5e 0dbd 957a ea3d
00000340: 0023 ed3d 79cb 99bd 978a 66bc f467 8f3c
00000350: 4b2e 2b3e 0e4b 933c 28a3 07be afbe fabd
00000360: 305b d33d e0b4 733b 3eb4 6d3e 2f80 e83d
00000370: f8b5 783c 4bbe 3d3e 864c a63d b435 d3bd
00000380: 230c 103d 6253 babb a51d 1bbe a766 f43d
00000390: d456 0b3d 3140 e33d b0dd 943d d59b f8bd
000003a0: 3992 2c3e 7cbe a23d ff1a 0a3e 5b0e c13d
000003b0: a6c7 b83d df94 b8bc 302c 323c 2919 1ebd
000003c0: 6dab 173e 8f2a 3cbd 55c7 713d 58ee 803d
000003d0: 6db2 6abe baf9 433d 7d41 61bc 7f17 3abd
000003e0: 0d42 833d afde 80bc ff45 8c3b cbb3 9c3d
000003f0: 8d90 433c 8d0c a83d e54d 99be 8222 6d3e

net_stack.0.bias f4 [64]
0.010960601 -0.0013460019 0.016065443 -0.023139814 0.012496604 -0.0030145578 -0.010365061 0.019158233
-0.00036983105 0.018080773 -0.008072319 -0.007851901 -0.0119801955 0.0011906127 0.01602383 -0.013928695
0.008162949 -0.018328516 0.019141138 0.008113249 -0.011817274 -0.0011333684 -0.015275494 0.022087947
0.0035765765 0.027699102 -0.021226825 0.0009190612 -0.0029896572 0.02457473 0.026527371 0.006938545
-0.012227071 -0.010025797 -0.009298576 -0.013320907 -0.0037343472 0.006677767 -0.017503414 -0.0069511463
0.01955706 -0.013174047 0.019735351 0.00454789 -0.006997539 0.0018965232 0.022891397 0.007832967
0.011690675 -0.024434978 -0.005460924 -0.002869728 0.011333984 -0.01039702 -0.009555702 0.006461487
-0.017191134 -0.006086053 -0.012390029 0.015674809 0.01273944 -0.018478658 0.0070114005 0.0069478247
00000000: 1894 333c 546c b0ba ad9b 833c b58f bdbc
00000010: 8ebe 4c3c e38f 45bb 38d2 29bc baf1 9c3c
00000020: e2e5 c1b9 211e 943c c341 04bc 43a5 00bc
00000030: 9548 44bc 550e 9c3a 6844 833c 2e35 64bc
00000040: e4bd 053c af25 96bc e0cd 9c3c 6fed 043c
00000050: 3d9d 41bc 888d 94ba 1146 7abc c8f1 b43c
00000060: ff64 6a3b 3ae9 e23c e1e3 adbc 27ed 703a
00000070: 20ee 43bb f250 c93c ee4f d93c bc5c e33b
00000080: 0e54 48bc 3e43 24bc 0e59 18bc ef3f 5abc
00000090: f3bb 74bb 2bd1 da3b 5263 8fbc 71c6 e3bb
000000a0: 2136 a03c f5d7 57bc 08ac a13c 7706 953b
000000b0: 9d4b e5bb c294 f83a bd86 bb3c d855 003c
000000c0: 3f8a 3f3c dd2b c8bc 8df1 b2bb 0c12 3cbb
000000d0: 2db2 393c 4358 2abc 858f 1cbc e2ba d33b
000000e0: 6cd4 8cbc 836d c7bb 8cff 4abc 7568 803c
000000f0: 16b9 503c 8e60 97bc e4bf e53b 94aa e33b

net_stack.2.weight f4 [32, 64]
-0.12613834 -0.0100260535 -0.118699454 0.047886036 -0.13134189 -0.0028840413 0.082978085 0.008189262
-0.18256189 0.07854555 0.19333513 0.21229547 0.041876603 -0.05635252 -0.044550847 0.08451454
0.08901692 -0.14067583 -0.17115985 -0.098492086 -0.1621514 -0.029629223 -0.20705004 -0.08238926
0.0018762347 -0.17621423 0.04276273 -0.089641504 -0.1643152 -0.061406717 0.02182009 -0.0964691
-0.054623608 0.12449153 -0.012674879 0.034328036 0.1000715 -0.14037955 0.065450564 -0.14640532
-0.07291209 -0.018514886 -0.024456248 0.1363546 0.010284801 0.062291175 -0.18754889 0.08379884
-0.072911695 0.00014184882 0.09333055 0.12026301 -0.10298792 -0.15573825 0.20265912 0.11464431
0.0899609 0.13902825 0.065405175 0.092568025 0.035569526 0.22216336 -0.18496227 0.0830829
0.15376095 0.017614586 -0.034971084 -0.06921632 0.12402248 -0.3195952 0.06685363 -0.042141624
-0.16493906 -0.0030461492 -0.23056178 -0.04923813 0.07373607 0.064107955 -0.035367303 -0.02430302
-0.17204078 -0.008095568 0.106430635 0.07248456 -0.14469464 0.15644597 0.06851744 0.07322112
-0.006127952 -0.04374696 -0.095224395 -0.015821086 0.06193685 0.066815466 0.03453759 -0.04056789
0.077463344 -0.04992619 0.037303574 -0.14813794 -0.027325382 0.040813927 0.024715586 -0.13989209
-0.1442101 0.04075013 -0.06130164 -0.1456177 0.048609003 0.011275376 0.06667592 0.008476678
0.13563599 0.016813092 -0.05379632 0.2281775 -0.07231091 0.03275795 0.01840544 -0.060382493
0.13506901 -0.13954553 0.009970306 0.054580204 0.22633822 -0.123941295 0.02785616 -0.056001626
0.043446146 0.002411193 -0.084071256 -0.011729076 0.025600472 0.018421441 -0.093232445 0.13246858
-0.10319432 0.018181589 -0.06632644 0.18103938 0.056947406 0.021481194 -0.027916046 -0.06741606
-0.12211018 -0.08851363 0.043705888 0.026568567 -0.03554288 -0.16842799 -0.13102101 -0.02896171
0.034930363 0.13904928 -0.15554482 0.09438612 0.05335114 -0.009302741 -0.032761544 -0.003881335
0.1751097 -0.06592836 -0.18734458 0.07136585 -0.058674462 0.073845446 -0.04677939 -0.08657236
0.066510506 -0.07168821 0.059576415 -0.015289916 -0.12806629 0.13177994 0.050428253 -0.09376372
-0.0010634355 -0.0903786 0.05658307 0.1318929 -0.22819556 -0.14508568 -0.08551407 -0.23442306
0.15649982 -0.050105277 -0.029110936 -0.047353 -0.028573629 -0.1294661 0.06398863 -0.045965873
-0.14609808 -0.029467333 -0.0458676 -0.07688237 -0.07023574 -0.03792907 0.03281731 -0.0057703643
0.16361901 -0.09426797 -0.08498182 0.0768924 -0.12421277 -0.050590843 0.005842662 0.05197111
-0.06993071 0.0056797676 -0.16171467 -0.10026073 0.10530459 0.11053949 0.10537949 -0.070137694
0.03099443 -0.021310728 0.09730697 -0.054789156 0.009422435 0.076727256 -0.045397278 -0.018362608
0.1277956 0.023852373 0.13339639 -0.19308527 -0.034961328 -0.047369007 0.13368168 -0.100542426
0.017002571 0.1780304 0.14168328 0.03345146 -0.10221742 -0.06417311 -0.07915551 -0.073016845
0.0002589687 -0.105845325 0.10105864 -0.09722224 0.010092409 0.11896662 -0.08871813 -0.0238986
-0.05605004 0.005500068 -0.02804517 0.07202802 -0.07556538 0.12167766 0.06664496 0.09824131
00000000: 692a 01be 5144 24bc b318 f3bd 2624 443d
00000010: 7d7e 06be 2f02 3dbb 6af0 a93d 412c 063c
00000020: 81f1 3abe 7ddc a03d a5f9 453e fc63 593e
00000030: cd86 2b3d e6d1 66bd f37a 36bd f615 ad3d
00000040: 814e b63d 530d 10be 8744 2fbe 38b6 c9bd
00000050: 040b 26be fcb8 f2bc ed04 54be b3bb a8bd
00000060: fdeb f53a 8171 34be f927 2f3d f795 b7bd
00000070: 3e42 28be 9c85 7bbd 0cc0 b23c 9791 c5bd
00000080: 01bd 5fbd 6af5 fe3d 4caa 4fbc 8e9b 0c3d
00000090: 49f2 cc3d a8bf 0fbe f20a 863d 47eb 15be
000000a0: ef52 95bd 88ac 97bc 7858 c8bc 8aa0 0b3e
000000b0: 9581 283c 0825 7f3d d10c 40be ba9e ab3d
000000c0: ba52 95bd 41bd 1439 1624 bf3d 744c f63d
000000d0: 55eb d2bd d979 1fbe df85 4f3e a3ca ea3d
000000e0: 6c3d b83d 6c5d 0e3e 26f3 853d 4e94 bd3d
000000f0: 5ab1 113d cb7e 633e c066 3dbe 5e27 aa3d
00000100: 8373 1d3e 774c 903c d73d 0fbd 49c1 8dbd
00000110: 7fff fd3d fba1 a3be 8eea 883d b29c 2cbd
00000120: c9e5 28be e7a1 47bb 6318 6cbe ecad 49bd
00000130: f002 973d 084b 833d 4edd 10bd 2117 c7bc
00000140: 752b 30be 46a3 04bc 4ef8 d93d c972 943d
00000150: d52a 14be 5f33 203e df52 8c3d f4f4 953d
00000160: fdcc c8bb 0330 33bd 0205 c3bd 399b 81bc
00000170: 7fb1 7d3d 8cd6 883d 4a77 0d3d 842a 26bd
00000180: 1aa5 9e3d 687f 4cbd a2cb 183d 79b1 17be
00000190: 7bd9 dfbc 812c 273d 5778 ca3c df3f 0fbe
000001a0: d0ab 13be 9ce9 263d 6e17 7bbd ce1c 15be
000001b0: 3c1a 473d 5bbc 383c 628d 883d c4e1 0a3c
000001c0: 29e4 0a3e 9cbb 893c 8859 5cbd 5da7 693e
000001d0: be17 94bd 332d 063d 01c7 963c a253 77bd
000001e0: 884f 0a3e 06e5 0ebe 7f5a 233c 7e8f 5f3d
000001f0: 35c5 673e efd4 fdbd 9a32 e43c f661 65bd
00000200: 96f4 313d 1b05 1e3b 8d2d acbd 4f2b 40bc
00000210: 15b8 d13c 90e8 963c a7f0 bebd d8a5 073e
00000220: 8b57 d3bd 8ef1 943c 28d6 87bd 6362 393e
00000230: af41 693d 54f9 af3c 31b0 e4bc 6e11 8abd
00000240: e714 fabd a246 b5bd f204 333d 53a6 d93c
00000250: 6995 11bd 6378 2cbe 5f2a 06be 1c41 edbc
00000260: 2413 0f3d ef62 0e3e 2447 1fbe 834d c13d
00000270: ba86 5a3d 866a 18bc f830 06bd ff5d 7ebb
00000280: f54f 333e 7305 87bd 42d7 3fbe 4228 923d
00000290: a254 70bd 483c 973d bf9b 3fbd d94c b1bd
000002a0: a936 883d 45d1 92bd 6606 743d 8e82 7abc
000002b0: cf23 03be 52f1 063e db8d 4e3d 3107 c0bd
000002c0: f962 8bba 6a18 b9bd a6c3 673d ef0e 073e
000002d0: 19ac 69be 5791 14be 0022 afbd 990c 70be
000002e0: 7d41 203e 313b 4dbd 0f7a eebc 38f5 41bd
000002f0: 3e13 eabc c392 04be 790c 833d b646 3cbd
00000300: bc9a 15be 7a65 f1bc aadf 3bbd 8174 9dbd
00000310: c1d7 8fbd 835b 1bbd 726b 063d 5315 bdbb
00000320: be8b 273e 910f c1bd f30a aebd c379 9d3d
00000330: 4463 febd 5838 4fbd cd73 bf3b a9df 543d
00000340: d537 8fbd 581d ba3b 8898 25be 7f55 cdbd
00000350: efa9 d73d 8762 e23d 34d1 d73d 5aa4 8fbd
00000360: 08e8 fd3c d693 aebc e048 c73d 986a 60bd
00000370: 8f60 1a3c 2e23 9d3d 7ff2 39bd 2e6d 96bc
00000380: dadc 023e 0d66 c33c 1099 083e 25b8 45be
00000390: 9c33 0fbd 0106 42bd dae3 083e 30e9 cdbd
000003a0: fa48 8b3c 9a4d 363e 6c15 113e 6604 093d
000003b0: 5e57 d1bd 316d 83bd 491c a2bd db89 95bd
000003c0: 31c6 8739 6fc5 d8bd d5f7 ce3d 741c c7bd
000003d0: a25a 253c c5a4 f33d dab1 b5bd ffc6 c3bc
000003e0: ba94 65bd ea39 b43b fcbe e5bc 6d83 933d
000003f0: 06c2 9abd 2332 f93d 277d 883d bd32 c93d

net_stack.2.bias f4 [32]
-0.035189018 0.02603285 0.024214884 -0.018210562 -0.026694125 0.038025506 -0.025025737 -0.032789297
0.04046167 0.034384754 0.03741462 0.029259814 -0.034826458 -0.0282883 -0.041412085 0.034582354
-0.030778546 0.013609736 0.025403233 0.041665513 -0.021083375 -0.022950577 0.02399811 -0.03635435
-0.036502026 -0.030508433 0.02384795 -0.032701787 -0.046474766 -0.030833207 -0.031572603 0.025794262
00000000: 5c22 10bd d842 d53c 4b5e c63c 512e 95bc
00000010: a3ad dabc a2c0 1b3d c602 cdbc 124e 06bd
00000020: 23bb 253d 07d7 0c3d 1340 193d 47b2 ef3c
00000030: 30a6 0ebd ddbc e7bc b89f 29bd 3aa6 0d3d
00000040: 4a23 fcbc 5ffb 5e3c 711a d03c 75a9 2a3d
00000050: 0bb7 acbc d902 bcbc af97 c43c 4de8 14bd
00000060: 2683 15bd d2ec f9bc c75c c33c 4ff2 05bd
00000070: 535c 3ebd ec95 fcbc 4652 01bd 7d4e d33c

net_stack.4.weight f4 [1, 32]
0.060696606 -0.04285172 -0.01105398 0.14027327 0.041930415 -0.05871134 0.07919039 0.08925585
-0.102610074 -0.08582699 -0.055401243 -0.15140864 0.07997345 0.14921443 0.039887454 -0.041659832
0.051808186 -0.112008244 -0.12547423 -0.06063662 0.0054877605 -0.00074182474 -0.11436008 0.04930846
0.096911974 0.054504994 -0.08393698 0.038823918 0.04358849 0.036669917 0.06326844 -0.013521148
00000000: 019d 783d 4985 2fbd c11b 35bc cca3 0f3e
00000010: 3abf 2b3d 4d7b 70bd 922e a23d c5cb b63d
00000020: 3b25 d2bd 10c6 afbd 6aec 62bd de0a 1bbe
00000030: 1fc9 a33d abcb 183e 0761 233d 80a3 2abd
00000040: d234 543d 9464 e5bd 517c 00be 1b5e 78bd
00000050: acd2 b33b 0477 42ba 9e35 eabd abf7 493d
00000060: c979 c63d a140 5f3d 27e7 abbd d405 1f3d
00000070: d889 323d 3233 163d e292 813d ce87 5dbc
