CAPSTONE/CAPMODELS/output/model_ADHD4.pth (torch, 17392 bytes, 5 tensors)

net_stack.0.weight f4 [64, 23]
000000 8f 77 b4 bd 1e 12 a6 3d 36 1e 32 3e 4a cd ec 3d
       -0.088118665 0.08108924 0.17394337 0.11562593
000010 c9 a6 58 3d 89 ef bf 3d b0 f1 74 3e 5f 32 df 3d
       0.052893434 0.093718596 0.23920321 0.108982794
000020 49 42 b7 3c 55 c5 b6 3d 21 8f 2f 3e 18 12 d6 3c
       0.022370474 0.08924357 0.17144443 0.026131675
000030 4a 19 1f bb cf c5 11 bd 1a 1a 93 bc b4 02 d1 3d
       -0.0024276548 -0.035589036 -0.017956782 0.10205594
000040 38 63 b3 bd 85 d1 29 be fa 2f 0b 3e 45 79 23 be
       -0.08759159 -0.16583832 0.1359252 -0.1596423
000050 9e 71 d9 3d 78 29 40 bd c6 b4 43 3d 25 1a 8b 3c
       0.10617374 -0.046914548 0.04777982 0.01698024
000060 52 23 82 bd 7b 6f 09 3e 1d a5 79 bc 89 3c d1 3d
       -0.06354393 0.13421433 -0.01523712 0.10216624
000070 24 e0 21 bd b8 96 59 3d 3a 36 fb bd d6 3f 05 3d
       -0.039520398 0.053122252 -0.12266202 0.03253158
000080 77 c0 27 3e e6 94 91 3e 76 0e 80 3d 44 89 13 3d
       0.16382013 0.28433913 0.06252758 0.03601958
000090 c3 a6 5d 3d 81 b9 01 be 35 12 fa bd e2 93 95 3d
       0.054114114 -0.1266842 -0.12210504 0.07303597
0000a0 a4 b6 b2 bc e7 21 8c be a6 59 20 3c 01 88 fa 3d
       -0.021815605 -0.27369615 0.009786999 0.12232972
0000b0 95 29 90 bd f3 fd 22 3e 33 25 42 bd 28 f9 01 bd
       -0.07039181 0.15917186 -0.047398757 -0.031731755
0000c0 b9 46 49 3c ef 1a a3 bc ed 42 82 bb 76 f9 48 bd
       0.012284928 -0.019910304 -0.0039752633 -0.04906603
0000d0 bf 74 5f 3d 08 a3 c7 3c e8 ee 17 bd c5 32 ec 3d
       0.054554697 0.024369732 -0.037093073 0.11533121
0000e0 37 cb 82 bb b1 17 d2 bd 81 28 73 3c 43 84 ee 3c
       -0.0039915103 -0.10258425 0.0148412 0.029115802
0000f0 64 12 b5 bc 59 67 8f bc a0 c1 ce bd 74 bc 05 3e
       -0.022103496 -0.017505335 -0.10095525 0.1306017
000100 c5 63 49 3d a6 a0 84 be 76 ab dc 3c b2 8d 94 bc
       0.049167413 -0.25903815 0.026937228 -0.018133972
000110 02 7b 1b 3e 7d 66 2d be 10 a3 7c 3d 09 20 e0 bd
       0.15183643 -0.16933627 0.061678946 -0.1094361
000120 88 fe 64 3c 91 11 9d 3d f5 d7 e3 3c eb 6e 2f bd
       0.013976701 0.07669366 0.027812937 -0.04283039
000130 c3 f8 3c 3e 41 c5 ca 3d 74 51 b9 3b c4 7a 31 be
       0.1845427 0.099009044 0.005655462 -0.17331988
000140 6f db 35 bd f5 e0 15 3e 6c ff 8b 3d fe 9e 98 3d
       -0.04439872 0.14636596 0.06835827 0.074522
000150 12 c7 07 bd 23 22 01 bc fa 2a ea 3c b9 61 46 bd
       -0.033148833 -0.007881674 0.028584946 -0.04843304
000160 d8 f6 23 bc d1 5b 96 bd 54 e5 96 bb 2b fb 14 bb
       -0.010007583 -0.07341731 -0.0046049748 -0.0022732716
000170 0a d4 f4 3d 12 67 23 3e 78 25 fc 3b 51 62 91 bd
       0.11954506 0.15957287 0.0076948963 -0.070988305
000180 db e4 e9 bc 4c 8a fc bd d1 a6 3b 3d 42 35 3f bd
       -0.02855151 -0.123310655 0.045813385 -0.04668165
000190 e8 a0 f6 3c 00 6b ca bc 09 9a 10 3e 41 29 0a bd
       0.030106023 -0.024709225 0.1412126 -0.03373075
0001a0 fd fa de 3d 88 ff f3 bd ec 92 79 3d 6b 5b 02 3e
       0.10887716 -0.11913973 0.06093113 0.12730186
0001b0 4a 8e 0c 3d 7e ca cf bd f9 d1 44 bd 20 9f a9 bd
       0.034315385 -0.10146044 -0.048051808 -0.08282304
0001c0 6e 0e 1c 3d 46 c7 05 bb 36 98 dc 3d 58 6e 84 bc
       0.0380997 -0.0020412966 0.107712194 -0.016165897
0001d0 78 4b f0 3c 18 f7 7f bd 5a 66 8f 3b 7f 2d cc 3c
       0.029332861 -0.062491506 0.004376215 0.024924038
0001e0 22 3d b0 3d c3 d5 4d be e6 4d 5b 3d bd de a8 3c
       0.0860541 -0.20101075 0.053541087 0.020614022
0001f0 f5 36 c3 bd 79 7a 16 be 09 bf a1 bd da c5 4c be
       -0.095319666 -0.14695157 -0.07897765 -0.1999735
000200 90 0a 19 be f9 bd 83 3e 36 f6 e3 bc 4b 1c 24 3d
       -0.14945436 0.25730875 -0.027827363 0.040066045
000210 08 99 79 3e a9 f7 21 3d e1 8c 18 3d dd 53 58 bd
       0.24374783 0.039542828 0.037243728 -0.052814353
000220 fb 86 d0 3d 44 1d 2b be 97 f2 3c 3e 53 f3 80 3e
       0.101819955 -0.16710383 0.18451916 0.25185642
000230 1a 61 f4 3d 65 bb b6 bc e6 1c 26 be b5 4a 6b 3d
       0.11932583 -0.022306154 -0.16221961 0.057444293
000240 0a 49 73 3d fa 42 ba bd 49 b6 b0 3d c7 c4 16 3e
       0.059395827 -0.09094806 0.08628518 0.14723502
000250 0e 9d 09 3e a7 de af bb 95 2a a4 bd df 9c bf 3d
       0.13438818 -0.0053671184 -0.080159344 0.09356093
000260 08 fe 59 be 11 5f 5a bd f8 9e a9 3d 2e 48 31 be
       -0.21288311 -0.05331332 0.08282274 -0.1731269
000270 c5 78 a0 3d 5e 9d 15 3c dd 8a 1e 3e f2 d7 f0 3d
       0.07835535 0.009131758 0.1548266 0.11759938
000280 69 3b 10 3e ed 5e ed bc 27 d7 2d 3d 67 d3 e1 3d
       0.14085163 -0.028975928 0.042441513 0.1102665
000290 4d eb c3 bd bf ed 88 bc 06 99 a3 3d 1b e6 cf 3c
       -0.095663644 -0.016714929 0.07988171 0.025378278
0002a0 a9 84 10 be 26 6d 4d 3d 55 d2 f3 3d f9 d7 a8 3d
       -0.14113106 0.05015292 0.11905352 0.082443185
0002b0 97 43 14 3e 29 ab 7b bd a7 9d fa bb 6c 79 96 bd
       0.14478908 -0.061442528 -0.007648188 -0.07347378
0002c0 75 28 05 bd 37 64 a9 3b 14 53 0c bd 0c af c6 bc
       -0.032509286 0.0051694172 -0.034258917 -0.02425339
0002d0 a4 5c b7 3d bf 17 d1 3d f8 72 ba bd d3 8f b4 3d
       0.08953217 0.10209607 -0.0910396 0.08816495
0002e0 38 bd 4f bd b4 e4 53 bc 22 cc 61 3e b8 1d 42 be
       -0.050717562 -0.012932945 0.22050527 -0.1895665
0002f0 98 82 13 be 06 e0 3a bd 57 09 a6 bc 6c f9 28 3d
       -0.14405286 -0.0456238 -0.020268125 0.041253492
000300 ba 2b 49 3d 64 37 9f 3d ab 9a b5 3d dd 3e 1e 3d
       0.049113967 0.07774237 0.08867391 0.03863417
000310 06 21 f4 3c d6 c4 25 be c9 5c 04 be 09 b5 19 3d
       0.029800903 -0.16188368 -0.1292602 0.037526164
000320 c8 b4 89 3d 3a d0 d0 bd 4f 17 65 bd c5 88 6a 3c
       0.067239344 -0.10195966 -0.055930432 0.014314835
000330 ee 78 5a bd 95 0d 34 bd 93 7e b1 38 b0 de 9a 3d
       -0.053337984 -0.043958265 8.463594e-05 0.075620055
000340 8e 58 00 be a0 7c 16 be 14 66 27 3e 63 9b 1c be
       -0.12533781 -0.14695978 0.16347533 -0.1529365
000350 6b 05 2f bb 88 8d d8 3d 22 73 87 3d 93 07 d3 bd
       -0.002670611 0.1057387 0.06613757 -0.10304179
000360 61 97 3c be df 64 51 3c c5 cd 6a be 18 f6 3c be
       -0.18417121 0.012780397 -0.22930057 -0.18453252
000370 95 e1 5d bd 1e 7d 24 3e 56 76 e0 3d 05 88 29 bd
       -0.05417021 0.16063353 0.10960071 -0.041389484
000380 7d 1d 47 3e a6 68 bb 3c 49 54 ce 3c 51 25 25 3d
       0.19444843 0.022877049 0.025186675 0.04031879
000390 98 4b 05 be 09 24 92 be 5c 1a a0 3d cd a0 0c 3d
       -0.13017118 -0.28543118 0.07817528 0.03433304
0003a0 99 f0 2e be b7 16 1a bd c3 2a 83 3d 72 ab 30 3d
       -0.17083968 -0.03761932 0.064046405 0.043132253
0003b0 b3 5c 8a bd 7c 5d b7 3d f6 48 11 be a0 88 b4 bd
       -0.06755962 0.089533776 -0.14187989 -0.08815122
0003c0 50 04 db bd 18 ea f7 bd 60 75 55 3d fd 2f 5b 3e
       -0.10694182 -0.12105197 0.05211389 0.21405025
0003d0 05 54 db bb 2b 3f 20 bd 8f cb 80 3c 81 ca 7e 3e
       -0.0066933655 -0.03912274 0.015722064 0.24881937
0003e0 d2 9a 02 3e 28 2f 41 bd 61 19 92 bb a4 af 71 3d
       0.12754372 -0.047164112 -0.004458592 0.059005395
0003f0 3a 7e 7b be 8c 8f 01 3e 20 f8 92 bd b2 73 93 bc
       -0.2455987 0.12652415 -0.07176232 -0.017999504

net_stack.0.bias f4 [64]
000000 af 16 32 3c b4 1b a7 bd c0 8c 3e 3d cf be 6c 3d
       0.010869666 -0.08159581 0.04652095 0.057799157
000010 47 ad 95 bd b2 22 90 3d 0b 05 9e bd ea 2b 9c bd
       -0.07308441 0.070378676 -0.077158056 -0.076255634
000020 c0 32 97 bd 35 be 82 3d 93 78 8b 3d 8f 2f a1 3d
       -0.07382727 0.06383935 0.06810107 0.07870399
000030 f6 65 92 3d 60 ef 87 bd c8 4f 98 3d fa bf 99 bd
       0.07148354 -0.06637454 0.07437092 -0.0750732
000040 c0 34 94 3d c4 6a 92 3d d9 9c 4d bd c2 6b 72 3d
       0.07236624 0.0714927 -0.05019841 0.059184797
000050 02 29 8d 3d ad 70 91 3d 3e ab 33 3d 63 e4 97 3d
       0.06892587 0.07101569 0.04386448 0.07416608
000060 9c 60 f9 bc c0 c9 79 bd 24 47 83 3d 2d d6 ed bc
       -0.030441575 -0.06098342 0.06410053 -0.029032791
000070 4b 5e 7a bd c4 2d 06 3d ef 7c 90 3d 75 7b af bc
       -0.06112508 0.03275849 0.07055079 -0.021421174
000080 77 13 a4 3d 7a b1 9b bd 8f fb 0d bd 38 8a 9b bd
       0.08011525 -0.0760221 -0.034663733 -0.075947225
000090 8b cc 9a 3d ab 35 98 bd 0d 18 96 bd 2e 16 ab 3d
       0.07558545 -0.07432111 -0.07328806 0.0835384
0000a0 fe 7a 8e 3d d5 9b 5d bd ff 57 a5 3d 0c f9 87 3d
       0.06957053 -0.05410369 0.080734245 0.06639299
0000b0 ca cd 6c 3d 18 36 82 3d 38 fb 8f 3d aa 08 c0 3c
       0.057813443 0.06357974 0.07030338 0.023441631
0000c0 8c 4c fc bc a7 82 88 bd a5 9f a0 3b 65 c3 8e bd
       -0.03079822 -0.06665545 0.0049018436 -0.06970862
0000d0 6d 01 87 bd 77 e8 94 3d 32 41 56 bd b3 56 28 bd
       -0.06592069 0.07270902 -0.05230827 -0.041098308
0000e0 42 c3 7a 3d fb 76 5d bd 60 9e 8e 3d 41 c3 19 bc
       0.06122137 -0.054068547 0.069638014 -0.009384931
0000f0 67 98 92 bd da 8f 97 bb 2b 82 0a 3d e1 f4 71 3d
       -0.07157975 -0.0046253027 0.033815544 0.059071425

net_stack.2.weight f4 [32, 64]
000000 7d aa d3 bd 91 07 36 be 3a 6d cc bb 79 be 6f 3e
       -0.103352524 -0.17776324 -0.0062386068 0.23412503
000010 92 c8 89 bd 0b f2 27 3e 2e ac 13 be 6e a4 80 3b
       -0.06727709 0.16400926 -0.1442115 0.0039258515
000020 70 1f a8 3c e1 33 2b 3e da c2 c2 3d f8 33 3c 3e
       0.020522803 0.16719009 0.09509821 0.183792
000030 04 e6 18 3e 13 2f 2f be 4b 88 76 3c 38 6e ad bd
       0.14931494 -0.17107801 0.015047143 -0.08468288
000040 9f fb f6 3d ff 4a 08 bd d7 04 8d bd 50 92 37 bd
       0.12059712 -0.033274647 -0.06885689 -0.04481727
000050 39 f1 0a 3d 26 59 7e 3d 7e db 0f 3e 50 de 13 3e
       0.033921454 0.062096737 0.14048573 0.14440274
000060 e2 ea 0b be ae 0d 5c bc 55 ad c3 3c 44 54 0a be
       -0.1366382 -0.013430996 0.023886362 -0.13508707
000070 43 45 28 bd 78 35 30 bd e1 ba 6c 3d 64 7e 60 be
       -0.041081678 -0.04301974 0.05779541 -0.21923214
000080 c8 be 84 3d 97 dd 4e be a4 e5 bb bd e9 f4 94 bd
       0.06481701 -0.20201717 -0.0917466 -0.072732754
000090 8d 3f 2a 3e 1e 90 dd bd 9b a5 b3 bd 36 aa 57 3d
       0.16625805 -0.10818504 -0.08771821 0.05265256
0000a0 6a 4f 59 3c 20 aa 1a 3d 3b 51 f0 3d 36 39 28 bc
       0.013263563 0.0377599 0.117342435 -0.010267546
0000b0 7b 98 f9 bc 67 b6 1e 3d 7e 8f f9 3d c1 f9 ee bd
       -0.030468216 0.03874817 0.12185572 -0.116687305
0000c0 9d 2e 90 bd 47 35 10 be 1d 72 a9 3d 67 96 b0 bd
       -0.07040141 -0.14082824 0.082737185 -0.08622437
0000d0 27 46 b2 bd 7f 0a 36 3e 8c 26 fb bc cb 0d 89 bd
       -0.08704787 0.17777441 -0.030658029 -0.06692084
0000e0 69 a5 f2 3c cc 29 f1 3c 06 0a 99 3d ad a0 04 3d
       0.02961989 0.029438876 0.07472615 0.032379795
0000f0 72 5d 14 bd df 1d 08 be 7c af 84 3d 98 eb 81 3b
       -0.03622193 -0.13292645 0.064787835 0.0039648525
000100 77 65 93 3d dc 56 3f 3d 81 01 1c be 0d b8 87 bb
       0.07197087 0.046713695 -0.15234949 -0.0041418136
000110 8b ea c2 bd bd 6f 2a bc 35 26 c4 bd 5d 7b b5 3d
       -0.09517392 -0.010402617 -0.095776 0.0886142
000120 a1 cd 09 bd f7 e0 49 bd ad 7d 82 3d ac 57 3e bd
       -0.03364337 -0.04928681 0.06371627 -0.04647033
000130 ad 98 05 3e c9 03 da bd 90 4e a6 3c 26 e2 0c be
       0.13046522 -0.10645253 0.020301133 -0.13758144
000140 d9 bb 8a bc df ff a1 3c b6 20 52 bc de d8 91 3e
       -0.016935276 0.01977533 -0.012825182 0.2848577
000150 5b 45 93 3d 2c a3 74 3e 71 0d 3c 3d c0 92 ba 3d
       0.07190963 0.2389037 0.045911256 0.091100216
000160 e1 4b 9c 3c 80 57 b2 3d ca 93 7f 3d 73 21 14 be
       0.01907915 0.087080956 0.062396802 -0.14465885
000170 16 0b 00 be 7f 42 9b 3c b8 e1 f9 3d cd 5c 5b bd
       -0.12504229 0.018952606 0.122012556 -0.0535553
000180 6b 87 bc bd 55 a5 43 be 5f 31 24 be 37 87 80 bc
       -0.092055164 -0.19106038 -0.16034459 -0.015689475
000190 29 43 e1 3c 34 7d f6 bd 7f 06 a5 3d 27 d0 ad 3d
       0.027497845 -0.12035599 0.0805788 0.084869675
0001a0 f1 c7 34 3d e4 ca ab 3d 8f 9c dc 3b da 96 22 3e
       0.04413599 0.08388308 0.0067325304 0.15877858
0001b0 8d 4f d2 bd 81 29 5c 3e 74 f3 b9 3d 0d ae ad 3d
       -0.10269079 0.21500207 0.09079638 0.08480463
0001c0 88 b9 6e be 44 fe 1c bc 91 cc 0b bc 45 8c 19 be
       -0.23312962 -0.009582106 -0.008532659 -0.14994915
0001d0 c4 3f cf bd 66 11 9c 3d f7 fc a9 3d 9c 02 a1 3d
       -0.10119584 0.07620506 0.08300202 0.07861826
0001e0 39 f1 13 3d e7 27 06 bd 88 6d dd bd 57 aa 17 3c
       0.03611872 -0.032752898 -0.10811907 0.009256921
0001f0 eb 75 7b bd 51 6b ff 3b 9c 6a 5f 3e 03 ae 51 3e
       -0.061391752 0.0077947755 0.21818012 0.20476536
000200 3a 39 bf bd 7a 1a a7 bc 28 e3 0b bd ec ee 40 ba
       -0.09337087 -0.020398367 -0.03415218 -0.0007359821
000210 f8 06 40 bd 94 50 8e 3e f9 92 2b be be 5c ab bd
       -0.046881646 0.2779585 -0.16755284 -0.083672985
000220 68 bc 65 bd 9f ff 91 3d 99 5d f9 ba 0e 4d 36 3e
       -0.05608788 0.07128834 -0.0019025087 0.17802832
000230 98 b5 0b bd ba dc 77 3d 2d 0a cc 3d e9 6a 05 3e
       -0.03410873 0.060513236 0.099628784 0.13029064
000240 1c e3 b9 3d a6 c5 df 3d 1f a0 ff 3d e7 2e 9c 3d
       0.09076521 0.1092637 0.124817125 0.076261334
000250 ba f2 8b 3e 74 c7 dc 3d 60 fe 6a bd b6 67 35 bd
       0.27333623 0.1078023 -0.057371497 -0.04428836
000260 39 ff 61 bc 55 ca b2 bc 40 71 37 3d 0d dc a0 3d
       -0.01379376 -0.021824995 0.044785738 0.07854471
000270 38 a9 63 3d 10 2e cb 3d 0e 3c e8 3d b0 27 c3 bd
       0.0555813 0.09920895 0.113395795 -0.09529054
000280 b7 b1 e2 3d 8c 1a ff bd 61 0c 02 3e fc 61 71 bd
       0.11069053 -0.12456235 0.12700035 -0.058931336
000290 d9 db 2f be 47 f3 6f bc 50 9f 1c be 99 8d 37 3e
       -0.17173709 -0.014645404 -0.15295148 0.17925109
0002a0 f1 1b 56 3c 12 c1 b1 3c 8a 46 0b 3e 64 c3 e7 3d
       0.013068185 0.021698508 0.13601127 0.11316565
0002b0 6d 6a 23 3e cc 64 5e bd 34 17 6b 3d a9 bf c4 3d
       0.15958567 -0.054295346 0.057395175 0.09606869
0002c0 7a 67 22 be 59 19 2f be 1c 45 9b 3d 59 f8 4e be
       -0.15859786 -0.17099513 0.07581541 -0.20211925
0002d0 c1 cd f8 3c dd 79 5c 3e c4 c4 1a 3e ed d1 45 3d
       0.030371549 0.21530862 0.15114123 0.048295904
0002e0 f3 d6 11 be 52 21 a1 bd 81 3f 7f 3c b4 60 b4 3d
       -0.14242153 -0.078676835 0.015579105 0.08807507
0002f0 a2 93 6a 3c 29 ab 96 be db ae 8c bd 27 83 12 3c
       0.014317425 -0.2942746 -0.068692885 0.008942402
000300 ff 9c ef bd e4 73 82 bd f8 6d cb 3c 97 c7 87 3d
       -0.116998665 -0.06369761 0.02483271 0.066298656
000310 7a cf ec bd 5f 20 3a 3d 4c 8d 12 be 52 3c cb bd
       -0.115630105 0.045441028 -0.14311713 -0.099236146
000320 7d 52 86 be aa d4 29 bd 96 81 b6 3d a9 c9 08 3e
       -0.2623481 -0.041462578 0.08911435 0.13358177
000330 b3 63 d4 3c 3a 3d 70 bc eb f2 27 3e cb c7 6a bd
       0.025926447 -0.014663035 0.1640126 -0.057319444
000340 50 ea 31 bd cd 81 68 3d 92 fa 0c 3d 97 c3 47 bd
       -0.04343635 0.056764413 0.03441865 -0.048770513
000350 73 8c 8e 3d f3 0a f8 3d 91 39 9e bd c8 b9 11 3d
       0.06960382 0.121114634 -0.07725824 0.035577565
000360 da 64 65 be de 50 d1 bd b5 c0 0a be 10 af 34 bd
       -0.22401753 -0.10220502 -0.13550074 -0.044112265
000370 eb 12 bd 3d 2c 71 86 3d 71 13 8f 3e 09 5a 0c bd
       0.09232124 0.065645546 0.2794452 -0.03426555
000380 3f 41 98 bd d9 34 5f bd 29 13 e3 bd ca 0d c7 3b
       -0.0743432 -0.05449376 -0.11087639 0.006074642
000390 b1 8e 88 3e 8a f1 60 be b1 20 f3 bd 8a f8 1c 3e
       0.26671365 -0.2196714 -0.1187147 0.15329185
0003a0 0d 42 27 3e bb 46 3d be 90 82 85 3e e6 ac 9e 3d
       0.1633379 -0.18484013 0.26076174 0.077478215
0003b0 20 76 14 3b ca a3 10 3e f5 81 1a 3e bb e1 74 bd
       0.0022653416 0.1412498 0.15088637 -0.059785586
0003c0 69 ce ab bd e6 5f bd bc dd de 44 bd 6a dc 2c bd
       -0.08388979 -0.023117017 -0.0480641 -0.04220239
0003d0 d6 3c 85 3d 79 5b 6a bd 6a 1e 2e bd 94 c4 0c 3e
       0.06505744 -0.05721614 -0.042509474 0.13746864
0003e0 b3 7b 97 3d 98 a1 b4 bd d4 b0 13 3e 4e 76 17 bd
       0.07396641 -0.08819884 0.14422923 -0.03697806
0003f0 50 7c fa 3d 2b d7 16 3d 2c 19 6a bd 81 46 88 3d
       0.12230742 0.036826294 -0.057152912 0.066540726

net_stack.2.bias f4 [32]
000000 50 fa 7e 3d 98 0a 85 3d 16 5a 87 3d 36 bd fc 3c
       0.062250435 0.06496161 0.066089794 0.030851942
000010 ac 48 6f 3d 03 d6 5e bd 16 8a 0c 3d 5c 29 89 bd
       0.058418915 -0.054403316 0.034311377 -0.06697342
000020 86 ce 80 3d 18 e6 5c bd 56 b7 6f 3d 4f e8 83 bd
       0.06289391 -0.053930372 0.058524452 -0.06440794
000030 3b 09 83 3d 94 87 60 3d 21 1c a3 3d f9 8f 80 bd
       0.06398245 0.054816797 0.079643495 -0.062774606
000040 d0 c7 84 bd 41 1c 87 bd 66 24 83 3d da 2a 65 3d
       -0.06483424 -0.06597186 0.06403427 0.05594907
000050 cf db 92 3d ed 38 7c 3d f6 36 83 3d b1 83 64 bd
       0.071708314 0.061577726 0.06406967 -0.055789653
000060 3b 1a 60 bd 9a 84 77 bd bc 2d 30 bd 10 46 8b 3d
       -0.054712515 -0.060429193 -0.043012366 0.06800473
000070 6d c1 9c bd 6e 95 44 bd c2 6c 7a bd 65 03 79 bd
       -0.076540805 -0.04799407 -0.061138876 -0.060794253

net_stack.4.weight f4 [1, 32]
000000 bf 2c 64 be 27 a4 80 be 9b 23 1b be 62 3d 9c bd
       -0.22282694 -0.25125238 -0.15150301 -0.07628895
000010 a5 8f ae bd c2 52 d5 3d 77 ce 11 bd 60 f6 70 3e
       -0.08523492 0.104161754 -0.03559729 0.23531485
000020 00 f8 68 be 16 e0 55 3e a4 87 2e be 32 17 bf 3d
       -0.22750854 0.20886263 -0.1704393 0.09330596
000030 aa f2 74 be 9f e0 bd bd fa 27 c7 bd d8 1d 4b 3e
       -0.23920694 -0.09271359 -0.09724422 0.19835603
000040 9f 73 81 3e 26 3f 12 3e 0f af 8e be a1 db 0b be
       0.25283524 0.14281902 -0.27867934 -0.13658
000050 10 2f e3 bd 99 03 e2 bd 2b 74 1d be 24 5d 10 3e
       -0.11092961 -0.110358424 -0.15376346 0.1409803
000060 01 93 af 3d c3 b5 90 3e d5 4d 51 3d f5 f2 10 be
       0.08572961 0.28263673 0.051099617 -0.14155181
000070 56 32 c4 3d b7 23 5a 3d 27 6c 9a 3e 76 4e c8 3d
       0.09579913 0.053256717 0.3016064 0.0978059
