CAPSTONE/CAPMODELS/output/model_BPD3.pth (torch, 22244 bytes, 7 tensors)

net_stack.0.weight f4 [64, 23]
0.05289291 0.05254884 -0.026237777 0.1274682 0.28587642 0.021988507 0.062059812 0.03662187
0.2620531 0.057000615 -0.053390652 -0.10754491 -0.19085924 -0.11042202 0.14829642 -0.008981854
-3.958067e-05 0.013926108 -0.034398384 -0.056380205 0.013772929 0.14519323 -0.009437172 0.082787536
0.25594264 0.1307937 -0.06413973 0.120616615 -0.07466868 -0.28858772 -0.21301825 0.055636983
-0.08117313 0.083740346 -0.0057164305 0.23847663 0.117361665 0.1329934 -0.045948535 0.047510244
-0.015418127 -0.22114754 -0.10344241 0.15126377 0.13229081 0.09891862 -0.07164229 0.20879096
0.09866438 -0.07778414 -0.07919232 0.06993717 0.01701264 -0.07397299 0.15459046 -0.12527817
0.06626336 0.080385834 0.06750094 0.040519625 0.24417496 0.24579167 -0.15358157 -0.15432765
0.11376573 0.025033275 0.16748974 0.07510721 0.09999135 -0.0062490585 0.032339167 0.05103836
0.15931813 0.22327493 0.22015473 0.10431869 0.05560385 -0.075967774 0.13724023 -0.013561985
0.024893563 0.15396863 0.049058955 -0.16925225 -0.13284028 0.05288771 0.19338632 0.16565341
-0.012314025 0.0653818 0.07888027 -0.030758064 -0.045151845 0.09146516 -0.108819135 -0.14806269
-0.16644622 0.08882193 0.124783784 0.13543515 -0.1906798 -0.03387491 0.06027824 0.12014621
-0.036917623 -0.0874533 0.09511771 0.055763688 -0.045677777 -0.113549225 -0.11621072 -0.013402996
-0.082531065 0.15199894 0.0014770727 -0.018703388 4.8980903e-05 0.12877627 -0.23430933 0.030887572
-0.18283367 -0.21885377 -0.023822825 -0.16262712 0.011657463 -0.1182017 0.013116712 0.06333493
0.095480904 0.19395716 -0.15744583 0.05622435 0.06317884 -0.16216579 0.20419542 0.16539027
0.018274266 0.12574214 0.013266827 -0.041430168 0.0783478 -0.09506688 0.08728425 -0.13091551
-0.11360046 0.010404491 -0.02788606 0.18175119 0.03323451 0.07923015 -0.053956743 -0.06983847
0.08758857 -0.10090383 -0.06717119 -0.15793405 -0.11158947 -0.16871065 -0.037394885 -0.029984303
-0.008035486 -0.03565638 0.107655086 -0.11839168 0.2160254 0.029031593 -0.009958735 0.18263887
0.06885772 -0.044837058 0.054208368 -0.020590087 -0.058894854 -0.14691874 0.035361473 0.026906092
0.09279622 -0.05060428 -0.08694551 -0.030812802 -0.07526111 0.18982933 -0.13021119 -0.16695872
0.16580318 -0.13126214 -0.023311706 0.009144821 0.06282036 -0.056867275 0.07816027 -0.00060694444
0.14670847 0.09970148 -0.01070619 -0.09267727 0.018480731 -0.061655767 0.034720924 0.07639657
-0.15239076 0.062311176 0.09417477 0.12574254 -0.109728776 -0.17277552 -0.14034887 -0.083192974
0.0061905296 0.09267523 -0.15952493 0.18656358 -0.10017245 -0.04656305 -0.027236491 -0.058054168
0.021010883 0.005361144 0.008051915 -0.014138859 0.025838181 -0.056184564 0.049460523 -0.078725725
-0.115901284 0.008221673 0.10671017 -0.025281545 -0.034086067 -0.15413623 0.1018103 0.036095154
-0.08594292 -0.12952814 -0.018234052 -0.10329709 -0.038636602 -0.079471104 -0.058603358 -0.05894727
-0.051528253 0.11236735 0.12186243 0.121088035 -0.014395177 -0.07553316 0.03310735 0.09592324
0.1136263 0.033823777 0.045876704 -0.24880384 -0.09488857 -0.005591271 0.26410592 -0.056764208
00000000: 3ca6 583d 743d 573d 9bf0 d6bc 0687 023e
00000010: 655e 923e 3e21 b43c 6e32 7e3d d000 163d
00000020: d32b 863e 7a79 693d 28b0 5abd 8140 dcbd
00000030: 9b70 43be f124 e2bd 04db 173e a028 13bc
00000040: 6c03 26b8 552a 643c 52e5 0cbd eeee 66bd
00000050: daa7 613c 89ad 143e 5e9e 1abc 838c a93d
00000060: ea0a 833e c9ee 053e b15b 83bd d805 f73d
00000070: e5eb 98bd c5c1 93be 7521 5abe 9be3 633d
00000080: 193e a6bd 0f80 ab3d e550 bbbb 3833 743e
00000090: 505b f03d 6c2f 083e 8834 3cbd 1a9a 423d
000000a0: 509c 7cbc 8074 62be 9dd9 d3bd e4e4 1a3e
000000b0: 3e77 073e d895 ca3d 31b9 92bd 4ccd 553e
000000c0: 8d10 ca3d 4b4d 9fbd 952f a2bd 383b 8f3d
000000d0: 185e 8b3c 277f 97bd f64c 1e3e ec48 00be
000000e0: 16b5 873d 54a1 a43d ef3d 8a3d e8f7 253d
000000f0: 0009 7a3e d0b0 7b3e 7d44 1dbe 1108 1ebe
00000100: 02fe e83d 9512 cd3c 6e82 2b3e cfd1 993d
00000110: 44c8 cc3d e7c4 ccbb 1376 043d 990d 513d
00000120: 4b24 233e 2fa2 643e 3e70 613e 0aa5 d53d
00000130: ddc0 633d fe94 9bbd b488 0c3e 1733 5ebc
00000140: 96ed cb3c f4a9 1d3e 0bf2 483d 7650 2dbe
00000150: 4807 08be c9a0 583d 1007 463e 0ca1 293e
00000160: c4c0 49bc e5e6 853d fb8b a13d 56f8 fbbc
00000170: 24f1 38bd 1652 bb3d 91dc debd bf9d 17be
00000180: e170 2abe 46e8 b53d a48e ff3d 83af 0a3e
00000190: 9141 43be 6bc0 0abd 51e6 763d 370f f63d
000001a0: ef36 17bd b71a b3bd 13cd c23d 7768 643d
000001b0: 9f18 3bbd 7f8c e8bd e3ff edbd 3d98 5bbc
000001c0: 0c06 a9bd 9ca5 1b3e 569a c13a d937 99bc
000001d0: d870 4d38 eddd 033e c9ee 6fbe ef07 fd3c
000001e0: c038 3bbe 341b 60be 1628 c3bc b987 26be
000001f0: f2fe 3e3c bc13 f2bd 7ae7 563c beb5 813d
00000200: 7e8b c33d b59c 463e 7b39 21be 814b 663d
00000210: e863 813d ca0e 26be 9b18 513e 115c 293e
00000220: eab3 953c 8cc2 003e 1b5d 593c aeb2 29bd
00000230: d074 a03d 6db2 c2bd 16c2 b23d b70e 06be
00000240: 5ca7 e8bd 9977 2a3c 4e71 e4bc fc1c 3a3e
00000250: e920 083d 6b43 a23d bf01 5dbd 7907 8fbd
00000260: a361 b33d aba6 cebd 0d91 89bd 77b9 21be
00000270: 0589 e4bd 7cc2 2cbe 612b 19bd a4a1 f5bc
00000280: 45a7 03bc 6d0c 12bd 457a dc3d 5677 f2bd
00000290: c335 5d3e aad3 ed3c f629 23bc af05 3b3e
000002a0: 4705 8d3d 10a7 37bd 9809 5e3d 8bac a8bc
000002b0: bb3b 71bd de71 16be 31d7 103d 2a6a dc3c
000002c0: f20b be3d 6f46 4fbd 7d10 b2bd 216b fcbc
000002d0: 7f22 9abd 9f62 423e 1556 05be 3af7 2abe
000002e0: 4fc8 293e 9569 06be 31f8 bebc 29d4 153c
000002f0: f6a7 803d a9ed 68bd 7e12 a03d 5a1b 1fba
00000300: bf3a 163e 4a30 cc3d 0469 2fbc 95cd bdbd
00000310: e764 973c c28a 7cbd 8737 0e3d ce75 9c3d
00000320: 530c 1cbe 013a 7f3d b4de c03d a7c2 003e
00000330: 7bb9 e0bd 11ec 30be 9db7 0fbe 1461 aabd
00000340: edd9 ca3b 83cc bd3d 815a 23be 860a 3f3e
00000350: 3727 cdbd e6b8 3ebd 101f dfbc 35ca 6dbd
00000360: 041f ac3c 89ac af3b 2eec 033c aca6 67bc
00000370: 98aa d33c c921 66bd 1e97 4a3d f43a a1bd
00000380: a75d edbd 32b4 063c dd8a da3d 3e1b cfbc
00000390: d59d 0bbd e3d5 1dbe eb81 d03d 83d8 133d
000003a0: d702 b0bd 06a3 04be 945f 95bc 6d8d d3bd
000003b0: 6a41 1ebd bfc1 a2bd 130a 70bd b172 71bd
000003c0: 4a0f 53bd da20 e63d 0293 f93d 01fd f73d
000003d0: c0d9 6bbc 21b1 9abd 939b 073d 6773 c43d
000003e0: e8b4 e83d cd8a 0a3d 36e9 3b3d 6fc6 7ebe
000003f0: f054 c2bd fb36 b7bb e438 873e 9681 68bd

net_stack.0.bias f4 [64]
-0.008373987 0.008739082 0.0019103965 -0.0024714633 -0.0034179064 0.010240074 -0.0055394354 -0.010923328
0.04358282 -0.00513648 0.026616877 0.010457826 -0.010372059 -0.0089503415 -0.004387497 -0.0048481314
-0.012501764 0.02290923 -0.0062554893 -0.005523978 0.0300129 -0.001587856 -0.013264556 0.005427484
-0.032042038 0.02263198 -0.0021697897 -0.008201716 -0.00094715395 -0.016241554 0.0061392565 0.008053634
-0.0013119444 -0.01195429 0.0038744225 0.003369615 -0.0016704107 -0.01599147 0.012282547 0.02930361
-0.01706281 0.00069248193 0.017856333 0.02690768 0.009171078 0.024481952 0.0046750163 0.0024565056
0.029319422 0.025724754 0.006423272 0.019031003 -0.017883845 -0.0037291297 -0.0035225085 -0.03713268
-0.00031252365 -0.01796177 0.017628558 0.0057089175 0.012277399 -0.0008055876 -0.017279448 -0.0062502697
00000000: 0c33 09bc 5e2e 0f3c 4566 fa3a 46f8 21bb
00000010: f4fe 5fbb fcc5 273c 2784 b5bb c2f7 32bc
00000020: e683 323d eb4f a8bb a30b da3c 4d57 2b3c
00000030: 92ef 29bc 74a4 12bc fec4 8fbb 13dd 9ebb
00000040: 33d4 4cbc 23ac bb3c d9fa ccbb 7c02 b5bb
00000050: 9ddd f53c 9b1f d0ba 9553 59bc 09d9 b13b
00000060: 833e 03bd b466 b93c 0833 0ebb 7d60 06bc
00000070: 6d4a 78ba 020d 85bc d12b c93b 64f3 033c
00000080: 8df5 abba eddb 43bc 06ea 7d3b c2d4 5c3b
00000090: aff1 daba 8b00 83bc bc3c 493c 200e f03c
000000a0: 4ec7 8bbc ad87 353a 7247 923c 7f6d dc3c
000000b0: 4a42 163c 608e c83c e130 993b 53fd 203b
000000c0: 492f f03c b8bc d23c 507a d23b e8e6 9b3c
000000d0: 2481 92bc 6a64 74bb e3d9 66bb 7018 18bd
000000e0: 37da a3b9 9024 93bc c469 903c df11 bb3b
000000f0: 2527 493c 122e 53ba a18d 8dbc 10cf ccbb

net_stack.2.weight f4 [32, 64]
0.11005023 0.009836179 0.067336775 0.06474645 -0.0992794 -0.14480643 -0.11983371 -0.06163914
0.20707537 -0.07524814 0.054019954 -0.13497826 -0.20157239 0.024756616 0.046239153 0.035121635
-0.028614087 0.04284632 0.17339702 -0.062176738 -0.025750026 0.013483811 -0.15568915 -0.021927461
-0.052496452 -0.0026525701 0.24099922 0.010046323 -0.028484393 0.10161532 -0.097611286 -0.010058463
0.054838162 0.059344415 0.07904774 0.00608092 -0.03489858 0.045637496 0.07034325 -0.065976515
0.023521649 0.057265043 0.048868127 -0.09880967 -0.15320294 -0.011026105 -0.13405709 -0.14505042
-0.17881173 -0.04917676 -0.0025755046 0.032148376 -0.037611004 -0.106235854 -0.16830656 -0.012440101
0.028050026 0.08565393 0.11537836 0.028445749 0.07217232 -0.109612994 0.023492726 -0.17129949
0.02293225 -0.07777188 0.0718117 0.009426536 0.084351346 0.00072418206 -0.10574343 0.12041981
-0.023563446 0.005182704 -0.14246294 -0.008558671 -0.09082977 0.11435 0.07073075 0.09744852
-0.017715484 0.11305833 -0.10167999 -0.093458235 -0.043156788 -0.117893465 -0.030666629 -0.08511559
-0.0955593 -0.07038564 0.12965633 0.13325065 0.083477154 -0.07958454 -0.091949396 0.14729895
0.055543397 0.032749243 -0.028745247 -0.003559748 -0.0013854875 -0.07482686 0.090668626 -0.16132088
0.09229742 0.08289535 -0.070194 0.06492021 -0.05989476 -0.18618262 -0.19322936 -0.05654365
0.16227415 -0.13810322 0.13563994 -0.106068075 0.08078296 -0.10611619 -0.12783735 0.009396916
0.008821505 0.12169035 0.05248642 0.081539154 0.016449157 0.034526106 0.06346086 -0.12591329
0.037965417 -0.2098381 -0.0095160855 0.026141258 0.04194771 0.027461514 -0.13229401 0.07662182
0.005221134 0.018704498 0.01509982 -0.12439622 -0.008432254 0.02903141 0.17156807 -0.067696705
-0.029483104 0.015389649 -0.10385535 0.0327236 0.11760997 -0.05594005 0.11964778 -0.04163059
-0.079505846 0.09747607 -0.018206326 0.2025014 0.15347122 -0.103921674 0.09594344 -0.0019527725
0.034157827 -0.02062087 -0.056666344 -0.015142365 0.07469364 -0.024631932 0.03992353 0.0016974006
-0.13542165 0.018111749 0.01562892 -0.054428138 -0.021346128 -0.13255942 0.004628276 -0.09277431
-0.06875179 0.09630086 0.019363722 0.031708043 -0.024705047 -0.14962794 -0.0024284874 0.05733804
-0.10650573 0.10377634 0.04247464 -0.0025512844 -0.017848885 0.10873361 0.011306454 0.09000187
-0.1338004 0.116431504 -0.093129046 0.09495054 -0.08737554 -0.109250806 -0.07167506 0.13351458
0.008402106 0.09682151 -0.08804693 0.063330844 -0.07784514 0.094595395 0.00015000619 -0.06016426
0.00016147408 0.03250419 0.09255867 0.13481441 -0.08761146 0.020961018 0.004948623 0.0689168
-0.0018650925 -0.16960871 0.16824728 0.16017638 0.060112704 -0.024836663 0.11872164 0.0062631704
-0.03946386 0.08771076 -0.2015274 0.01094277 0.08722474 0.06314609 -0.076341696 -0.05509588
-0.066328414 -0.0121614495 0.13107125 -0.075711295 -0.14555767 -0.02619038 -0.053069063 -0.00679487
-0.008546645 -0.02584382 0.010019889 0.020929182 0.13923615 -0.09350543 -0.06586433 -0.20019299
-0.0807146 -0.13370489 -0.05721297 0.06647574 0.008482327 -0.087399535 -0.0041222475 -0.05159643
00000000: 0462 e13d ed27 213c dde7 893d c999 843d
00000010: 0053 cbbd 2348 14be 606b f5bd 5379 7cbd
00000020: 910b 543e b21b 9abd 0744 5d3d be37 0abe
00000030: fe68 4ebe 63ce ca3c 4465 3d3d b4db 0f3d
00000040: 1768 eabc 9f7f 2f3d fd8e 313e 09ad 7ebd
00000050: b8f1 d2bc 34eb 5c3c fa6c 1fbe 38a1 b3bc
00000060: 8506 57bd bed6 2dbb 80c8 763e 5599 243c
00000070: 1a58 e9bc b11b d03d 6de8 c7bd 40cc 24bc
00000080: fb9d 603d 2113 733d c8e3 a13d 7442 c73b
00000090: d0f1 0ebd 62ee 3a3d 1f10 903d b21e 87bd
000000a0: 79b0 c03c c08e 6a3d f229 483d b95c cabd
000000b0: 3be1 1cbe d6a6 34bc 4346 09be 1988 14be
000000c0: 6c1a 37be 926d 49bd ccc9 28bb 04ae 033d
000000d0: ff0d 1abd 2f92 d9bd 8e58 2cbe 91d1 4bbc
000000e0: 2bc9 e53c 546b af3d 7d4b ec3d 0f07 e93c
000000f0: 15cf 933d c77c e0bd d173 c03c 2269 2fbe
00000100: 6adc bb3c dd46 9fbd 0312 933d c271 1a3c
00000110: 66c0 ac3d 09d7 3d3a 0390 d8bd a99e f63d
00000120: 2108 c1bc acd3 a93b cee1 11be ab39 0cbc
00000130: f504 babd 5530 ea3d 49db 903d 1793 c73d
00000140: 1020 91bc 208b e73d 993d d0bd 0867 bfbd
00000150: 2cc5 30bd 2172 f1bd 9538 fbbc 1551 aebd
00000160: 98b4 c3bd 5926 90bd a1c4 043e dc72 083e
00000170: 12f6 aa3d 38fd a2bd f74f bcbd 89d5 163e
00000180: 7981 633d 1224 063d 277b ebbc a94a 69bb
00000190: 3f99 b5ba d33e 99bd 79b0 b93d 4d31 25be
000001a0: 6e06 bd3d 0ac5 a93d dfc1 8fbd e3f4 843d
000001b0: 3554 75bd a8a6 3ebe ebdd 45be 509a 67bd
000001c0: 322b 263e ee6a 0dbe 32e5 0a3e 383a d9bd
000001d0: 8971 a53d 7253 d9bd cbe7 02be 86f5 193c
000001e0: 1388 103c ca38 f93d 00fc 563d 00fe a63d
000001f0: 62c0 863c 3f6b 0d3d c4f7 813d 6aef 00be
00000200: a081 1b3d cddf 56be 5be9 1bbc 3126 d63c
00000210: 5dd1 2b3d f8f6 e03c 1578 07be e7eb 9c3d
00000220: 0c16 ab3b 2d3a 993c 3c65 773c 72c3 febd
00000230: 7027 0abc 48d3 ed3c 8aaf 2f3e 92a4 8abd
00000240: 8d86 f1bc de24 7c3c 1db2 d4bd 2e09 063d
00000250: 7fdd f03d 6521 65bd e509 f53d d684 2abd
00000260: f6d3 a2bd 89a1 c73d 6f25 95bc 875c 4f3e
00000270: 8f27 1d3e e3d4 d4bd ff7d c43d 2cf4 ffba
00000280: 14e9 0b3d 19ed a8bc f81a 68bd af17 78bc
00000290: fbf8 983d e8c8 c9bc db86 233d 507b de3a
000002a0: f9ab 0abe 175f 943c 3908 803c 0af0 5ebd
000002b0: 13de aebc a8bd 07be cba8 973b 7500 bebd
000002c0: bdcd 8cbd 6339 c53d aba0 9e3c 4be0 013d
000002d0: 3d62 cabc 1138 19be 4227 1fbb 4bdb 6a3d
000002e0: ad1f dabd b188 d43d e3f9 2d3d 7333 27bb
000002f0: d337 92bc baaf de3d b53e 393c e752 b83d
00000300: f902 09be a473 ee3d 71ba bebd 6e75 c23d
00000310: f2f1 b2bd e3be dfbd 60ca 92bd 0cb8 083e
00000320: fda8 093c 5b4a c63d f351 b4bd 9ab3 813d
00000330: 466d 9fbd 3bbb c13d fb4a 1d39 cd6e 76bd
00000340: 5e51 2939 1d23 053d 668f bd3d ca0c 0a3e
00000350: a36d b3bd 71b6 ab3c 0f28 a23b 4024 8d3d
00000360: 1f76 f4ba e8ad 2dbe 0449 2c3e 4705 243e
00000370: bd38 763d 4276 cbbc 5524 f33d 483b cd3b
00000380: dba4 21bd b3a1 b33d 335d 4ebe 4e49 333c
00000390: e2a2 b23d bd52 813d 0959 9cbd 38ac 61bd
000003a0: 31d7 87bd d140 47bc 8b37 063e 860e 9bbd
000003b0: 120d 15be 358d d6bc f25e 59bd 80a7 debb
000003c0: 3a07 0cbc 6bb6 d3bc 762a 243c ad73 ab3c
000003d0: ec93 0e3e c67f bfbd e1e3 86bd 64ff 4cbe
000003e0: b24d a5bd efe9 08be 2658 6abd 6f24 883d
000003f0: 75f9 0a3c 87fe b2bd eb13 87bb c756 53bd

net_stack.2.bias f4 [32]
-0.016955446 0.0044776187 0.013393529 -0.019431828 0.0073464974 0.048335854 0.0021193002 0.014382405
0.018503772 -0.037204552 -0.005509851 0.0015310134 0.0011953316 0.0057534096 0.018223159 0.020701783
-0.0076891067 -0.00422896 0.044461977 0.018401014 0.006943739 0.03345934 -0.012683669 0.0121657085
0.0077108317 0.026553843 0.012468844 -0.007484733 0.019507792 0.018564794 -0.014669029 0.004147422
00000000: 26e6 8abc fdb8 923b 8870 5b3c 7f2f 9fbc
00000010: e3ba f03b d1fb 453d f5e3 0a3b 2ea4 6b3c
00000020: 3995 973c cd63 18bd fb8b b4bb 49ac c83a
00000030: acac 9c3a 1987 bc3b bc48 953c c996 a93c
00000040: e7f4 fbbb 1693 8abb c31d 363d b9bd 963c
00000050: 4e88 e33b a90c 093d 2acf 4fbc ae52 473c
00000060: 25ab fc3b 7287 d93c 1f4a 4c3c 7e42 f5bb
00000070: cece 9f3c 3215 983c 5e56 70bc 19e7 873b

net_stack.4.weight f4 [32, 32]
0.016229285 -0.094912924 -0.17916511 0.097747944 -0.034162465 0.13242471 -0.05028545 -0.003153612
-0.0136437435 -0.12105884 -0.020539368 0.040062103 -0.00335279 0.01699538 -0.14046879 -0.16911304
-0.056782104 0.0006476049 0.016418554 -0.012628383 0.13366304 0.07144519 -0.1355861 -0.012157149
0.11242835 -0.06383626 0.040420275 -0.068160646 -0.07187038 0.03677594 -0.025219066 -0.21105254
0.07503575 -0.10234768 -0.1022387 0.022582388 -0.2524269 0.06064348 0.15184128 -0.13251875
0.067994155 0.12656307 -0.18007356 -0.03265197 -0.03749069 0.06556678 -0.09155186 0.06218252
0.07180176 0.045769002 0.18839924 -0.18059185 0.050151058 0.19299795 -0.033489045 -0.005478846
-0.008064151 -0.02902265 0.25877976 0.10919438 -0.04734116 0.07826823 -0.09902156 -0.18052772
0.13597931 0.2380416 0.05676888 -0.023166345 -0.1126324 -0.09246996 0.030733665 0.02508985
-0.13203156 -0.09766673 0.08153468 0.09551818 0.052613612 0.08785312 0.15018201 0.10208533
0.029543422 0.07473192 -0.08835995 -0.029923806 -0.04267437 -0.028473333 0.07626425 0.10089608
0.106204204 -0.06661917 -0.09567738 0.073499426 0.061385296 0.16691037 -0.13869473 -0.068683416
-0.031151192 -0.046769485 0.078164175 0.040296435 -0.051621377 -0.022008272 0.03718144 0.11069301
-0.05883588 -0.11932917 0.14045769 -0.11030353 0.019150143 0.09851482 -0.05235442 -0.0672911
0.09367873 -0.09372435 0.014686269 0.14512339 -0.15330845 -0.017182931 0.029758891 -0.0048994874
-0.08120145 -0.0095366 0.031596985 -0.022744091 0.12029161 0.025943479 -0.08573095 -0.051426694
0.024972098 -0.11241766 0.002977183 0.070016876 -0.03333175 0.05163741 -0.111961216 0.22380966
-0.057764616 -0.38385683 0.263387 -0.074116185 0.028037967 0.12252344 -0.097200684 -0.04497078
0.0048681195 0.15176745 0.06339479 -0.023857374 0.010422486 0.29677272 -0.04503773 -0.060652368
-0.042845048 -0.24396321 0.071122974 0.25008097 -0.067430735 -0.21843785 0.04580147 -0.059578538
0.025368089 -0.0008550801 0.0577493 0.011816211 -0.10502803 -0.15394762 -0.05761402 -0.20016117
-0.10447876 -0.08347106 -0.09195758 0.015067894 -0.12528953 -0.16011381 0.08829445 -0.02053836
-0.071282536 -0.089816324 -0.08153494 0.23519278 0.17193547 0.03180454 0.10979868 0.29733726
-0.14920285 0.028788013 -0.07421364 0.026695611 0.021592949 0.032772303 0.06332405 0.09110582
-0.029487226 -0.024183933 0.032275178 -0.07012534 -0.012051984 -0.12601975 0.056202527 -0.07670838
-0.044713162 -0.18917362 -0.07873177 0.001788284 -0.21297319 -0.01310573 0.02666666 -0.12808853
0.06978944 0.15517272 0.019734548 -0.058996614 0.0010407757 0.032161415 -0.28221413 0.034174398
-0.018530006 -0.09740518 0.04945008 -0.11494979 0.020028394 -0.17782028 -0.058346264 -0.041293006
-0.009595648 0.021383282 -0.008396547 0.003272908 0.086829625 -0.006670784 -0.060143832 0.082755715
-0.10865281 -0.110362306 0.035839185 0.0838365 0.14515339 0.06945456 0.08209091 0.15658891
-0.06774923 0.081892684 0.004495373 0.08078245 0.03483239 -0.08108082 0.08335547 -0.03191153
-0.08054273 -0.027276905 -0.11575132 -0.010499738 0.092777945 0.20578676 0.07767259 -0.043534588
00000000: 47f3 843c b561 c2bd 0f77 37be 1330 c83d
00000010: f1ed 0bbd 589a 073e 1ef8 4dbd d4ac 4ebb
00000020: 028a 5fbc b2ed f7bd 2d42 a8bc 2918 243d
00000030: 7bba 5bbb e539 8b3c 0dd7 0fbe f82b 2dbe
00000040: 5a94 68bd 07c4 293a 3480 863c 47e7 4ebc
00000050: f7de 083e db51 923d 15d7 0abe c72e 47bc
00000060: d640 e63d 96bc 82bd bb8f 253d cf97 8bbd
00000070: c730 93bd 5ea2 163d 3798 cebc 281e 58be
00000080: 58ac 993d a99b d1bd 8662 d1bd b3fe b83c
00000090: 193e 81be 4c65 783d 487c 1b3e ffb2 07be
000000a0: 8540 8b3d c099 013e 3465 38be 12be 05bd
000000b0: d68f 19bd e047 863d 8b7f bbbd 19b3 7e3d
000000c0: cd0c 933d 4778 3b3d bbeb 403e 12ed 38be
000000d0: 326b 4d3d 41a1 453e cf2b 09bd e487 b3bb
000000e0: 801f 04bc e9c0 edbc c87e 843e 4ea1 df3d
000000f0: cee8 41bd 184b a03d d1cb cabd 42dc 38be
00000100: 293e 0b3e 2dc1 733e 7c86 683d 59c7 bdbc
00000110: d1ab e6bd e460 bdbd 2bc5 fb3c 3b89 cd3c
00000120: 4833 07be 7f05 c8bd a8fb a63d 099f c33d
00000130: 5f81 573d 56ec b33d 50c9 193e 1d12 d13d
00000140: 0c05 f23c 0d0d 993d 10f6 b4bd c522 f5bc
00000150: 52cb 2ebd e840 e9bc 6e30 9c3d 9ba2 ce3d
00000160: 9781 d93d a26f 88bd 81f2 c3bd de86 963d
00000170: 266f 7b3d 8dea 2a3e fe05 0ebe e4a9 8cbd
00000180: c930 ffbc 5c91 3fbd 8a14 a03d e00d 253d
00000190: f070 53bd b14a b4bc 914b 183d 04b3 e23d
000001a0: e4fd 70bd da62 f4bd 24d4 0f3e d1e6 e1bd
000001b0: c3e0 9c3c 23c2 c93d 9771 56bd ebcf 89bd
000001c0: a2da bf3d 8df2 bfbd ad9e 703c 3a9b 143e
000001d0: e4fc 1cbe 38c3 8cbc ebc8 f33c e18b a0bb
000001e0: f24c a6bd 663f 1cbc d76b 013d d151 babc
000001f0: 735b f63d 6b87 d43c b593 afbd cca4 52bd
00000200: 4992 cc3c 3b3b e6bd d81c 433b 0265 8f3d
00000210: e086 08bd c081 533d ec4b e5bd 5c2e 653e
00000220: 979a 6cbd e288 c4be a9da 863e 3aca 97bd
00000230: e1af e53c 92ed fa3d 2711 c7bd 4833 38bd
00000240: bf84 9f3b ed68 1b3e 21d5 813d 8a70 c3bc
00000250: 13c3 2a3c 98f2 973e 7c79 38bd 9e6e 78bd
00000260: 4a7e 2fbd 7ed1 79be eca8 913d 9d0a 803e
00000270: 2019 8abd 2cae 5fbe 529a 3b3d a008 74bd
00000280: bdd0 cf3c 7427 60ba 888a 6c3d c898 413c
00000290: f018 d7bd 72a4 1dbe aefc 6bbd 0df7 4cbe
000002a0: f6f8 d5bd e0f2 aabd 4154 bcbd 54df 763c
000002b0: e64b 00be e0f4 23be b8d3 b43d 1040 a8bc
000002c0: 94fc 91bd 9ff1 b7bd cafb a6bd 60d6 703e
000002d0: da0f 303e 7a45 023d 21de e03d 973c 983e
000002e0: a2c8 18be d7d4 eb3c 52fd 97bd c1b0 da3c
000002f0: b2e3 b03c 403c 063d 0ab0 813d b095 ba3d
00000300: 328f f1bc 621d c6bc fa32 043d e09d 8fbd
00000310: af75 45bc 520b 01be 9f34 663d 4819 9dbd
00000320: 2625 37bd bbb6 41be 1f3e a1bd db64 ea3a
00000330: a515 5abe 6ab9 56bc 0a74 da3c a429 03be
00000340: c4ed 8e3d 99e5 1e3e 59aa a13c 6fa6 71bd
00000350: a36a 883a b0bb 033d 5f7e 90be 74fa 0b3d
00000360: 3dcc 97bc 5e7c c7bd 2b8c 4a3d cc6a ebbd
00000370: 9612 a43c 8516 36be 7efc 6ebd db22 29bd
00000380: 1137 1dbc fe2b af3c ac91 09bc 497e 563b
00000390: bbd3 b13d 9896 dabb 6159 76bd d47b a93d
000003a0: 5d85 debd a205 e2bd 1ccc 123d 79b2 ab3d
000003b0: 17a3 143e 313e 8e3d 471f a83d d858 203e
000003c0: 1cc0 8abd 5ab7 a73d ec4d 933b 4571 a53d
000003d0: 68ac 0e3d b30d a6bd 46b6 aa3d aab5 02bd
000003e0: 96f3 a4bd d173 dfbc 070f edbd 1807 2cbc
000003f0: 5d02 be3d c4b9 523e cf12 9f3d 5351 32bd

net_stack.4.bias f4 [32]
-0.023870813 -0.020038145 0.0054937745 0.012104948 0.00083987915 0.0056726863 -0.012556725 0.017948935
0.00052235887 0.00945729 0.01387387 -0.0032902756 -0.00046391846 0.020147778 0.022690376 -0.020157538
0.0002875805 -0.012982778 -0.018028513 -0.008816347 -0.02510043 -0.020191854 0.0169739 0.004009985
0.022362787 -0.007295235 0.0066924915 -0.02156475 0.009414564 -0.011157432 0.019694297 0.0040373886
00000000: b98c c3bc 0927 a4bc 1f05 b43b d553 463c
00000010: 562b 5c3a f1e1 b93b b9ba 4dbc a509 933c
00000020: e9ee 083a c0f2 1a3c 3a4f 633c aaa1 57bb
00000030: 153a f3b9 f40c a53c 2be1 b93c 6c21 a5bc
00000040: 67c6 9639 b8b5 54bc 88b0 93bc 7172 10bc
00000050: 6b9f cdbc 6369 a5bc d90c 8b3c 3166 833b
00000060: 2a32 b73c de0c efbb b04c db3b 8fa8 b0bc
00000070: 8b3f 1a3c a9cd 36bc ef55 a13c 124c 843b

net_stack.6.weight f4 [1, 32]
-0.06603962 -0.17685643 0.0981959 0.012045728 -0.16178514 0.29078707 -0.11935486 0.09001649
-0.12624232 0.19108672 0.058754615 0.049894843 -0.19879714 0.16871111 0.10995741 -0.13409574
-0.08425103 -0.19274661 -0.090431534 -0.097276494 0.00014870569 -0.047270577 0.06640119 0.1818044
0.12599437 -0.07806402 -0.14721948 -0.071656 0.053425916 -0.17925161 -0.053755563 0.09710685
00000000: c83f 87bd da19 35be ef1a c93d 725b 453c
00000010: 01ab 25be 0be2 943e 5270 f4bd 915a b83d
00000020: ab45 01be 3dac 433e aea8 703d 895e 4c3d
00000030: 7a91 4bbe 9bc2 2c3e 5a31 e13d 6550 09be
00000040: ce8b acbd 5e5f 45be 2b34 b9bd e638 c7bd
00000050: e1ed 1b39 cb9e 41bd 59fd 873d ef2a 3a3e
00000060: ab04 013e 07e0 9fbd b4c0 16be 62c0 92bd
00000070: 22d5 5a3d bc8d 37be cb2e 5cbd f5df c63d
